seed-AuNP-phasemaps/pretraining/tune/128_8_16_9.72E-03_2/model.pt (torch, 94048 bytes, 20 tensors)

xy_to_r.input_to_hidden.0.weight f4 [16, 2]
0	0x3e0dc8e0	0.13846159
1	0xbf0e5f43	-0.5561411
2	0xbf973e9a	-1.181598
3	0xbea9c10e	-0.33155102
4	0xbbbb0e0c	-0.0057084616
5	0xbb87f25a	-0.0041487636
6	0x3f24fbdd	0.6444681
7	0xbf06e5b4	-0.5269425
8	0xbf46f335	-0.77714854
9	0xbc06fb7f	-0.008238672
10	0xbdef6d53	-0.11690774
11	0x3daecb44	0.085348636
12	0xbf48a1f5	-0.78372127
13	0x3e1054cc	0.14094847
14	0xbf7e79c6	-0.9940456
15	0xbf81bcaa	-1.0135701
16	0xbd09adc5	-0.033612985
17	0xbf5a397a	-0.8524395
18	0xbe070fbd	-0.13189597
19	0x3e35bb9e	0.17747352
20	0xbc195db3	-0.009360719
21	0x3dd0ac79	0.101891465
22	0xbf207f6f	-0.6269445
23	0xbe52de52	-0.20592621
24	0xbeb50159	-0.3535259
25	0xbf1046dd	-0.5635813
26	0xbee62e75	-0.4495732
27	0xbf956589	-1.1671611
28	0xbf2474ed	-0.64240915
29	0xbf31b288	-0.6941304
30	0x3caa35dd	0.020777637
31	0xbf34ba72	-0.7059699

xy_to_r.input_to_hidden.0.bias f4 [16]
0	0xbe1fce49	-0.15606035
1	0xbd8e1ca4	-0.069390565
2	0x3eac1f7f	0.3361778
3	0xbf34962d	-0.7054165
4	0xbf6667ec	-0.9000232
5	0xbf3f565f	-0.74741167
6	0xbf0be004	-0.54638696
7	0xbd98868c	-0.07447538
8	0xbe3a8c0e	-0.18217489
9	0xbf86a35b	-1.0518602
10	0xbf297856	-0.66199243
11	0xbe895721	-0.26824287
12	0xbe72a149	-0.23694338
13	0x3d03d882	0.0321889
14	0xbd3f425f	-0.046694156
15	0xbc08e108	-0.008354433

xy_to_r.input_to_hidden.2.weight f4 [16, 16]
0	0xbeb355e6	-0.35026473
1	0xbee41215	-0.44545045
2	0xbe98e404	-0.29861462
3	0x3e3fad88	0.1871854
4	0xbe5c22f9	-0.21497716
5	0x3d8da6c1	0.069165714
6	0xbe8e76f5	-0.27825132
7	0x3e37402f	0.17895578
8	0xbe91c1a6	-0.28468055
9	0xbe070a77	-0.13187586
10	0x3e293c64	0.16526943
11	0x3e2990fc	0.16559213
12	0xbe8e3d2c	-0.27781045
13	0xbd1bcfff	-0.038040157
14	0xbe22bed8	-0.15893114
15	0xbd0df8d0	-0.034661114
16	0xbf06829f	-0.5254306
17	0xbe16451c	-0.146748
18	0xbd604700	-0.05475521
19	0xbe5e33c2	-0.21699432
20	0xbec5392e	-0.38520187
21	0xbc89e490	-0.01683262
22	0x3ccf6d28	0.025320604
23	0xbdb3f2b2	-0.08786525
24	0xbed2d21a	-0.4117592
25	0xbe79e997	-0.24405514
26	0x3e361626	0.17781886
27	0x3cf9e980	0.03050685
28	0xbe0abc20	-0.13548326
29	0xbf06a7f9	-0.52600056
30	0x3ddbfb5c	0.10741302
31	0xbdc18324	-0.09448841
32	0x3d479997	0.04873046
33	0xbe2d0c47	-0.16899215
34	0xbf2700ab	-0.65235394
35	0xbd92160c	-0.07133111
36	0xbe8c8548	-0.27445436
37	0xbd91b746	-0.07115035
38	0xbe31a36f	-0.17347501
39	0x3e2be2b9	0.16785707
40	0xbc7e6e56	-0.015529236
41	0xbf0a74c7	-0.5408444
42	0xbd35328b	-0.044237655
43	0x3d5fa8b0	0.054604232
44	0xbd946068	-0.072449505
45	0x3e0b29bd	0.1359014
46	0x3dfbba40	0.12291384
47	0xbe725b52	-0.23667648
48	0xbe4570da	-0.1928133
49	0xbd354618	-0.0442563
50	0xbedf3754	-0.435969
51	0xbe1f09e6	-0.1553112
52	0xbee1b36f	-0.4408221
53	0x3ec30367	0.38088533
54	0xbe449b10	-0.19199777
55	0xbebc78e3	-0.3681098
56	0xbe12bf7d	-0.1433086
57	0xbe40bcee	-0.18822071
58	0xbe80a144	-0.25123036
59	0x3e4c92ca	0.1997787
60	0xbdcbd5df	-0.09952902
61	0xbe25a33e	-0.16175553
62	0xbe438ce6	-0.19096717
63	0xbdab0d74	-0.08352175
64	0xbe324e06	-0.17412576
65	0xbf1a4de5	-0.6027511
66	0xbe70574e	-0.23470804
67	0xbe4ba7a8	-0.19888175
68	0x3c6a399d	0.014295963
69	0xbe0c107a	-0.1367816
70	0xbe18a20c	-0.14905566
71	0xbe5b5ce9	-0.21422161
72	0xbe3a3358	-0.18183649
73	0xbebb1a55	-0.36543527
74	0xbe0a0a9d	-0.13480611
75	0xbe0e914c	-0.13922614
76	0xbf056820	-0.5211201
77	0xbef644dd	-0.48099414
78	0xbdc2f3c8	-0.09519154
79	0x3e4a7f6e	0.19775173
80	0x3dfd8dd8	0.1238057
81	0x3e023f55	0.12719472
82	0xbe920d41	-0.28525737
83	0xbe512dfc	-0.20427698
84	0x3dd13b82	0.10216428
85	0x3d0060be	0.03134226
86	0xbe5a5b06	-0.21323785
87	0x3e0fe40c	0.14051837
88	0xbe8b009c	-0.27148902
89	0x3d536201	0.051607136
90	0xbcbe3610	-0.023219138
91	0x3cd1f970	0.025631636
92	0xbdc7067a	-0.09718032
93	0x3d689380	0.056781292
94	0x3e7430a2	0.23846677
95	0xbe779838	-0.2417916
96	0xbe40b86a	-0.18820348
97	0xbdcfcad1	-0.10146106
98	0xbf10394a	-0.56337416
99	0xbdb4ec1c	-0.08834097
100	0x3d812352	0.06305565
101	0xbe95d828	-0.29266477
102	0xbe11a680	-0.14223671
103	0xbdbc28c3	-0.09187462
104	0xbe20cffb	-0.15704338
105	0xbf07f4a9	-0.53107697
106	0xbe5ccb3b	-0.21561901
107	0xbdce154c	-0.10062656
108	0x3b266b6e	0.0025393623
109	0x3b578130	0.0032883398
110	0xbe16362e	-0.14669105
111	0x3daadabc	0.083425015
112	0xbcc01130	-0.023445696
113	0xbe46d564	-0.1941734
114	0xbd9a2895	-0.07527272
115	0x3e1d1698	0.1534065
116	0xbe3514bd	-0.17683692
117	0x3e1645e0	0.14675093
118	0x3d619978	0.055078
119	0x3d853388	0.065039694
120	0x3e2c2460	0.16810751
121	0xbeeb2194	-0.45924056
122	0xbe3f8878	-0.18704402
123	0xbd7f8238	-0.062380046
124	0xbe713fba	-0.23559466
125	0xbe0be34c	-0.13660926
126	0xbe656442	-0.22401527
127	0x3e0e8b24	0.13920265
128	0x3d6136d5	0.054983933
129	0xbeec4565	-0.46146694
130	0xbeddd8d1	-0.4332948
131	0x3e3998f4	0.18124753
132	0x3ec5307d	0.38513556
133	0x3da20585	0.07911209
134	0xbddd8e64	-0.108181745
135	0x3dcbd213	0.09952178
136	0x3c59085c	0.013246622
137	0xbf2dd9a2	-0.67910206
138	0x3d81f11d	0.06344817
139	0x3db2210c	0.086977094
140	0xbde081c0	-0.10962248
141	0xbdc6b946	-0.09703307
142	0xbaf9e800	-0.0019066334
143	0x3dc0a990	0.094073415
144	0xbe7ed679	-0.24886502
145	0x3de69e77	0.112606935
146	0x3d95d3dd	0.073158
147	0x3df33c84	0.11876777
148	0xbeb52435	-0.35379186
149	0x3c004f26	0.00783137
150	0xbd23aa5c	-0.03995739
151	0xbe23f6de	-0.16012141
152	0xbccb5cb3	-0.024824476
153	0xbe0335dd	-0.12813516
154	0xbea35161	-0.31898025
155	0x3e2f3ddc	0.17113441
156	0x3dd63f24	0.10461262
157	0xbe1528fe	-0.14566419
158	0x3e436054	0.19079715
159	0xbcdc7060	-0.026909053
160	0xbef2c77c	-0.4741782
161	0xbe74f3b2	-0.23921087
162	0xbe5175e5	-0.2045513
163	0xbe355230	-0.17707133
164	0xbf006905	-0.5016025
165	0xbee364d5	-0.44412866
166	0xbd5cf3d1	-0.05394346
167	0x3ed65a69	0.41865852
168	0xbe964571	-0.29349855
169	0xbef9e0ef	-0.48804423
170	0x3dd928b5	0.106034674
171	0x3d989358	0.074499786
172	0xbecb415b	-0.396983
173	0xbf18d1df	-0.5969524
174	0x3c4146e0	0.011796683
175	0x3dba80a8	0.091065705
176	0xbe48d998	-0.19614255
177	0x3e075abc	0.13218206
178	0x3c780f21	0.015140326
179	0x3d487cd8	0.048947185
180	0xbe2c40e9	-0.16821636
181	0xbeaddd0e	-0.33957714
182	0xbddb7fd3	-0.1071774
183	0xbe6f9245	-0.23395641
184	0xbe7afd1a	-0.24510613
185	0xbca32af3	-0.01991794
186	0xbc32f409	-0.01092244
187	0x3d9ea248	0.077457964
188	0xbc0ca10b	-0.0085833175
189	0xbe15819f	-0.14600228
190	0x3e537d44	0.20653254
191	0x3d844a24	0.06459454
192	0xbce328b0	-0.027729362
193	0xbe97debf	-0.2966213
194	0xbecf6bed	-0.40512028
195	0xbe75f7b6	-0.24020275
196	0xbd6a1bae	-0.057155304
197	0xbd8f60c3	-0.07000878
198	0x3d957c67	0.072991185
199	0xbe09c0fe	-0.13452527
200	0xbe568007	-0.20947276
201	0xbf105762	-0.56383336
202	0xbe610994	-0.2197631
203	0x3e629f30	0.22131038
204	0xbf01054c	-0.5039871
205	0xbe505904	-0.20346457
206	0xbd8524e4	-0.06501177
207	0x3df1d344	0.11807874
208	0x3cec8e16	0.028876346
209	0xbdfc4839	-0.12318463
210	0x3a35011e	0.00069047685
211	0xbdd6ed94	-0.10494533
212	0xbd834981	-0.06410504
213	0xbc7f6506	-0.015588051
214	0xbe1c1b31	-0.15244748
215	0xbdb3e2b4	-0.087834746
216	0x3e3d7fac	0.18505734
217	0x3e22bfcb	0.15893476
218	0xba4fe299	-0.0007930189
219	0xbd398de0	-0.04530132
220	0x3de2cb48	0.11073929
221	0xbe1c1692	-0.15242985
222	0xbe34f674	-0.1767214
223	0xbe3dfb14	-0.1855281
224	0x3e0cf560	0.13765478
225	0x3e64e54d	0.22353096
226	0xbe6baff7	-0.23016344
227	0xbd8291f8	-0.063754976
228	0x3c090ccd	0.008364868
229	0xbe295766	-0.16537246
230	0xbd1f34ce	-0.038868718
231	0xbd8ff218	-0.070285976
232	0x3df6e709	0.12055785
233	0xbc405886	-0.011739856
234	0xbe360674	-0.17775899
235	0x3cee4e40	0.029090047
236	0x3d57c459	0.052677486
237	0xbc4accbb	-0.012377913
238	0x3e7a4f6e	0.24444363
239	0x3e03117e	0.12799641
240	0xbe136ad7	-0.14396225
241	0x3f17d1af	0.59304327
242	0xbeb1e600	-0.3474579
243	0x3e5efa6e	0.21775219
244	0xbf106af4	-0.564132
245	0x3d7440da	0.05963216
246	0xbd926087	-0.071473174
247	0x3db33c3f	0.087517254
248	0xbeba8b29	-0.36434296
249	0xbedf5f64	-0.43627465
250	0x3d5c220b	0.053743403
251	0x3da7f440	0.08200884
252	0xbc09c268	-0.0084081665
253	0xbeb07043	-0.3446065
254	0xbe2e6982	-0.17032436
255	0x3c4ec160	0.012619346

xy_to_r.input_to_hidden.2.bias f4 [16]
0	0xbd91f6ca	-0.071271494
1	0xbed75bdd	-0.42062274
2	0xbe92224a	-0.28541785
3	0xbe2cee22	-0.16887715
4	0xbe968727	-0.29399988
5	0xbee75a56	-0.45186108
6	0xbe92091a	-0.2852257
7	0xbf083622	-0.532076
8	0xbe8d6120	-0.27613163
9	0xbdf3503c	-0.11880538
10	0xbe96c0af	-0.2944388
11	0xbdb4a83d	-0.088211514
12	0xbe304638	-0.17214286
13	0x3eb30a5d	0.34968844
14	0xbd8cd4e3	-0.068765424
15	0xbe38e3fd	-0.1805572

xy_to_r.input_to_hidden.4.weight f4 [128, 16]
0	0x3e50d57d	0.2039394
1	0xbc3f4fff	-0.011676787
2	0xbe72016f	-0.2363336
3	0xbe1d2d61	-0.15349342
4	0xbdb9cb6d	-0.090720035
5	0xbe79e431	-0.24403454
6	0xbe19ecd0	-0.15031743
7	0xbedfc310	-0.43703508
8	0x3e963f25	0.2934505
9	0x3e1772ef	0.14789937
10	0x3ed6cc3b	0.4195269
11	0xbe2a466e	-0.1662843
12	0xbe0d9dd1	-0.13829733
13	0xbdc64267	-0.09680634
14	0x3dd6c3d1	0.10486568
15	0xbef6b6a1	-0.4818621
16	0x3de4f7d0	0.11180079
17	0xbef2a33a	-0.47390157
18	0x3e1c5ce9	0.15269817
19	0x3e2efd80	0.1708889
20	0x3e8cc645	0.27495018
21	0x3dcf553d	0.1012368
22	0x3ecc6626	0.39921683
23	0xbf097d09	-0.53706414
24	0xbeb33674	-0.35002482
25	0xbbc66ba7	-0.0060553136
26	0xbcfd2cda	-0.030905176
27	0xbd6646ac	-0.05621974
28	0xbc87f2a6	-0.016595196
29	0xbe201176	-0.15631661
30	0xbe5d1555	-0.21590169
31	0xbeba4f74	-0.36388743
32	0xbecfff23	-0.4062434
33	0x3cb918c6	0.02259482
34	0x3dd50eff	0.10403251
35	0x3e32bd39	0.17454995
36	0x3c3b80b6	0.011444261
37	0xbe262cac	-0.16227978
38	0x3e0e01bf	0.13867854
39	0xbe9df463	-0.30850515
40	0xbeb0cc58	-0.34530902
41	0xbddc7441	-0.10764361
42	0x3f03dac2	0.5150567
43	0x3db158f6	0.08659546
44	0x3e52e48e	0.20594999
45	0xbf3a7dac	-0.7284801
46	0x3d64ddb8	0.05587551
47	0x3d394882	0.045235164
48	0x3edf7d8b	0.4365047
49	0xbe6f6add	-0.23380609
50	0xbd45efdf	-0.048324462
51	0xbec61121	-0.38684943
52	0xbe2620fc	-0.1622352
53	0x3d87c042	0.06628467
54	0xbdd2f98c	-0.103015035
55	0x3f05a43b	0.5220372
56	0x3ee269ef	0.44221446
57	0x3e6754d6	0.22590956
58	0x3f09dccc	0.53852534
59	0xbcb7a9f6	-0.02241991
60	0xbe269ed5	-0.16271527
61	0xbe8ea14c	-0.27857435
62	0xbd811583	-0.06302931
63	0xbe815528	-0.25260282
64	0x3ee87f5b	0.45409665
65	0xbe875c27	-0.26437494
66	0xbd5a81d5	-0.053346474
67	0xbe9fc96f	-0.3120837
68	0xbe52e91e	-0.2059674
69	0xbe071cc2	-0.13194564
70	0x3ed0e8d9	0.4080265
71	0x3ea44f0e	0.32091564
72	0xbe8cd377	-0.27505085
73	0x3d37d5c1	0.044881586
74	0x3ef3ffc4	0.4765607
75	0xbe406e83	-0.18792157
76	0xbea9c505	-0.33158126
77	0xbce7e6c6	-0.028308284
78	0xbd972fae	-0.07382141
79	0xbd55da55	-0.05221017
80	0x3e9dcbdb	0.30819592
81	0x3d24199b	0.04006348
82	0x3f04bdbf	0.5185203
83	0xbcb0fd07	-0.021605028
84	0xbe1882f0	-0.14893699
85	0x3d4d3776	0.05010172
86	0x3dd70526	0.10499029
87	0xbeaf092a	-0.3418668
88	0xbe14e49f	-0.14540337
89	0xbe23bb53	-0.15989427
90	0xbe847769	-0.25872353
91	0x3e2db374	0.16962987
92	0x3c0b15ba	0.008489067
93	0x3ee6035d	0.4492444
94	0x3e0e9113	0.13922529
95	0x3e0eee39	0.13958062
96	0x3e362170	0.17786193
97	0xbc223883	-0.009901169
98	0xbe084e2c	-0.1331107
99	0x3c7b8ce1	0.015353412
100	0xbe198f6b	-0.14996116
101	0x3ec59d7a	0.38596708
102	0xbd519d42	-0.051175363
103	0xbe45c6fa	-0.19314185
104	0x3f168ac2	0.5880548
105	0xbe6806fb	-0.22658913
106	0xbf355ad2	-0.70841706
107	0xbdc41d81	-0.0957594
108	0x3ef66329	0.48122528
109	0xbd96035f	-0.07324862
110	0x3d2b7953	0.04186375
111	0x3e78a14f	0.24280284
112	0x3df43424	0.119240075
113	0xbd83a4f2	-0.06427945
114	0x3de7993c	0.11308524
115	0xbe371c5b	-0.1788191
116	0xbde0d2a0	-0.109776735
117	0x3e77a2f6	0.24183258
118	0xbe38a0e0	-0.18030119
119	0xbed5f01c	-0.4178475
120	0x3eb948a2	0.36188227
121	0xbd2ea625	-0.042638917
122	0x3e50da15	0.20395692
123	0x3e0fe759	0.14053096
124	0xbec44b86	-0.3833887
125	0xbe3cc2d2	-0.18433693
126	0xbe30e53f	-0.1727495
127	0xbeef9ff6	-0.46801728
128	0xbe9b37a0	-0.30315876
129	0xbea0aab5	-0.3138024
130	0xbe58fe55	-0.2119077
131	0x3e9a4f41	0.3013859
132	0x3e48e6b5	0.19619258
133	0xbd9dad6e	-0.07699095
134	0x3dbf00b7	0.09326308
135	0x3e8275f0	0.25480604
136	0x3e9a41e3	0.30128393
137	0xbe2c527f	-0.16828345
138	0x3edb400c	0.428223
139	0x3e081ab5	0.13291438
140	0x3ef5b311	0.4798818
141	0x3e9c6f7b	0.30553803
142	0x3dfa02e2	0.12207581
143	0xbd1e339b	-0.038623434
144	0x3e18ad2e	0.14909813
145	0xbd0843ed	-0.033267904
146	0xbe3c2d49	-0.1837665
147	0xbdb691a1	-0.08914495
148	0xbe153cda	-0.14573994
149	0xbe3e9f12	-0.18615368
150	0x3f0568a9	0.52112824
151	0xbe278661	-0.16359855
152	0xbebd1326	-0.36928672
153	0xbe101953	-0.1407216
154	0xbe9e8c92	-0.30966622
155	0x3db4e70d	0.08833132
156	0xbe9f9a9b	-0.31172642
157	0xbdbcd140	-0.09219599
158	0x3dbf666c	0.09345707
159	0xbe679852	-0.226167
160	0x3f01a900	0.506485
161	0x3e720eed	0.23638506
162	0x3ddaf25d	0.106907584
163	0xbe7e199b	-0.24814455
164	0xbea4a342	-0.32155806
165	0xbe197b3b	-0.14988415
166	0xbef4afe2	-0.47790438
167	0x3e107d92	0.14110401
168	0xbd928e2d	-0.07156024
169	0x3e162e80	0.14666176
170	0x3e73a6f7	0.23794161
171	0xbe79a002	-0.24377444
172	0xbea48155	-0.32129923
173	0xbdae9145	-0.08523802
174	0xbe46cc92	-0.19413975
175	0x3d5d4421	0.05402005
176	0xbd610ad0	-0.054941952
177	0xbe886c84	-0.2664529
178	0x3ea72740	0.32647133
179	0xbed50ca5	-0.4161121
180	0xbe49ba0a	-0.19699875
181	0x3d26b3d2	0.040698834
182	0xbe87e207	-0.26539633
183	0x3cfedbb5	0.031110624
184	0x3e69635a	0.22791806
185	0x3e1d2137	0.15344702
186	0x3ddafd77	0.10692876
187	0x3e239f18	0.15978658
188	0x3ef26979	0.47346094
189	0xbe9267b0	-0.28594732
190	0x3e08f0b4	0.13373071
191	0xbde8e49c	-0.11371729
192	0x3e851e1a	0.25999528
193	0x3e27e619	0.16396369
194	0xbe2bc076	-0.16772637
195	0xbec68538	-0.38773513
196	0xbea37b31	-0.31929925
197	0x3d722ef3	0.059126806
198	0xbeb189a0	-0.34675312
199	0xbee13267	-0.43983766
200	0x3f463edb	0.7743966
201	0xbd8e4628	-0.06946975
202	0x3d8a9675	0.06766979
203	0xbe38b5dd	-0.18038125
204	0xbea0f248	-0.31434846
205	0xbe8f02ec	-0.27931917
206	0x3ddde499	0.10834617
207	0x3e735fea	0.23767057
208	0xbe8f374d	-0.2797188
209	0x3e50af51	0.20379378
210	0x3e8d86fb	0.27642044
211	0x3e9af5f9	0.30265787
212	0x3ec5d63b	0.38640007
213	0x3e97ac24	0.2962352
214	0xbec9b57d	-0.39396277
215	0x3e9ddfe2	0.30834872
216	0x3ed5d517	0.41764137
217	0xbca58de2	-0.020209257
218	0xbe518e2a	-0.20464388
219	0xbdd8896a	-0.10573085
220	0x3e2c5b28	0.16831648
221	0xbdd62680	-0.10456562
222	0x3e80803f	0.25097844
223	0x3d262073	0.04055829
224	0xbde79c74	-0.11309138
225	0xbe1d5792	-0.15365437
226	0xbe2596c5	-0.16170795
227	0x3e83b259	0.25722006
228	0x3ee0f833	0.4393936
229	0x3e13755a	0.14400235
230	0xbf01c62e	-0.50693023
231	0x3ebae233	0.365007
232	0x3de9560f	0.113933675
233	0x3d7b4129	0.06134144
234	0x3e396961	0.18106605
235	0x3e44c618	0.19216192
236	0x3ee06dcf	0.43833777
237	0xbed0b065	-0.40759578
238	0xbe5e9be6	-0.21739158
239	0xbe964932	-0.2935272
240	0x3f1c0161	0.60939604
241	0xbd67c886	-0.05658772
242	0xbea9a2e1	-0.3313208
243	0x3f03f9b9	0.5155292
244	0x3e647cde	0.22313258
245	0x3e8b0641	0.2715321
246	0x3ee1f3cf	0.44131324
247	0x3df765d2	0.120799676
248	0x3cf703ba	0.030153144
249	0x3e3999ac	0.18125027
250	0xbe722c6f	-0.23649763
251	0xbe7c16a9	-0.24618019
252	0x3ebffc75	0.37497297
253	0x3eb24be1	0.34823516
254	0xbd9b6326	-0.075872704
255	0xbeaca91b	-0.33722767

xy_to_r.input_to_hidden.4.bias f4 [128]
0	0xbf010e86	-0.50412786
1	0xbe91aa5f	-0.28450295
2	0xbe9fac4f	-0.3118615
3	0xbf03afc2	-0.5144006
4	0xbe60355c	-0.21895355
5	0xbe2c5ac9	-0.16831507
6	0x3e1ba2af	0.15198778
7	0xbee43930	-0.4457488
8	0x3f28b014	0.65893674
9	0xbf03b5d0	-0.514493
10	0xbef57962	-0.4794417
11	0xbee21763	-0.44158468
12	0xbf178a2a	-0.59195197
13	0xbea79771	-0.32732728
14	0xbe848eda	-0.25890237
15	0x3f159aef	0.58439535
16	0x3edde4dc	0.43338668
17	0x3e3c351a	0.18379632
18	0x3ef0d620	0.47038364
19	0xbd8b5ecb	-0.0680519
20	0xbd8b95ed	-0.068157054
21	0x3efc863f	0.49321172
22	0x3e862a40	0.2620411
23	0x3eb4f80b	0.35345492
24	0xbe5c1fdf	-0.21496533
25	0x3ed31844	0.4122945
26	0xbe869c26	-0.26291007
27	0xbf25fb35	-0.64836437
28	0xbe09dbb6	-0.1346272
29	0x3e6834e0	0.2267642
30	0x3f14fc2e	0.58197296
31	0xbf177aaf	-0.59171575
32	0xbda4ecd2	-0.080529824
33	0x3ed3b3c2	0.41348082
34	0xbefe79b8	-0.4970224
35	0x3ea82489	0.32840374
36	0x3f151f91	0.5825129
37	0x3c4d73c9	0.012539812
38	0xbe99c2ad	-0.30031338
39	0x3f01cc0f	0.50701994
40	0xbede5782	-0.43426138
41	0xbe68c7b6	-0.22732434
42	0x3f12a88d	0.5728844
43	0x3e7cfe3c	0.24706358
44	0xbec6cbec	-0.38827455
45	0xbe6536e6	-0.22384223
46	0xbe7ffb94	-0.24998313
47	0x3eaabc23	0.33346662
48	0xbd9770bc	-0.07394549
49	0x3dbec859	0.09315557
50	0x3ef1ccdb	0.47226605
51	0x3dc0136f	0.09378707
52	0xbefc0e05	-0.49229446
53	0x3efc12bd	0.49233046
54	0x3ed7b353	0.42129
55	0xbe9b752c	-0.30362833
56	0x3ee19832	0.44061428
57	0x3f204ec7	0.62620205
58	0xbefb2e62	-0.49058825
59	0x3f038ac5	0.5138362
60	0x3d3cbfe7	0.04608145
61	0xbe2bff37	-0.16796575
62	0x3f00a492	0.50251114
63	0xbf3404eb	-0.70320004
64	0x3ed27e44	0.41111958
65	0x3d03853d	0.032109488
66	0x3dc58737	0.09644931
67	0x3edb0fce	0.42785496
68	0xbf1ee149	-0.6206251
69	0xbee70a89	-0.45125225
70	0x3e866ac5	0.26253334
71	0xbee76b18	-0.45198894
72	0xbeddb3af	-0.4330115
73	0x3f05badc	0.5223825
74	0x3f3979f8	0.72451735
75	0xbefde201	-0.4958649
76	0x3e3971ae	0.18109772
77	0xbf15be6f	-0.58493704
78	0xbeef4028	-0.46728635
79	0xbefdf806	-0.4960329
80	0x3e4fc538	0.20290077
81	0xbf35e5ae	-0.7105359
82	0xbe37fb54	-0.17966968
83	0x3ec2d7a0	0.38055134
84	0x3ea58d21	0.32334235
85	0xbf16d15a	-0.58913195
86	0xbd67ac5a	-0.05656085
87	0x3ede155f	0.4337568
88	0xbeef66da	-0.46758157
89	0x3eb87779	0.3602865
90	0xbe241afd	-0.1602592
91	0xbf15af43	-0.58470553
92	0x3e946b6b	0.28988203
93	0xbf11a0b1	-0.5688582
94	0x3ec82e4b	0.3909782
95	0xbf0afa19	-0.5428787
96	0xbf032f15	-0.51243716
97	0xbcfdc1b9	-0.030976163
98	0xbedb6743	-0.4285222
99	0x3efd3e0a	0.49461395
100	0x3ee0be35	0.43895116
101	0x3eddcd2f	0.43320605
102	0x3f07425b	0.52835625
103	0x3f111e44	0.56686807
104	0xbf1a64a6	-0.6030983
105	0x3ebf2129	0.37329987
106	0x3f159c21	0.5844136
107	0xbf00a6d2	-0.5025455
108	0xbdd0e65d	-0.10200188
109	0x3efa2c75	0.48862043
110	0xbe06c766	-0.13162002
111	0xbca0915f	-0.019600568
112	0xbefaa9b2	-0.48957592
113	0xbe3885fc	-0.18019861
114	0xbe1cae54	-0.15300876
115	0x3f0012e2	0.5002881
116	0x3ee139ec	0.43989503
117	0x3e7dfada	0.24802724
118	0xbe8ba50c	-0.27274358
119	0xbf10f0d0	-0.5661745
120	0xbec499e5	-0.38398662
121	0x3d99d826	0.0751193
122	0x3efaf3f9	0.4901426
123	0xbcc2d214	-0.023781814
124	0x3acbf91b	0.001556191
125	0x3d96a706	0.07356076
126	0x3ee096bf	0.4386501
127	0xbecac9eb	-0.39607176

r_to_mu_sigma.r_to_hidden.weight f4 [128, 128]
0	0x3eec7509	0.4618304
1	0x3ea9c2bc	0.33156383
2	0xbf15e2e7	-0.5854935
3	0xbe3528c9	-0.1769134
4	0x3e437f54	0.1909154
5	0xbf0a75b4	-0.5408585
6	0x3f0d5ea6	0.5522255
7	0x3e914e32	0.2837997
8	0xbde8dcdb	-0.1137025
9	0xbeebae5c	-0.46031463
10	0xbf34c546	-0.70613515
11	0xbe25fbca	-0.16209331
12	0xbe4905f8	-0.19631183
13	0x3e5a8272	0.21338823
14	0x3e8fdcfe	0.2809829
15	0x3e8ccbc1	0.27499202
16	0x3e57be3f	0.21068667
17	0xbeb25b9b	-0.34835514
18	0xbda7213a	-0.08160634
19	0x3ea68d33	0.325296
20	0xbf36090f	-0.7110757
21	0x3df91f2f	0.12164151
22	0xbdba585a	-0.09098883
23	0x3ea58585	0.3232843
24	0x3f87eac2	1.0618517
25	0x3eba5e59	0.36400107
26	0x3e69ceb4	0.22832757
27	0x3f54a80c	0.8306892
28	0xbed8e2dd	-0.42360583
29	0x3dedecfc	0.11617467
30	0xbdaf5e62	-0.08562924
31	0x3c22a91d	0.009928015
32	0xbdb2973e	-0.087202534
33	0x3f4e5af7	0.8060755
34	0xbd54a6ef	-0.051917013
35	0x3e7b87f4	0.24563581
36	0xbcfe3bb4	-0.031034328
37	0xbdfb1c16	-0.12261216
38	0x3e6c6b88	0.23087895
39	0x3e3279b5	0.1742924
40	0x3e57fedf	0.2109332
41	0x3da7f3e3	0.082008146
42	0xbe423098	-0.1896385
43	0xbed771e5	-0.42079082
44	0xbea5d3f9	-0.32388285
45	0xbda464b3	-0.08027019
46	0x3f081280	0.5315323
47	0xbeb92bd6	-0.36166257
48	0x3f06daec	0.526778
49	0x3aaae97d	0.0013039556
50	0x3e4ce65d	0.20009752
51	0x3e5f4126	0.21802196
52	0xbc153243	-0.009106222
53	0x3e932a16	0.28743047
54	0x3f0dc35a	0.5537621
55	0x3eaaa06b	0.33325514
56	0xbfa9fc87	-1.328019
57	0xbcb6d5e2	-0.022318784
58	0xbe7ab407	-0.24482737
59	0x3ea705d9	0.3262165
60	0xbf620170	-0.88283443
61	0x3ee70125	0.4511806
62	0xbe2c0727	-0.16799603
63	0x3f0a4386	0.5400928
64	0xbe933de3	-0.28758153
65	0x3eb927f0	0.36163282
66	0xbefab795	-0.48968187
67	0x3cf4fc19	0.029905366
68	0xbf26b04a	-0.65112746
69	0xbda1be7d	-0.07897661
70	0x3f50ebd8	0.8160987
71	0xbe187777	-0.14889322
72	0xbea8af65	-0.32946315
73	0x3e1f5089	0.15558065
74	0xbcd49c17	-0.025953336
75	0xbea5378b	-0.32268938
76	0xbf0f31bd	-0.5593527
77	0xbd2a0b0c	-0.04151444
78	0xbe830d81	-0.2559624
79	0x3e5320da	0.20618
80	0x3efd7401	0.49502566
81	0x3ea04ce1	0.31308654
82	0xbea3cb34	-0.3199097
83	0x3ea14f78	0.31505942
84	0x3e42457b	0.18971817
85	0x3e943b5d	0.2895154
86	0xbf5c9b42	-0.86174405
87	0x3d494407	0.04913714
88	0xbde5e01f	-0.11224388
89	0xbe1c246e	-0.15248272
90	0x3e9e229e	0.30885786
91	0x3f305909	0.68885857
92	0xbe74af9f	-0.23895119
93	0xbd81a2f6	-0.063299105
94	0x3dfba3e9	0.12287123
95	0xbf13b170	-0.57692623
96	0xbe03651e	-0.12831542
97	0x3e65295d	0.2237906
98	0xbedf5f7a	-0.4362753
99	0x3e42b974	0.19016057
100	0x3e119341	0.14216329
101	0xbf2d776b	-0.6776034
102	0x3e19385a	0.14962903
103	0xbdd9075c	-0.10597107
104	0xbefcf532	-0.4940582
105	0xbe1edd7b	-0.15514176
106	0x3ec34cc7	0.38144514
107	0x3e097984	0.13425261
108	0xbe8e588c	-0.2780193
109	0x3f2da1aa	0.67824805
110	0x3ecc39e2	0.3988791
111	0x3e85384e	0.2601952
112	0xbe5b4088	-0.21411335
113	0xbecc7b2d	-0.39937726
114	0xbd8cc0a3	-0.0687268
115	0x3edb906b	0.4288362
116	0x3e6c973b	0.23104565
117	0x3e8960d9	0.268317
118	0xbee5d37f	-0.4488792
119	0xbe553c1d	-0.20823713
120	0xbefaf4a0	-0.4901476
121	0xbe08e4a2	-0.13368466
122	0x3e2221a8	0.15833151
123	0x3f852569	1.0402042
124	0xbf79cef7	-0.9758143
125	0x3e554533	0.20827179
126	0xbea8150d	-0.3282856
127	0xbd221955	-0.03957494
128	0xbdcb94b2	-0.09940471
129	0x3ea1baf6	0.31587952
130	0xbeb92be2	-0.36166292
131	0x3cad3bb6	0.021146636
132	0xbebfeb31	-0.37484124
133	0xbeec46f5	-0.46147886
134	0x3f01e0f9	0.50733906
135	0xbdd11fcc	-0.10211143
136	0x3ee5cd9f	0.4488344
137	0xbf0c1eb9	-0.5473438
138	0xbed1c3eb	-0.40969786
139	0xbe8f3264	-0.27968132
140	0xbd4909b7	-0.04908153
141	0x3ea6d413	0.32583675
142	0x3f166cc7	0.5875973
143	0x3e4dcc5f	0.20097493
144	0x3e5bcdd3	0.21465234
145	0x3d4beddc	0.049787387
146	0xbd39d6d1	-0.04537088
147	0xbcc2f9e3	-0.023800796
148	0xbdd94973	-0.106097125
149	0x3e384a05	0.17996986
150	0xbdaa47e7	-0.083144955
151	0xbda53282	-0.08066274
152	0xbd23a4ff	-0.039952274
153	0x3d5a41ee	0.05328553
154	0x3edc3227	0.43007013
155	0x3f1c8bb6	0.6115068
156	0x3ea47137	0.32117626
157	0xbf09fd33	-0.53901976
158	0x3d2807d5	0.041023094
159	0x3efa031b	0.48830494
160	0xbe992b2f	-0.2991576
161	0x3f00fd3e	0.50386417
162	0x3e35aa51	0.17740752
163	0x3ed8b84f	0.42328116
164	0xbf245ccc	-0.64204097
165	0x3ec7f9c5	0.39057747
166	0x3e84032c	0.2578367
167	0x3dac4258	0.084110916
168	0xbe1e5ebd	-0.15465827
169	0x3e645e58	0.22301614
170	0xbd63e3f2	-0.055637307
171	0xbe9467d6	-0.2898547
172	0xbe412e09	-0.18865217
173	0xbef9f38b	-0.4881862
174	0x3edbf0a3	0.4295703
175	0x3e57173d	0.21004958
176	0x3ec5fcd9	0.3866947
177	0x3f1fa9a6	0.6236824
178	0x3e66e48c	0.22548121
179	0xbefb48db	-0.49079022
180	0xbb3d1095	-0.0028848995
181	0x3ebca6e8	0.3684609
182	0x3ee8b77f	0.45452496
183	0x3effae2e	0.49937576
184	0x3e85c286	0.26124972
185	0xbd455396	-0.048175417
186	0xbe4449eb	-0.19168822
187	0x3e45770b	0.19283693
188	0xbddb441b	-0.107063495
189	0x3e98c635	0.2983872
190	0xbceb7a1f	-0.028744755
191	0xbea00f1d	-0.3126153
192	0xbee9d55a	-0.45670587
193	0xbed93774	-0.4242512
194	0xbf058fd7	-0.5217261
195	0x3e545385	0.20734985
196	0xbebccbc4	-0.3687421
197	0xbd313471	-0.043262903
198	0xbe71e6da	-0.23623219
199	0xbd9ccf78	-0.07656759
200	0x3dedcf09	0.116117544
201	0x3b12803b	0.0022354263
202	0xbf289ba4	-0.6586249
203	0x3f1ba35a	0.6079613
204	0xbcffe660	-0.031237781
205	0xbce63047	-0.028099192
206	0x3ce146d9	0.027499603
207	0x3e684e54	0.2268613
208	0xbdbb02c6	-0.09131388
209	0x3f2d8110	0.6777506
210	0x3ea82703	0.32842264
211	0xbf0cccd1	-0.55000025
212	0xbdb70dc6	-0.08938174
213	0x3ef1ac7f	0.47201917
214	0xbed39218	-0.41322398
215	0x3deaafc1	0.11459304
216	0x3f08ae1c	0.5339067
217	0x3ddf393e	0.1089959
218	0x3ec2cabd	0.38045302
219	0x3f1c70b2	0.6110946
220	0xbe9d1fa8	-0.30688214
221	0xbd488124	-0.048951283
222	0xbf0a1a6c	-0.53946567
223	0xbf01d75f	-0.50719255
224	0xbdac51a8	-0.08414012
225	0x3d2806a9	0.041021977
226	0x3d2e2882	0.0425191
227	0x3d1c90a4	0.038223878
228	0x3e1b2ac0	0.15153027
229	0xbe96a51b	-0.2942284
230	0xbc8d4662	-0.017245475
231	0x3e7500af	0.23926042
232	0xbeaa1f4d	-0.33227006
233	0x3edbc348	0.42922425
234	0x3dd03ac7	0.10167461
235	0xbd487d47	-0.0489476
236	0xbf12503c	-0.5715368
237	0x3eecb1a6	0.46229285
238	0x3ec33ac8	0.38130784
239	0xbeea523b	-0.45765862
240	0xbe44e76c	-0.19228905
241	0x3de5bc78	0.11217588
242	0x3dd5a102	0.104311004
243	0x3e5be265	0.21473081
244	0x3e53384c	0.20626944
245	0xbdba25d4	-0.090892464
246	0x3ed2faa0	0.41206837
247	0xbd693d55	-0.056943256
248	0xbe4400c3	-0.19140916
249	0xbed37918	-0.41303325
250	0xbd042ed2	-0.032271214
251	0xbddb83ce	-0.10718499
252	0xbee0dcfb	-0.43918595
253	0xbc43f38b	-0.011959921
254	0x3ddeefdf	0.108855955
255	0xbd65e43c	-0.056125864

r_to_mu_sigma.r_to_hidden.bias f4 [128]
0	0xbe6283d6	-0.22120604
1	0xbf1e6a21	-0.6188069
2	0xbe6b4829	-0.22976746
3	0xbe560f14	-0.2090419
4	0xbeddf862	-0.43353564
5	0xbeafdac6	-0.34346598
6	0x3e2638b1	0.16232564
7	0xbe6f24ef	-0.23353933
8	0xbef16d16	-0.47153538
9	0x3f293c6e	0.66107833
10	0x3ea9d1bd	0.3316783
11	0x3f326efa	0.69700587
12	0x3eb0fec2	0.34569365
13	0x3e9b525f	0.30336282
14	0xbe618ae4	-0.22025639
15	0xbf20a8ef	-0.6275777
16	0xbefd49aa	-0.49470264
17	0xbe9285f9	-0.28617838
18	0xbf316c17	-0.69305557
19	0xbf4b6ca6	-0.7946266
20	0xbf091d91	-0.5356074
21	0x3f3cbf7f	0.737297
22	0xbf39de01	-0.72604376
23	0xbeb9e1f1	-0.36305192
24	0xbe9fac24	-0.3118602
25	0xbe207d2e	-0.15672752
26	0xbe6507ee	-0.22366306
27	0xbf639b33	-0.8890869
28	0xbeedd3b7	-0.46450588
29	0xbed086e4	-0.40727913
30	0xbd357319	-0.04429922
31	0xbf03f23b	-0.5154149
32	0xbf1899ce	-0.5960969
33	0xbe989916	-0.29804295
34	0xbd726708	-0.05918029
35	0xbe8ec9c8	-0.27888322
36	0xbdd5bb71	-0.10436142
37	0xbeb56bc2	-0.35433775
38	0xbe776885	-0.24160965
39	0x3c996504	0.018724926
40	0x3d8831aa	0.06650098
41	0xbe0f4797	-0.13992153
42	0xbe5a69f9	-0.21329488
43	0xbe0dfdb7	-0.13866316
44	0xbe25d874	-0.16195852
45	0xbe09abe1	-0.13444473
46	0xbd7c835a	-0.061648704
47	0xbe65d834	-0.22445756
48	0xbdfebd63	-0.124384664
49	0xbee0120e	-0.43763775
50	0xbeae7624	-0.3407451
51	0xbea843a5	-0.3286411
52	0xbf14daad	-0.5814617
53	0xbef27739	-0.47356585
54	0xbecad3b4	-0.39614642
55	0xbe98d9e4	-0.29853737
56	0xbe7e9e27	-0.24865018
57	0xbe8f7eee	-0.28026527
58	0xbf35bbcc	-0.7098968
59	0xbf2f1e64	-0.6840575
60	0xbf11de14	-0.5697949
61	0xbecf2ff0	-0.4046626
62	0xbe212ca8	-0.15739691
63	0xbe96abfe	-0.29428095
64	0xbf10a507	-0.5650181
65	0xbe65d473	-0.22444324
66	0xbe6b25c7	-0.2296363
67	0xbe4ffeb8	-0.20312011
68	0x3cd995e1	0.026560726
69	0xbec30fe2	-0.38098055
70	0xbf2a854c	-0.66609645
71	0xbe822253	-0.25416812
72	0xbe993c22	-0.2992869
73	0xbdddd256	-0.10831134
74	0xbdf25047	-0.11831718
75	0xbe275aa9	-0.16343178
76	0xbe7efb88	-0.24900639
77	0xbe9a8f06	-0.30187243
78	0xbd49500b	-0.0491486
79	0xbf02db72	-0.51116097
80	0xbed3bdac	-0.41355646
81	0xbf39904a	-0.7248579
82	0xbda0eb52	-0.07857384
83	0xbef63923	-0.48090467
84	0xbf38d593	-0.7220089
85	0xbf3d3420	-0.7390766
86	0xbf320051	-0.6953173
87	0xbef4e2ab	-0.47829184
88	0xbeb79b9a	-0.35860902
89	0xbee5d28b	-0.44887194
90	0xbd875656	-0.06608264
91	0xbe2d855c	-0.16945404
92	0xbde9cd61	-0.11416126
93	0xbe0a8242	-0.13526252
94	0xbd0fb08d	-0.03508048
95	0xbe6cb337	-0.2311524
96	0x3bce3b8f	0.006293721
97	0xbe8b0066	-0.2714874
98	0x3e8315bf	0.25602528
99	0xbf2a53b1	-0.6653395
100	0xbeb0ca5f	-0.34529397
101	0xbef24541	-0.47318462
102	0xbea01c9b	-0.31271824
103	0xbd8487d0	-0.06471217
104	0x3c9732e5	0.018456886
105	0x3f161d8a	0.58638823
106	0xbeb6694a	-0.35627204
107	0xbf20e48b	-0.6284873
108	0xbe9273a5	-0.28603855
109	0xbef3f164	-0.47645104
110	0xbe1e43dd	-0.15455575
111	0xbee0b9f8	-0.43891883
112	0xbe5a85b1	-0.21340062
113	0xbdc36a88	-0.095418036
114	0xbf46d1b5	-0.7766374
115	0xbdd16359	-0.10224027
116	0xbeda8710	-0.4268117
117	0xbf45d3e4	-0.77276444
118	0xbe754a1e	-0.23954055
119	0x3c62dd95	0.013846775
120	0xbf24e5be	-0.6441306
121	0xbee995b5	-0.4562203
122	0xbed0e6c5	-0.40801063
123	0xbed14893	-0.40875682
124	0xbdfb5e8e	-0.12273894
125	0xbf2757d0	-0.65368366
126	0xbea1f8fd	-0.31635275
127	0xbe34887e	-0.17630193

r_to_mu_sigma.hidden_to_mu.weight f4 [8, 128]
0	0x3e421642	0.18953803
1	0xbe441f89	-0.19152655
2	0x3f0dca84	0.5538714
3	0x3e2718ad	0.16318007
4	0xbdddca2c	-0.10829577
5	0x3ed92856	0.42413586
6	0x3a1f2eff	0.00060723716
7	0xbd0a7523	-0.033803117
8	0x3f1ddf8d	0.61669236
9	0xbd33d8f0	-0.04390806
10	0x3ec99a94	0.39375746
11	0x3eff6276	0.49879807
12	0x3ef3d3c2	0.47622496
13	0x3d1b9a92	0.037989207
14	0x3d6e7616	0.058218084
15	0xbe1c57d6	-0.15267882
16	0x3ca21c45	0.01978887
17	0x3eba2eea	0.36363918
18	0xbeaab099	-0.33337858
19	0x3e31d43e	0.1736612
20	0x3d26dd16	0.040738188
21	0xbe29e036	-0.16589436
22	0x3d8e6d6f	0.069544666
23	0x3e08d8b0	0.1336391
24	0xbd1ebb76	-0.038752995
25	0xbe14bded	-0.14525576
26	0xbe653ea6	-0.2238718
27	0xbebcd1a0	-0.3687868
28	0xbe180f26	-0.14849529
29	0xbf171ba7	-0.5902657
30	0xbd2f91bb	-0.04286359
31	0x3ec2b061	0.3802519
32	0xbe43bda7	-0.19115315
33	0x3dfa2e9a	0.1221592
34	0xbf15b0ac	-0.58472705
35	0xbdcdfd97	-0.10058134
36	0xbceaf536	-0.028681379
37	0xbe46ebed	-0.19425936
38	0x3e05007d	0.12988468
39	0xbed43494	-0.41446364
40	0xbb40b047	-0.0029401944
41	0xbf335114	-0.7004559
42	0xbdbc6ec2	-0.09200813
43	0xbe77ea02	-0.2421036
44	0xbe2f409e	-0.17114493
45	0x3ca70778	0.020389304
46	0xbe139c6f	-0.14415143
47	0x3d414585	0.04718544
48	0xbc47424e	-0.012161804
49	0xbc6327e3	-0.01386449
50	0xbd852385	-0.065009154
51	0xbdc52cd7	-0.09627693
52	0x3e396401	0.18104555
53	0xbc13016e	-0.008972509
54	0xbf031db7	-0.51217216
55	0x3f0f9303	0.560837
56	0x3e97f914	0.2968222
57	0xbd921642	-0.071331516
58	0xbe84ad0e	-0.2591328
59	0x3d2486ab	0.040167492
60	0xbf285fdb	-0.65771264
61	0xbdf916de	-0.12162565
62	0xbec9646c	-0.39334428
63	0x3eba54b4	0.36392748
64	0x3dcdac37	0.10042613
65	0x3f4968eb	0.7867572
66	0xbec0f066	-0.3768341
67	0x3ed642ea	0.41847926
68	0x3e75e387	0.24012576
69	0x3c04dfe8	0.008110024
70	0xbcd5bc93	-0.026090896
71	0xbd827ace	-0.063710794
72	0xbef8acc9	-0.48569325
73	0xbea0249e	-0.31277937
74	0xbe0d7e0b	-0.13817613
75	0xbe94fbb8	-0.29098296
76	0x3bea4c3e	0.007150202
77	0xbeab9bef	-0.33517405
78	0xbe3dc117	-0.18530689
79	0xbdcafd57	-0.09911602
80	0xbe286271	-0.16443802
81	0x3eed9c1d	0.46408167
82	0xbe82ed45	-0.25571647
83	0x3db7d064	0.08975294
84	0x3e229eb5	0.15880854
85	0x3e086d4e	0.13322946
86	0x3dd74003	0.10510256
87	0xbd3549a6	-0.04425969
88	0x3e6b1290	0.229563
89	0xbe265c66	-0.16246185
90	0xbd308b23	-0.04310144
91	0xbc836260	-0.01603812
92	0x3ba0101c	0.004884733
93	0x3dcf643d	0.10126541
94	0xbe4a99d8	-0.19785249
95	0xbe26ec65	-0.16301115
96	0x3e1fe4cb	0.15614621
97	0xbd7ea75c	-0.062171325
98	0xbe4edbe3	-0.20201068
99	0xbea6197c	-0.32441318
100	0x3d02f16c	0.03196852
101	0x3f0d7fd5	0.5527318
102	0xbdffa8e2	-0.12483384
103	0x3c819f6d	0.01582309
104	0x3e0f262c	0.13979405
105	0x3e9917f2	0.2990108
106	0xbdd28a69	-0.10280306
107	0x3e795c4f	0.24351619
108	0xbdd99526	-0.10624151
109	0x3ea0ec44	0.31430256
110	0x3f000fae	0.50023925
111	0x3f1369c2	0.5758325
112	0x3ce394e3	0.027780956
113	0x3c8b1b82	0.01698089
114	0xbbcc7634	-0.006239677
115	0xbd59b5e4	-0.05315198
116	0x3ecb1f9d	0.39672557
117	0xbd5fcf67	-0.054641154
118	0xbebe38ce	-0.37152714
119	0x3e5c1658	0.21492898
120	0x3a52a3c6	0.00080352684
121	0xbe040031	-0.12890698
122	0xbd49a298	-0.049227327
123	0x3d2cc9f9	0.042184804
124	0x3e8f3cfa	0.2797621
125	0xbf286d3f	-0.65791696
126	0x3dad17c0	0.084517956
127	0xbf352af0	-0.7076864
128	0x3ed4a5c5	0.41532722
129	0xbe4b3ebe	-0.19848153
130	0x3f06d482	0.5266801
131	0xbd318ba8	-0.043346077
132	0xbd7a2622	-0.061071523
133	0x3ec062bc	0.37575328
134	0x3e956051	0.29175046
135	0x3ec8d5d2	0.39225632
136	0x3e233f44	0.15942103
137	0xbecc6bb2	-0.39925915
138	0x3f2c1dd2	0.67233
139	0x3ed3138b	0.41225848
140	0x3e821f6c	0.25414598
141	0x3de190cc	0.11013946
142	0xbde34d5e	-0.11098741
143	0x3ed61dcd	0.4181961
144	0x3db9f42a	0.09079774
145	0x3e90cae3	0.2827979
146	0x3d68d613	0.056844782
147	0x3e9d35c7	0.3070509
148	0x3e875722	0.26433665
149	0xbe03a42c	-0.12855595
150	0xbcfd1e7e	-0.030898329
151	0x3e6e4f09	0.23272337
152	0x3ef0583b	0.46942315
153	0x3e3ec1e8	0.18628657
154	0x3eab7630	0.33488607
155	0x3e9b2a0d	0.3030552
156	0x3e9620d5	0.29321924
157	0xbf2fbc23	-0.6864645
158	0xbb18a0b4	-0.0023289146
159	0x3e099388	0.13435185
160	0xbe1d8539	-0.15382852
161	0xbd064f30	-0.032790363
162	0xbf5120b9	-0.81690556
163	0x3ea8d6e0	0.32976437
164	0xbd4ead60	-0.050458312
165	0x3d9c9deb	0.07647308
166	0xbe3091b8	-0.17243087
167	0x3deb0816	0.11476152
168	0xbec60465	-0.38675228
169	0xbe1991f6	-0.14997086
170	0xbed40fd6	-0.41418332
171	0x3dc66e3c	0.09688994
172	0xbeab3b3c	-0.3344363
173	0x3d256801	0.04038239
174	0xbe6f0c64	-0.2334457
175	0x3d00154b	0.031270307
176	0x3cfd9e08	0.030959144
177	0xbdc7b24c	-0.09750804
178	0x3bf3d897	0.007441591
179	0xbe03a5a0	-0.1285615
180	0x3c6332f0	0.013867125
181	0x3e7ca96c	0.24674004
182	0xbef32fe0	-0.47497463
183	0x3f12c993	0.5733883
184	0x3e6c4361	0.23072578
185	0xbe8c789e	-0.27435774
186	0xbede5dda	-0.43430978
187	0xbd8778e0	-0.06614852
188	0x3e4cec2e	0.2001197
189	0x3dcf454e	0.10120641
190	0xbebebe07	-0.37254354
191	0x3d3142e8	0.043276697
192	0xbdd4babc	-0.10387179
193	0x3ea605a1	0.3242617
194	0x3da34af5	0.07973281
195	0x3e9fde22	0.3122416
196	0x3ec9c3d5	0.3940722
197	0x3e6aea42	0.22940925
198	0x3e78f096	0.24310526
199	0x3e359940	0.17734241
200	0xbef8ed43	-0.48618516
201	0xbe8c1be6	-0.27365035
202	0xbe390538	-0.18068397
203	0xbe538963	-0.20657878
204	0xbc7c5da3	-0.015403184
205	0x3e3afd22	0.18260625
206	0xbe907c30	-0.28219748
207	0x3e66e52e	0.22548363
208	0x3ed01857	0.4064357
209	0x3f0dec2a	0.5543848
210	0x3e967bd6	0.29391354
211	0xbe853cf8	-0.26023078
212	0xbe83a92c	-0.25715005
213	0x3eb69f12	0.35668236
214	0x3d20439a	0.03912697
215	0x3df2077c	0.11817834
216	0x3d46dc12	0.04854972
217	0xbdaa1744	-0.08305219
218	0xbd35d99a	-0.044396974
219	0xbf130e30	-0.57443523
220	0x3d2982b9	0.041384432
221	0xbd69da32	-0.057092853
222	0xbe49ef9a	-0.19720307
223	0xbe216726	-0.15762004
224	0x3dd62389	0.104559965
225	0x3ee13099	0.4398239
226	0xbcdbfddc	-0.026854448
227	0xbe8a556f	-0.27018306
228	0x3dae4157	0.08508556
229	0xbe258973	-0.16165714
230	0x3d80c84a	0.06288202
231	0x3e26628e	0.16248533
232	0x3e7addee	0.24498722
233	0x3e6100bf	0.21972941
234	0xbcf27772	-0.029597972
235	0x3efb20ed	0.49048558
236	0xbd294cc0	-0.04133296
237	0xbea79c2f	-0.32736346
238	0x3e9c304b	0.30505595
239	0x3eb8f2bd	0.36122695
240	0xbd373c2a	-0.04473511
241	0x3d03c042	0.032165773
242	0x3c7a71aa	0.015285889
243	0xbb1c5806	-0.0023856177
244	0xbe01798f	-0.12644027
245	0xbc4e59fa	-0.012594694
246	0xbead5466	-0.33853453
247	0x3f36a93f	0.71352
248	0xbd58d384	-0.052936092
249	0xbd89e672	-0.06733407
250	0x3d5abfa3	0.053405415
251	0x3d23e4d5	0.040013153
252	0x3e0c368a	0.1369268
253	0xbc9df7a9	-0.019283133
254	0x3e574cc5	0.21025379
255	0xbf2b3a17	-0.66885513

r_to_mu_sigma.hidden_to_mu.bias f4 [8]
0	0xbf64416d	-0.8916233
1	0x3e0b70ed	0.13617297
2	0xbf02026a	-0.50784934
3	0x3e24b174	0.16083318
4	0xbe1ab260	-0.15107107
5	0x3d0cd37c	0.034381375
6	0x3e5e8da2	0.21733716
7	0xbed78b93	-0.42098674

r_to_mu_sigma.hidden_to_sigma.weight f4 [8, 128]
0	0x3e1a9bd5	0.15098508
1	0xbe971934	-0.29511416
2	0x3e927a52	0.28608948
3	0x3da68ad1	0.08131946
4	0x3e970985	0.2949945
5	0xbd471b6e	-0.048610143
6	0xbc150997	-0.009096525
7	0xbedad470	-0.42740202
8	0xbcc4f248	-0.02404131
9	0x3f85fe70	1.0468273
10	0x3ded6ed4	0.115934044
11	0x3e0e3a56	0.13889441
12	0x3f26a686	0.65097845
13	0x3eb332da	0.34999734
14	0xbe819e7b	-0.25316224
15	0xbe1ec8d2	-0.15506294
16	0x3ed75141	0.4205418
17	0xbe699bc6	-0.22813329
18	0xbe8e7edf	-0.2783117
19	0x3e857ea2	0.26073176
20	0xbedb655a	-0.42850763
21	0x3f646428	0.89215326
22	0x3edbb667	0.429126
23	0xbea242a6	-0.31691474
24	0x3ddf4c0b	0.10903176
25	0x3ed7983b	0.4210833
26	0xbd9c8c36	-0.076439306
27	0x3ed17e5b	0.40916714
28	0xbdf7321c	-0.120701045
29	0xbf198089	-0.59961754
30	0xbd01b480	-0.03166628
31	0x3e305a2d	0.172219
32	0xbd627e84	-0.055296436
33	0x3e0ed64b	0.13948934
34	0xbe9e18b7	-0.3087823
35	0xbe1ffb38	-0.15623176
36	0xbb7cdc52	-0.003858347
37	0x3e9e3af0	0.3090434
38	0x3d7b2a4c	0.061319634
39	0x3eb6728d	0.3563427
40	0x3e9cdb9c	0.306363
41	0x3f123b10	0.5712137
42	0x3e61afb4	0.22039682
43	0xbebb8e01	-0.36631778
44	0x3d193221	0.037401322
45	0xbe08bc62	-0.13353112
46	0x3ea82aa8	0.32845044
47	0x3e21b13c	0.15790266
48	0xbdfa3d22	-0.122186914
49	0xbe85f27b	-0.2616156
50	0x3d91e26e	0.07123266
51	0x3e0f485f	0.13992451
52	0x3e968784	0.29400265
53	0xbcb15cdd	-0.021650726
54	0x3d9a0b7e	0.07521723
55	0x3e8003bc	0.2500285
56	0xbe813968	-0.2523911
57	0xbdb61698	-0.08891028
58	0x3f1a87e8	0.60363626
59	0x3c898687	0.01678778
60	0x3f15d5c5	0.5852931
61	0x3dea16ca	0.11430128
62	0x3f03ea4d	0.5152939
63	0xbdab3147	-0.08359008
64	0x3ed7740a	0.42080718
65	0x3e535080	0.20636177
66	0x3e970126	0.29493064
67	0x3ec6f6b2	0.3886009
68	0x3d6325d0	0.055455983
69	0x3e98358f	0.29728362
70	0xbe3c1f51	-0.18371321
71	0x3e98c3c5	0.2983686
72	0x3e045cd0	0.1292603
73	0x3ee7f41b	0.45303425
74	0xbd9a1473	-0.07523432
75	0x3ea47140	0.32117653
76	0xbd0f9847	-0.035057332
77	0x3e8f1f59	0.27953604
78	0x3ee0b033	0.4388443
79	0xbe8c18a7	-0.27362558
80	0x3dd88673	0.10572519
81	0x3d57fdf7	0.052732434
82	0x3d1e17df	0.038596984
83	0x3ed89607	0.42301962
84	0xbd6fc604	-0.05853845
85	0xbd6a8b1a	-0.057261564
86	0x3f250b8f	0.6447076
87	0x3f4eb67c	0.807472
88	0x3d073d31	0.03301734
89	0x3e812884	0.25226223
90	0xbdd9f526	-0.106424615
91	0x3ef82067	0.4846222
92	0xbdbe0364	-0.092779905
93	0xbb0d8ff7	-0.0021600702
94	0x3ea5b938	0.32367873
95	0xbb975180	-0.00461787
96	0x3e000d25	0.12505014
97	0xbd758f3b	-0.05995105
98	0x3f035f9e	0.51317775
99	0xbd40175a	-0.04689727
100	0xbe32adef	-0.17449163
101	0xbc8c0f7c	-0.017097227
102	0x3e9825f0	0.29716444
103	0xbc120e21	-0.008914501
104	0x3dc0d646	0.094158694
105	0xbccc70ca	-0.024956126
106	0x3d18b506	0.037282012
107	0xbe1977f5	-0.14987166
108	0x3e8cac3c	0.27475154
109	0x3ebdeaef	0.37093303
110	0x3e2b743a	0.16743556
111	0xbf2a0dd6	-0.6642736
112	0xbd4f7e70	-0.05065769
113	0x3c36d451	0.011159019
114	0x3ca8aae1	0.020589294
115	0xbd2743b7	-0.040836062
116	0xbdad1984	-0.08452132
117	0x3e493801	0.1965027
118	0x3ea8f033	0.32995757
119	0x3ec9c1ff	0.3940582
120	0x3e053c0a	0.13011184
121	0x3e5fd566	0.21858749
122	0x3da36a1a	0.07979222
123	0x3ebb4250	0.3657403
124	0x3e3f92df	0.1870837
125	0xbd4eac26	-0.050457142
126	0x3de6c2b0	0.112676024
127	0xbe9e2bd6	-0.3089282
128	0x3e182be2	0.1486049
129	0x3eaf260d	0.34208718
130	0x3e4072ec	0.18793839
131	0x3d9ff885	0.07811073
132	0x3e99a486	0.30008334
133	0x3e4d1c0c	0.2003023
134	0x3e72d3d1	0.23713614
135	0xbe72f65d	-0.23726793
136	0x3ee5399d	0.44770518
137	0x3eb81758	0.3595531
138	0x3da45c65	0.08025435
139	0x3f7810eb	0.96900815
140	0xbe93276d	-0.28741017
141	0x3d81328a	0.06308468
142	0x3d897311	0.067114
143	0x3eed5843	0.463564
144	0xbe845677	-0.25847217
145	0xbe678b39	-0.22611703
146	0x3f22d42c	0.63605
147	0x3d5bca60	0.053659797
148	0x3e2ec142	0.1706591
149	0x3fb3bda6	1.4042251
150	0xbe8df19c	-0.27723396
151	0xbc6a490a	-0.01429964
152	0x3ecf4a38	0.40486312
153	0x3e9021f7	0.28150913
154	0x3effe35d	0.49978152
155	0x3ec9bc99	0.394017
156	0x3ee232c1	0.44179347
157	0x3e008fcd	0.12554856
158	0xbc485042	-0.012226166
159	0x3e8a212a	0.26978427
160	0xbf295bbb	-0.66155595
161	0x3d504fe9	0.05085746
162	0xbeb65688	-0.35612893
163	0xbec1b681	-0.37834552
164	0xbcc981d2	-0.024598036
165	0x3dfa277b	0.122145616
166	0x3e18f67a	0.14937773
167	0xbe84bf33	-0.25927123
168	0x3d0c212c	0.034211323
169	0xbd68dc98	-0.056851
170	0xbbe0fdb4	-0.0068661813
171	0xbc698497	-0.014252803
172	0x3e8f7d0e	0.28025097
173	0xbd962f65	-0.073332585
174	0xbe3f1f22	-0.1866422
175	0x3e7c3a4f	0.24631618
176	0x3d38fb0d	0.045161296
177	0x3efdc6d4	0.49565756
178	0xbe68f26e	-0.2274873
179	0x3ec8559d	0.39127818
180	0xbe1ae532	-0.15126494
181	0x3c59b246	0.013287133
182	0xbf1c4de5	-0.6105636
183	0x3d9375f3	0.072002314
184	0xbe7b1a8a	-0.24521843
185	0xbd456eb6	-0.048201285
186	0xbe834754	-0.25640357
187	0xbf1c2043	-0.6098673
188	0xbed5e918	-0.417794
189	0x3eca0348	0.39455628
190	0xbe381b33	-0.17979126
191	0x3cf128d4	0.029438414
192	0xbe9a17e3	-0.3009635
193	0xbe525fa7	-0.20544301
194	0x3e873432	0.2640701
195	0x3f474e18	0.77853537
196	0x3e91c6a5	0.28471866
197	0x3ef999aa	0.4875005
198	0x3f4b76fe	0.7947844
199	0x3eb419bb	0.3517588
200	0xbbcbaa02	-0.006215335
201	0xbe60e31d	-0.21961637
202	0xbbca9e6a	-0.006183435
203	0xbdb6d7bb	-0.08927866
204	0x3dcd591a	0.100267604
205	0x3ed7f717	0.42180702
206	0xbe1352d6	-0.14387068
207	0x3ca21bf6	0.019788723
208	0xbe4d5187	-0.20050631
209	0x3dad73ab	0.084693275
210	0xbe184b8b	-0.14872567
211	0xbecc8e56	-0.39952344
212	0xbcda3f72	-0.026641581
213	0x3f16d117	0.58912796
214	0xbe3ef5b3	-0.18648414
215	0xbe57fa05	-0.21091469
216	0x3dbedac4	0.0931907
217	0x3e6ee460	0.23329306
218	0x3cf65624	0.030070372
219	0xbee53022	-0.44763285
220	0xbdf7f914	-0.12108055
221	0xbd66c610	-0.05634123
222	0xbe648b35	-0.22318728
223	0x3e6a87c7	0.22903357
224	0xbe705fc7	-0.23474036
225	0x3d3d79b1	0.046258632
226	0x3e66652b	0.2249953
227	0x3d9637ab	0.073348366
228	0xbd06276e	-0.032752447
229	0xbe2c3665	-0.16817625
230	0x3eaed1a9	0.34144333
231	0x3db5fc84	0.08886054
232	0xbd31b8e5	-0.04338922
233	0x3f5d8717	0.86534256
234	0x3e4ab3de	0.19795176
235	0x3e47388f	0.19455169
236	0xbe936dab	-0.28794608
237	0xbe5e0ac8	-0.216838
238	0x3be43eaa	0.006965478
239	0x3efc0a38	0.49226546
240	0x3cb2dabd	0.021832818
241	0x3e1a06ec	0.15041703
242	0x3e8d7ef2	0.27635914
243	0x3d8ba72c	0.06818995
244	0x3df71ade	0.120656714
245	0x3e4bff7d	0.1992168
246	0xbe7aa3f6	-0.24476609
247	0x3ec565e0	0.38554287
248	0xbf11de14	-0.5697949
249	0x3e8df6cf	0.27727363
250	0x3db40bc4	0.087913066
251	0xbeb09aec	-0.34493196
252	0x3e55656c	0.2083947
253	0xbe8d5f00	-0.27611542
254	0x3d79ddbe	0.061002485
255	0x3eded476	0.4352147

r_to_mu_sigma.hidden_to_sigma.bias f4 [8]
0	0xc079e2ae	-3.9044604
1	0xc09ed0a2	-4.962968
2	0xc088df01	-4.277222
3	0xc0858343	-4.172273
4	0xc0877415	-4.23292
5	0xc0816233	-4.043237
6	0xc0722f54	-3.7841387
7	0xc07a40d1	-3.910206

xz_to_y.xz_to_hidden.0.weight f4 [16, 9]
0	0xbe87442b	-0.26419196
1	0xbec895d3	-0.39176807
2	0xbda64218	-0.08118075
3	0xbd8f7f67	-0.07006722
4	0x3e8ce6d7	0.27519867
5	0xbe3699bc	-0.17832083
6	0x3e0c8488	0.13722432
7	0xbe3d80a5	-0.18506105
8	0xbe2ef794	-0.17086631
9	0x40274963	2.6138542
10	0x3efae1ff	0.49000546
11	0xbeaddf00	-0.33959198
12	0x3ef1d301	0.47231296
13	0x3e55e9df	0.20889996
14	0x3eb4a57a	0.352825
15	0xbed1c81b	-0.4097298
16	0xbcedf03c	-0.029045217
17	0x3ebca42b	0.36844
18	0xbfa4df8c	-1.2880721
19	0x3f96db11	1.1785604
20	0xbf6d98c5	-0.9281123
21	0x3fb092d3	1.3794807
22	0xbe8b16fe	-0.2716598
23	0x3eaaa75d	0.33330813
24	0x3da9beb8	0.0828833
25	0xbe8a006a	-0.2695344
26	0x3f398260	0.7246456
27	0xbd84954a	-0.06473787
28	0x3f0aa5ea	0.54159415
29	0xbf1dd0f0	-0.6164694
30	0x3d8197ea	0.063278034
31	0xbf21c32b	-0.6318843
32	0x3eb46fd2	0.35241562
33	0xbe74aec4	-0.23894793
34	0xbda1b5f8	-0.07896036
35	0x3edbd768	0.4293778
36	0xbf38ee64	-0.72238755
37	0x3de93502	0.113870636
38	0xbd96360a	-0.07334526
39	0xbd9f2d5d	-0.07772324
40	0x3da45891	0.08024705
41	0xbe67fd8b	-0.22655313
42	0x3ca7a0bd	0.020462388
43	0x3e1c37a6	0.15255603
44	0x3df2c4bc	0.1185393
45	0xc0b4e7c1	-5.6532903
46	0x3ebae9c3	0.3650647
47	0x3e89e9ba	0.26936132
48	0x3eb787c4	0.35845768
49	0xbeaa3efb	-0.33251175
50	0x3ef01c4d	0.46896592
51	0x3e6609d8	0.22464693
52	0x3f0c64a8	0.5484109
53	0x3eba75e0	0.36418056
54	0xbec0386b	-0.37543043
55	0x3ea6fe2f	0.32615802
56	0xbd98bf4b	-0.07458361
57	0xbe5741df	-0.21021222
58	0xbcfed28d	-0.031106258
59	0xbe7eceb0	-0.24883533
60	0x3dde77be	0.10862683
61	0x3e87152e	0.26383346
62	0xbc8f2116	-0.017471831
63	0x3f813c22	1.0096476
64	0x3f11357b	0.5672223
65	0x3d53d6f8	0.051718682
66	0x3ee571ba	0.4481333
67	0xbe3cdc35	-0.18443377
68	0xbf00a698	-0.502542
69	0xbe596449	-0.21229662
70	0xbe802afb	-0.25032791
71	0xbd84187c	-0.064499825
72	0xbed8fd4a	-0.42380744
73	0x3d750a98	0.059824556
74	0x3bef1225	0.007295864
75	0x3dff8345	0.124762096
76	0x3e2a7372	0.16645601
77	0xbd50089e	-0.050789468
78	0xbd4dbec8	-0.05023077
79	0x3d92ba45	0.07164434
80	0xbd866c92	-0.06563677
81	0xbfaad72b	-1.3346914
82	0x3f0317e7	0.5120835
83	0xbe4751f8	-0.19464862
84	0xbe72458e	-0.23659346
85	0x3e4a818e	0.19775984
86	0x3e0e5606	0.13900003
87	0xbf4e2513	-0.8052532
88	0x3dd578a6	0.104234025
89	0x3f3d8fc6	0.74047506
90	0xbf232eb2	-0.63743126
91	0xbf0ab7da	-0.54186785
92	0xbeef2ae1	-0.46712402
93	0x3edc2520	0.42997074
94	0x3ec12b3b	0.37728295
95	0x3ece8388	0.40334725
96	0xbea59f81	-0.32348254
97	0xbe5b1cff	-0.2139778
98	0x3f1b4678	0.606544
99	0xbf5f96ff	-0.87339777
100	0xbf127398	-0.5720763
101	0x3c78e9bf	0.015192448
102	0xbe98dc74	-0.29855692
103	0x3f5a20f0	0.8520651
104	0xbe9547a9	-0.29156235
105	0xbd55a00e	-0.052154593
106	0xbf5373b5	-0.8259843
107	0xbe178a1f	-0.14798783
108	0xbf54cb4f	-0.83122724
109	0xbe6dc6dd	-0.23220392
110	0x3f0c95b1	0.5491591
111	0xbf0a70e9	-0.5407854
112	0x3edbc97c	0.42927158
113	0xbeeba6a5	-0.46025577
114	0x3e6230df	0.22088955
115	0xbf22dadf	-0.6361522
116	0xbeac3cdf	-0.3364019
117	0xbe88749d	-0.2665147
118	0x3e3055b7	0.17220198
119	0xbd7607ee	-0.060066156
120	0x3ea0c20a	0.3139804
121	0x3e307f03	0.17235951
122	0xbcf87428	-0.030328825
123	0xbec8c877	-0.39215443
124	0xbe96ac94	-0.29428542
125	0x3dfbd436	0.122963354
126	0xbf939ac4	-1.1531606
127	0x3e6707ef	0.2256162
128	0xbeb09b2d	-0.3449339
129	0x3e5d0de8	0.21587336
130	0x3e802b32	0.25032955
131	0x3dcbf20c	0.09958276
132	0xbeb927fc	-0.36163318
133	0xbe379d93	-0.17931204
134	0x3e29fe96	0.16601023
135	0x3f0b575e	0.54430187
136	0xbee08ba5	-0.4385654
137	0x3e9f36ee	0.31096596
138	0xbf30e5f4	-0.6910088
139	0x3ef25c92	0.4733625
140	0xbed697cc	-0.41912687
141	0x3a866fbf	0.0010256692
142	0xbf17b439	-0.5925937
143	0x3e062dac	0.1310336

xz_to_y.xz_to_hidden.0.bias f4 [16]
0	0xbed544b5	-0.41653982
1	0xbf25dde3	-0.647917
2	0xbecf63bb	-0.40505776
3	0x3d5f2599	0.054479215
4	0xbf78730d	-0.97050554
5	0x3f0adc55	0.5424245
6	0xbf873d17	-1.0565518
7	0xbfc32539	-1.5245734
8	0xbed97c6b	-0.42477736
9	0xbfa62243	-1.2979206
10	0xbd9a9af8	-0.07549089
11	0x3e8c24cc	0.27371824
12	0xbf1e2ebf	-0.6179008
13	0xbf3e62e6	-0.7436966
14	0xbf6e9d2f	-0.93208593
15	0xbf5cbde6	-0.8622726
