seed-AuNP-phasemaps/pretraining/tune/16_4_128_1.05E-03_4/model.pt (torch, 220512 bytes, 20 tensors)

xy_to_r.input_to_hidden.0.weight f4 [128, 2]
0	0xbf911af0	-1.1336346
1	0xbe4a5fc6	-0.19763097
2	0xbfcbd882	-1.5925448
3	0x3e301166	0.17194137
4	0xbf91bdf2	-1.1386092
5	0xbf8f2872	-1.1184218
6	0x3ef4eea9	0.47838333
7	0xbf9711a2	-1.1802256
8	0x3f947e8b	1.1601118
9	0x3db34ee2	0.0875528
10	0xc0072f47	-2.1122606
11	0x3ed22380	0.4104271
12	0x3e86dd08	0.26340508
13	0xbee02127	-0.43775293
14	0xbfb44261	-1.4082757
15	0xbe40b980	-0.18820763
16	0x3f77ee92	0.96848404
17	0xc001cf91	-2.0282938
18	0xbde2b35a	-0.11069365
19	0x3bbdf74a	0.0057973014
20	0xbfa5624a	-1.292062
21	0xbf4c9a3b	-0.79922837
22	0xbcd04837	-0.02542506
23	0x3dcb3e82	0.09924032
24	0xbf395f6c	-0.7241123
25	0xbe413ed2	-0.1887162
26	0x3e2bae55	0.16765721
27	0xbedd8aec	-0.4327005
28	0xbd7ab15d	-0.061204303
29	0xbe188c07	-0.14897166
30	0xbc2c9517	-0.010533593
31	0xbf0c76a5	-0.5486854
32	0xbecf396e	-0.40473503
33	0x3d3b8b05	0.045786876
34	0xbf25e71b	-0.64805764
35	0xbf8a4a37	-1.0803899
36	0xbf5ef9d5	-0.87099963
37	0xbe547b16	-0.20750079
38	0xbeaa4dc9	-0.3326247
39	0xbf281d23	-0.6566946
40	0x3e08d694	0.13363105
41	0x3dba80db	0.091066085
42	0x3e7395bc	0.23787588
43	0x3e15c36b	0.14625327
44	0xbf302c3b	-0.6881749
45	0xbe8af97e	-0.27143472
46	0xc0338a17	-2.8053033
47	0x3ec765d0	0.38944864
48	0x3e7fdd72	0.24986818
49	0xbe8096af	-0.25114962
50	0x3cf45d99	0.029829787
51	0xbd941181	-0.07229901
52	0xbf9236ce	-1.1422975
53	0xbfb99651	-1.4498998
54	0xc01804a2	-2.3752828
55	0xbf348e39	-0.70529515
56	0x3e16d666	0.14730224
57	0x3d6c5540	0.05769849
58	0xbe3e5d53	-0.18590288
59	0xbf9ab082	-1.2085116
60	0x3fa466ea	1.2843907
61	0x3e7659f2	0.24057749
62	0x3f9f4258	1.2442122
63	0xbf0d27a7	-0.5513863
64	0xbf8d96f3	-1.1061691
65	0x3f326ed3	0.69700354
66	0xbdeb5a3a	-0.11491819
67	0xbdd69649	-0.10477883
68	0xbff05e0a	-1.8778698
69	0x3e9be9c6	0.30451792
70	0x3f6af28d	0.91776353
71	0x3f12a7e3	0.57287425
72	0xbf893f57	-1.0722455
73	0xbf9f3fc9	-1.2441341
74	0x3da0de75	0.0785493
75	0xc02820c8	-2.6270008
76	0x3ed2acfb	0.411476
77	0xbe573f11	-0.21020152
78	0xbe810ea6	-0.25206488
79	0xbe932002	-0.28735358
80	0x3fb41a99	1.4070617
81	0x3e25f99f	0.16208504
82	0xbf505315	-0.81376773
83	0xc035df65	-2.84176
84	0x3fba6f7d	1.4565274
85	0xbda49300	-0.080358505
86	0xbefc7de4	-0.49314797
87	0xbe42251f	-0.18959473
88	0x3ca45be4	0.020063348
89	0x3da4b2e2	0.08041932
90	0xbf124abc	-0.57145286
91	0xbff8785e	-1.9411733
92	0xbfc7bd00	-1.5604553
93	0x3f45233b	0.7700688
94	0xbeca3014	-0.39489806
95	0x3d239ff2	0.039947458
96	0xbf9e373a	-1.2360604
97	0xc017c853	-2.3716018
98	0xbfb29a00	-1.3953247
99	0x3e1a1002	0.15045169
100	0xbfc8b27d	-1.567947
101	0x3f100164	0.5625212
102	0x3ecf4d3c	0.40488613
103	0xbed2172c	-0.41033304
104	0x3fc8d002	1.5688479
105	0xbe4aaf16	-0.19793352
106	0x3e5c337f	0.21504019
107	0xbe0019db	-0.12509863
108	0x3f1cea07	0.612946
109	0xbd258b62	-0.04041613
110	0x3c930e49	0.017951148
111	0xbe5dba37	-0.21653067
112	0x3f53a899	0.82679135
113	0xbf3fa4f8	-0.748611
114	0xbee4dc63	-0.44699392
115	0xbf4a7aa4	-0.79093385
116	0xbe81f3f9	-0.2538145
117	0x3c9fb7d8	0.019496843
118	0xbe0c4ee1	-0.13701965
119	0xbf0da09a	-0.55323184
120	0xbc817020	-0.015800536
121	0x3f2168c2	0.6305047
122	0x3e5ec3be	0.21754357
123	0xbf16a717	-0.5884871
124	0xbfa26e02	-1.2689822
125	0xbde1ab1f	-0.11018967
126	0x3f99443a	1.1973946
127	0x3e09b289	0.13447012
128	0x3d1e3f67	0.038634684
129	0xbe06a787	-0.13149844
130	0x3e7859d9	0.24253024
131	0xbe1ced0a	-0.15324798
132	0xbf407922	-0.75184834
133	0xbc152d81	-0.009105087
134	0x3db34f98	0.08755416
135	0xbe42413d	-0.18970199
136	0x3ec1b804	0.37835705
137	0xbdff6d9c	-0.12472078
138	0xbf38d6ff	-0.7220306
139	0x3dd62059	0.104553886
140	0xbf77e305	-0.9683078
141	0xbefd1e4d	-0.4943718
142	0x3dd91da2	0.10601355
143	0xc0b037dc	-5.506819
144	0x3ea0573a	0.3131655
145	0xbf281d06	-0.65669286
146	0xbf2aae0a	-0.6667181
147	0x3ef17cc7	0.4716551
148	0x3f90cefc	1.1313167
149	0xbcbadca6	-0.022810291
150	0xc0576309	-3.3654196
151	0x3ee1de5d	0.44114962
152	0x3d9094d7	0.07059639
153	0xbf262342	-0.6489755
154	0xbfae5f48	-1.3622828
155	0xbde208eb	-0.11036857
156	0x3e628549	0.22121157
157	0xbd30f3eb	-0.04320137
158	0xbf151cfa	-0.5824734
159	0xbf07937f	-0.52959436
160	0xbe9293a0	-0.28628254
161	0x3d3ba02c	0.04580705
162	0xbc9e4976	-0.019322138
163	0xbec58a47	-0.3858206
164	0xbf3552d5	-0.70829517
165	0xbe29e82f	-0.16592477
166	0xbf643adb	-0.89152306
167	0xbec97754	-0.39348853
168	0xbfaa68c3	-1.3313221
169	0x3e8969fa	0.26838666
170	0xbf65a14c	-0.89699244
171	0xbed8b660	-0.4232664
172	0xbec5121a	-0.38490373
173	0xbf86b177	-1.0522908
174	0x3e970055	0.2949244
175	0x3e25aae0	0.16178465
176	0x3f8265bd	1.0187298
177	0x3d08ff0b	0.033446353
178	0xbd57a7ee	-0.052650385
179	0x3d88a340	0.066717625
180	0xbfcc424f	-1.5957736
181	0xbddc62d6	-0.10761039
182	0xbf1c7736	-0.611194
183	0xbe8b4748	-0.2720282
184	0xbf29c9f9	-0.6632381
185	0xbf9064e1	-1.1280786
186	0xc0190af1	-2.3912928
187	0x3edcd599	0.43131712
188	0x3e936e64	0.2879516
189	0xbe2d0a26	-0.16898403
190	0x3e3a1611	0.1817248
191	0x3de0824d	0.10962353
192	0x3ec7e3f0	0.3904109
193	0xb8eba4b1	-0.000112363494
194	0xbf5e8b86	-0.86931646
195	0x3e7e2a39	0.24820794
196	0xbf3cd6b7	-0.7376513
197	0x3e29a389	0.1656629
198	0x3d8c0f8f	0.06838905
199	0xbc20c5b7	-0.009812764
200	0xbd68d477	-0.056843247
201	0x3cd128cb	0.025532147
202	0x3f659498	0.8967986
203	0x3f2ba523	0.67048854
204	0xbe2a145a	-0.16609326
205	0xc07fc34c	-3.996295
206	0xbe42f453	-0.19038515
207	0xbf04ebf0	-0.5192251
208	0xbfcf9fd6	-1.6220653
209	0xbda8a6cd	-0.0823494
210	0xbf4773db	-0.77911156
211	0xc01a431a	-2.4103456
212	0xbf2b6f54	-0.6696675
213	0x3dbaf484	0.09128669
214	0xbf65d7ea	-0.89782584
215	0xbe7f99e2	-0.24961045
216	0xbf627476	-0.88458955
217	0x3e734a97	0.23758923
218	0x3f5fe7b2	0.87462914
219	0xc00fa5a5	-2.2444851
220	0xbe5cf749	-0.21578707
221	0x3d19cd8b	0.037549537
222	0xbe149e5a	-0.14513531
223	0x3d8dc7ab	0.06922849
224	0xbf07645a	-0.528875
225	0x3dcd3ea5	0.10021714
226	0xbf934bdb	-1.1507524
227	0x3f08ff57	0.5351462
228	0xc02575a2	-2.5853047
229	0x3e87443d	0.2641925
230	0xbf228811	-0.6348887
231	0xbcb73883	-0.022365814
232	0xbeaff349	-0.343653
233	0x3d8e46c3	0.069470905
234	0xbfe92674	-1.821486
235	0x3e6d0172	0.23145083
236	0x3e87a6d8	0.2649448
237	0xbefcf47f	-0.49405286
238	0x3ea5a7df	0.32354638
239	0xbfab972c	-1.3405509
240	0xbeec5931	-0.46161798
241	0xbe68f815	-0.22750886
242	0xbe24a872	-0.16079882
243	0xbee5f81c	-0.44915855
244	0x3f9e334e	1.2359407
245	0x3ddf9b72	0.10918321
246	0xbe992580	-0.29911423
247	0xbf06925d	-0.5256708
248	0xc03efdc7	-2.9842393
249	0x3e1a2847	0.15054427
250	0x3ca31b5d	0.019910509
251	0xbbabeb08	-0.005246524
252	0x3e4426ce	0.19155428
253	0xbc6d6591	-0.014489547
254	0xc0110d53	-2.2664382
255	0x3d7559cb	0.059900086

xy_to_r.input_to_hidden.0.bias f4 [128]
0	0x3c00aebf	0.007854163
1	0x3e933cbf	0.28757283
2	0x3f2f6811	0.6851817
3	0x3ecee8c9	0.40411976
4	0xbefbe889	-0.49200848
5	0x3e0125e7	0.12612115
6	0x3f0c635d	0.54839116
7	0x3f65e296	0.8979887
8	0xbe761ee8	-0.24035227
9	0xbd91410b	-0.07092484
10	0x3f2b7dd6	0.66988885
11	0xbee29cac	-0.44260156
12	0xbbb4b366	-0.00551455
13	0xbecb33c7	-0.3968794
14	0xbef105a4	-0.47074616
15	0xbf269214	-0.6506665
16	0xbe19ed99	-0.15032043
17	0x3f118fe8	0.5686021
18	0x3f2ae6ee	0.6675862
19	0xbeb9cadd	-0.36287585
20	0xbef53b49	-0.47896793
21	0xbf33572c	-0.7005489
22	0xbf0ae610	-0.542573
23	0x3e51083c	0.20413297
24	0xbeba50d4	-0.36389792
25	0xbcddbd07	-0.027067674
26	0x3f1da403	0.6157839
27	0x3f0ba1a8	0.5454354
28	0xbe9bc140	-0.30420876
29	0x3d35c795	0.04437979
30	0xbf8ed111	-1.1157552
31	0xbf2b615d	-0.6694544
32	0xbf507fd1	-0.8144503
33	0xbc40ae5b	-0.01176032
34	0x3ed68650	0.41899347
35	0xbf9ca551	-1.223795
36	0x3f1762d1	0.59135157
37	0x3f1049ea	0.56362784
38	0xbecf1b65	-0.40450588
39	0xbebb7bf4	-0.36618006
40	0xbf4b64e0	-0.794508
41	0x3f12d303	0.5735323
42	0xbf8084b2	-1.0040495
43	0xbe500a22	-0.20316365
44	0xbead03fa	-0.33792096
45	0x3e7d3aa9	0.24729408
46	0xbed9bbe3	-0.4252616
47	0xbdfdb632	-0.123882666
48	0x3ec2dee0	0.38060665
49	0xbef38d7a	-0.47568876
50	0x3df28aff	0.11842918
51	0xbf061460	-0.5237484
52	0xbf6b6da0	-0.9196415
53	0xbe56fcf3	-0.2099493
54	0xbf332526	-0.6997856
55	0xbc13627d	-0.008995649
56	0x3eaa8302	0.33303076
57	0x3f356bfd	0.708679
58	0xbd9cc1ae	-0.07654129
59	0xbf05095e	-0.5196742
60	0xbf825b3b	-1.0184091
61	0xbe74cef0	-0.23907065
62	0x3f04fc85	0.51947814
63	0xbf5e2f89	-0.8679128
64	0xbd3828c4	-0.044960752
65	0xbe719e35	-0.23595507
66	0x3e8d0655	0.27543893
67	0xbda7de29	-0.081966706
68	0xbf0df02c	-0.554446
69	0xbeb11537	-0.34586498
70	0x3f41b2c8	0.75663424
71	0x3eb00ba9	0.34383896
72	0xbe91968e	-0.28435177
73	0xbf954e52	-1.1664526
74	0xbf572f3b	-0.8405644
75	0x3d8c4343	0.06848767
76	0xbf251a41	-0.64493185
77	0x3ef6b608	0.48185754
78	0xbe634506	-0.22194299
79	0xbc15fad6	-0.009154042
80	0xbf0f7496	-0.5603727
81	0xbe4334e5	-0.19063146
82	0x3bcafe9d	0.006194903
83	0x3f0059c0	0.5013695
84	0xbf55695e	-0.833639
85	0x3f4933d9	0.7859474
86	0x3d2c337b	0.042041283
87	0xbf51cd52	-0.8195392
88	0xbea32b61	-0.31869033
89	0xbe992916	-0.2991416
90	0x3f31b624	0.6941855
91	0x3c2ea551	0.010659532
92	0x3f1b889d	0.6075533
93	0x3e8bb5a7	0.27287027
94	0xbe8fbf78	-0.28075767
95	0xbf17c3ad	-0.5928295
96	0xbf20bad5	-0.62785083
97	0x3ef9f77d	0.4882163
98	0xbf0f4288	-0.55960894
99	0xbd8b68f1	-0.06807125
100	0xbda9f019	-0.08297748
101	0xbf8229d9	-1.0169021
102	0x3eeda2dd	0.46413317
103	0xbdc09261	-0.094029196
104	0x3f468590	0.7754755
105	0x3f169121	0.588152
106	0x3eafe728	0.34356046
107	0x3b90cb37	0.0044187563
108	0x3f185703	0.5950777
109	0xbe8d8510	-0.2764058
110	0xbe1bfb57	-0.15232597
111	0xbe5f3bfb	-0.21800224
112	0xbea21b92	-0.3166166
113	0xbf85c3a5	-1.0450331
114	0x3e873ffb	0.26416
115	0xbf02cad5	-0.5109075
116	0xbf348682	-0.7051774
117	0xbf577f2e	-0.84178436
118	0xbef1d776	-0.47234696
119	0x3eb255a0	0.34830952
120	0xbdf2249a	-0.118233874
121	0xbdeab1a0	-0.114596605
122	0xbf23f26f	-0.640418
123	0xbe91f39f	-0.2850618
124	0xbf027751	-0.5096331
125	0xbec8285c	-0.39093292
126	0xbe4ff87b	-0.20309632
127	0x3ef8db69	0.48604897

xy_to_r.input_to_hidden.2.weight f4 [128, 128]
0	0xbf5d98f5	-0.8656152
1	0xbed8fcb3	-0.42380294
2	0xbd6c4911	-0.05768687
3	0xbf0ee6b9	-0.55820805
4	0xbc6d403b	-0.014480646
5	0xbf57c372	-0.842826
6	0xbf90c728	-1.1310778
7	0x3db7eb5f	0.0898044
8	0xbf35dea4	-0.7104285
9	0x3daf3fa5	0.08557061
10	0xbdcbc26b	-0.09949192
11	0x3e9946a8	0.2993672
12	0xbefd92f0	-0.49526167
13	0xbd2795ed	-0.040914465
14	0x3c8c4709	0.017123716
15	0xbd0d2ca3	-0.034466397
16	0x3d66a75c	0.05631195
17	0xbe022b7b	-0.12711899
18	0xbe32e130	-0.17468715
19	0xbd80d3fb	-0.06290432
20	0x3e2d57f1	0.16928078
21	0x3f1f00d2	0.62110627
22	0x3d5edb3e	0.054408304
23	0xbf2c5870	-0.67322445
24	0x3db3bc03	0.08776095
25	0xbc4f0d5b	-0.012637462
26	0xbd7d4c6f	-0.06184047
27	0xbe3c3075	-0.1837786
28	0x3d576778	0.05258891
29	0xbe27a3e2	-0.1637111
30	0x3fc46c50	1.5345554
31	0xc0610c6b	-3.516383
32	0xc01c3c79	-2.441191
33	0xbd5eaa38	-0.054361552
34	0xbe14386e	-0.14474651
35	0x3f6b5d21	0.9193898
36	0xbe15b5ec	-0.14620179
37	0xbf906f7e	-1.1284025
38	0x3c4c703d	0.012477932
39	0x3ca86749	0.020557063
40	0x3eebb9b6	0.46040124
41	0xbd3ad9a3	-0.04561771
42	0x3eeea769	0.466121
43	0x3cdca821	0.026935639
44	0x3d687a9e	0.05675756
45	0xbe423eb9	-0.1896924
46	0xbf633009	-0.8874517
47	0xbe90c456	-0.28274792
48	0xbf8916ca	-1.071008
49	0x3dcb0772	0.099135295
50	0x3d8d6dbf	0.06905698
51	0x3ce8110e	0.028328445
52	0x3f652495	0.89508945
53	0x3c6529c2	0.013987007
54	0x3d33648d	0.043797065
55	0xbcdc6c39	-0.026907073
56	0xbe9e151c	-0.3087548
57	0xbdd35750	-0.10319388
58	0xbdba8157	-0.09106701
59	0xbda87e3d	-0.08227203
60	0x3f7e5ac1	0.9935723
61	0x3d51d85c	0.051231727
62	0x3e446bd5	0.1918176
63	0x3f19f579	0.60140187
64	0x3c9345fe	0.01797771
65	0x3d86047a	0.065438226
66	0xbfb5ee37	-1.4213322
67	0xbe009749	-0.1255771
68	0xbc2afe54	-0.010436613
69	0xbe391e02	-0.18077853
70	0xbd9fa37f	-0.07794856
71	0xbee60369	-0.44924477
72	0xbf0888f9	-0.53334004
73	0xbdc1a642	-0.09455539
74	0x3ef379b0	0.47553778
75	0xbe7e437e	-0.24830434
76	0x3d5ac8cd	0.053414155
77	0x3debbf98	0.11511153
78	0xbd5da639	-0.0541136
79	0x3d8a35e1	0.06748558
80	0xbcb6a28a	-0.022294302
81	0x3d876b4a	0.06612261
82	0xbf0119a5	-0.50429755
83	0x3e56ba17	0.20969425
84	0x3e1c7fe5	0.15283163
85	0x3c80ff34	0.01574669
86	0xbe07002a	-0.13183656
87	0x3f3605ac	0.71102405
88	0xbd3c4e13	-0.045972895
89	0xbd9e537c	-0.07730767
90	0xbe2615a6	-0.16219196
91	0xbf07e28e	-0.5308007
92	0xbdd19a59	-0.102345176
93	0xbe202c9f	-0.15642022
94	0xbdbf048f	-0.09327041
95	0x3f3faad9	0.7487007
96	0x3c15de11	0.009147183
97	0xbfc07e62	-1.5038569
98	0xbd08fa28	-0.033441693
99	0xbcca87c2	-0.024722937
100	0xbc64a6e7	-0.013955808
101	0x3ebca8a1	0.36847404
102	0xbea6ed2d	-0.32602826
103	0xbb8d2e59	-0.0043085036
104	0x3e49d7c8	0.1971122
105	0xbe9913ef	-0.2989802
106	0xbf75ed42	-0.9606515
107	0xbf2d96f0	-0.6780844
108	0xbfe67338	-1.8003912
109	0xbf28143e	-0.6565589
110	0xbd013040	-0.031540155
111	0x3d7e976f	0.062156137
112	0xbd87b32d	-0.06625972
113	0x3d6eb187	0.058274772
114	0xbea6e401	-0.32595828
115	0xbd7a9a8a	-0.061182536
116	0xbd1c0cac	-0.038098022
117	0xbf0730b4	-0.5280869
118	0x3d9df296	0.07712285
119	0xbddc3624	-0.10752514
120	0x3d297662	0.041372664
121	0xbd259584	-0.040425792
122	0x3dc7b51a	0.09751339
123	0xbc96f691	-0.018428119
124	0xbe05faa3	-0.13083892
125	0xbd3bf4ed	-0.045887876
126	0xbdbac678	-0.09119886
127	0xbe19b4a3	-0.15010314
128	0xbc727d2e	-0.014800353
129	0xbc843b67	-0.016141606
130	0x3d6acf6c	0.05732672
131	0xbdcafbe3	-0.09911325
132	0xbe04250c	-0.12904757
133	0xbd9cccb3	-0.07656231
134	0x3d2dfba4	0.04247631
135	0xbdb612c1	-0.08890296
136	0x3c8798c1	0.01655233
137	0x3d28fa27	0.04125419
138	0xbda62440	-0.08112383
139	0xbd008d95	-0.031385023
140	0x3d083863	0.0332569
141	0xbd6586a6	-0.056036614
142	0x3d5bb2e0	0.053637385
143	0x3caa7269	0.020806508
144	0x3d0f4d84	0.034986034
145	0xbb654384	-0.003498287
146	0xbd04e393	-0.032443594
147	0x3d36fd62	0.04467524
148	0xbdc1c080	-0.094605446
149	0xbddaeb11	-0.106893666
150	0x3da726f5	0.08161727
151	0x3c342b62	0.010996671
152	0x3dafa631	0.0857662
153	0xbd2d5ef1	-0.04232687
154	0xbd8bc32b	-0.06824335
155	0xbd2c23b4	-0.042026237
156	0xbdbf87d2	-0.093520775
157	0xbda2224b	-0.07916697
158	0x3cef2bc4	0.029195674
159	0x3caf0dc8	0.021368876
160	0xbdca84e3	-0.098886274
161	0x3d8a5744	0.06754926
162	0xbcfb2e9e	-0.030661877
163	0xbdb201a8	-0.08691722
164	0xbd4fe4a8	-0.050755173
165	0x3c80331d	0.015649373
166	0xbdeb7cc5	-0.11498407
167	0x3d14c558	0.036321014
168	0xbe0ddf37	-0.13854681
169	0x3d8e3e64	0.06945494
170	0xbcabec30	-0.020986646
171	0xbd8f27c1	-0.06990004
172	0xbd1367ec	-0.03598778
173	0x3cd1c24d	0.025605345
174	0xbdad4fae	-0.08462463
175	0xbd8addf8	-0.067806184
176	0xbdb7596d	-0.089526035
177	0x3c94715b	0.018120458
178	0x3cc4683b	0.023975482
179	0x3d6311cd	0.055436898
180	0x3c9fd258	0.01950948
181	0x3bdb82ba	0.0066989334
182	0xbd81e566	-0.063425824
183	0xbdd86e1e	-0.10567878
184	0x3d014652	0.031561203
185	0xbda358be	-0.079759106
186	0xbd6c3caa	-0.05767504
187	0x3d8f5156	0.069979355
188	0x3c4119b6	0.011785915
189	0xbce910a7	-0.028450323
190	0xbd9e0f27	-0.07717734
191	0x3d558a31	0.052133743
192	0x3d8b3d8d	0.06798849
193	0xbdf688b1	-0.120377906
194	0xbd379343	-0.044818174
195	0x3bd6130b	0.006533032
196	0x3c39bb7f	0.011336206
197	0x3ceabc83	0.028654343
198	0xbc16935c	-0.009190407
199	0xbd9f1d53	-0.07769265
200	0x3cac8b3c	0.021062486
201	0xbd9dbfaa	-0.07702573
202	0xbc7dc678	-0.015489213
203	0xbd8aa06e	-0.06768881
204	0xbd64b6d9	-0.05583844
205	0x3d5e14b3	0.05421896
206	0xb983ed61	-0.00025163128
207	0xbd39ce96	-0.04536303
208	0x3d232c9f	0.039837476
209	0x3cc66550	0.024218231
210	0xbd1187fc	-0.035530075
211	0xbd74647d	-0.059666146
212	0x3c008e05	0.00784636
213	0xbdd7003a	-0.1049809
214	0x3d177433	0.03697605
215	0xbe1801d7	-0.14844452
216	0xbd9715a9	-0.07377178
217	0xbc99dc7e	-0.018781897
218	0xbd01691c	-0.03159438
219	0xbdafc078	-0.085816324
220	0xbd9f21fb	-0.07770153
221	0x3c439f00	0.011939764
222	0xbddf3a45	-0.10899786
223	0x3d6d0ca2	0.057873376
224	0x3d26fe1e	0.04076969
225	0xbdd65638	-0.10465664
226	0xbd5666cc	-0.05234413
227	0x3b950a36	0.0045483364
228	0x3d9dc1f6	0.07703011
229	0xbc15c025	-0.009140049
230	0xbdac1c72	-0.08403863
231	0x3d705c1f	0.058681604
232	0x3cf53024	0.029930182
233	0x3d57423b	0.052553397
234	0xbd798767	-0.060920145
235	0x3c9d1a59	0.019177603
236	0xbdd4957c	-0.103800744
237	0xbd4c23dc	-0.049838886
238	0x3ce7613e	0.02824461
239	0xbd1c6153	-0.038178753
240	0xbc0ccb9e	-0.008593468
241	0x3d19d14a	0.03755311
242	0x3d404518	0.046940893
243	0xbd883d75	-0.06652347
244	0xbd1b08ff	-0.037850376
245	0x3d1e2279	0.038607094
246	0x3db39315	0.08768288
247	0xbdcaa9f8	-0.098957
248	0xbbc7b306	-0.0060943393
249	0xbcf87a82	-0.030331854
250	0xbd9759e8	-0.07390195
251	0xbd2cbc01	-0.042171482
252	0x3cb36b3b	0.021901717
253	0x3c8555fd	0.016276354
254	0xbdb98ccf	-0.0906006
255	0xbde95168	-0.1139248

xy_to_r.input_to_hidden.2.bias f4 [128]
0	0xbfbe464b	-1.4865202
1	0xbd015d55	-0.03158315
2	0xbd907453	-0.07053437
3	0x3e5e7ce8	0.21727335
4	0xbf9666d9	-1.1750137
5	0xbe91c5cb	-0.28471217
6	0xbdfadb13	-0.12248816
7	0x3f4a5f41	0.79051596
8	0x3ba8a8b2	0.005147063
9	0x3ddc4575	0.107554354
10	0xbe0c2b73	-0.1368845
11	0xbcf8f9fe	-0.030392643
12	0x3cda944a	0.026682038
13	0xbc86cb7d	-0.016454453
14	0x3c3697c7	0.011144585
15	0xbf86b601	-1.0524293
16	0xbc8fe223	-0.017563885
17	0xbd6ce35e	-0.05783402
18	0xbd28c1b4	-0.041200355
19	0xbdd7cf82	-0.10537626
20	0xbdbab1e2	-0.0911596
21	0x3eded3d4	0.43520987
22	0xbdf7156f	-0.12064635
23	0xbccafe36	-0.02477942
24	0xbd669991	-0.056298796
25	0xbdaf1604	-0.08549121
26	0xbf50f4b2	-0.81623375
27	0xbd97d689	-0.07413966
28	0xbdca0ee2	-0.0986612
29	0xbf9de296	-1.2334774
30	0x3c3e3036	0.011608174
31	0xbe89ece1	-0.26938537
32	0xbe0d4cba	-0.137988
33	0xbd5bf79b	-0.05370293
34	0xbddd3879	-0.10801787
35	0xbdd686fa	-0.104749635
36	0xbdff0ae2	-0.124532476
37	0xbde191b4	-0.11014119
38	0x3ed5cae9	0.4175637
39	0xbd08c6dc	-0.033392772
40	0x390afa62	0.0001325398
41	0xbe37ee24	-0.17961937
42	0xbd4e4840	-0.05036187
43	0x3e88d739	0.26726702
44	0xbdc6c21a	-0.09704991
45	0x3f1184aa	0.56843054
46	0xbcacfb21	-0.021115841
47	0xbb149f76	-0.0022678054
48	0x3b9b0bd0	0.004731633
49	0xbd6854a2	-0.056721337
50	0xbf5f8376	-0.8730997
51	0xbe053a99	-0.13010634
52	0xbd6b6af7	-0.057475056
53	0xbecf1f06	-0.40453357
54	0xbdf02869	-0.117264576
55	0xbccbdcc9	-0.024885552
56	0x3f6c0d4c	0.9220779
57	0xbdbd47ca	-0.09242208
58	0x3e6cdc53	0.23130922
59	0xbf33ffc0	-0.7031212
60	0x3cb10b26	0.021611761
61	0xbd7e2fc2	-0.062057264
62	0x3cb4a48d	0.02205112
63	0x3f4eec64	0.80829453
64	0xbe042604	-0.12905127
65	0xbd453e02	-0.04815484
66	0xbaf7873c	-0.0018884907
67	0x3f287ed7	0.6581854
68	0xbdd9f5fb	-0.1064262
69	0x3e4887bb	0.19583027
70	0xbf97f6e5	-1.1872221
71	0x3e10ab20	0.14127779
72	0xbd966b8f	-0.07344734
73	0x3ef45cd5	0.47727075
74	0xbe91d917	-0.2848594
75	0xbc87f815	-0.016597787
76	0x3f4a94e2	0.7913343
77	0xbd911ac0	-0.0708518
78	0xbdfdfae0	-0.12401366
79	0xbd68712d	-0.056748558
80	0xbe197cf9	-0.1498908
81	0xbe0c65ca	-0.13710704
82	0xbc0eea47	-0.008722848
83	0x3e6dc299	0.23218764
84	0x3f1fd0a2	0.62427723
85	0xbe199d92	-0.15001515
86	0xbbf67692	-0.007521459
87	0xbe0b516c	-0.13605279
88	0xbd8d703c	-0.06906173
89	0x3af278f9	0.0018499187
90	0xbd872601	-0.065990455
91	0x3f7e1be8	0.9926133
92	0xbdab4d23	-0.08364322
93	0xbe094c25	-0.13407953
94	0xbcae4e48	-0.021277562
95	0xbd1b5b9c	-0.037929162
96	0xbc05ec0e	-0.008173956
97	0x3c3cbc25	0.0115194665
98	0xbd96497b	-0.07338234
99	0xbd465424	-0.048420087
100	0x3f4c5fb1	0.79833513
101	0xbdd3d93f	-0.10344171
102	0xbce18cbd	-0.02753293
103	0xbdadcb1a	-0.08486004
104	0xbbe7a857	-0.007069628
105	0xbde113f9	-0.109901376
106	0xbdcb38d6	-0.0992295
107	0xbe9da0db	-0.30786785
108	0xbd535517	-0.05159482
109	0xbd44578c	-0.047935054
110	0x3dfb5eb7	0.12273925
111	0xbdc810c4	-0.09768823
112	0xbd3ef33e	-0.046618693
113	0xbbaf9bdf	-0.0053591575
114	0xbfc61d02	-1.5477602
115	0x3c057c2f	0.008147283
116	0x3e9ff3a8	0.31240582
117	0xbdb6a435	-0.08918039
118	0xbef3c720	-0.47612858
119	0xbda966bc	-0.08271548
120	0xbcd3af9d	-0.025840575
121	0xbdce6322	-0.10077502
122	0xbd57c0da	-0.052674152
123	0xbdc538e2	-0.0962999
124	0xbfacc4fa	-1.3497612
125	0xbc9ea946	-0.019367825
126	0xbdbcb302	-0.092138305
127	0xbf421aa6	-0.7582191

xy_to_r.input_to_hidden.4.weight f4 [16, 128]
0	0xc0120c4c	-2.2820005
1	0x3d6441af	0.055726703
2	0xbbcdab1b	-0.006276501
3	0x3ccc0620	0.024905264
4	0xbf324c4d	-0.69647676
5	0xbf1e128c	-0.6174705
6	0xbd928c85	-0.07155708
7	0x3ee807e4	0.4531852
8	0xbd11bbbb	-0.035579424
9	0x3e727e68	0.23681033
10	0x3bc88d23	0.0061203404
11	0x3cedaafb	0.029012194
12	0x3fa5e989	1.2961894
13	0xbd5c4ec2	-0.053786047
14	0x3cb4f125	0.022087643
15	0xc0130bf0	-2.2976036
16	0xbd2f963b	-0.04286788
17	0xbe0f2bae	-0.13981506
18	0xbd96d50c	-0.07364854
19	0xbb2d3c63	-0.0026433698
20	0xbbf33438	-0.0074219964
21	0x3ef3b88c	0.47601736
22	0xbcd24be7	-0.025670959
23	0x3cf5a670	0.02998659
24	0xbd5664cd	-0.052342225
25	0x3d871861	0.06596447
26	0x3fbbec02	1.4681399
27	0x3cd65dca	0.026167769
28	0xbf1d2f85	-0.61400634
29	0x3e13cc55	0.14433415
30	0x3bfd53aa	0.007730921
31	0xbd78ecba	-0.060772635
32	0xbd1a3307	-0.03764632
33	0x3d2cd2b7	0.04219314
34	0x3f4dc83f	0.80383676
35	0x3cbd23b4	0.023088314
36	0xbcdaf448	-0.02672781
37	0xbc1d0205	-0.009583001
38	0x3e2d9816	0.16952547
39	0x3fb7df8c	1.4365096
40	0x3d91226b	0.07086643
41	0x3f10b0e1	0.56519896
42	0x3c3671b6	0.011135509
43	0xbee9a219	-0.45631483
44	0xbcc0bdbf	-0.023527978
45	0x3edba5bc	0.42899883
46	0x3d934c8e	0.07192336
47	0xbd77e285	-0.06051876
48	0x3dab3628	0.08359939
49	0x3d2a04cd	0.041508485
50	0xbeafd2a1	-0.34340385
51	0xbd3580c1	-0.044312242
52	0xbe843a45	-0.25825706
53	0xbe29f619	-0.16597785
54	0x3cf0142b	0.029306492
55	0xbda35cf1	-0.079767115
56	0xbf22d280	-0.6360245
57	0xbd97a56e	-0.074046
58	0xbe963f1b	-0.2934502
59	0x3e1c45d5	0.15261014
60	0x3d945dc0	0.07244444
61	0xbd69cbb7	-0.057079043
62	0x3db47a00	0.08812332
63	0xbe7464d4	-0.23866588
64	0xbd88a6fb	-0.06672474
65	0xbd8786b5	-0.0661749
66	0xbc1bc94f	-0.009508445
67	0xbe013566	-0.12618026
68	0x3ccfa490	0.025347024
69	0xbe2074f2	-0.15669611
70	0xbf086771	-0.5328284
71	0x3f955f47	1.1669701
72	0x3c70446b	0.01466475
73	0x3f8757b4	1.057364
74	0xbf05b83b	-0.5223424
75	0xbc82370a	-0.015895385
76	0xbe29aa77	-0.16568933
77	0x3cbf80fb	0.023376932
78	0xbba4da5a	-0.0050309123
79	0x3cabc9f7	0.020970328
80	0x3d14e8c9	0.036354814
81	0x3f1379e7	0.57607883
82	0x3c43f357	0.011959872
83	0x3cd0bda8	0.02548106
84	0xbe3ad1da	-0.18244115
85	0x3f09a688	0.5376973
86	0x3c9b888a	0.018986005
87	0xbd24ad2b	-0.04020421
88	0xbd80145c	-0.06253883
89	0xbd1268ce	-0.03574448
90	0x3d97ef98	0.07418746
91	0xbf179a7b	-0.59220093
92	0xbd83b2c5	-0.06430582
93	0xbe2cb033	-0.1686409
94	0x3cea2bb2	0.028585289
95	0x3de1291e	0.109941706
96	0xbe1fcdf9	-0.15605916
97	0x3d24a1f1	0.0401935
98	0x3ddeef98	0.10885543
99	0xbd959c66	-0.07305221
100	0x3f3fd7f5	0.749389
101	0x3dba6925	0.09102086
102	0xbb4d0c7b	-0.0031287957
103	0xbdd33cb7	-0.10314315
104	0x3d15ff30	0.03662032
105	0xbd1dba97	-0.038508024
106	0x3b5e6866	0.0033936738
107	0x3ef2e29e	0.4743852
108	0xbd0c6519	-0.0342761
109	0x3d3ff179	0.046861146
110	0x3fc97890	1.5739918
111	0x3da9ced8	0.082914054
112	0xbcc001e8	-0.023438409
113	0xbd2d863b	-0.04236434
114	0xc02b74be	-2.6790004
115	0x3deff5df	0.11716818
116	0x3ea08c09	0.31356838
117	0x3d455711	0.048178736
118	0x3f0ad8e2	0.54237187
119	0xbc343703	-0.010999444
120	0x3c3f9a6c	0.011694532
121	0xbd0b679f	-0.034034368
122	0x3c8bf735	0.017085651
123	0xbd249126	-0.040177487
124	0xbf06d536	-0.52669084
125	0xbdb6f21f	-0.089329
126	0xbca0350f	-0.01955655
127	0xbf1cad45	-0.6120189
128	0x3f174832	0.59094536
129	0xb6683805	-3.4603302e-06
130	0xbd02158e	-0.031758837
131	0x3fa78abf	1.3089217
132	0xbeff8575	-0.49906507
133	0xbe99faf1	-0.30074266
134	0x3b7eb334	0.0038864138
135	0x3ec4913b	0.38392052
136	0xbd95f29d	-0.073216654
137	0x3e8d96ab	0.27654013
138	0x3c2a7798	0.01040449
139	0x3d041cf7	0.032254186
140	0x3e820816	0.25396794
141	0x3c1d1e11	0.009589688
142	0x3db70a61	0.089375265
143	0x3e0c2fd5	0.13690121
144	0xbdbad39b	-0.09122392
145	0x3d43bdd0	0.04778844
146	0xbcad0bc8	-0.021123782
147	0xbd1762b9	-0.036959384
148	0x3d021025	0.031753678
149	0x3f1dca0e	0.61636436
150	0x3c70831b	0.0146796955
151	0x3dac683d	0.084183194
152	0x3d5d9f5a	0.054107048
153	0xbc0b293d	-0.008493719
154	0xbe91fc02	-0.2851258
155	0x3d529250	0.051409066
156	0xbf85081a	-1.0393097
157	0xbf2ec9e7	-0.6827683
158	0xbdc223eb	-0.09479507
159	0xbdadda68	-0.08488923
160	0x3ce3ff1c	0.027831607
161	0xbc8fde78	-0.017562136
162	0xbefe6156	-0.49683636
163	0xbaf58e00	-0.0018734336
164	0x3d725aa4	0.059168473
165	0x3d348548	0.04407242
166	0xbe38963c	-0.1802606
167	0xbe265ff7	-0.16247545
168	0x3d510e33	0.051038932
169	0x3eed7c75	0.46384016
170	0xbdb45711	-0.08805669
171	0xbe60823e	-0.21924683
172	0x3d592291	0.05301148
173	0x3e8eefe9	0.27917412
174	0x3d1f4872	0.03888745
175	0xbc8638cb	-0.016384503
176	0xbd3844c2	-0.044987448
177	0x3b62f42b	0.0034630399
178	0x3e583d8c	0.21117228
179	0xbc9a381d	-0.018825585
180	0x3ea6b945	0.32563224
181	0x3ed124bc	0.4084834
182	0xbd06aab6	-0.032877646
183	0x3ce5df4c	0.028060578
184	0xbe534eb0	-0.20635486
185	0x3cba5f51	0.022750529
186	0x3eb66566	0.35624236
187	0xbf084031	-0.5322295
188	0x3d94e285	0.07269768
189	0x3d97705d	0.073944785
190	0xbd6139c7	-0.05498674
191	0xbfc69ed4	-1.551722
192	0x3c9b77cf	0.018978028
193	0x3da6d2d7	0.08145683
194	0x3c2bad82	0.010478379
195	0x3e1ca546	0.15297422
196	0x3d5bd27d	0.053667534
197	0xbedc03be	-0.42971605
198	0x3f3d571d	0.7396105
199	0x3efc8698	0.49321437
200	0xbe122b79	-0.14274396
201	0x3f42f76a	0.76158774
202	0x3e47c445	0.19508465
203	0x3d85efb5	0.06539861
204	0xbfdcbf42	-1.7245867
205	0xbcfff0ed	-0.031242812
206	0x3d4221ba	0.047395445
207	0x3d3ad037	0.045608725
208	0x3e15190a	0.14560333
209	0x3e9e0400	0.30862427
210	0xbbe28de2	-0.0069138864
211	0xbf20d18f	-0.6281976
212	0x3fa78747	1.3088158
213	0xbf76e779	-0.9644695
214	0x3d3df866	0.04637947
215	0x3dc337d2	0.09532131
216	0x3d531996	0.051538073
217	0xbd2cb59e	-0.04216539
218	0x3d362ee0	0.044478297
219	0x3d6dd17f	0.05806112
220	0x3cb48f76	0.022041064
221	0x3db69ebe	0.089169964
222	0xbd711b84	-0.05886413
223	0xbd2ba649	-0.04190663
224	0xbe9c6aec	-0.30550325
225	0xbd88a0c1	-0.066712864
226	0xbd3be366	-0.04587116
227	0x3c756f35	0.014980127
228	0x3fb4de2a	1.4130299
229	0x3d576c6a	0.052593626
230	0x3d0b9dec	0.034086153
231	0x3db9acc2	0.09066154
232	0xbd44522b	-0.047929924
233	0x3d87125b	0.06595298
234	0x3be15f41	0.00687781
235	0xbf22be14	-0.63571286
236	0x3af723db	0.001885529
237	0x3d1c088f	0.0380941
238	0xbe71715b	-0.23578398
239	0x3d6d5ca2	0.05794967
240	0x3d887a1b	0.06663915
241	0xbd84b742	-0.06480266
242	0x3d98a9d9	0.07454271
243	0x3dec8e0d	0.115505315
244	0xbe18e8d3	-0.14932565
245	0x3cf63a1b	0.030057004
246	0x3f8437ec	1.0329566
247	0x3b8e4808	0.004342083
248	0xbd7d54de	-0.061848514
249	0x4001c375	2.0275548
250	0xbdd88ef2	-0.1057414
251	0x3d648470	0.055790365
252	0x3fa9d2e1	1.326748
253	0xbd867104	-0.06564525
254	0x3d9db90e	0.07701312
255	0xbf1368fb	-0.5758206

xy_to_r.input_to_hidden.4.bias f4 [16]
0	0x3c0971ca	0.008388946
1	0x3d4c3bbd	0.04986166
2	0x3d232141	0.039826635
3	0x3e37be39	0.17943658
4	0xbe19e8ce	-0.15030214
5	0x3e58e1e1	0.21179916
6	0xbcaa7c34	-0.020811178
7	0xbea38196	-0.31934804
8	0x3e8bbf5a	0.27294427
9	0x3dc1f2d6	0.094701454
10	0x3ed02a30	0.40657187
11	0x3e253cda	0.16136494
12	0xbdbf46d2	-0.0933968
13	0x3f258ef4	0.64671254
14	0xbe73e453	-0.23817568
15	0x3de7a9ee	0.113117084

r_to_mu_sigma.r_to_hidden.weight f4 [16, 16]
0	0xbe5c3f60	-0.2150855
1	0xbdcda484	-0.100411445
2	0x3d127bf7	0.035762753
3	0x3f480717	0.7813582
4	0x3edb7b99	0.42867735
5	0xbe1666e8	-0.14687693
6	0xbf22c7c0	-0.63586044
7	0xbf160cd3	-0.5861332
8	0xbe2861a7	-0.16443501
9	0xbe1c80c4	-0.15283495
10	0xbdc58312	-0.0964414
11	0x3e929fa3	0.28637418
12	0xbed301a4	-0.4121219
13	0xbeb33f0c	-0.35009038
14	0x3e807d59	0.25095633
15	0x3caf7f15	0.021422902
16	0xbeb4937b	-0.3526877
17	0xbf876c10	-1.0579853
18	0xbf8c1caa	-1.0946248
19	0x3f238a95	0.63883334
20	0x3bfd6336	0.007732774
21	0x3ee93802	0.45550543
22	0x3f881c61	1.063366
23	0xbeb5dd22	-0.35520273
24	0x3f653284	0.89530206
25	0xbe2cf098	-0.16888654
26	0xbf836acf	-1.026697
27	0x3f2c8519	0.6739059
28	0xbd0c72e3	-0.034289252
29	0x3d5991e6	0.053117655
30	0xbe253c62	-0.16136315
31	0xbec5eaaf	-0.38655612
32	0xbe4bb3d7	-0.19892822
33	0x3e2e8565	0.17043073
34	0x3ebf8f80	0.3741417
35	0xbdddbf1f	-0.10827469
36	0x3eb65e31	0.35618737
37	0xbdeb6760	-0.114943266
38	0xbeab3eb2	-0.3344627
39	0x3ea2a3a9	0.31765488
40	0x3f410ff0	0.75414944
41	0xbcb50b58	-0.022100136
42	0x3f07e9e2	0.5309125
43	0x3ee2270a	0.4417041
44	0xbf55b1f5	-0.83474666
45	0x3e1bcec0	0.15215588
46	0x3eb6345d	0.35586825
47	0xbdb5ee1a	-0.08883305
48	0x3edb5350	0.42837
49	0xbb1676c4	-0.0022958973
50	0x3da04450	0.078255296
51	0xbecb2abc	-0.3968104
52	0x3e2ef217	0.17084537
53	0x3dae3e1a	0.08507939
54	0x3f0f5413	0.5598766
55	0x3ec041b2	0.37550122
56	0x3f3e5950	0.7435503
57	0xbd226550	-0.0396474
58	0x3f06dba9	0.52678925
59	0x3eb5b2e7	0.35488054
60	0xbdb579a3	-0.08861091
61	0x3f86aa32	1.052069
62	0x3eb2658a	0.34843093
63	0x3f27f248	0.65604067
64	0x3f11cf47	0.56956905
65	0x3d125ec5	0.03573491
66	0x3db14be0	0.0865705
67	0x3e9f8fe3	0.31164464
68	0xbf329dba	-0.6977192
69	0x3e82dcbe	0.25559038
70	0xbde0963c	-0.10966155
71	0xbe9a184a	-0.30096656
72	0xbf1e8403	-0.61920184
73	0xbd1fab98	-0.038982004
74	0x3ee86a28	0.4539349
75	0x3e9bcfb7	0.3043191
76	0xbe818b0c	-0.25301397
77	0xbecf62e3	-0.40505132
78	0xbeb92760	-0.36162853
79	0xbeac7202	-0.3368073
80	0x3cccd977	0.025006039
81	0xbf34f19c	-0.70681167
82	0x3f3b6dbf	0.73214334
83	0x3e5e86d3	0.21731119
84	0x3ddfa999	0.1092102
85	0xbee64a54	-0.44978583
86	0x3e1d9f30	0.15392756
87	0xbfd808c4	-1.6877675
88	0xbf2e17d1	-0.6800509
89	0x3f0a034c	0.5391128
90	0x3eda7ef0	0.4267497
91	0xbfadd261	-1.3579828
92	0x3f3a2202	0.7270814
93	0xbe89f24e	-0.26942676
94	0xba8063ca	-0.0009795364
95	0xbe62a7a6	-0.22134265
96	0xbf90bbca	-1.1307309
97	0x3e69c486	0.22828874
98	0xbe9ad1bd	-0.30238143
99	0x3eb4c4a6	0.3530628
100	0xbf794407	-0.97369426
101	0xbe85c268	-0.26124883
102	0xbe129cd5	-0.14317639
103	0xbdd3ea70	-0.1034745
104	0x3eb5b077	0.35486194
105	0xbddffebb	-0.10937258
106	0x3f043e87	0.5165791
107	0x3e0e8810	0.13919091
108	0x3e93c277	0.28859302
109	0xbeb93caa	-0.36179096
110	0x3e7ae8b0	0.24502826
111	0x3d5ae46f	0.053440508
112	0xbf34d250	-0.7063341
113	0xbf3fc26a	-0.7490603
114	0x3f1025e4	0.56307817
115	0xbdc4e59a	-0.096141055
116	0xbdd798dd	-0.10527203
117	0xbeea094b	-0.45710215
118	0xbd8b937d	-0.068152405
119	0x3e9b47fc	0.30328357
120	0xbf50802b	-0.8144557
121	0x3e8ff7a0	0.2811861
122	0xbe74df57	-0.23913322
123	0x3df985a6	0.121836945
124	0xbe81e387	-0.25368902
125	0x403312b4	2.7980165
126	0xbe011d85	-0.12608917
127	0xbf6a1d19	-0.9145065
128	0xbd97201d	-0.07379172
129	0x3f4224a2	0.7583715
130	0xbd9c1a23	-0.07622173
131	0xbec4796c	-0.38373888
132	0x3dbdcec1	0.09267951
133	0x3f1bb465	0.60822135
134	0x3eae404b	0.34033427
135	0xbf4845b5	-0.78231364
136	0xbe358665	-0.17727049
137	0xbe08a1b5	-0.13342936
138	0x3e2623de	0.1622462
139	0xbe70b607	-0.23506938
140	0x3ebbeda3	0.3670474
141	0x3fad00ff	1.3515929
142	0x3ed2a6ac	0.41142786
143	0x3e740d0b	0.238331
144	0x3f491544	0.78548074
145	0x3dd99f7b	0.106261216
146	0xbe84d06f	-0.25940272
147	0x3f193e7e	0.5986098
148	0xbe8909e5	-0.2676536
149	0xbf997bd7	-1.1990918
150	0xbe8cdf6e	-0.27514213
151	0xbed27143	-0.41102037
152	0x3eaf3989	0.34223583
153	0xbdbec857	-0.093155555
154	0xbede0548	-0.43363404
155	0xbdee473c	-0.11634681
156	0x3ec6269b	0.3870133
157	0x3fec6f58	1.847148
158	0xbf2e3c60	-0.68060875
159	0xbeb797c6	-0.3585798
160	0x3eb0cf3d	0.3453311
161	0xbe717cef	-0.23582815
162	0xbd8fc68f	-0.07020294
163	0x3e01e9a3	0.12686782
164	0x3e458e12	0.19292477
165	0x3f226228	0.63431025
166	0xbf7a1d83	-0.9770128
167	0xbe976040	-0.2956562
168	0x3ec4934a	0.38393623
169	0x3db7cfcd	0.08975182
170	0x3ed27809	0.41107205
171	0x3d89c9b5	0.06727926
172	0x3e206b05	0.15665825
173	0x3e67c23c	0.22632688
174	0x3ce28573	0.027651524
175	0x3f6874a1	0.9080296
176	0xbed78f12	-0.4210134
177	0xbe22f15b	-0.15912382
178	0x3e4e0472	0.20118883
179	0x3f530400	0.8242798
180	0xbfc7bf3c	-1.5605235
181	0x3ec40184	0.38282406
182	0xbd9cf26e	-0.07663427
183	0x3e4b2dc9	0.19841684
184	0x3f094ee4	0.53636
185	0x3dca54c5	0.0987945
186	0xbf3caa9d	-0.73697835
187	0xbe4c2e6f	-0.19939588
188	0xbf103b2d	-0.56340295
189	0x3e8b1eb2	0.27171856
190	0xbe9675f2	-0.2938686
191	0x3dd86208	0.10565573
192	0x3d745b36	0.059657298
193	0x3f14b04e	0.5808152
194	0x3ea8cc82	0.32968527
195	0x3f07436d	0.5283726
196	0x3db3a844	0.087723285
197	0x3e51543c	0.20442289
198	0xbeb9ff9d	-0.3632783
199	0x3e51ce2e	0.20488808
200	0xbf51859d	-0.818445
201	0x3e4e5264	0.20148617
202	0xbea5ce8f	-0.32384154
203	0x3f332a3d	0.69986326
204	0x3f64cdae	0.8937634
205	0xbe99b1ea	-0.3001855
206	0xbe937623	-0.2880107
207	0xbdb009d6	-0.08595626
208	0xbea9ad10	-0.3313985
209	0x3c3b42b8	0.011429481
210	0x3d483b1b	0.048884492
211	0x3e1f3538	0.15547645
212	0x3ef7eb50	0.48421717
213	0x3d22d4d7	0.03975376
214	0x3eaf3cb0	0.34225988
215	0x3e7a2582	0.2442837
216	0x3e13e70e	0.14443609
217	0x3bcd6a67	0.0062687877
218	0x3e4c84f2	0.1997259
219	0x3cb11cf2	0.021620248
220	0x3e134bb1	0.14384343
221	0x3e635366	0.22199783
222	0xbf040343	-0.51567477
223	0x3f554062	0.83301365
224	0x3de5de71	0.11224068
225	0xbef8ae72	-0.4857059
226	0x3ed79dda	0.4211262
227	0xbef8da14	-0.4860388
228	0xbed97fd6	-0.42480344
229	0xbf080c98	-0.53144217
230	0xbdb18717	-0.086683445
231	0xbf3d2b28	-0.73893976
232	0x3f0a6e20	0.5407429
233	0xbe0049cf	-0.12528156
234	0xbefd8a63	-0.49519643
235	0x3e944f24	0.2896663
236	0x3f5929ad	0.8482922
237	0xbe282d17	-0.1642345
238	0xbddd4c13	-0.10805526
239	0x3f1083b7	0.5645098
240	0xbd42be79	-0.04754493
241	0x3dc4fd96	0.0961868
242	0xbda5fd94	-0.08105007
243	0xbe108b43	-0.14115624
244	0x3ec9adef	0.39390513
245	0x3e42206d	0.18957682
246	0xbd7a3ce5	-0.06109323
247	0xbd9b8abe	-0.07594822
248	0x3ee257b9	0.44207552
249	0x3c9c0247	0.019044055
250	0x3eae77b7	0.3407571
251	0xbd156a91	-0.036478583
252	0x3edb7c41	0.42868236
253	0xbef52fbe	-0.47887987
254	0xbecc262d	-0.39872876
255	0xbf476126	-0.7788261

r_to_mu_sigma.r_to_hidden.bias f4 [16]
0	0x3f8c38cf	1.0954837
1	0xbdaedda6	-0.0853837
2	0x3e7235c3	0.23653321
3	0x3d8ea565	0.0696514
4	0x3f36bb05	0.7137912
5	0xbf7d7c14	-0.99017453
6	0x3f3cf9e0	0.7381878
7	0xbf1985ab	-0.59969586
8	0x3ecba844	0.39776814
9	0x3ea047ac	0.3130468
10	0x3f07fe41	0.53122336
11	0xbe0441bb	-0.12915699
12	0xbf24aed0	-0.6432924
13	0x3f7ab00c	0.97924876
14	0x3eb4d6c5	0.35320106
15	0x3f77dd10	0.9682169

r_to_mu_sigma.hidden_to_mu.weight f4 [4, 16]
0	0x3f038ac1	0.51383597
1	0xbd85c4fe	-0.06531714
2	0x3d2e15ea	0.042501368
3	0xbd6d131c	-0.057879552
4	0xbded8119	-0.11596889
5	0xbd6b4540	-0.05743909
6	0xbd4017f2	-0.046897836
7	0x3f23ed9e	0.6403445
8	0x3f028c75	0.5099557
9	0x3ecf4ba6	0.40487403
10	0x3ddbeb38	0.10738224
11	0x3ebee960	0.37287426
12	0x3d0a4cd6	0.033764683
13	0xbd84c527	-0.06482916
14	0xbf019e19	-0.5063186
15	0xbe542fc1	-0.20721342
16	0x3ece9659	0.4034908
17	0x3d6163b2	0.055026717
18	0x3e858eb7	0.26085445
19	0xbecd36f0	-0.40080976
20	0xbdaa8358	-0.08325833
21	0x3d47d599	0.048787687
22	0xbeb946b1	-0.36186746
23	0xbedb6519	-0.4285057
24	0xbebbf955	-0.36713663
25	0xbe9998ca	-0.2999938
26	0xbecd8edc	-0.40148056
27	0xbea173a1	-0.3153353
28	0xbc9562d1	-0.018235596
29	0xbe7cfb2d	-0.24705191
30	0xbe672414	-0.22572356
31	0x3f3fc6e3	0.7491285
32	0xbe199cb0	-0.15001178
33	0xbd8ebe67	-0.0696991
34	0x3e1cebf7	0.15324388
35	0xbf1a9ed5	-0.6039861
36	0xbea71f6a	-0.32641155
37	0xbde102f7	-0.109868936
38	0x3ecffbda	0.40621835
39	0x3de610c1	0.11233664
40	0x3e65d10c	0.22443026
41	0x3e6ab12f	0.22919153
42	0x3f2f55a9	0.6849008
43	0xbd30d00c	-0.04316716
44	0x3de83a1b	0.11339208
45	0xbea50ae5	-0.32234874
46	0x3ec6b546	0.38810176
47	0x3efbbddb	0.49168286
48	0x3ead878c	0.33892477
49	0x3db2ef6b	0.087370716
50	0xbea00125	-0.31250873
51	0x3dd9bbb3	0.10631504
52	0xbf3a19c5	-0.7269557
53	0xbd0493c2	-0.032367475
54	0xbedac650	-0.42729425
55	0x3c128935	0.0089438455
56	0x3e1ba743	0.15200524
57	0xbe0930b8	-0.13397491
58	0x3ddd8dbc	0.10818049
59	0xbf25fe30	-0.64840984
60	0x3ea8c6e0	0.3296423
61	0x3f4df657	0.8045401
62	0x3d5575ef	0.052114423
63	0x3e304df1	0.17217232

r_to_mu_sigma.hidden_to_mu.bias f4 [4]
0	0xbee06329	-0.43825653
1	0xbe73dc3d	-0.23814483
2	0xbfa2751b	-1.2691988
3	0xbde30ab6	-0.11086027

r_to_mu_sigma.hidden_to_sigma.weight f4 [4, 16]
0	0xbf4111e2	-0.7541791
1	0x3f962e9a	1.1732972
2	0x3fbe933a	1.488868
3	0x3e4533e4	0.19258076
4	0x3e813a34	0.25239718
5	0x3fa4db6b	1.2879461
6	0xbe44f4a1	-0.19233944
7	0x3ea1d3ce	0.31606907
8	0xbe5b9b37	-0.21445929
9	0x3db91b55	0.09038416
10	0x3e5da188	0.2164365
11	0x3e01dd8e	0.12682173
12	0x3f91a131	1.1377317
13	0xbe32263e	-0.173974
14	0xbe1c98e1	-0.15292694
15	0xbe99f673	-0.30070838
16	0xbf7778e7	-0.9666886
17	0x3faf0b80	1.3675385
18	0x3ff95490	1.9478931
19	0x3e997bbe	0.2997722
20	0xbd134fdf	-0.035964843
21	0x3fb5f35c	1.4214892
22	0x3e21d6b9	0.15804566
23	0x3f067f88	0.5253835
24	0xbec1673f	-0.37774083
25	0x3dc06c78	0.09395689
26	0x3f2937c9	0.66100746
27	0x3d8c0959	0.068377204
28	0x3fd42ad5	1.6575571
29	0xbea795b2	-0.32731396
30	0xbe81be25	-0.2534038
31	0xbec5849b	-0.38577732
32	0xbf487e87	-0.78318065
33	0x3f8378c6	1.0271232
34	0x3fc92568	1.571454
35	0x3ebb2df8	0.3655851
36	0x3e3f7a79	0.18699063
37	0x3f7f6ec0	0.99778366
38	0x3d40c6e4	0.047064677
39	0x3e4ee97f	0.20206259
40	0xbe7a5834	-0.2444771
41	0xbb8a7e98	-0.004226517
42	0x3edd59c2	0.43232542
43	0x3d24af68	0.040206343
44	0x3fa54a56	1.291331
45	0xbe479fb5	-0.19494517
46	0xbca42e09	-0.020041483
47	0xbe53498b	-0.20633523
48	0xbf9ed07d	-1.2407376
49	0x3fd4e50c	1.66324
50	0x40143baa	2.3161416
51	0xbd3ea22c	-0.046541378
52	0x3e98efea	0.2987054
53	0x3fcdae81	1.6068879
54	0x3e84f876	0.2597081
55	0x3f01e81b	0.5074479
56	0xbea133cf	-0.3148484
57	0xbd82b16e	-0.06381498
58	0x3f635266	0.88797605
59	0x3e85bf28	0.26122403
60	0x4019c0d3	2.402394
61	0xbd8bccfc	-0.06826207
62	0xbed3af28	-0.4134457
63	0xbebf327d	-0.37343207

r_to_mu_sigma.hidden_to_sigma.bias f4 [4]
0	0xc02463aa	-2.568583
1	0xc055c70b	-3.3402736
2	0xc0314db6	-2.770368
3	0xc079ce3f	-3.9032133

xz_to_y.xz_to_hidden.0.weight f4 [128, 5]
0	0xc06e6837	-3.7251108
1	0x3ec40721	0.3828669
2	0x3e3e826f	0.18604444
3	0xbf10d006	-0.5656742
4	0xbdaf7642	-0.08567478
5	0xbfc6d659	-1.5534164
6	0xbee4f2d3	-0.4471651
7	0xbe92867c	-0.28618228
8	0x3eeabc31	0.45846704
9	0xbe7040e4	-0.23462254
10	0xbfc4800e	-1.5351579
11	0x3bfd1866	0.007723856
12	0x3e330a59	0.17484416
13	0x3d50abb0	0.050944984
14	0x3e136ebf	0.14397715
15	0x401aeaeb	2.4205883
16	0xbe0ecf92	-0.1394637
17	0x3c9c03cb	0.019044777
18	0xbde492d2	-0.11160816
19	0xbda70d9c	-0.08156893
20	0x3ffae16c	1.9600043
21	0x3e33264f	0.17495082
22	0x3e204dbd	0.15654655
23	0xbe851470	-0.25992155
24	0xbe03da99	-0.12876357
25	0xc018b719	-2.3861754
26	0xbc8fcfd5	-0.017555157
27	0x3e80e81b	0.25177082
28	0x3eca3666	0.39494628
29	0xbda6d313	-0.08145728
30	0xc0091d6d	-2.142421
31	0xbe44cf4e	-0.19219705
32	0x3c31b9b2	0.010847496
33	0xbd93a1bf	-0.07208585
34	0xbda6bd13	-0.08141532
35	0xc08e7d7d	-4.4528184
36	0xbe3a143a	-0.18171778
37	0xbec918e9	-0.39276817
38	0x3e7ecbf2	0.24882486
39	0x3ebce768	0.368953
40	0xbfd54770	-1.6662426
41	0xbeb0abb4	-0.34506
42	0x3c50e8db	0.01275083
43	0xbf0551d0	-0.5207796
44	0x3eb7b484	0.3587991
45	0x3e962042	0.29321486
46	0xbe303200	-0.17206573
47	0xbd071e61	-0.032987956
48	0xbdf0ad4c	-0.11751804
49	0x3e0c7155	0.13715108
50	0xbfe3a081	-1.7783357
51	0x3ddbd489	0.10733897
52	0x3e1c2936	0.15250096
53	0xbec4e8a1	-0.38458732
54	0x3c63380b	0.013868342
55	0x40013780	2.0190125
56	0x3ded69aa	0.115924194
57	0xbdd01b1d	-0.101614214
58	0xbca96fe6	-0.02068324
59	0xbe447dbf	-0.19188593
60	0xbf8eb726	-1.1149642
61	0xbf195011	-0.59887797
62	0xbd9e4cd0	-0.077294946
63	0xbe86c754	-0.2632395
64	0x3e7cf044	0.24701029
65	0xc0376708	-2.8656635
66	0x3e927d05	0.28611007
67	0xbd92e7da	-0.071731284
68	0x3dd39384	0.10330871
69	0x3e709b2f	0.23496698
70	0xbe8e45c5	-0.27787605
71	0xbdafbd2a	-0.08581002
72	0xbd1ffa36	-0.03905698
73	0x3c024a2b	0.007952253
74	0x3d148009	0.036254916
75	0xbe0068fa	-0.12540045
76	0xbe216084	-0.15759474
77	0xbe2601a3	-0.16211562
78	0x3e8e7c6b	0.27829298
79	0xbe08c31a	-0.13355675
80	0xc03641d8	-2.8477688
81	0xbd0b99dd	-0.034082282
82	0x3e4a1087	0.19732867
83	0xbe8bc5c6	-0.27299327
84	0xbe9c94f8	-0.30582404
85	0xbf339f51	-0.7016497
86	0xbd98a138	-0.07452625
87	0xbeedebd9	-0.46469
88	0x3b8f1bb4	0.004367316
89	0x3dd5c3d1	0.1043774
90	0xc0eeb938	-7.4601097
91	0xbe698101	-0.22803117
92	0xbd9e9902	-0.07744028
93	0xbe97aa55	-0.2962214
94	0xbf2816d7	-0.6565985
95	0xbf8e1fd6	-1.1103466
96	0xbdd9e98b	-0.10640248
97	0x3ebfff70	0.3749957
98	0x3ebb6255	0.3659846
99	0xbe86c6fe	-0.26323694
100	0xbd44eeaf	-0.04807919
101	0x3b73ce1b	0.0037201706
102	0xbccfdfd5	-0.025375286
103	0x3d23570c	0.039877936
104	0x3c84c1da	0.016205717
105	0xbf8c1896	-1.0945003
106	0xbf7a3b60	-0.9774685
107	0xbec40101	-0.38282016
108	0x3ec73116	0.38904637
109	0x3e4523c9	0.19251932
110	0xc009623b	-2.1466205
111	0x3e070f10	0.1318934
112	0xbde6f219	-0.11276645
113	0xbe8f014a	-0.2793067
114	0x3d9a03ac	0.075202316
115	0xc028c5ca	-2.637072
116	0x3da29da6	0.07940225
117	0x3cd66e31	0.02617559
118	0xbe3d63b8	-0.18495071
119	0x3dcbec13	0.09957137
120	0xc0c2c30f	-6.086311
121	0x3ea5390a	0.3227008
122	0xbe906f36	-0.28209847
123	0xbe788dfa	-0.2427291
124	0x3ec51c75	0.38498273
125	0x3ef28ee0	0.4737463
126	0x3ee8b1d5	0.45448175
127	0xbe8fc7fd	-0.28082266
128	0xbe63519b	-0.22199099
129	0xbc5c4ba7	-0.013445771
130	0xc129fee7	-10.624732
131	0x3e3b412f	0.18286584
132	0x3db9f4e9	0.09079916
133	0x3ce92ce3	0.028463786
134	0xbe87eb8b	-0.26546893
135	0xc066aa1d	-3.604133
136	0xbe3c0d42	-0.18364432
137	0x3de2ca6b	0.110737644
138	0x3f1c4c89	0.61054283
139	0xbe3edc66	-0.18638763
140	0x3fa54645	1.291207
141	0x3f007499	0.50177914
142	0xbdd1c42c	-0.10242495
143	0x3e86ec77	0.26352283
144	0xbdcdba46	-0.100452945
145	0x3fb75a17	1.4324368
146	0x3e00a11e	0.12561461
147	0xbe2d77bc	-0.16940206
148	0x3e8e25f5	0.27763334
149	0x3dd51020	0.10403466
150	0xc005ae98	-2.0887814
151	0xbe2cf10d	-0.16888829
152	0xbec5fdb8	-0.38670135
153	0x3e98768e	0.2977795
154	0xbe86b36a	-0.26308757
155	0xc0170df1	-2.360226
156	0xbd53012a	-0.051514782
157	0xbcc47649	-0.023982184
158	0x3d115966	0.035485648
159	0x3e217017	0.15765415
160	0x4001e85f	2.0298078
161	0x3e983190	0.29725313
162	0x3e159053	0.14605837
163	0xbe06d2d5	-0.13166364
164	0xbdd4d141	-0.103914745
165	0xbf9fb912	-1.2478354
166	0xbe66c246	-0.22535047
167	0xbf1c667d	-0.61093885
168	0x3ebed51a	0.3727196
169	0x3df46ff5	0.119354166
170	0xc01a626b	-2.412257
171	0xbe0a1542	-0.13484672
172	0xbee1cccf	-0.4410157
173	0x3eb2f6fd	0.34954062
174	0xbd41101a	-0.047134496
175	0xc0d25a5a	-6.5735292
176	0xbc14eb61	-0.009089322
177	0x3d29b995	0.04143675
178	0xbda91bdc	-0.08257267
179	0xbcef3289	-0.029198902
180	0xc0a32d08	-5.099247
181	0xbebf65e6	-0.3738243
182	0xbf543c84	-0.8290484
183	0x3e5b68ea	0.2142674
184	0xbdb64cf7	-0.08901399
185	0xbfd266da	-1.6437638
186	0x3e6f9f64	0.23400646
187	0xbed1ce4d	-0.40977708
188	0x3eae7163	0.34070882
189	0x3e5e98f6	0.21738037
190	0xbf881dde	-1.0634115
191	0xbe93c643	-0.288622
192	0x3db60e00	0.08889389
193	0xbeb4e7b4	-0.35333025
194	0x3dbee176	0.09320347
195	0x3f8cf075	1.1010882
196	0x3c95f0af	0.018303243
197	0x3e20eaba	0.15714541
198	0xbd9cce4e	-0.07656537
199	0x3ebb3a22	0.3656779
200	0xc036719b	-2.850684
201	0xbed1e8ed	-0.4099802
202	0x3e9c97ed	0.3058466
203	0x3e8506db	0.25981793
204	0x3c6c8ffe	0.014438627
205	0xc02abdce	-2.6678348
206	0xbe8af7c3	-0.27142152
207	0xbd5c7567	-0.0538229
208	0xbf233ade	-0.637617
209	0xbe9ae1ca	-0.30250388
210	0xc0a27b99	-5.0775876
211	0xbec59902	-0.38593298
212	0x3e8eab4a	0.27865058
213	0xbd2c6325	-0.04208674
214	0x3e0f73f3	0.14009075
215	0xbfc92f7e	-1.5717618
216	0x3da5551e	0.080728754
217	0x3e3f7c41	0.18699743
218	0x3eb0ff7b	0.34569916
219	0xbe5d1545	-0.21590145
220	0xbfb61466	-1.4224975
221	0x3d236429	0.039890442
222	0x3e5ef3ee	0.2177274
223	0xbdfb0835	-0.12257425
224	0x3d6d09e0	0.057870746
225	0xbf3ab2f1	-0.7292929
226	0xbce220b5	-0.027603487
227	0xbcc30788	-0.023807302
228	0xbc1cfb4e	-0.0095814
229	0x3c8ca210	0.017167121
230	0xc01f9eec	-2.4940748
231	0xbf02bb4f	-0.5106706
232	0xbec67052	-0.3875757
233	0xbe230f2d	-0.15923758
234	0x3e86c812	0.26324517
235	0xc02ddfd4	-2.7167864
236	0xbe528807	-0.20559703
237	0xbdb8bc98	-0.090203464
238	0xbee2c36f	-0.4428973
239	0x3d92ca6a	0.07167514
240	0x400581a9	2.0860388
241	0xbd38c6be	-0.04511141
242	0x3d529aef	0.051417287
243	0x3ec2511e	0.37952513
244	0xbe061923	-0.13095526
245	0xbf7b758a	-0.98226225
246	0xbf2913d0	-0.66045856
247	0xbe773146	-0.2413989
248	0x3ebae169	0.365001
249	0x3ea7cdee	0.327743
250	0xc0c0a309	-6.0199018
251	0xbe77c4a9	-0.24196114
252	0xbe572d5a	-0.21013394
253	0xbedbe7ee	-0.42950386
254	0x3e453967	0.19260179
255	0xc00d9613	-2.2122848

xz_to_y.xz_to_hidden.0.bias f4 [128]
0	0xbf3efe4a	-0.74606764
1	0xbec39ec6	-0.38207072
2	0x3fbe141d	1.4849888
3	0xbf6ba6d2	-0.9205142
4	0xbfe7469d	-1.8068424
5	0xbff86ca9	-1.940816
6	0x3f8cc2f1	1.0996991
7	0xbe92555d	-0.28580752
8	0xbf995952	-1.1980383
9	0xbf8d801e	-1.1054723
10	0x3d87f4fa	0.066385224
11	0xbf615c62	-0.8803159
12	0xbeb9f83f	-0.3632221
13	0x3eb8f10f	0.36121413
14	0xbeff3357	-0.49843857
15	0xbfb42312	-1.4073203
16	0x3e920dbe	0.2852611
17	0xbe825bd1	-0.25460675
18	0xbfb584af	-1.4181117
19	0xbfa65aaf	-1.2996424
20	0xbef77ce8	-0.48337483
21	0xbf95e34f	-1.1709994
22	0x3f948138	1.1601934
23	0x3f778081	0.96680456
24	0xbf33b1f3	-0.70193404
25	0xc01d9682	-2.4623113
26	0x3e8cfc5a	0.2753628
27	0x3d39befb	0.04534815
28	0xbff63438	-1.9234686
29	0xbff6a528	-1.9269152
30	0xbf387b0d	-0.7206276
31	0x3f8f1d8f	1.1180896
32	0xbf6fd4fd	-0.9368437
33	0xbf9c138a	-1.2193463
34	0xbe14225a	-0.14466229
35	0x3f41a0cc	0.7563598
36	0xbf86dc1f	-1.0535926
37	0xbfce1538	-1.6100225
38	0xbfab012f	-1.3359736
39	0xbfd83fd2	-1.6894476
40	0x3e2a40e8	0.16626322
41	0xbef3b10c	-0.47596014
42	0xbe575ec9	-0.21032251
43	0x3f4dba64	0.80362535
44	0x3f8b6040	1.0888748
45	0xbebc09b3	-0.3672615
46	0x3d1fb221	0.038988236
47	0x3f5631f0	0.8366995
48	0xbf56b903	-0.83876055
49	0xbfb0edca	-1.3822567
50	0x3f10d3ec	0.5657337
51	0x3f910cc1	1.1332017
52	0x3d43ddec	0.047819063
53	0xbfd4b1da	-1.6616776
54	0xbe2d963b	-0.1695184
55	0xbfbbcbe0	-1.4671593
56	0x3f618788	0.8809743
57	0xbfb06639	-1.3781196
58	0xbf68f73f	-0.9100227
59	0xbf232644	-0.63730264
60	0xbf1cd267	-0.6125855
61	0xbf1652d7	-0.58720154
62	0xbf62a041	-0.8852578
63	0xbf7533b2	-0.95782006
64	0xbf859441	-1.0435869
65	0xbfb2b2dd	-1.3960835
66	0x3e161a61	0.146585
67	0xbf747efa	-0.9550625
68	0xbfe402be	-1.7813337
69	0xbf0cd5c9	-0.5501371
70	0xbd649b14	-0.055811957
71	0xbfebcd81	-1.842209
72	0xbf867104	-1.050324
73	0xbfdf1b48	-1.74302
74	0xbd6e5a7e	-0.05819177
75	0x3f0e90a0	0.5568943
76	0x3f665c57	0.8998465
77	0x3ddda688	0.10822779
78	0xbf26b86e	-0.6512517
79	0xbfc48fc7	-1.5356377
80	0xbfe0cb64	-1.756207
81	0x3f693a52	0.91104615
82	0xbfc15dc7	-1.5106744
83	0xbfaa63ad	-1.3311669
84	0xbe40b76b	-0.18819968
85	0xbf45ef0c	-0.7731788
86	0x3fabfef6	1.3437183
87	0xbf907c7a	-1.1287987
88	0xbf62dab6	-0.88614976
89	0xbf24acf1	-0.6432639
90	0xbfdd9249	-1.7310268
91	0x3f3d4579	0.7393413
92	0xbf1b248e	-0.60602653
93	0x3f5ffbcb	0.8749358
94	0xbfb15c31	-1.385626
95	0xbfdce8ec	-1.7258582
96	0xbf3ce055	-0.73779804
97	0xbf9eabbe	-1.2396162
98	0xbef2c6d1	-0.4741731
99	0xc033780d	-2.8042023
100	0xbf957e23	-1.1679119
101	0x3c785ed3	0.015159327
102	0xbf8e1ff1	-1.1103498
103	0xbfd22262	-1.6416743
104	0xbf853db4	-1.0409455
105	0xbfdf0c3b	-1.7425607
106	0xbd067902	-0.032830246
107	0xbf4ce22c	-0.8003261
108	0xbfdda255	-1.7315165
109	0xbfe5c927	-1.7952012
110	0xbeda71e9	-0.42665032
111	0xbf1869f0	-0.5953665
112	0xbfc529ae	-1.5403345
113	0xbf9828b0	-1.1887417
114	0xbf854b01	-1.0413514
115	0xbfc10f34	-1.5082765
116	0xbfe85196	-1.8149898
117	0xbfb7d85f	-1.4362906
118	0x3ee8810e	0.4541096
119	0x3e982af1	0.29720262
120	0xbf6b4250	-0.9189806
121	0x3d848505	0.06470684
122	0xbfbe7971	-1.4880811
123	0x3f52330c	0.8210914
124	0xbfca4305	-1.5801703
125	0xbfbd809c	-1.4804873
126	0xbfade16f	-1.3584422
127	0xbf24f4f2	-0.64436257
