seed-AuNP-phasemaps/pretraining/tune/32_16_32_3.91E-04_16/model.pt (torch, 35040 bytes, 20 tensors)

xy_to_r.input_to_hidden.0.weight f4 [32, 2]
000000 f7 ef fc be a8 df 00 be db d0 18 3f c2 6c 0c bc
       -0.4940183 -0.12585318 0.5969369 -0.008570852
000010 64 6a 21 be af 59 c3 bd 27 91 a4 be b8 df a8 bf
       -0.15763241 -0.0953859 -0.32141992 -1.3193274
000020 db bb 14 be 34 46 45 bf d4 2b fc 3e 42 bb 75 be
       -0.14524786 -0.77060246 0.49252188 -0.23997214
000030 e2 3b cb bc b7 24 6a bf 7f 76 e5 bd e3 24 28 bf
       -0.024808828 -0.9146227 -0.11204242 -0.65681285
000040 31 e3 0d bf 54 99 be bd 7f 23 77 3e 18 9b 25 bf
       -0.5542479 -0.09306589 0.24134634 -0.6468978
000050 88 c5 21 bf a7 0f 90 be 8d fe 84 bf c6 f8 39 be
       -0.63192034 -0.28136942 -1.0390183 -0.18161306
000060 68 c9 1d 3f c6 be e6 3e 55 0b 92 3e 82 17 f5 be
       0.61635447 0.45067424 0.2852427 -0.47869498
000070 83 9c f0 bf 94 56 ae 3e da d1 79 be b5 7b 16 3d
       -1.8797764 0.3405043 -0.24396458 0.03673907
000080 54 6b 30 3e d2 9c f0 bd 86 51 cd 3e 96 c5 6a 3e
       0.17228442 -0.11748661 0.4010126 0.22926936
000090 34 59 27 bf 2a 3d b2 bf 01 b3 5b 3f 82 5d b2 be
       -0.6537049 -1.3924916 0.85820013 -0.34836966
0000a0 82 e1 1f 3f 00 d1 f6 be 8b 0c bc 3e e5 93 09 3f
       0.6245347 -0.4820633 0.3672832 0.53741294
0000b0 c2 e9 97 3d d6 70 16 bf 54 7c 92 be 85 01 9a bf
       0.07417633 -0.58765924 -0.2861048 -1.2031714
0000c0 40 dc 44 bf 94 91 13 3e 29 ff 86 bf 32 6c fd 3e
       -0.76898575 0.14411002 -1.0546619 0.4949661
0000d0 97 61 6a bf 24 76 29 3f de 44 2e 3f af db 1c 3f
       -0.9155516 0.66195893 0.68073833 0.6127271
0000e0 45 77 bd 3e 89 2e d9 3e 51 bd 03 bf 0b 6a 2e 3f
       0.37005058 0.42418316 -0.5146075 0.6813056
0000f0 f6 ac 48 bf e5 39 4b 3f 01 44 42 3f db 4d ec be
       -0.7838892 0.79385215 0.75885016 -0.4615315

xy_to_r.input_to_hidden.0.bias f4 [32]
000000 6d 9b 75 be 81 2a bc 3e 2a 1e 2c bf 92 8b 9c 3e
       -0.23985071 0.36751178 -0.67233527 0.30575234
000010 e2 94 d0 3e 95 e1 80 bd a7 0c 1b 3f 64 62 65 bd
       0.4073859 -0.06293026 0.6056618 -0.056002036
000020 03 ef ff bd e2 37 25 bf 8c 18 07 be 97 97 27 3f
       -0.1249676 -0.64538395 -0.13192958 0.6546568
000030 62 b9 68 bf 00 0a cc be d9 0d 1d be ac e1 a5 be
       -0.9090787 -0.3985138 -0.15337314 -0.32398736
000040 5a 2d c0 be 12 43 47 be ce 66 9a 3e 93 bc d0 be
       -0.375346 -0.19459179 0.3015656 -0.4076887
000050 ff 2c 06 3e cf 0e 64 be 55 ac ee 3e 78 56 67 3e
       0.13103102 -0.22271274 0.46615854 0.22591579
000060 0b f6 0a 3f 07 ca d7 be bd 6e f2 be 27 ca 5a bf
       0.5428168 -0.42146322 -0.47350112 -0.8546471
000070 23 7e e0 bd 57 41 31 be ef 04 bf be d8 7f 2e 3a
       -0.10961559 -0.17310081 -0.37308452 0.00066566234

xy_to_r.input_to_hidden.2.weight f4 [32, 32]
000000 47 d3 29 3e 75 81 b5 3c 97 8e 5b 3d 95 ef b5 3e
       0.16584502 0.022156456 0.05360278 0.3553435
000010 01 02 70 bf f2 7e 1b bf 4c 02 02 be fb 40 e0 3c
       -0.9375306 -0.6074058 -0.12696189 0.027374735
000020 5d 3e 51 3d 1c f5 1c be 94 bf 81 3d 8f 18 c7 be
       0.051084865 -0.15327877 0.06335369 -0.38885924
000030 78 86 9d bf 83 b2 0f be 68 43 bb 3f 88 e4 d2 3c
       -1.2306662 -0.1403294 1.4629946 0.025743738
000040 66 fc bc bd 0e cc af bb f1 ab ac bf 5c ff 53 3d
       -0.09227829 -0.0053649014 -1.3489972 0.0517572
000050 99 27 01 3d 1b f4 13 3c ed ae ed bc 35 cb ab 3e
       0.031531904 0.009030367 -0.029014075 0.33553472
000060 57 b8 8e 3d 01 5c 00 3f a4 09 0d 3f e5 ff 4b bf
       0.06968754 0.50140387 0.55092835 -0.7968734
000070 28 87 10 3e c6 be ae 3d 29 7d 1f 3f fd 05 d8 be
       0.14114058 0.08532481 0.62300354 -0.4219207
000080 ee f3 0d 3e 88 5a 18 3e b8 0e 00 3e 6b 0b de be
       0.13862583 0.14878285 0.12505615 -0.43368086
000090 1a 50 23 be ff 1f 6a 3e f0 3a a3 be 3d fb 10 3d
       -0.15948525 0.22863768 -0.31880903 0.03539585
0000a0 82 34 28 be c4 ab bc 3c 56 b7 a5 3d f9 df 4b 3d
       -0.1642628 0.023031123 0.08091609 0.049774144
0000b0 26 38 84 3e 85 1d d1 3d d9 dc 54 3e 71 a8 79 bd
       0.25824088 0.102107085 0.20787372 -0.060951654
0000c0 37 22 02 3e cf 0c 81 3d 59 8e be 3f bc 2d 2f bf
       0.12708364 0.06301271 1.4887191 -0.6842916
0000d0 04 4d 11 3e d9 75 db 3d ee 28 21 be 09 70 a0 bf
       0.14189535 0.10715837 -0.1573827 -1.253419
0000e0 55 fa 8e 3e aa b2 01 be 30 f7 cc be 83 a2 cd 3e
       0.27925363 -0.12665811 -0.4003234 0.4016305
0000f0 9c 95 82 bc 1f a0 88 be d1 cb e0 be ac e0 f8 3d
       -0.01594048 -0.26684663 -0.439055 0.12152228
000100 83 46 3d 3d 22 d7 37 3e bd 1b a7 3d 3a a6 06 bf
       0.046209823 0.1795316 0.081595875 -0.5259739
000110 eb 36 04 bf ca eb 3c 3e 47 3d c8 be 81 44 45 3d
       -0.516463 0.18449321 -0.3910925 0.048161034
000120 1b 8a 1c be 70 e2 c4 3d d7 0b d1 bd 20 75 35 bd
       -0.15287058 0.09613502 -0.102073364 -0.044301152
000130 f6 9a 42 3f 19 a3 74 3d 25 78 13 be 7f d0 04 be
       0.760177 0.059725855 -0.144013 -0.1297016
000140 a6 9d d5 bc af 6e c3 3e c7 2a c3 bd 51 19 20 3e
       -0.02607615 0.38170382 -0.095296435 0.15634657
000150 66 bf 92 3e 60 8c de 3e 89 be f7 3c 28 0d f9 bf
       0.2866165 0.43466473 0.030242221 -1.945714
000160 64 65 ff be 41 03 ab bd 81 97 e8 be 6f 14 19 3f
       -0.49882042 -0.0835023 -0.45428088 0.59796804
000170 59 15 10 3e 75 ce 6a bf a9 63 09 bf 23 41 32 3e
       0.14070643 -0.9172128 -0.53667694 0.1740766
000180 19 9f 1d be e9 91 3a be 45 f5 13 be 89 66 0e be
       -0.15392722 -0.18219723 -0.14449032 -0.13906302
000190 f5 fa 70 bd 4e 11 30 3d ee fb a2 3d d6 dc ad 3d
       -0.05883308 0.042985253 0.07958208 0.08489387
0001a0 90 ab 97 3d 6c 15 df bd 22 67 1e be c0 32 15 be
       0.0740577 -0.10892758 -0.1546903 -0.14570141
0001b0 51 b9 3d be d6 c5 b7 bd 60 99 d9 bd fe 89 04 3e
       -0.18527724 -0.08973281 -0.10624957 0.12943265
0001c0 0a fe 21 3e 86 f2 ed bd ce d4 85 bd 81 16 c0 3d
       0.15819564 -0.11618523 -0.0653473 0.09379292
0001d0 6a dc 47 3d a9 d7 10 3e 81 19 e7 3d 8c 90 b1 3d
       0.048794188 0.14144768 0.11284161 0.08670148
0001e0 59 fc be 3d 5a 00 5c ba 23 e1 11 bc 55 9f 2e be
       0.09325475 -0.00083923864 -0.008903774 -0.17052968
0001f0 8f 6e fd 3d 70 ba 14 3b 5b bf e1 bd 47 db 13 be
       0.12374603 0.0022694133 -0.11022826 -0.14439116
000200 3c 6d af bc 6a 9d 0b 3e c9 72 1b 3e 49 7c c2 be
       -0.021414392 0.13634267 0.15180506 -0.37985447
000210 1a 4a d2 bd 0d 45 ce bd 89 fe d8 3c 01 ba 11 3d
       -0.1026804 -0.10071764 0.02648856 0.035577778
000220 c8 a4 6f 3d 2d d9 0f 3e 5c 6d e7 3d f4 77 c9 bd
       0.058506757 0.1404769 0.113001555 -0.09837332
000230 c9 0e 36 3f a1 b7 39 bd aa 6b 97 be 63 5f 1b 3e
       0.7111631 -0.045341138 -0.2957433 0.15173106
000240 46 31 42 bd 90 b3 da 3d 1c 82 f6 3e 48 0d b4 3e
       -0.047410272 0.1067878 0.4814614 0.35166383
000250 38 e9 8a 3d 62 38 01 3e 3b 18 29 bd ba 65 9b be
       0.06782764 0.12619165 -0.041282874 -0.3035105
000260 e5 2a 32 be a6 1e d3 be 48 99 2d be fc e0 17 3f
       -0.17399175 -0.4123432 -0.16953003 0.59327674
000270 a2 b0 4f 3e 3d c6 49 bc 11 d8 16 be 98 cb c8 3d
       0.20282224 -0.01231533 -0.1473086 0.098044574
000280 af 25 12 be d5 1a 27 3d f9 c0 8f bd c0 a9 1a 40
       -0.14272188 0.040797073 -0.070192285 2.4166107
000290 f7 1c 7d 3d 24 3d 6b 3b 51 2b 44 3e 49 d1 2e be
       0.0617952 0.0035894597 0.19157149 -0.17072023
0002a0 5c bf 1e be ef c9 9c 3d a0 1c af bb 3a 15 3e 3d
       -0.15502685 0.07655703 -0.0053439885 0.046406962
0002b0 8a 76 22 c0 3b 2b fb 3d a3 6f 41 bf 74 ce 1c 3c
       -2.538485 0.12264105 -0.7556097 0.009570707
0002c0 e2 04 c6 bd ea c8 b2 bd 94 8d e5 3f fd 46 07 be
       -0.096689 -0.087297276 1.7933831 -0.13210674
0002d0 b4 13 5b 3e f4 12 09 3e 72 ee 8a 3e 99 8b 61 40
       0.21394235 0.13386136 0.27135044 3.5241454
0002e0 0e 0c 86 bd 57 20 a4 bd 48 f2 65 bf 50 19 19 bf
       -0.06545268 -0.08013981 -0.89822817 -0.5980425
0002f0 5b ba 15 3e 05 7b b6 be 61 d3 28 bf 7b 64 cd 3c
       0.1462187 -0.3564073 -0.6594754 0.025072327
000300 74 c1 d8 3c 63 0c af 3c f5 7b ed 3d 4d 62 18 bf
       0.026459433 0.021368211 0.115959086 -0.59524995
000310 7e 03 84 3d a9 6a dd 3e 39 f8 0b bd ca 66 84 3d
       0.064459786 0.43245438 -0.03417227 0.06464918
000320 f7 06 ed 3d ba 34 b2 3d 21 c1 09 be f5 9b 27 bd
       0.11573594 0.08701463 -0.13452579 -0.040920217
000330 80 6e 03 3f df 0c 65 3d 8c 87 da 3c 9a 7f e1 bd
       0.51340485 0.055920478 0.026675962 -0.11010666
000340 da 92 f5 bd c0 f1 09 bc ca 50 cf be 48 8f 6f c0
       -0.119909 -0.008419454 -0.40491325 -3.7431202
000350 71 a5 be bd 49 0f 9e 3d dd 8d a9 3c b2 41 1b bf
       -0.09308899 0.07717759 0.020697528 -0.6064712
000360 f3 2f 68 3e ec 1a a8 be 7a 67 85 be e4 af 09 3e
       0.22674541 -0.3283304 -0.2605551 0.13446003
000370 c9 76 07 3e f7 64 83 bd ef 21 81 be d3 6f 7a 3e
       0.13228907 -0.06415742 -0.25221202 0.2445672
000380 21 77 b4 3c 8c 62 0e 3d 4e cf a2 3d 9a 73 db bf
       0.022029461 0.03476195 0.079496965 -1.7144654
000390 2b da 0b bf ff fa 91 3e 1d a0 d9 be 05 43 07 ba
       -0.5462977 0.28511807 -0.4250497 -0.0005159828
0003a0 36 a6 1d be 86 b8 3f 3d ca 08 a5 3c f0 64 13 be
       -0.15395436 0.046806835 0.020145793 -0.14393973
0003b0 c4 cf b2 bf 43 4a 1d bd b9 b3 2e 3f 1a 31 2c 3d
       -1.3969655 -0.0384009 0.68242985 0.042039014
0003c0 bb 8a da bd 42 0d bd 3c 83 a4 56 3f 1a 5e ca be
       -0.10670992 0.02307761 0.83844775 -0.3952492
0003d0 aa bd 99 3c 44 55 d3 bd 5e 84 19 bd be cb ae bf
       0.018767197 -0.103189975 -0.03747975 -1.3655927
0003e0 27 69 92 3e 84 e1 73 3e 1c 33 9e 3e 6f f7 46 bf
       0.2859585 0.23816496 0.30898368 -0.77721304
0003f0 e9 c6 88 3d b9 e7 38 3e 1d eb 93 3e 9e c5 4f 3e
       0.06678564 0.18057145 0.28890315 0.20290229

xy_to_r.input_to_hidden.2.bias f4 [32]
000000 16 e9 df 3d 8e 11 e5 3d 9e 89 a2 3d 44 45 46 bd
       0.109331295 0.11184989 0.07936405 -0.0484059
000010 8e bb ce bc 66 8f 0e 3e 2e 29 4b 3e be 72 67 3e
       -0.025235917 0.1392189 0.19839928 0.22602364
000020 cb 26 83 3d 64 04 34 3e 5b 1e dd 3c c0 f6 8a 3c
       0.064038835 0.175798 0.026992014 0.016963363
000030 c9 ca 61 3e 10 0b 3f 3e 9b 3f 22 3d 04 21 a9 3d
       0.22050013 0.18656564 0.03961144 0.0825825
000040 db 7d 9c 3d bb 62 88 bd ee 8c 3a 3e fe 38 40 3d
       0.076411925 -0.06659456 0.18217823 0.046929352
000050 9f 04 d4 3c f7 b9 f0 ba 4a 5d 70 3d 0e 67 88 ba
       0.02588111 -0.0018365969 0.058682717 -0.0010406689
000060 ac 1c 3f 3d 02 57 38 3e ac 44 72 bd 04 40 1d be
       0.046658203 0.18001941 -0.05914752 -0.15356451
000070 63 04 17 be 82 70 c8 3b 2e 11 3c 3b 40 1f 12 3d
       -0.14747767 0.0061169276 0.0028696763 0.035674334

xy_to_r.input_to_hidden.4.weight f4 [32, 32]
000000 cc e7 7c 3e b4 f8 b1 3e f5 3f 0a 3f b1 37 44 3d
       0.24697798 0.34760058 0.5400384 0.047904674
000010 1a 72 b2 bd eb 66 68 be 59 23 fe bd e7 ca 8d 3e
       -0.087131694 -0.2269551 -0.12409086 0.27693865
000020 cc f1 bd bd 66 3b 8d be b2 e3 b1 be 71 de ed be
       -0.09274635 -0.2758438 -0.3474403 -0.46458772
000030 d1 f7 9d be fe 2e 12 be 1c e3 d2 b9 b9 e6 b1 be
       -0.3085313 -0.14275739 -0.0004022353 -0.3474634
000040 32 1c 89 3e b0 f6 83 be 30 c8 a2 3d ae f8 1c 3e
       0.26779324 -0.25774145 0.07948339 0.15329239
000050 70 b7 a0 3d 44 69 64 bd 23 42 1a be 78 a6 0d be
       0.07847488 -0.05576445 -0.15064292 -0.13833034
000060 fb 77 d1 bd ad ad 7f 3e 00 1a fc bd 3c 6e 1f bd
       -0.102279626 0.24968596 -0.123096466 -0.038923487
000070 b2 dc db 3c c7 b6 38 be 3b 41 31 3c 75 2f 5b 3e
       0.026838634 -0.18038474 0.010818775 0.21404822
000080 19 48 8a 3e 6d 86 e6 be e4 da b7 bd 0b 12 21 be
       0.2700813 -0.45024434 -0.08977297 -0.15729539
000090 9f 7a 47 bc 88 ea 33 be 77 1b 29 3e 0d 03 19 be
       -0.012175231 -0.17569935 0.16514383 -0.1494257
0000a0 88 8e 0e 3e 09 cf fb 3e 4e 79 59 bb 4d f7 8d 3d
       0.13921559 0.49181393 -0.0033183875 0.069319345
0000b0 01 4e 1a 3f 66 de d1 be d1 47 b1 3e ab 59 bd 3e
       0.60275275 -0.4098999 0.34625104 0.36982474
0000c0 33 59 28 be 9d 44 3e 3b a4 e6 e1 3c 51 a5 bb be
       -0.16440277 0.0029032596 0.027575798 -0.36649564
0000d0 bf ab 73 3e 0d e0 fb 3d 54 21 09 bb 8f fc db bd
       0.23795985 0.12298594 -0.0020924406 -0.10741531
0000e0 0b 4c 17 bd d0 09 cd be ef 52 e7 3d 9e 0d 0e 3e
       -0.036937755 -0.4004655 0.11295115 0.13872382
0000f0 0b 3a 4e bd 9b b9 a8 3c 62 9e 5e 3d 0a 5c 9a 3e
       -0.050348323 0.020596316 0.054350264 0.30148345
000100 22 cd fc 3d 24 e2 ad bc c2 92 e4 3e 7e 4f f4 bc
       0.123438135 -0.021225996 0.44643217 -0.029823061
000110 47 98 60 3e 07 27 61 be 3f 0e 82 3d 98 8a 81 3e
       0.21933089 -0.21987544 0.063503735 0.2530105
000120 c7 c7 79 3d ee 2d 61 be 10 b1 54 3e fb 6e 53 3b
       0.06098154 -0.21990177 0.20770669 0.0032262194
000130 c9 ee aa b9 21 58 18 bd 8e 5d 87 ba 95 58 b6 bd
       -0.00032602836 -0.03719342 -0.0010327564 -0.089036144
000140 8d 7e 2f 3c dd db 28 3a 57 50 db bc 68 0d 45 bc
       0.010711324 0.00064414536 -0.026771707 -0.012027122
000150 4b b3 59 3e e2 80 81 bd b8 d8 9f 3d 24 09 ac 3d
       0.21259801 -0.063234106 0.07805008 0.08400181
000160 e4 c6 61 3d 73 86 bb 3b 54 2b a6 3d 15 0a 4d bd
       0.055121318 0.0057228147 0.08113733 -0.050058443
000170 f3 68 11 3e 72 c3 b9 3d cd 18 e5 3d b6 2a 1b 3c
       0.14200191 0.09070481 0.11186371 0.009470632
000180 5a d6 ee 3d 44 f4 06 3d 7c 64 19 3e a2 ad 11 3e
       0.11661978 0.032947794 0.14979738 0.14226392
000190 8f db 88 be e0 9e 8b 3c ae ec 7a be ab c6 02 3e
       -0.2673001 0.017043531 -0.24504349 0.12771098
0001a0 2b f3 54 3d d3 fd 85 3e d3 76 12 3e ce 3f 7a 3d
       0.051989716 0.26170215 0.1430314 0.061096005
0001b0 aa 9f ae 3c d9 c0 e7 bd cc 7f ba be 63 65 3e be
       0.021316368 -0.1131608 -0.36425626 -0.18593363
0001c0 bb 52 72 3b 48 67 1b be c8 b8 89 be 05 c0 08 3e
       0.003697558 -0.15176117 -0.2689879 0.133545
0001d0 89 c6 31 be 04 04 6f be ce e4 db bd 69 0e 1b bc
       -0.17360891 -0.23341376 -0.107370004 -0.009463885
0001e0 ab 8d 8f be 67 4c f4 3d 3d 18 cf bd 1a 88 0c 3e
       -0.28037772 0.11928635 -0.10112045 0.13723794
0001f0 93 06 1d bf 06 dd 25 3d 8d 4b f5 3d c5 14 e5 bd
       -0.61338156 0.040493988 0.11977301 -0.11185602
000200 5b d6 cb be 25 22 63 be 2f e9 58 bf b9 4e 9e bd
       -0.39811978 -0.22180994 -0.8473081 -0.07729859
000210 33 36 c8 3d fb 98 b9 3e 30 ee 45 3e 12 9b f9 be
       0.09775963 0.36249527 0.19329143 -0.48751122
000220 aa 58 88 bd 3b 1a 83 be 5e 8f 61 3e 41 fd ba 3e
       -0.06657536 -0.2560595 0.22027346 0.36521342
000230 79 3e c4 3e b8 54 1b 3e 51 52 c1 3d 36 c6 34 3d
       0.38328913 0.15169036 0.09439529 0.04413434
000240 1a 46 1d be 2d f6 c5 3e 62 6a 81 bd 05 d5 9d bc
       -0.15358773 0.3866438 -0.06319119 -0.019266615
000250 14 cb 11 be ab b0 a8 bc b9 6a e2 bd 6c 6f 13 be
       -0.14237624 -0.020592054 -0.11055512 -0.14397973
000260 2f 52 02 be 4d 41 97 3e ea 8c 7a be b4 45 ce 3d
       -0.12726663 0.29542008 -0.24467817 0.100718886
000270 98 10 84 3e 96 0f 1f 3d 3a e7 a7 bd a8 c3 6f be
       0.2579391 0.038833223 -0.081984 -0.2341448
000280 66 ea ca 3e 51 12 95 3e c4 a1 b5 be de d6 a4 3d
       0.39631957 0.29115537 -0.3547498 0.08048795
000290 78 6a 28 be e7 30 96 bd e5 8b 93 3e 2a 9a 81 3f
       -0.16446865 -0.07333546 0.2881767 1.0125172
0002a0 30 21 33 3e af bf b9 be ce 5b a7 3d cc 08 ea bd
       0.17493129 -0.36279055 0.08171807 -0.11427459
0002b0 d3 f2 3b be d8 32 91 bd 7e e7 46 be 3e 80 ba be
       -0.18354349 -0.07089776 -0.19424245 -0.36425966
0002c0 26 a9 ab 3e 2b 54 b5 be 62 44 a5 bb bf 73 a6 3d
       0.33527488 -0.35415778 -0.0050435523 0.081275456
0002d0 2a 2e b6 be 11 5b 91 be 49 5e 3a 3e 36 42 12 be
       -0.35582095 -0.2838979 0.1820003 -0.1428307
0002e0 6c da 8b 3d d4 12 94 be 48 f6 8f 3e 14 da 91 3c
       0.0682877 -0.28920615 0.28117585 0.017804183
0002f0 e1 a1 f6 3e 1c ad 4f bd 81 15 9a bc 37 6a 8b be
       0.4817038 -0.0507022 -0.018809082 -0.27229473
000300 ca 35 2a 3e 5c a2 8e be 82 87 3a bf 3a c7 5a bd
       0.16622081 -0.27858245 -0.7286302 -0.053412654
000310 18 aa ef bd 13 7d e9 3d 51 b6 6d 3e 41 e5 b5 be
       -0.11702365 0.11400809 0.2321408 -0.3552647
000320 47 e4 08 3e 07 a0 89 3e c6 04 1c be 67 5f 0d 3e
       0.13368331 0.26879904 -0.15236196 0.13805924
000330 48 c2 a3 3e a7 e4 1c be 85 2d 60 3e d3 3a 89 bd
       0.31984162 -0.15321599 0.21892364 -0.06700673
000340 81 f2 14 be dc fc 4f 3e d4 9e 52 bc 8b 7a e7 be
       -0.14545633 0.20311302 -0.01285525 -0.4521068
000350 a7 4a 99 be b6 8d d7 be 01 37 87 3e 66 a8 26 3e
       -0.29939768 -0.42100304 0.26409152 0.16275176
000360 47 e4 4a bd 35 8d 41 3c c5 88 29 3d f7 c4 f6 3d
       -0.04953411 0.011813452 0.0413902 0.12049287
000370 7c 08 90 3d c0 db ad bd 6b a6 2d 3e 81 f5 22 3e
       0.07032868 -0.084891796 0.16958015 0.15913965
000380 02 8a e9 be 86 56 d3 3d 2c 89 30 bb 6e cb 42 3d
       -0.45613104 0.103192374 -0.002693723 0.047557287
000390 8f 84 fe 3d 2e ba 95 bd 05 78 28 be 9a de 55 be
       0.12427627 -0.073109016 -0.16452034 -0.20885697
0003a0 03 0b 01 be 70 ba 48 bd 19 d0 79 be 14 ae 24 3d
       -0.12601857 -0.049005926 -0.24395789 0.040205076
0003b0 82 e1 33 bf 9c 6f 12 3d 46 66 a5 bc ab cc 6e bd
       -0.7026597 0.03575097 -0.02019037 -0.058300655
0003c0 31 6b df be 0f 3d 55 be a3 db 14 bd 1d 78 a2 3d
       -0.43636468 -0.20824073 -0.036342274 0.07933066
0003d0 25 53 60 3e 8c f6 42 3e 09 44 96 bd 4f c0 00 be
       0.21906717 0.19039363 -0.073371954 -0.1257336
0003e0 83 ec 37 bc 73 50 da 3e 73 83 64 be 39 ca 14 be
       -0.011225822 0.42639503 -0.22315769 -0.14530267
0003f0 20 d3 81 bc 6a 7d a1 3b 57 f6 3e be bf 34 5f 3e
       -0.015847743 0.0049282806 -0.18648659 0.21797465

xy_to_r.input_to_hidden.4.bias f4 [32]
000000 15 4e 9d 3c b6 50 1f be b5 23 ac 3d f1 5c 26 be
       0.019202271 -0.15558133 0.08405248 -0.16246392
000010 7b be 69 bb da 53 84 3e 4d cd 04 be bd 4e 22 3e
       -0.0035666514 0.25845224 -0.12968941 0.15850349
000020 3c b4 a2 bd ac 5d d6 3b f2 4b d4 bd 14 c7 8f bd
       -0.07944533 0.0065419283 -0.10366048 -0.07020393
000030 0a 1e 82 bd ca e3 cf 3c 21 73 a5 bd 88 64 2f 3b
       -0.06353386 0.025377173 -0.080786 0.0026762802
000040 d1 fb b2 3d 7a 04 00 3d 48 fd cc bd cb 1e 1f be
       0.087394364 0.03125427 -0.10009247 -0.1553909
000050 67 06 fd bd c2 f7 5a bd 13 dd 23 3b ba 5f dc 3d
       -0.12354737 -0.053458937 0.0025003597 0.10760446
000060 c8 79 34 be cf a1 e9 3c 66 90 98 3d 3f 3c 43 3e
       -0.17624581 0.02851954 0.07449417 0.19065951
000070 a8 bf 1b be 2c 81 21 3e b2 86 9c 3e 10 73 84 3d
       -0.1520983 0.15771931 0.30571514 0.06467259

r_to_mu_sigma.r_to_hidden.weight f4 [32, 32]
000000 80 e9 cd be f0 03 3c be 53 8c 2d 3e ed e8 75 be
       -0.4021721 -0.18360877 0.1694806 -0.24014635
000010 1f b8 47 3f bd 65 ca be 3b 45 8b bd d3 61 f4 3d
       0.7801532 -0.39530745 -0.06800314 0.11932721
000020 21 3d a4 3c ff ab 94 be d7 b8 b1 3e c2 7d 5d 3e
       0.02004868 -0.29037473 0.34711334 0.21630004
000030 b5 5b 55 3c 3c 49 6b be 4e 8f c3 bd 9c 23 21 be
       0.013022353 -0.22977155 -0.095488176 -0.1573624
000040 db 80 22 3e b7 ed 3b 3e 79 d7 ef bd 04 50 d6 bd
       0.15869467 0.183524 -0.1171102 -0.104644805
000050 00 65 9d 3d b4 8c 58 3e c0 7e e8 bd 46 e9 3d 3c
       0.0768528 0.21147424 -0.11352301 0.011591261
000060 a6 52 97 be 19 0e 98 3e f6 7c 51 3e 54 6a a5 3c
       -0.29555243 0.29698256 0.20457825 0.020192303
000070 38 71 67 3e 5a 10 84 3d 1a 80 ea bb ff bd 38 be
       0.22601783 0.06448431 -0.007156384 -0.18041228
000080 73 3b 57 3d 5b 71 e2 3c 08 40 da bd 57 09 95 3c
       0.05254693 0.027641943 -0.10656744 0.01819293
000090 49 64 71 be 9e a0 1e 3f 36 07 a6 3d db 1a e8 bd
       -0.23573412 0.6196383 0.08106844 -0.11333247
0000a0 2e 4e bf 3d 24 ae f6 bd 47 de 9c bf 17 23 4d 3e
       0.093410835 -0.120449334 -1.2255334 0.20032917
0000b0 d4 22 95 bd e5 a7 50 bd 55 a6 ba bc b9 12 45 3e
       -0.072820336 -0.050941367 -0.022784391 0.19245423
0000c0 70 b4 ce be 04 c4 0a bd d4 35 0c 3e f2 5e bd 3e
       -0.40372038 -0.03387834 0.13692409 0.369865
0000d0 00 1f 24 be c9 1a 83 3d b5 5a b3 be 29 64 2f be
       -0.1602745 0.06401593 -0.3503014 -0.17128052
0000e0 2e e5 34 bb 8d 0e f1 3c 09 5e d6 3d 37 a7 f4 3d
       -0.0027602422 0.029425884 0.104671545 0.11945956
0000f0 dc c6 5d 3e e9 8d d0 bd d2 1b d4 3b 32 d8 2d 3e
       0.2165789 -0.10183317 0.006473043 0.16977003
000100 77 23 bb 3d ad a6 1a 3e a3 b4 8c 3e 52 34 05 be
       0.09137624 0.15102644 0.27481565 -0.1300824
000110 d2 41 2f be 29 7d 2f be c2 c6 82 be 64 d3 a5 3d
       -0.17114952 -0.17137589 -0.25542265 0.0809696
000120 40 ae 8b be e2 fe d6 bd 43 c7 82 be d0 d3 be 3d
       -0.2728138 -0.10497834 -0.2554265 0.09317744
000130 90 bb 33 be 9b 64 6d be f1 a3 a6 bd ef 66 1b be
       -0.17552018 -0.23182909 -0.08136738 -0.15175985
000140 a2 ca bc 3e 0d cf 81 be 40 cf 98 bd 1d 45 7b be
       0.36873347 -0.2535328 -0.07461405 -0.24538083
000150 ad 78 27 be 80 13 75 3c c7 bf 02 3f 75 a8 4c bb
       -0.16354628 0.014958262 0.5107388 -0.0031228338
000160 da 6f 02 bc 61 3b 18 bc 96 f9 d0 be 09 29 93 3e
       -0.007961238 -0.009291501 -0.4081542 0.28742245
000170 39 ed aa be 7b 2f 5d 3e 93 83 07 be de 06 2e be
       -0.33384112 0.21600144 -0.13233785 -0.16994807
000180 86 d6 6e 3e 4f 8e 24 bf 25 a8 19 3e de 6c 5c ba
       0.23324022 -0.64279646 0.15005548 -0.00084085565
000190 7f c8 10 bf fe f6 35 3f 7a 66 a2 be 5c 10 0b 3d
       -0.5655593 0.71080005 -0.31718808 0.03395115
0001a0 d7 60 0c bd 18 94 73 bd c3 92 01 bf 1f 19 16 be
       -0.03427204 -0.059467405 -0.50614566 -0.1465802
0001b0 0f f9 2b bd d9 4b 4a be 60 84 3a bc a7 44 be 3c
       -0.041985568 -0.19755496 -0.0113841 0.023226095
0001c0 56 12 a1 bd 11 39 e4 bd 9e 79 eb 3d 46 01 b7 3d
       -0.078648254 -0.11143697 0.11497806 0.0893579
0001d0 f9 c4 bf bd f3 99 e6 3e 5a f4 51 bf 5e 0a e5 3e
       -0.093637414 0.4503933 -0.82013476 0.44734472
0001e0 dc 7e e6 be fb 50 a5 3e bb d9 d7 3e 80 ea 7c 3e
       -0.4501866 0.32288346 0.42158303 0.2469883
0001f0 3e 98 35 3d fd c0 70 bd 15 89 11 3f 6b 94 e0 3d
       0.044334643 -0.058777798 0.56849796 0.109658085
000200 2e bf 35 be 69 33 32 be d9 e7 b8 bd aa 06 aa 3d
       -0.1774871 -0.17402424 -0.090285964 0.08302052
000210 05 a2 a9 3e 18 56 2f be 9d 5b ac 3d 05 66 e8 bd
       0.33131424 -0.17122686 0.08415911 -0.11347584
000220 c2 60 34 3d c6 5d 82 be 64 1e e6 be b0 f8 8c 3d
       0.044037588 -0.25462168 -0.4494506 0.06883371
000230 9b aa 5d bd 69 92 74 bd 11 7f 1f be c2 ba cf bc
       -0.05411778 -0.05970994 -0.15575816 -0.025357608
000240 d0 c8 02 be 15 a4 60 be 70 21 a0 3d cb 5c 9d bd
       -0.12771916 -0.21937592 0.07818878 -0.076837145
000250 af cf 87 bd 0f 1e 91 be e4 00 87 3d 31 00 3a be
       -0.066314094 -0.28343245 0.06591967 -0.18164136
000260 53 1d 48 be 6e b5 e9 3d 00 28 b9 bd f3 57 9f 3d
       -0.19542436 0.11411558 -0.090408325 0.07780447
000270 70 bb 3f be b0 e9 06 3e f2 cc c8 bc 46 90 06 be
       -0.18723845 0.13175082 -0.024511788 -0.13140973
000280 d2 bf 5a 3e cd f3 6b 3e aa 02 97 3d 3f c5 89 be
       0.21362236 0.23042221 0.07373555 -0.269083
000290 7e bd ba be cf fa a2 bd 2c cb 48 be ac 82 ef bd
       -0.36472696 -0.07957994 -0.19608754 -0.116948456
0002a0 05 21 62 bd 03 97 66 3d 7c ad 15 bf df 3b 1c 3e
       -0.05520727 0.05629636 -0.5846784 0.15257214
0002b0 d2 e2 ad 3d 74 54 1e be d8 7a 50 be 3a 38 4b be
       0.08490528 -0.15461904 -0.20359361 -0.19845667
0002c0 b5 58 8f 3e 75 a0 19 bd 66 3f fc bd 7c 68 9c be
       0.27997366 -0.03750654 -0.1231678 -0.30548465
0002d0 1d 30 87 bd 63 ba e0 bb 26 3b 00 3f 49 13 76 be
       -0.06600974 -0.0068581565 0.50090253 -0.24030794
0002e0 99 01 6f 3e 11 a2 94 be 97 37 e6 be 96 d2 be 3d
       0.23340453 -0.29029897 -0.44964287 0.0931751
0002f0 f2 0c 52 be 99 1c 06 3d c8 10 64 be 91 7a 8e bd
       -0.2051275 0.032742117 -0.22272027 -0.069569714
000300 97 05 7a be 15 33 af be 9a b4 46 be d6 d3 cf bc
       -0.24416195 -0.3421866 -0.19404832 -0.025369566
000310 55 ba 8b 3f 50 34 04 bd ee bb b3 bd f1 da a1 3c
       1.0916239 -0.03227645 -0.08776079 0.01975772
000320 d7 ec d3 3c 5c db cf 3c 29 10 51 3c b9 e2 b6 3d
       0.02586977 0.025373153 0.012760201 0.08929963
000330 93 79 75 bd 77 d4 25 3e f6 96 1c be 5c 08 a5 bd
       -0.059930395 0.1619433 -0.15291962 -0.08058235
000340 a1 d9 04 3d c2 33 94 3d 0c 14 ab be a8 da a2 be
       0.03243411 0.072364345 -0.33413732 -0.31807446
000350 f7 09 9b bc 0e 79 e4 be 2a cb 72 3b 6e fd 2b 3e
       -0.01892565 -0.44623607 0.0037047365 0.16795895
000360 3f 46 4b bf c3 7b 01 3e 05 4a 3a 3e 79 20 44 3d
       -0.7940406 0.12644868 0.18192299 0.04788253
000370 f0 04 83 be 01 92 0f 3e b0 d8 e6 3e 7b ba 12 3e
       -0.25589705 0.1402054 0.45087194 0.14328949
000380 11 a5 bb bd d8 21 f7 3d 28 f7 98 3e 13 49 6b be
       -0.09162343 0.12067002 0.29876065 -0.22977094
000390 cd 19 7d 3e 45 a8 a8 be 78 b4 a8 be 43 0f 89 be
       0.24716873 -0.3294088 -0.32950187 -0.26769456
0003a0 21 28 6e be 89 4c 8f be 9a db b6 be 72 cc 9b 3d
       -0.23257495 -0.2798808 -0.35714418 0.07607354
0003b0 84 57 a7 be 88 94 ae be 89 25 d2 3d 6f 2d b0 be
       -0.32683957 -0.34097695 0.102610655 -0.34409663
0003c0 a8 b3 95 3d d7 da 37 ba 4a ab fa bc 76 f2 80 bd
       0.07309657 -0.00070135057 -0.030599255 -0.06296246
0003d0 c3 44 ff bc a1 e5 25 3c 48 9e aa bd 0f 37 30 be
       -0.031160718 0.010125549 -0.08330971 -0.17208503
0003e0 da 91 14 bd 2b 9c d0 3e a9 4d 96 b9 c0 85 6f 3d
       -0.036271907 0.40744147 -0.0002866809 0.058477163
0003f0 cb 4b 66 3c f0 de f1 3d 84 f4 85 be f3 14 2c be
       0.014056156 0.118101 -0.26163113 -0.16804866

r_to_mu_sigma.r_to_hidden.bias f4 [32]
000000 98 d2 bf 3d 52 b2 a5 be 0a 75 bf 3d de da 30 3e
       0.093663394 -0.3236261 0.09348495 0.17270991
000010 ff f3 81 3d 7e a0 84 3c de d4 15 3f fc 14 49 be
       0.06345367 0.01618981 0.58527935 -0.19636911
000020 37 21 2c 3d 2a db 9d 3d 1c 6f bd bd 64 59 5d 3e
       0.042023864 0.07707818 -0.09249708 0.21616131
000030 a9 17 c6 bd 9e d4 16 be 2a 0d dc bd 64 e2 be 3d
       -0.096724816 -0.14729545 -0.10744698 0.09320524
000040 3c 12 2d be 73 11 03 3d 3f 62 a6 3e 98 fd 93 bd
       -0.16901487 0.031999063 0.3249683 -0.072261035
000050 5a d5 84 3e 86 db d3 3d 99 3e 88 be e3 c4 17 be
       0.25944024 0.10344605 -0.26610258 -0.148212
000060 27 28 86 3e 71 2e bc 3e 30 66 8e 3e 37 a3 30 3e
       0.2620251 0.36754182 0.27812338 0.17249762
000070 0a 00 89 3d 7c 37 46 bd 69 fe f1 bd 8a c0 14 3d
       0.066894606 -0.048392758 -0.11816103 0.036316432

r_to_mu_sigma.hidden_to_mu.weight f4 [16, 32]
000000 a4 94 a9 bd eb 1a 23 bd 6e 53 54 bd 67 84 ac bc
       -0.08280304 -0.039820593 -0.051837377 -0.021059228
000010 2f 3d dd bd 29 fe b2 3d 5e 31 d3 3c 4e 18 1d 3d
       -0.108026855 0.087398835 0.025780376 0.038353257
000020 0f 5a 08 bc 37 ce 19 bd 4d f4 06 bc cb e3 31 bd
       -0.008322253 -0.037550177 -0.008236957 -0.04343013
000030 cc e0 f0 3a 59 25 b4 bc 32 48 47 3b d4 d1 89 3c
       0.0018377542 -0.021990465 0.0030408022 0.016823687
000040 6a b4 0e bd 71 3b 37 bd d8 f1 5f bc 6c cf 5c 3c
       -0.034840025 -0.044734422 -0.0136685 0.013477188
000050 f4 9e 0e bd 53 85 6c bd bf 57 47 ba 84 a0 2e 3d
       -0.03481956 -0.057744335 -0.0007604323 0.04263355
000060 70 73 d7 3c ed 52 53 3b cd 52 49 3b 86 9b 0f bd
       0.026300162 0.0032245473 0.003071952 -0.035060428
000070 d2 84 bc 3d 26 33 10 bd ce 07 3f 3d 00 24 bd 3d
       0.09205021 -0.03520503 0.046638303 0.09235382
000080 7b e5 46 be 9d e0 a1 bd 8f 00 bb 3e c4 fc e1 3d
       -0.19423477 -0.0790417 0.36523864 0.11034539
000090 9b d1 fc 3d fd 3b ab 3e 46 84 08 3e 5b 5c 2f 3e
       0.123446666 0.33444205 0.13331708 0.17125075
0000a0 ef 7b 22 3e 9a c8 37 3e 2d f1 08 bf 4c 9d ad 3d
       0.1586759 0.17947617 -0.53493005 0.084772676
0000b0 6d 8a 0b bf 92 bc 21 3f 6b 36 16 3e 12 cc 1e bd
       -0.54508096 0.6317836 0.14669196 -0.038768835
0000c0 22 70 ab 3e 3a 98 a7 3e ca 7b 97 3e 1f 48 71 3b
       0.33483988 0.32733327 0.2958663 0.003681667
0000d0 07 72 4d 3e b1 c9 b3 bd f4 7f fe be e4 d2 a3 be
       0.20063029 -0.08778704 -0.49706995 -0.31996834
0000e0 73 7d 89 3e 0c e2 07 be f2 31 8a bc 1a 24 6c bc
       0.26853523 -0.13269824 -0.016869519 -0.014412904
0000f0 89 a3 0f 3e 2b 4a 87 bd 16 08 a0 bc 37 34 97 3c
       0.14027227 -0.06605943 -0.019535106 0.018457515
000100 f1 63 9e be 34 d6 a2 3e e3 4b 5c be 90 36 e3 3e
       -0.30935624 0.3180405 -0.21513323 0.44377565
000110 69 e9 8d be 2f fb ce bc 77 75 82 3e 12 68 ea be
       -0.2771714 -0.025266258 0.25480244 -0.45782524
000120 f0 53 d7 3e ae 38 2f 3f 03 26 9b bf 30 d8 13 be
       0.42056227 0.6844586 -1.2120975 -0.14437938
000130 e5 24 81 be 0c 0e 12 3f ec be e8 3e 8d ec 2e 3d
       -0.2522346 0.57052684 0.45458162 0.04270606
000140 ea 35 ef bd 3b 40 ab bd a0 1b bd 3b 46 40 d8 3e
       -0.11680205 -0.0836186 0.0057711154 0.42236537
000150 b0 f9 d2 bd a8 d3 e2 3e d6 cf aa be d3 8c 9c 3f
       -0.1030153 0.44302106 -0.3336169 1.2230476
000160 a9 74 17 be 76 f5 7b bd e1 33 aa be 5c c1 ab 3d
       -0.14790596 -0.061513387 -0.33242705 0.0838649
000170 96 6f 2e be 82 1d 1e be 28 9f 86 3d ad db 94 bb
       -0.17034754 -0.15440944 0.065733254 -0.004542789
000180 8a 94 20 3e c3 b5 2f bc a1 72 38 3d 3b cc 73 bb
       0.15681663 -0.010724488 0.045031194 -0.0037200588
000190 cb 03 bc bd 4c 50 2d bd 1f d8 9e 3c 88 58 1b 3d
       -0.09180411 -0.042312905 0.019390164 0.037926227
0001a0 a1 00 bc bb 05 a4 d5 3c 22 53 a0 bc f6 9a c5 3d
       -0.0057373797 0.026079187 -0.01957089 0.09648697
0001b0 99 9c 77 bc 21 d5 5f 3b b6 ba 58 bc e6 c3 05 3c
       -0.015113019 0.0034154134 -0.013228109 0.008164382
0001c0 13 e4 f4 bb ea 19 b7 3c 8d a4 33 3e 89 b6 9c bc
       -0.0074734776 0.022351224 0.1754324 -0.019130008
0001d0 40 78 c0 bd 17 f8 11 bd 4d 26 67 bc 08 13 ce bb
       -0.09397936 -0.035636988 -0.014108253 -0.00628889
0001e0 94 e3 c4 bd 33 d8 ac bd d9 20 27 3d d9 26 d4 bc
       -0.096137196 -0.08439674 0.04080281 -0.02589743
0001f0 3c 33 ad bd 8d d1 45 bc 79 9b d2 3c f8 f4 7c 3d
       -0.08457038 -0.012073887 0.0257089 0.061757058
000200 0b db 85 bd 7d 65 cb bd c0 fa 34 3e 00 23 d9 3c
       -0.0653592 -0.09931467 0.17673779 0.026505947
000210 4b ba 01 be 19 0c 88 3e b1 2c 9b 3b a7 e9 5a 3b
       -0.12668721 0.2657173 0.0047355522 0.0033403428
000220 12 13 c0 3d 1a 2d 84 bc 41 2c 3e be c6 2e 10 3e
       0.093786374 -0.016134787 -0.18571569 0.14080343
000230 5e 72 cc be c2 28 ab 3e bb 18 e6 3d 5b 7e e9 bc
       -0.39931005 0.33429533 0.11235186 -0.028502634
000240 cf 20 67 3e 88 4b 5e 3e 5a e5 88 3e 06 7c d1 3c
       0.22571109 0.217085 0.2673748 0.025571834
000250 8e 93 5d 3e fc 6b 3b 3e 64 33 7f be d5 a6 93 be
       0.21638319 0.18302912 -0.24921948 -0.2883822
000260 d4 6b 08 3e 5c ac 00 be e2 09 03 3d ca 7a 93 3d
       0.13322383 -0.1256575 0.031991847 0.072011545
000270 92 2c 50 3e 40 8b d9 bd f7 84 af bd d1 fa d7 3d
       0.20329502 -0.10622263 -0.08570283 0.10545886
000280 46 a4 dc 3d e0 8a d0 3b 12 36 92 3d 06 84 02 3d
       0.1077352 0.0063642114 0.07139219 0.03186419
000290 1f 0e 9f 3d 48 ce f9 3c 34 04 0e 3c 11 69 6c bc
       0.07766365 0.03049387 0.008667994 -0.014429347
0002a0 e7 68 04 3c 3f 8f 03 3d 2a e7 22 bc 7a 25 87 3d
       0.008081651 0.032119032 -0.009942809 0.06598945
0002b0 21 4b 8c bc b7 45 8f 3b ec 1c 3f bc 93 f2 ff bb
       -0.017125668 0.0043723243 -0.01166461 -0.0078108995
0002c0 8e c5 ae 3c 0a 1d 4f bd 71 af c3 3d 46 9f 8b bc
       0.021334436 -0.050564803 0.09554947 -0.01704372
0002d0 82 bf d9 bd 9d cd e1 3b 8d e3 34 3b ba cc 01 bd
       -0.1063223 0.006890966 0.002760145 -0.031689383
0002e0 6f f2 83 bd 1c 82 29 bd 20 9f 51 bd 18 2e ba 3c
       -0.06442725 -0.041383848 -0.051177144 0.022727057
0002f0 88 4c 49 3d f5 c3 f3 bc 0e 32 f0 bb 31 88 de bc
       0.04914525 -0.029756526 -0.0073301857 -0.02716455
000300 27 b1 b3 be 53 69 6e be 52 87 0f 3d 8d 5a 79 3f
       -0.35096094 -0.23282366 0.03504116 0.97403795
000310 47 0f 9c 3d 11 ce 18 3e 0d b7 60 be 23 cc cc 3c
       0.076201014 0.14922358 -0.21944828 0.024999684
000320 29 19 40 3d b3 d5 08 3e 2b f4 8c be d3 a1 71 3e
       0.046898995 0.1336277 -0.27530035 0.23596887
000330 66 84 fa 3d 68 d5 09 3f e2 3c 93 bd 9e c0 de bd
       0.12232284 0.5384126 -0.07189347 -0.108765826
000340 4e 8f d0 3e d2 be 25 3e da 94 71 3e 39 9e 5d 3f
       0.40734333 0.16186073 0.23591939 0.86569554
000350 c1 21 42 be e8 b2 7e 3f 24 eb 5c be f6 15 be be
       -0.18958189 0.9949174 -0.21574074 -0.3712613
000360 13 6e 3a bd a6 f5 15 bf 61 f4 a8 3d ae 7a 34 3f
       -0.04551513 -0.58577955 0.082497366 0.70499694
000370 cb 85 ef bc e5 1c 05 bf 67 58 c1 be 2a bf c0 be
       -0.029238602 -0.51997215 -0.37762758 -0.37645847
000380 1b 69 04 3d 9e 57 1d be 1f 1f 3b be c5 19 05 3f
       0.0323268 -0.15365455 -0.1827359 0.51992446
000390 10 79 2c 3e 8a 2f 75 be bc 70 ef bd 3c 65 2a be
       0.16843057 -0.23943916 -0.11691424 -0.1664018
0003a0 13 90 4e be a2 b4 b3 bd 60 0c 54 be 40 4f 0a be
       -0.20172147 -0.08774687 -0.20707846 -0.13506794
0003b0 06 59 9f 3e 6e 01 86 3d 00 a9 4c be 30 6f 13 bc
       0.31122607 0.065432414 -0.19986343 -0.008998677
0003c0 91 4b 5b 3c ab bd d5 3d c7 14 17 3e a5 97 b6 3e
       0.013384716 0.10436567 0.1475402 0.3566257
0003d0 4a 03 2b 3e 4b 1e 5c 3f 65 21 26 3e df 20 71 bc
       0.16700473 0.85983723 0.16223677 -0.01471731
0003e0 e2 92 03 3e 77 19 94 bd d9 b9 53 3e 79 be 5b 3e
       0.12849 -0.072314195 0.20676364 0.21459378
0003f0 58 09 02 3e f8 d3 a1 be 48 08 be be 3c 8d 71 bd
       0.12698877 -0.31607032 -0.37115693 -0.058972582

r_to_mu_sigma.hidden_to_mu.bias f4 [16]
000000 3c 02 17 3e 41 c1 43 3d fe d6 a2 3d 47 b3 46 be
       0.14746946 0.047791723 0.07951163 -0.19404326
000010 a6 fd cd bc c8 fa 09 be 11 be ec bd 74 ff 3f bd
       -0.025145363 -0.13474572 -0.1155969 -0.04687448
000020 a9 5e ac bd 66 c1 98 be a8 11 24 bd 7d 80 bf 3d
       -0.084164925 -0.2983505 -0.0400559 0.09350679
000030 0c 4d 80 3e 0a c6 cc bd 98 e6 7a be f9 c6 77 be
       0.25058782 -0.099987105 -0.24502027 -0.24196996

r_to_mu_sigma.hidden_to_sigma.weight f4 [16, 32]
000000 18 a9 a0 bf a9 f3 f3 3e 15 68 0e bf 0d 32 47 bf
       -1.2551603 0.47646835 -0.55627567 -0.77810746
000010 3e 5f 2c bf b2 d7 cb be 58 39 6d bf e4 c1 01 3e
       -0.6733283 -0.39813 -0.92665625 0.1267162
000020 d6 20 5e bf 15 a5 b9 be cb 8a c1 3e 00 71 2e bf
       -0.86768854 -0.3625876 0.37801203 -0.68141174
000030 81 2f da be 34 a7 b6 3e 02 65 50 bd 88 e4 9e 3f
       -0.42614368 0.3567444 -0.05087758 1.2413492
000040 e9 42 9f bf fb 1c 27 bf 7b 63 1b bf 5a ae 21 3f
       -1.2442294 -0.65278596 -0.6069867 0.63156664
000050 66 59 4f bf 27 42 1c 3e 61 a9 a5 be 38 6a 0b bf
       -0.80995786 0.1525961 -0.32355788 -0.5445895
000060 44 4c 27 bf e1 64 6f bf 34 92 2f bf fa ca 60 be
       -0.6535075 -0.93513304 -0.68582463 -0.2195243
000070 55 37 5e bf 80 05 8b 3c 95 c0 1e be 31 34 88 bf
       -0.8680318 0.016970396 -0.15503152 -1.0640928
000080 cd 20 0a c0 4b 20 c7 3c 9b 8d f2 38 e8 6e 97 3f
       -2.158252 0.02430739 0.00011565835 1.1830721
000090 7a 43 00 bf b1 db 22 3e 6c 30 67 bf 21 94 3f bf
       -0.5010296 0.15904118 -0.9030826 -0.748354
0000a0 2e 46 ca 3e 2a 35 4c 3f 2a 48 c5 bf cc b3 76 3e
       0.39506668 0.7976862 -1.5412648 0.24092025
0000b0 5f ac aa 3f aa e0 89 3f f6 cd 32 bf 71 a6 2d 40
       1.3333853 1.0771687 -0.6984552 2.7132838
0000c0 65 e8 c0 bf a6 e9 0e bf d9 9e af be f1 6c e8 3f
       -1.5070921 -0.5582527 -0.3430088 1.8158246
0000d0 ed 02 0f bf d0 d7 a0 3f 4a 46 86 3f 02 16 78 3f
       -0.5586384 1.2565861 1.04902 0.9690858
0000e0 80 41 4b bf 55 ab c0 bf 5e 0d 48 3f ee d8 97 bf
       -0.7939682 -1.5052286 0.78145397 -1.1863077
0000f0 4d 66 aa bd 23 c1 20 3f 27 1d 79 be 9f ba 27 bf
       -0.083202936 0.62794703 -0.24327527 -0.65519136
000100 75 9c b3 be dc 52 9b 3e 1b 6c 7f 3b 20 33 57 3f
       -0.35080305 0.30336654 0.0038974348 0.84062386
000110 10 1f 26 bf 5e 9b e6 bd 4b 60 85 bf 6a 4d 1a 3e
       -0.6489115 -0.11260103 -1.0420011 0.15068594
000120 2a 81 20 3e a5 5d ad bd bd e6 72 3e 20 59 2e bf
       0.15674272 -0.08465127 0.23720832 -0.68104744
000130 a7 fd d1 3f eb 31 36 be 1e 74 0b 3e ab 09 80 40
       1.6405534 -0.1779248 0.13618514 4.00118
000140 a7 d3 18 40 86 d1 d7 3c 0b 56 bf be 98 ec c3 3f
       2.3879182 0.026345026 -0.37370333 1.5306578
000150 76 90 c6 be bb bc 1b 3e 06 ce bd 3f ba 2c 6c 3e
       -0.3878209 0.15208714 1.4828498 0.23063937
000160 9f e2 9f be 05 ce bd be b7 49 36 bf e4 a2 15 3f
       -0.31227586 -0.37071243 -0.7120623 0.58451676
000170 f7 21 dc be 18 26 78 bf be 81 e3 bd f7 9e 1f be
       -0.42994663 -0.96933126 -0.11108731 -0.15587984
000180 d4 ef d4 be 60 b9 ce bd 7e 20 bf be 79 28 88 3e
       -0.41589224 -0.10093951 -0.37329477 0.26593378
000190 73 a0 bf 3b ae b8 9f bd 4b b1 62 bf 74 0b 96 bd
       0.0058479845 -0.07798897 -0.8855178 -0.07326403
0001a0 a6 0f a6 be ca 67 50 bb ad 7c a8 3d 77 df 43 bf
       -0.32433814 -0.0031800144 0.08226905 -0.76512855
0001b0 42 07 89 3f f8 91 10 3f 43 8a b0 3e 1f da c1 3e
       1.070534 0.5647273 0.34480485 0.37861726
0001c0 31 c3 94 3e 6f 1b fa be 96 ba 43 bf b7 78 87 3f
       0.2905517 -0.48849055 -0.7645658 1.0583714
0001d0 1c cd 2b bf ed 06 a6 be ee 4f 18 be b0 dd e9 3e
       -0.6710985 -0.3242716 -0.14874241 0.45676947
0001e0 26 ac e1 be 2f 0a 91 bf fa 72 d7 be 46 79 b9 3d
       -0.4407665 -1.1331233 -0.42079908 0.09056334
0001f0 b8 f8 3b be 81 0a 8d 3d 50 f7 dc be e1 67 93 be
       -0.18356597 0.06886769 -0.43157434 -0.2879019
000200 3b 63 d6 bf e4 84 75 3e 08 db 33 bd ef 2b 2c 3f
       -1.6749033 0.23976475 -0.043910056 0.6725454
000210 5e 2c f7 be 73 b4 dd bc d5 fe 61 bf 77 d0 3b bf
       -0.48276037 -0.027063584 -0.8827947 -0.7336497
000220 c8 25 f9 3e 03 b4 21 3f 40 bf 91 bf af 2f bb bd
       0.48661637 0.631653 -1.138649 -0.09139954
000230 3d 2b 88 3f b5 94 55 3f 9f 18 a0 be 5b e3 fb 3f
       1.0638195 0.83430034 -0.31268784 1.9678758
000240 5f db d5 37 9e a6 ca be 9a 74 ad be 4d 7b 10 40
       2.5493731e-05 -0.39580244 -0.33878022 2.2575257
000250 0b d8 e2 be 6b 32 42 3f 81 e7 2a 3f 85 e3 86 3f
       -0.44305453 0.7585818 0.66759497 1.0538183
000260 e0 0d 2f bf aa ef b1 bf 09 51 a9 3e 0a d7 3d bf
       -0.68380547 -1.3901265 0.33069637 -0.7415625
000270 88 6e a2 3d 3d a4 13 3f 90 90 e7 be 07 a8 54 bf
       0.079312384 0.5767248 -0.4522748 -0.8306889
000280 50 68 54 bf 28 95 3e 3f 6e 8a c4 be 27 fe 61 be
       -0.8297167 0.74446344 -0.38386863 -0.22069608
000290 5a 53 ab be 22 9b 8a be e5 96 57 bf ce 39 96 be
       -0.3346203 -0.27071482 -0.8421462 -0.29340976
0002a0 17 b0 b5 be 4f de 8a bc 7a 12 f8 be a6 b4 32 bf
       -0.35485908 -0.016951708 -0.48451596 -0.698069
0002b0 9d 2a 0f 3f 2c 36 c0 3e b9 68 ea 3d a3 90 29 3f
       0.559244 0.3754133 0.114457555 0.66236323
0002c0 d5 b9 0d 3f 53 f8 b0 be a9 67 1b bf 7b 62 b5 3f
       0.5536168 -0.34564456 -0.6070505 1.4170679
0002d0 53 2f 11 bf 83 ea ae be c0 f5 dd 3c d7 8e e6 3e
       -0.56712836 -0.34163293 0.027094722 0.45030853
0002e0 59 85 49 bf ba 03 79 bf 36 1b dc be 2f 02 9a be
       -0.787191 -0.9727131 -0.4298951 -0.3007979
0002f0 2d 0e 9f be 84 de b2 be e8 d6 f0 3c f7 8f 21 bf
       -0.31065503 -0.3493539 0.02939935 -0.631103
000300 8d 63 fe be 26 d9 1f 3f d6 51 bb 3d 32 a2 55 3e
       -0.49685326 0.6244072 0.09146468 0.20862654
000310 9c 02 df bd 55 91 3d be 8c 56 7d bf d7 c1 04 3f
       -0.108891696 -0.18512471 -0.98960185 0.51858276
000320 8a 4b 95 be 07 ef 9d 3e f4 49 77 bf 9b cc 24 bf
       -0.29159194 0.30846426 -0.9659722 -0.64374703
000330 0a 6f 5c 3f 22 49 bd 3e 21 71 a8 be 1a 57 47 40
       0.8610693 0.36969858 -0.3289881 3.1146913
000340 0b 17 be 3f cd c1 cd 3d 7f ad 82 be 04 ac e9 3f
       1.4850782 0.1004673 -0.25522992 1.825562
000350 ee bb e6 be cc d1 47 be 84 0b f4 3e fa 90 30 3f
       -0.45065254 -0.19513625 0.47665036 0.68971217
000360 dd 99 2c be b4 9e b9 be 84 44 fd be 87 26 b4 3e
       -0.16855569 -0.36253893 -0.49466336 0.35185644
000370 41 8c 98 be 70 35 ad bf d7 b9 71 be d1 ae 4c be
       -0.29794505 -1.3531933 -0.23606049 -0.19988562
000380 38 3a db bf 27 d0 41 3f 56 67 92 3e 32 2b c0 3e
       -1.7127142 0.7570824 0.28594464 0.37532955
000390 9a 83 7b bf da b2 f3 3c 92 18 14 bf 43 36 c2 bf
       -0.98247683 0.029748369 -0.5784999 -1.5172809
0003a0 1a 95 2d be 57 6d 40 3f 37 61 4a be d3 34 54 3e
       -0.16951409 0.7516684 -0.19763647 0.20723276
0003b0 e4 9f 25 c0 7e 79 a8 3f 44 56 b2 3f c2 23 bc 3f
       -2.587884 1.3162076 1.3932576 1.4698412
0003c0 54 70 35 40 1a 58 0a 3e 6f 65 4d 3e af ac b9 3f
       2.834981 0.1351017 0.20058225 1.4505824
0003d0 d9 ec 63 be 0a 09 37 3f 60 fa c7 bf 9e b3 5e 3f
       -0.22258319 0.7149817 -1.5623283 0.86992824
0003e0 f6 36 4a bc bd f0 6e bf ea 53 eb bd 5b db ad be
       -0.012342205 -0.9333609 -0.11490615 -0.33956417
0003f0 a5 9c 67 3e 59 b4 85 be b2 61 ac be ea dc 0d c0
       0.22618349 -0.26114157 -0.33668286 -2.2166085

r_to_mu_sigma.hidden_to_sigma.bias f4 [16]
000000 a4 b2 4c bf 2a 16 4f bf d8 89 70 bf 46 97 85 bf
       -0.79960084 -0.80893195 -0.9396033 -1.043679
000010 51 87 79 bf 17 99 60 bf 12 4b 42 bf 7f c7 85 be
       -0.974721 -0.87733597 -0.758958 -0.26128766
000020 24 e0 73 bf ac 58 c3 be 8e b3 73 bf e0 77 85 bf
       -0.95263886 -0.3815359 -0.95195854 -1.0427208
000030 17 e6 2e bf 6b 18 8a bf 82 b5 61 bf 9c e5 2c bf
       -0.6831984 -1.0788702 -0.88167584 -0.67537856

xz_to_y.xz_to_hidden.0.weight f4 [32, 17]
000000 3a 04 3b be 30 7f 53 bd 9d 5e 19 be f0 32 38 3e
       -0.18263331 -0.051634967 -0.14977498 0.17988181
000010 de fa 99 bd 5e e7 b8 3d 0b 43 85 3d 78 e2 fe 3d
       -0.07518552 0.09028505 0.06506928 0.12445539
000020 46 eb 13 3e 73 27 4f bd 11 61 a8 3e d9 16 8c be
       0.14445218 -0.05057473 0.32886556 -0.2736118
000030 80 fb d2 3d 14 ab 7d bd 42 6d 4c 3d 1d d7 fe 3d
       0.10301876 -0.06193073 0.049908884 0.12443373
000040 8b ed 08 be e1 1a 3d 3f 7a 00 fb bc 16 b5 e3 3c
       -0.13371865 0.7386914 -0.030639876 0.02779631
000050 c9 fa 3c bc 1f 93 f1 3c 7b 60 1f bd 5c 67 3b 3d
       -0.011534401 0.029489098 -0.03891037 0.045752868
000060 3e 4f 4c be e7 51 58 be fc 86 e5 3c c1 0b 87 bd
       -0.19952103 -0.21124993 0.028018467 -0.06594039
000070 e3 d6 7b bd 38 46 08 bd b0 5c 75 bd ec 9b 05 3d
       -0.06148423 -0.03327009 -0.059902847 0.0326194
000080 db 9a 20 3d de b3 92 be 94 e8 7e 3f 04 03 0d 3c
       0.03921018 -0.28652853 0.99573636 0.008606676
000090 c3 14 43 be 52 7b 80 bd 82 6d 0d 3d 5d 42 e6 bc
       -0.19050889 -0.062735215 0.034528263 -0.028107816
0000a0 0f d4 b3 bb ce 2b 38 be 1a 29 9c bd 36 80 65 bb
       -0.005487926 -0.1798546 -0.07625027 -0.0035019047
0000b0 ae 91 f3 3d 7a 0d d4 bc cc 36 c7 3c f4 73 03 3e
       0.118930206 -0.025885332 0.024318121 0.12837201
0000c0 ce 90 7b bd 56 58 42 bd d2 33 d5 bb 19 98 1f bf
       -0.061417393 -0.047447525 -0.0065064216 -0.6234146
0000d0 d1 c8 a3 bd f9 be af 3d c3 8e a5 3d 8a 10 63 bd
       -0.07997287 0.08581347 0.0808387 -0.055435695
0000e0 00 3f 04 3e 0c 6a 44 bb 44 db dc 3d 1e ef 1d be
       0.12914658 -0.0029970435 0.10784009 -0.15423247
0000f0 57 75 a7 bd e7 17 d3 3b 9b c0 a8 3d fd de 90 3d
       -0.08176678 0.0064420584 0.082398616 0.07073782
000100 cf 07 d3 3c fe f5 23 3d b6 30 57 3d f6 d9 13 be
       0.02576056 0.04002952 0.05253669 -0.14438614
000110 9a 95 bb be 79 80 d1 bd 9d 99 9b 3d cf 0a bd bc
       -0.36637574 -0.10229582 0.07597659 -0.023076443
000120 f9 8f 62 bc d8 a3 55 3e 2a 6a 4a 3d 88 a3 06 3f
       -0.013828271 0.20863283 0.049417652 0.5259328
000130 f6 67 0a be 2c f5 05 3c 2d 00 44 bc 4a 27 87 3e
       -0.1351622 0.008176129 -0.011962933 0.26397163
000140 ae 44 56 bd 68 5b d7 bd 57 b7 91 3e a3 82 59 3e
       -0.05231159 -0.10515481 0.2846019 0.2124124
000150 b6 4f 80 3c c5 e4 9e 3f 15 71 21 bc 3b bc 1b be
       0.01566301 1.2413565 -0.009853621 -0.15208523
000160 6b fc 67 bd 7e a5 4d 3b 14 8e 13 be 93 40 04 3c
       -0.05663721 0.0031379159 -0.14409667 0.008072036
000170 df 95 ec bd e3 91 8b bd e3 af 55 bb 5b 4b bd 3d
       -0.11552023 -0.06814935 -0.0032606057 0.092428885
000180 f4 71 37 bd 8a bf 07 bc be 8c 8b bc 3c 8d 16 3d
       -0.04478641 -0.008285413 -0.017034885 0.036755785
000190 17 5a ec bc c4 4a 16 bd 4a 0b 02 c0 3b 0c 46 3d
       -0.028851552 -0.036692396 -2.031939 0.048351508
0001a0 97 1d 0c bf 2d 62 e4 3d 0a 1f 6a bd d4 f6 a9 be
       -0.5473265 0.11151538 -0.057158507 -0.33196127
0001b0 23 68 25 bd 17 77 c4 bc ba 60 92 3e 38 df 59 3d
       -0.040382516 -0.023982568 0.28589422 0.053191394
0001c0 48 70 b2 3e d2 56 1d be aa ce 1e bd 31 af 85 3e
       0.3485129 -0.1536515 -0.03877131 0.26110223
0001d0 7a 26 e7 3d 7e a5 8b be 0b dd 37 3e 0b 2e 01 3f
       0.11286636 -0.27274698 0.17955415 0.5046088
0001e0 f0 7c a0 3c 74 d6 13 bf 9c 5b 1c 3e fe 52 f6 3c
       0.019590825 -0.57749104 0.15269321 0.03006887
0001f0 22 80 c8 be 13 12 8c 3c 21 d5 9b be 14 3b 4e 3c
       -0.39160258 0.017098462 -0.30436042 0.0125873275
000200 82 7a 7c 3d fc b0 ab 3d 57 8f 3a be 9d e5 17 3c
       0.06164027 0.083833665 -0.18218742 0.009271053
000210 4f 6b 44 3e 7d 7f 7c 3d b9 15 43 be 94 b9 b1 bd
       0.1918156 0.06164502 -0.19051255 -0.08677974
000220 bb 8c 82 3e af 20 e2 bc 4e fc ff bd 43 b1 62 3e
       0.25497994 -0.027603475 -0.12499295 0.22137932
000230 d8 6d b1 bb 4c 2f 6b be 41 57 49 3c cb 77 d6 bd
       -0.0054147057 -0.22967261 0.012288869 -0.104720674
000240 4b a0 94 3d 55 9a 68 3d 99 7e 86 3e 3a de 78 be
       0.07257136 0.056787807 0.2626846 -0.24303523
000250 79 b2 19 be d3 3c aa bc 38 99 da bd 39 b9 c4 bd
       -0.15009488 -0.020780956 -0.106737554 -0.09605641
000260 11 67 e6 3d 81 5a 2d bf 21 d1 db 3d 88 55 42 3e
       0.11250127 -0.67716223 0.107332475 0.1897794
000270 6a 07 80 bd 7f f2 c2 3d 8d be 1d bd 9d c7 9a 3c
       -0.06251414 0.09518909 -0.0385118 0.018894011
000280 cf 0f 7d bd 02 83 06 3e 18 3d eb 3d 5c 07 e8 bd
       -0.061782654 0.13135913 0.11486262 -0.11329529
000290 a9 f2 a6 b9 cc dc ca bd 80 b3 55 3d d9 ac 6c 3e
       -0.00031842783 -0.09905395 0.052173138 0.23112811
0002a0 f5 f0 8a 3c 96 e6 45 bc 7f 74 ee 3d cc 4f a1 3d
       0.0169606 -0.012078902 0.116433136 0.07876548
0002b0 5b bf d0 bd d5 7a ac 3e e2 75 80 3b c9 6c 10 be
       -0.10192748 0.33687463 0.0039203027 -0.14103998
0002c0 b4 a4 1b bc ee 8e dd bc fb 94 8b 3d c4 cc 9c 3b
       -0.0094997175 -0.027045693 0.06815525 0.004785152
0002d0 29 c0 3f be cd 01 24 be f8 af de 3c a8 90 1f 3e
       -0.18725647 -0.16016312 0.027183518 0.15582526
0002e0 f4 14 f5 3d 6a dd f9 bd 9f 3c b2 bc df a8 4c 3f
       0.11966887 -0.122004345 -0.021757422 0.79945177
0002f0 39 cd d5 3c 1d ac ae 3d 70 b9 8a 3d cf 97 a5 bd
       0.026098834 0.08528922 0.06773651 -0.08085596
000300 4d 72 9b bc b5 cf 65 b9 c0 c6 c2 3d 11 b5 dd 3d
       -0.018975401 -0.00021916519 0.09510565 0.10825551
000310 24 6e 8d bc 18 74 8f be 29 da 18 3c 24 60 12 3d
       -0.017264433 -0.2801826 0.009329357 0.035736218
000320 fa b2 0a be 81 69 5c 3c 59 be ac 3d aa e4 e5 3d
       -0.13544837 0.0134528885 0.084347434 0.11225255
000330 a9 b2 7b bf 06 5b 4d bd 7a ac 56 3e 8c 4e 5b be
       -0.9831949 -0.050135635 0.20964232 -0.21416682
000340 15 07 39 3b 3e 5c c1 b9 4e 90 2f 3d 8d 8f 1a 3e
       0.002823298 -0.00036880554 0.04286223 0.15093823
000350 2f 0e dc bd a8 6f 6b bb e8 b8 e3 bb 18 35 20 3d
       -0.10744893 -0.0035924707 -0.006949533 0.039113134
000360 fc 14 62 3c f0 d9 42 be c1 9e 09 bc 49 1a 30 3e
       0.013798948 -0.19028449 -0.008399666 0.17197527
000370 fd 74 2c 3c e5 91 51 3e 90 3e dc 3c fb 23 0a be
       0.010525939 0.2046581 0.0268853 -0.13490288
000380 73 f6 b7 bd 19 90 e1 bc 60 6f b1 bc 39 52 16 bd
       -0.08982553 -0.027534531 -0.021659553 -0.036699507
000390 28 95 54 3e b5 9e 9d bd 3e 7b 72 bc 0d b3 1f be
       0.20760024 -0.076962866 -0.014799891 -0.15595646
0003a0 5e 78 0d 3d 28 96 8f 3c 15 f7 97 3d 08 bc d0 bc
       0.03453862 0.017527655 0.07420174 -0.025480285
0003b0 1f 86 24 be de c4 15 bd 76 2a b5 3e e3 cc 67 3d
       -0.16066788 -0.0365647 0.35383958 0.05659188
0003c0 87 3b d3 bd cd 25 90 3d 10 3f 2c 3c 11 ca 0f be
       -0.10314088 0.0703846 0.010513082 -0.14041926
0003d0 e0 68 35 3d a5 a9 89 3c 83 96 c8 3d 15 8f f0 3c
       0.04428947 0.016804526 0.09794333 0.029365102
0003e0 dc e8 0d 3e 96 df 05 be 32 52 8f 3d 4b 4b b8 3d
       0.1385836 -0.13073573 0.069980994 0.08998736
0003f0 98 7b 90 bc 90 8f 96 bc 1e 1f bc 3e 15 b1 d3 3d
       -0.01763706 -0.018379003 0.3674249 0.1033651

xz_to_y.xz_to_hidden.0.bias f4 [32]
000000 81 c5 5b be 42 d4 49 bf d6 08 42 3e 0b 1f d5 3e
       -0.2146206 -0.78839505 0.18948683 0.41625246
000010 ca 90 88 be 6a a4 12 bd c1 d4 c8 3c 38 3a 8c be
       -0.26672965 -0.03580133 0.024515511 -0.27388167
000020 c8 0f b0 3e 77 42 91 3e 16 80 70 be 22 dd a0 be
       0.3438704 0.2837102 -0.23486361 -0.3141871
000030 f4 f4 33 be 82 6d 0e 3d 13 85 6b be 68 a9 f1 bc
       -0.17573911 0.034772404 -0.22999983 -0.029499725
000040 a8 7c 51 3e 52 81 4e 3e 8c aa ad 3c 14 01 17 3f
       0.20457709 0.2016652 0.021199487 0.5898602
000050 cf 0a ce 3d 6a 67 c2 3e 6d 75 c9 bd 9b e4 4a be
       0.10060655 0.37969524 -0.0983685 -0.19813769
000060 6a b8 3b 3e 98 17 42 3e 87 39 bc bd 07 30 0a 3f
       0.18332067 0.18954313 -0.0919066 0.53979534
000070 f1 27 b7 3e fd 5d 87 3e b7 22 a4 3e a5 31 c9 3e
       0.3577266 0.26438895 0.32057735 0.39295688
