seed-AuNP-phasemaps/pretraining/tune/64_8_16_2.26E-03_16/model.pt (torch, 36192 bytes, 20 tensors)

xy_to_r.input_to_hidden.0.weight f4 [16, 2]
000000 5c c9 a4 3f 79 e6 85 bd df ff 03 bf 02 a1 05 3f
       1.287395 -0.065381 -0.51562303 0.52198803
000010 22 8e 0a bf 85 41 fa be 25 0c 1e 3f 51 fd 20 3d
       -0.5412313 -0.48878112 0.6173728 0.03930408
000020 68 8b 1a 3f c2 6b 08 3f 29 f1 40 bf 1a 47 fc 3c
       0.6036897 0.53289425 -0.7536798 0.030795623
000030 fa 99 ad 3f 1a f7 f3 3e 5f 9c cf 3f a7 3f df bd
       1.3562615 0.4764946 1.6219596 -0.109008126
000040 7a 9d 00 3e 9e 91 07 bf f5 3d 6b bd 41 5f 05 c0
       0.12560073 -0.5295657 -0.057432134 -2.0839388
000050 b1 d3 65 3f c1 fc 9e 3d 68 d3 38 3e 05 e5 3a bf
       0.8977614 0.07763053 0.18049395 -0.73005706
000060 a4 53 8a 3d 58 d9 f9 bd f3 88 9b bf 04 89 0c 3f
       0.067542344 -0.12199658 -1.2151169 0.5489657
000070 f5 6a e8 bf 76 16 68 3e 87 4b c4 bf 79 6c fe 3e
       -1.8157641 0.22664818 -1.5335549 0.49692133

xy_to_r.input_to_hidden.0.bias f4 [16]
000000 b0 5f 24 bf ca 7e f0 3c 4d 76 da be 33 32 7f bd
       -0.6420851 0.029357333 -0.4266838 -0.062303733
000010 31 fb a2 be 35 84 06 3f 52 bf 4c bf 40 b4 82 bf
       -0.3183227 0.5254548 -0.7997943 -1.0211258
000020 6c f8 a7 be 32 55 a4 3e dc a7 b4 be d0 b1 d9 3e
       -0.32806718 0.3209625 -0.35284317 0.42518473
000030 21 8e 20 bf 6d 80 a1 be 00 ba 67 3f 39 5c 1e 3e
       -0.6271687 -0.31543294 0.9051819 0.15464868

xy_to_r.input_to_hidden.2.weight f4 [16, 16]
000000 f2 35 d1 bf 74 5d 11 3e a8 73 2d be 6c 99 f3 3d
       -1.6344588 0.14195806 -0.1693865 0.11894497
000010 38 03 d6 3e 70 13 4e bf 21 1f a9 3f a6 51 5d be
       0.4179933 -0.8049841 1.3212625 -0.21613178
000020 88 f3 7c 3e 5b 94 78 be d7 fd 9c 3e b3 b0 15 be
       0.24702275 -0.24275343 0.30662414 -0.14618187
000030 e4 7a a1 bd fa bd f1 be 5f f1 48 bf c6 45 d6 be
       -0.07884768 -0.47215253 -0.78493303 -0.41850108
000040 cf e8 c0 bf 14 f7 09 3f 36 67 6b 3e 1f ad b1 bd
       -1.5071048 0.53892636 0.2298859 -0.08675598
000050 24 39 e6 3e 5d c2 d6 3c 29 3a ab 3e f8 7f 6b be
       0.4496547 0.026215727 0.3344281 -0.22998035
000060 40 35 83 bd 7a 07 f8 c0 7d 59 d4 be 57 7d a8 be
       -0.06406641 -7.7509127 -0.41474524 -0.32908127
000070 3e fe 46 be ec ee d8 3e ec 32 ae 3e 59 5e e6 3e
       -0.19432923 0.42369783 0.34023225 0.44993857
000080 f3 77 33 c0 82 81 a1 be 2e 02 72 be a2 35 4e bf
       -2.8041961 -0.3154412 -0.23633644 -0.8055059
000090 8a 41 e0 be 73 ba 22 3f 18 a9 f3 3f 29 fb 19 c1
       -0.43800002 0.6356575 1.9035978 -9.623818
0000a0 96 dd 75 3e 9e c3 61 3f a6 de 04 3f 40 96 b3 3e
       0.2401031 0.88189113 0.51902235 0.3507557
0000b0 c4 6f 81 3d 4f 32 17 bf 12 10 04 3f 11 da a3 bd
       0.06320146 -0.5906114 0.5158702 -0.08000577
0000c0 09 56 9a be f7 32 b4 be 92 83 37 3e 5b ae e1 3d
       -0.30143765 -0.35195133 0.17921284 0.11019584
0000d0 84 e5 81 be 38 92 7e bd 3b b5 a8 3d c9 74 e4 3b
       -0.2537042 -0.062151164 0.08237692 0.0069719297
0000e0 aa c0 72 3e 58 21 aa 3d bc f0 fa 3c a0 b5 6e be
       0.23706308 0.08307141 0.03063237 -0.23311472
0000f0 a2 20 02 be a1 63 5d be 31 d0 75 3d 97 02 05 bd
       -0.12707761 -0.21620037 0.060013 -0.032473173
000100 be d0 67 3d 68 15 28 3f 30 07 70 3e 10 7c 9c bf
       0.056595556 0.65657663 0.23440242 -1.2225361
000110 81 23 a7 be 5f a4 2a bf 71 74 7f bf 30 fd 10 3d
       -0.32644275 -0.6665706 -0.9978705 0.03539771
000120 5c e4 4b 3e 14 f3 07 c1 a3 c9 7d c0 75 b5 4f bf
       0.19911331 -8.496845 -3.965432 -0.81136256
000130 a8 39 6b be f0 09 31 3f 55 9b 3c 3f 6f 5e 81 3f
       -0.22971213 0.6915579 0.7367452 1.0106944
000140 7a ec 3d be a4 14 fe bd 14 0c 31 3e 6c fb 03 be
       -0.1854724 -0.12406281 0.17289764 -0.12888879
000150 60 9f 68 bd 54 4b 64 be 48 d4 7d be 98 76 3d bd
       -0.056792617 -0.2229436 -0.2478801 -0.046255678
000160 10 fc 28 3d 76 4e 13 be 00 82 3e bc f0 53 37 be
       0.04125601 -0.14385399 -0.011627674 -0.17903113
000170 c6 70 32 3e e0 46 b5 3c a0 10 5e 3e b8 b8 09 be
       0.17425832 0.022128522 0.2168603 -0.13449371
000180 19 06 09 3f d0 3f 84 bf 78 1d 18 3e db d5 f2 3d
       0.5352493 -1.0331974 0.14854991 0.11857196
000190 dc e7 0f bf 78 f1 84 3e 39 eb 0d be 59 86 d3 3f
       -0.56213164 0.25965476 -0.13859262 1.6525375
0001a0 90 8e e2 3c af e2 1a 3e 3f b2 b0 bd d7 ae e6 3e
       0.02765587 0.15125535 -0.08627748 0.45055267
0001b0 c0 33 48 bd ab b1 8c be 77 20 6d be ae 12 14 c0
       -0.048877478 -0.274793 -0.23156916 -2.31364
0001c0 0e 17 02 bf ac f7 41 3c e8 d7 fd bd 4f f2 38 be
       -0.5081643 0.011838835 -0.123946965 -0.18061183
0001d0 cc a9 db be cd 53 1c 3f dd 7d 46 bf ea 58 f4 bf
       -0.42902982 0.6106537 -0.775358 -1.9089634
0001e0 a0 a2 05 be 28 ea 86 bd d9 b4 2d bf aa 6c d1 3e
       -0.13050318 -0.065876305 -0.67854077 0.40903217
0001f0 a4 d9 80 3d 83 72 d3 3d 71 c1 54 3e 0b 79 a6 bd
       0.06291512 0.10324576 0.20776917 -0.08128556
000200 38 f0 df bf e4 3e 14 bf 0e 13 5c be d4 2c 49 3f
       -1.7495184 -0.57908463 -0.21491644 0.7858403
000210 10 bb 53 3e d6 f4 af 3d f4 b7 87 bd 0a d0 64 c0
       0.20676827 0.085916206 -0.06626883 -3.5751977
000220 80 13 a7 3b df c8 63 be 9e 82 3d 3f 27 15 15 3f
       0.00509876 -0.22244595 0.7402743 0.582354
000230 70 35 44 3d 78 e9 6f bf f2 af a8 bf f7 46 d3 be
       0.047902524 -0.9371562 -1.3178694 -0.4126508
000240 e1 52 87 c0 88 e1 0f 3e ec 08 6b be c5 ec e4 3e
       -4.228867 0.14050877 -0.22952622 0.4471189
000250 4b 4b 27 3f 12 75 79 bd 16 71 0e 3f d3 ba 1a c0
       0.6534926 -0.060902663 0.55641305 -2.4176528
000260 d8 66 43 3d e3 60 b3 bf fb 80 86 3e 91 8e 6b be
       0.0477055 -1.4013942 0.2627028 -0.23003604
000270 b0 c9 f9 bc 70 c9 a6 bf 13 3d 04 bf cb 20 47 bf
       -0.03049168 -1.3030224 -0.5165569 -0.77784413
000280 a0 01 29 3c d8 8e 62 be 48 77 2f 3d 8b c2 6c be
       0.010315329 -0.22124803 0.042838365 -0.23121087
000290 24 98 35 be 14 40 19 3e 48 bc fb 3d 68 03 77 bd
       -0.17733818 0.1496585 0.12291771 -0.060305983
0002a0 80 1c b9 bd c4 d9 07 3e 7c 84 41 bd 87 69 6d 3d
       -0.09038639 0.13266665 -0.047245488 0.057961967
0002b0 b0 cc 81 bd f6 0a 65 be 45 a0 1f be 4e 90 4c 3d
       -0.06337869 -0.22367463 -0.15588482 0.049942307
0002c0 33 45 b7 bf 7d 63 a6 3e 2a 41 53 3e ce f5 a4 3e
       -1.4317993 0.3249778 0.20630327 0.32218784
0002d0 ad 22 17 3f 86 e2 a3 bf af be 81 3f 47 e0 50 c0
       0.59037286 -1.2803504 1.0136317 -3.2636888
0002e0 68 42 e4 3d f3 e7 8b be 41 55 e2 3e 50 0e 91 be
       0.111454785 -0.273254 0.4420567 -0.28331232
0002f0 e8 e6 31 bd d3 4d a7 3e 81 dc 91 bf 69 00 17 be
       -0.0434331 0.32676563 -1.1395417 -0.1474625
000300 89 24 8a 3f ab 4d 3f 3d e0 19 47 be 84 e8 07 be
       1.07924 0.04670493 -0.19443464 -0.13272291
000310 9c 83 ac 3e 18 6b 87 c0 ac 4c 25 3f cc 46 95 3f
       0.3369416 -4.231823 0.64570117 1.166223
000320 6a 04 5a 3e 8c b6 7d 3e 11 17 e7 bc 28 a8 df bd
       0.21290746 0.24776667 -0.028209241 -0.10920745
000330 82 44 4e 3e 10 92 8c 3e d9 63 af bf 7b c8 1a 3e
       0.20143321 0.27455187 -1.3702346 0.1511554
000340 b0 63 0b 3d b9 62 b5 be d0 94 37 be 96 05 54 be
       0.034030616 -0.35426882 -0.17927861 -0.20705256
000350 81 88 61 be 81 fd 69 bd 0c 84 c7 3d 44 71 7f 3e
       -0.22024728 -0.057126526 0.09741983 0.24945551
000360 5c 5a e8 bd bf fe 6e be 9f a4 48 bd 9d 42 12 bc
       -0.1134536 -0.23339365 -0.04898512 -0.008927015
000370 02 39 70 3e 9c 1c 10 be 64 89 31 3d c6 e3 31 3d
       0.23459247 -0.14073414 0.043343917 0.043430112
000380 13 59 99 be 91 53 51 bf 60 13 fa 3d 0a 32 82 3e
       -0.2995077 -0.8176814 0.12210727 0.25428802
000390 6f 07 06 3f 20 10 d6 be f9 1b 8d 3f 7f a7 64 bf
       0.5235509 -0.41809177 1.1024162 -0.8931808
0003a0 c4 89 2b 3e e4 4e 1c bf ff 97 ae 3e e2 0a ab be
       0.16751772 -0.6105788 0.3410034 -0.3340674
0003b0 08 27 ed bd d0 93 48 3f 93 6e 19 c0 5a 7f d4 be
       -0.1157971 0.78350544 -2.397374 -0.41503412
0003c0 c4 e2 fa bd ee 76 0c be e0 08 70 3e 9f 2f 36 3e
       -0.12250283 -0.13717243 0.23440886 0.17791604
0003d0 f6 fa 57 3d e0 ef 4a bc 97 27 79 be c6 a9 35 be
       0.05272957 -0.012386292 -0.24331509 -0.17740545
0003e0 80 a4 02 bb 73 b1 aa be 1c b7 04 be 00 22 3a be
       -0.0019934475 -0.33338508 -0.12960476 -0.18177032
0003f0 20 f3 39 3c af 3f 52 be 23 d9 83 be 3c 9b c1 3c
       0.011349469 -0.20532106 -0.257516 0.023633592

xy_to_r.input_to_hidden.2.bias f4 [16]
000000 eb 40 1a bf 62 22 c1 bd cf 2e 95 be 9b 10 34 bd
       -0.60255307 -0.09430386 -0.29137275 -0.04396115
000010 c8 e3 a5 be 9c 18 1c be 44 d5 df 3d 5f 2a 02 3f
       -0.32400346 -0.15243763 0.10929349 0.50845903
000020 32 45 fd 3e 5b 7a a7 3e 52 3f 4b be 55 14 09 3e
       0.49466854 0.32710537 -0.19848374 0.13386662
000030 8f 61 81 bf 34 4b 29 be c3 37 18 bd 96 24 4f bc
       -1.0107898 -0.16532594 -0.037162554 -0.012643

xy_to_r.input_to_hidden.4.weight f4 [64, 16]
000000 cd 64 05 3e 73 69 ce 3b 86 2b 1f 3e a4 b2 f1 bc
       0.13026734 0.0062991916 0.15543947 -0.029504128
000010 ab 9d b2 bd 40 61 50 be 04 68 df bd 3a 1f 1c be
       -0.08721479 -0.20349598 -0.10908511 -0.15246287
000020 f3 fe 8d 3d f1 98 08 bd ed e7 3e be 5d 66 2a be
       0.06933393 -0.03334898 -0.1864316 -0.16640611
000030 21 17 65 bc b0 c1 6e 3e 0f ec bc bc 9d 4d 24 3d
       -0.013982565 0.23316073 -0.02306178 0.04011308
000040 4a 91 88 bf 0f 11 b7 3e d4 21 bb bd 3d 43 be bd
       -1.0669339 0.35755202 -0.091373116 -0.092901684
000050 5d ce 5e bf 90 48 77 3e ba e3 ea bd 94 09 48 3d
       -0.87033635 0.24148774 -0.11469217 0.04883726
000060 d4 b1 85 3f 32 70 d0 3d 0e f6 70 be cb 7f 42 3f
       1.0444894 0.101776496 -0.23531362 0.75976247
000070 a6 85 ca 3f 24 3b d3 bc ad 21 2f bf 8d 27 88 be
       1.5822036 -0.025785036 -0.6841076 -0.26592675
000080 e2 47 a8 be 90 ff 3a 3e 1d 91 58 3e 1b 9d 92 bd
       -0.32867342 0.18261552 0.21149106 -0.07158872
000090 ee dc df bd 32 4c 6b 3e 86 c4 ff bd d8 5a 03 3f
       -0.10930811 0.22978285 -0.12488656 0.5131049
0000a0 ba c0 15 bf 60 33 65 3f 63 8d 0b be fe 90 10 bf
       -0.584972 0.8953152 -0.13628154 -0.5647124
0000b0 d1 c9 15 40 dd b9 21 3d df 86 f4 bd 26 0e 15 bd
       2.340443 0.039483894 -0.11939787 -0.036390446
0000c0 17 32 e1 3e 0b 06 43 3f f0 53 85 bf db f7 47 3d
       0.43983528 0.76181096 -1.0416241 0.048820358
0000d0 b9 4c bc 3e 08 b7 9b 3d 9f 09 3f bf e1 72 ee 3e
       0.36777285 0.0760327 -0.74624056 0.4657202
0000e0 b1 3a 3c 3e 8b 93 07 bf 72 2b 7c 3d 0f 96 88 bf
       0.18381764 -0.5295951 0.06156487 -1.0670794
0000f0 97 24 e5 3e c0 ed e4 bd cf 1f 0a 3f db 9c 8a bd
       0.44754478 -0.1117816 0.53954786 -0.06768199
000100 09 9e 14 bf a2 1b e3 bd a9 41 a8 3f 69 ab 63 be
       -0.5805364 -0.11089255 1.3145038 -0.22233357
000110 98 8e 92 bf 46 53 19 3e 66 c4 78 3e dd 82 10 be
       -1.1449766 0.14973173 0.2429367 -0.1411242
000120 ca 11 f5 3e bf f2 96 3e cf 18 3e be f2 58 4a 3f
       0.47865134 0.29482076 -0.18564151 0.7904197
000130 8b 40 a6 bf c8 f3 c8 bd 38 88 79 bf e6 5d 5d be
       -1.2988447 -0.098121226 -0.9747348 -0.2161785
000140 c1 a8 44 3f 58 f1 17 3e 1b e6 64 3e d8 72 e3 bc
       0.7682 0.14838159 0.22353403 -0.027764723
000150 25 b4 dd be f0 f3 29 3d 9b 9b 47 be 8f 6e b5 be
       -0.43301502 0.041492403 -0.19492953 -0.35435912
000160 f0 23 41 be 22 8b 91 be bc 97 dd bd 75 b1 22 bf
       -0.18861365 -0.28426462 -0.10819957 -0.6355203
000170 28 43 78 bf 6a e9 0a bd a2 3c 91 3e 17 20 96 be
       -0.9697747 -0.033914007 0.28366572 -0.29321358
000180 b2 64 03 bf 70 4e a7 be 13 25 25 bd d4 4c 5a be
       -0.51325524 -0.3267703 -0.04031856 -0.2131837
000190 5a d7 d7 3e f0 aa 36 be 08 50 f2 be 29 e2 27 bf
       0.42156488 -0.17838645 -0.47326684 -0.6557947
0001a0 ee 77 33 3f ab 03 b6 3e df d0 5e 3e 54 9c cb 3e
       0.70104873 0.35549673 0.21759365 0.39767706
0001b0 39 78 25 3f 80 ef 10 be 15 30 12 bf dc 10 c0 3d
       0.6463657 -0.14153862 -0.5710462 0.09378216
0001c0 e7 af e4 be 30 67 3f be 55 81 56 3d 1c 84 98 be
       -0.44665453 -0.18691707 0.052369434 -0.2978829
0001d0 7c f9 4f be 4c 00 b5 3d 1b 7e 44 be 04 a2 ba be
       -0.20310014 0.08837947 -0.1918873 -0.36451733
0001e0 9e 2b d5 be 54 ab 1f 3f dd 05 fa bd 9b 02 d9 bd
       -0.4163484 0.623708 -0.122081496 -0.105962
0001f0 1a 44 b6 3f 74 06 21 be a1 31 cd be f5 95 a0 3e
       1.4239533 -0.15725118 -0.40076926 0.31364408
000200 35 11 16 c0 a4 f2 77 3a a0 81 9e 3f d4 b2 2e bd
       -2.3448002 0.00094584585 1.2383308 -0.042651013
000210 08 d2 56 bf b6 8a 00 3e d2 a6 5f bf 87 89 24 3e
       -0.8391423 0.12552914 -0.8736392 0.16068088
000220 e3 e7 e6 be e6 6b 8b bf d6 14 b3 3d 4c 00 8c 3f
       -0.4509879 -1.0892303 0.087442085 1.0937591
000230 fa 00 02 40 b1 1b e8 3d 98 94 ab be 03 78 9b bd
       2.0313096 0.11333407 -0.33511806 -0.0759125
000240 6f 96 0a bf d9 47 1a be f6 d8 13 bf 59 e1 be 3d
       -0.54135793 -0.1506647 -0.5775293 0.093203254
000250 5e 1c 29 3e 10 10 18 be b6 39 4c 3f ef de c6 3e
       0.16514727 -0.14849877 0.7977556 0.3884196
000260 39 cd e3 be 42 c3 18 be 9a ff 03 be 6a a0 44 be
       -0.4449251 -0.14918235 -0.12890473 -0.19201818
000270 bc df fb 3d 37 36 eb 3d 2a d3 15 3d f7 62 1e 3e
       0.12298533 0.1148495 0.036578335 0.1546744
000280 2b 1c dd be 8f c8 a1 3e b6 2e 67 be d8 a7 89 3d
       -0.43185553 0.31598327 -0.22576413 0.06721467
000290 a3 78 f3 bd 04 e3 59 be de d7 2c 3f 07 c5 1b 3f
       -0.11888244 -0.21278006 0.6751689 0.60847515
0002a0 a7 65 e4 bd 23 df ec 3e a1 70 e6 bc c2 e0 2a be
       -0.11152201 0.4626399 -0.028129878 -0.16687301
0002b0 37 c9 86 bf f1 bc f0 3d a8 9b 63 3f 75 f6 1d be
       -1.0530156 0.11754788 0.8890939 -0.15426047
0002c0 69 e0 3a 3f 24 ff da 3e cc 04 08 bf 52 53 43 3d
       0.7299867 0.42772782 -0.5313232 0.047686882
0002d0 f3 70 d1 be e8 f5 30 3d 5f 18 db be ae 4e 70 be
       -0.40906486 0.043203264 -0.4279203 -0.23467514
0002e0 ed ad fc be 28 17 b1 3e 72 0e c0 3d d1 5a 95 bf
       -0.49351445 0.3458798 0.09377755 -1.166834
0002f0 81 d0 fd 3f 4c 3d 22 3e e9 44 0a bd 92 ef fc 3d
       1.9829255 0.15843695 -0.033757124 0.12350382
000300 4f 75 2e bd 1f 53 53 3c f0 cb 41 3f eb a5 9a 3d
       -0.042592343 0.012898236 0.7570181 0.075511776
000310 b0 f5 f6 3d 94 03 82 bd 38 c1 23 be 41 14 dd 3d
       0.1205858 -0.06348339 -0.15991676 0.10794879
000320 69 3a c2 3d 6d fa 9f 3e d9 32 50 3e b8 32 bc be
       0.09483797 0.31245747 0.20331897 -0.36757445
000330 00 e8 27 3f bb 34 a0 be 9e c9 95 bd 26 bc 0d bd
       0.6558838 -0.3129023 -0.07313846 -0.03460326
000340 98 42 ca be ee 2b 4f bf 50 1f 3c bf 95 8d 73 bd
       -0.39503932 -0.80926406 -0.7348528 -0.059461195
000350 b9 04 b1 3f c8 f6 0e bd d8 20 f8 3e 76 0b bf 3e
       1.3829566 -0.034903318 0.48462558 0.37313432
000360 f8 e6 73 bf 99 d0 f6 3e dd be 74 bd 14 e1 42 3f
       -0.95274305 0.48206022 -0.059752334 0.7612469
000370 91 ba 77 be a7 96 50 be fa c5 63 bd 45 f5 c9 bd
       -0.24192263 -0.2036997 -0.055608727 -0.098612346
000380 18 74 1a be f4 fc 81 bd 6f 62 8a 3d ea 96 a5 bd
       -0.15083349 -0.06347075 0.06757056 -0.08085425
000390 15 b3 3c 3e 30 08 93 3d bb 60 cf 3d 24 60 d1 3d
       0.1842769 0.07179296 0.10125872 0.102234155
0003a0 66 d1 05 bd 34 11 90 3d 2c 02 68 3e 4a 7b 82 3d
       -0.0326704 0.07034531 0.22657079 0.06371172
0003b0 fd fb 95 3d 8d 2b 0c 3d 15 5d 49 3d e1 9a 34 be
       0.073234536 0.03422122 0.049161036 -0.17637207
0003c0 78 ee 35 3f e6 07 23 bf 8d 07 a9 3f f9 58 22 bd
       0.71067 -0.6368393 1.3205429 -0.039635632
0003d0 04 64 ee 3f 78 66 95 3d ad 93 c0 3d 40 da 33 be
       1.8624272 0.07294935 0.09403167 -0.17563725
0003e0 e8 95 22 3f fa 0f 27 3f 70 96 36 3e a6 ae 01 bf
       0.6350999 0.65258753 0.17830825 -0.5065712
0003f0 b8 5f cf 3f 8f 95 18 be a1 75 d2 be 9b d1 e9 bd
       1.6201086 -0.14900802 -0.4110537 -0.11416932

xy_to_r.input_to_hidden.4.bias f4 [64]
000000 56 65 b1 3d 1e ae ab be c8 30 96 be f6 a9 d6 bb
       0.086619064 -0.33531278 -0.29334092 -0.0065510226
000010 08 7b f0 3c 8a b7 c5 3e 27 9d 33 3e 69 c5 8b 3e
       0.02935554 0.38616592 0.17540418 0.2729905
000020 c7 53 95 3e d8 2b 27 3e aa 59 19 bf 86 06 8a 3e
       0.2916548 0.16325319 -0.5990244 0.26958102
000030 b3 56 04 be 87 b5 8e bd c2 8b cd bd 25 1e be be
       -0.12923698 -0.06968217 -0.10036422 -0.37132373
000040 9c db cc 3d 90 7c b6 3e 87 e3 0c be 6f de 02 3f
       0.10002825 0.3564191 -0.1375867 0.51120657
000050 ce ae 39 be 3a a4 1c 3c c1 77 2f 3e be 23 52 be
       -0.18133089 0.009560639 0.17135526 -0.20521447
000060 86 63 75 3e 8b 57 2c be 5a 5c da be 0f 97 f2 bd
       0.23963746 -0.1683027 -0.42648584 -0.118452184
000070 0d a7 c4 3e 3b 70 3f 3e cf 0f a6 be c1 7a c1 bb
       0.384087 0.18695156 -0.32433936 -0.005904526
000080 83 9d c0 be 75 e0 85 bd aa 46 1c be a8 b5 90 3e
       -0.37620172 -0.065369524 -0.15261331 0.28263593
000090 66 89 d5 3d cb 4c 74 be 10 e9 a9 3e 9f 92 07 3e
       0.10426597 -0.23857419 0.33185625 0.13239525
0000a0 ea 9a 26 be c3 53 9f bd 98 f5 e2 bd 30 40 09 bf
       -0.16270033 -0.07779648 -0.110819995 -0.5361357
0000b0 a6 0a 30 be bd f6 8f 3e 3c 52 1d bb 3e 3d c3 bd
       -0.17191562 0.28117934 -0.0024005314 -0.095331654
0000c0 2d bd ea bd 84 86 d0 bd ec a1 df be ad 5e 71 3e
       -0.11461864 -0.10181907 -0.43678224 0.23571272
0000d0 33 ff 5d 3e 38 42 96 bd d5 fc f2 3e 24 c7 70 3e
       0.21679382 -0.07336849 0.4745852 0.23513466
0000e0 8c 0a a5 3d e3 48 00 3f 71 6d eb be 96 7c a6 be
       0.08058652 0.50111216 -0.45981935 -0.32516927
0000f0 cf 62 10 be cf f1 81 3e 0d 1d 17 3f d5 6f 1d be
       -0.14100192 0.25379798 0.590287 -0.15374692

r_to_mu_sigma.r_to_hidden.weight f4 [64, 64]
000000 25 71 d3 bd 3b c0 e1 bd a4 ed 6b 3e b3 97 2a be
       -0.10324315 -0.11022993 0.23039871 -0.16659431
000010 43 2a 08 3e c6 3a 53 3d 09 86 4f 3e 9d 3c 84 3d
       0.13297372 0.051569723 0.20265974 0.064568736
000020 78 58 59 bd 15 85 cf bd 18 da 20 3d 69 cf 06 be
       -0.053062886 -0.10132805 0.03927049 -0.13165058
000030 40 5c 4d be 57 69 28 3e e0 f5 52 3d 6e 05 7d bd
       -0.20054722 0.16446434 0.051504016 -0.061772756
000040 9e 06 dc 3d 28 de 0f 3e 27 7c ba bd c9 fe bc bd
       0.1074345 0.1404959 -0.091057114 -0.09228284
000050 0b 17 75 3e 85 05 06 be 5b 03 90 bd d7 44 d1 3d
       0.23934571 -0.13088043 -0.0703189 0.10218208
000060 94 a4 9a 3d 53 33 4c 3c 5f 3e 8d bd 29 9d 24 3e
       0.07550922 0.0124634085 -0.06896662 0.16075577
000070 0e 81 54 bd 8e 50 e7 3d b8 30 16 3c b5 42 55 be
       -0.05188089 0.112946615 0.009166889 -0.20826228
000080 8a 36 86 bb b6 32 9d 3e 38 52 9c bc e1 3b 8d 3c
       -0.004095857 0.30702752 -0.019082174 0.017240467
000090 4d ef b8 3c f7 7c 1a 3d 00 eb 6d be ae 20 45 bd
       0.022575045 0.037716832 -0.23234177 -0.04812687
0000a0 09 aa 37 be 4f 5e 83 3e 3d fa 55 be fc 8d 17 be
       -0.17935957 0.2565789 -0.2089624 -0.14800256
0000b0 37 4e 05 3e 40 b6 4f 3e b9 4f 26 3e 25 a1 5f be
       0.13018118 0.20284367 0.1624135 -0.21838816
0000c0 40 f8 11 3b d8 45 50 be 5f 8f 1e bd 11 5c 72 3d
       0.0022273213 -0.20339143 -0.038710948 0.059169833
0000d0 d0 62 84 bd 03 72 92 3e fd 85 4e 3e a2 23 10 3e
       -0.064641595 0.2860261 0.201683 0.14076093
0000e0 38 49 f2 3d ee e6 fc ba 2c 63 a7 bc cf 2b ca bc
       0.118303716 -0.0019294897 -0.020433031 -0.024679093
0000f0 f5 8e 39 3d 44 20 4f bd 58 21 42 3d ef 06 cc 3e
       0.04530235 -0.05056788 0.04739508 0.3984904
000100 e9 69 b2 bb 32 32 d0 bc ed 3e 89 bd 12 ff 10 be
       -0.0054447544 -0.02541456 -0.06701455 -0.14159802
000110 48 f9 08 3e 20 b7 58 be 1b ea a6 3e fe c6 86 bc
       0.13376343 -0.21163607 0.32600483 -0.016452309
000120 85 19 35 be 8c e1 20 be 88 85 1f be 5f 3b 41 3d
       -0.17685516 -0.1571104 -0.15578282 0.04717576
000130 35 10 22 3d af 29 de bc cb 93 48 3d 9d 87 9f bd
       0.039566237 -0.027119486 0.04896907 -0.07789538
000140 ab 66 cb bb 78 3f c3 3e 8a 3c 26 bd db b7 29 be
       -0.0062073073 0.3813436 -0.04058508 -0.16574042
000150 50 7b 41 3e 19 64 d8 bd 0b 81 9d bc ab 41 5a 3d
       0.18894696 -0.10565967 -0.019226572 0.053285282
000160 50 b4 6e 3e 1d 3b 1a be 00 21 88 be f4 f2 0d 3e
       0.23310971 -0.15061612 -0.26587677 0.1386221
000170 00 b9 66 bd 87 0d fb 3b 2f 19 86 be bb d4 d1 bd
       -0.056328773 0.0076615247 -0.2619109 -0.10245653
000180 e5 2b ff 3d 30 7e 3d 3e bb 89 4a bd e7 5b c4 3d
       0.12459544 0.18505168 -0.049447756 0.095878415
000190 2d 8a 5a 3d f5 f4 74 bd 49 ae 88 be 3e 43 1d 3e
       0.05335443 -0.05980392 -0.2669547 0.15357682
0001a0 f6 6c 14 3c 9a 66 ac 3d 6f 28 e1 3d 99 4d 51 3c
       0.009059181 0.08418007 0.1099404 0.012774848
0001b0 08 d3 d4 3d 90 4d f8 3d 32 f2 ab 3e d3 48 0f bd
       0.103918135 0.12124169 0.33583218 -0.03498156
0001c0 a4 b7 96 3e 2e d0 81 be c9 bb 53 be 3c c9 2a 3e
       0.29436982 -0.2535414 -0.20677103 0.16678327
0001d0 e1 84 a8 3d 22 c5 61 bc 6c 37 3d 3e 52 75 86 3e
       0.0822847 -0.01377991 0.18478173 0.26261383
0001e0 d2 a2 4a 3e b8 39 12 3e 7b cf e4 bd 46 59 71 3e
       0.19788674 0.1427983 -0.11172386 0.23569211
0001f0 cb 76 f5 be 49 f9 17 3e de 0c 9a 3d 21 1b a6 3e
       -0.47942194 0.14841188 0.075219855 0.32442573
000200 04 71 53 3c 80 69 90 bd 20 c3 fa 3e 0a 20 2f 3e
       0.012905363 -0.070513725 0.48976994 0.17102066
000210 09 79 ee 3e 40 1c bc 3c b7 e8 cf 3d f0 08 c1 3d
       0.46576717 0.02296269 0.10151809 0.09425533
000220 fc a7 69 bd a8 3f 71 bd 69 7e 1a 3e ef 00 3a 3f
       -0.057044968 -0.058898598 0.15087284 0.72657675
000230 91 42 9a 3c 12 c4 01 3e f4 fc ae 3b ef 55 2a 3f
       0.01883057 0.12672451 0.005340213 0.66537374
000240 0f 4d da 3e 48 91 01 3f c6 5a 41 3c 25 ec 4d be
       0.42636916 0.50612307 0.011801427 -0.20109613
000250 78 35 1c 3f 45 45 35 3d 67 b1 d6 be fa 95 09 3f
       0.61019087 0.044255514 -0.41932222 0.5374447
000260 5f a8 2b 3f 6b eb 3a be 05 68 6d bf 2b 22 b1 3d
       0.6705379 -0.18253867 -0.92736846 0.08649095
000270 7b cb 76 bd c4 32 99 3e 01 08 93 be 71 1a a8 3e
       -0.060252648 0.29921544 -0.28717044 0.32832673
000280 54 9e 8b bd 89 9f 9b 3e 41 06 51 bf 79 b8 47 3e
       -0.06817308 0.30395153 -0.8165017 0.19503964
000290 62 c6 1c be ac 09 0f 3e 42 dc a9 bd 5d 15 f0 3f
       -0.15310052 0.13968533 -0.08293964 1.875652
0002a0 06 26 40 be 4b 03 44 bf 01 44 da 3c 8c 78 38 bd
       -0.18764505 -0.76567525 0.026643755 -0.045036837
0002b0 1a 31 20 be f9 14 8f 3d 3e 60 00 40 74 42 b8 bf
       -0.15643731 0.06986422 2.0058742 -1.439528
0002c0 46 1f 76 3f 51 67 62 3e a1 9b 0d 3f 55 c4 f1 3d
       0.9614147 0.22109725 0.55315596 0.118050255
0002d0 13 41 b7 bd 71 03 48 3e 06 87 a3 be 98 1b 29 bf
       -0.08947959 0.19532563 -0.31938952 -0.6605773
0002e0 97 77 11 bd b2 57 8e be 47 8b 48 3e 37 6a 03 3e
       -0.03551444 -0.2780128 0.1958438 0.12833486
0002f0 d3 64 03 3e 18 09 b1 bd ec bb 6f 3c 3d 44 05 3f
       0.1283143 -0.086443126 0.014632206 0.5205725
000300 37 17 7e bc cd 53 1e 3d 6b da 3b be aa 12 69 bf
       -0.015508465 0.038654137 -0.18345039 -0.91044104
000310 9a 32 7b 3e cd f6 54 be f4 0a e3 3e b7 2e 07 bd
       0.24531022 -0.20797272 0.44344294 -0.033003535
000320 6e fc 00 be 99 52 d4 be de ea fc be a6 f4 9a be
       -0.12596294 -0.41469267 -0.4939794 -0.30264777
000330 21 d6 58 3e 70 af ea 3e f0 a8 d1 3c e8 2e 7a 3f
       0.21175434 0.45836973 0.025593251 0.97727823
000340 6f 78 a4 3e 8f 7d 7c 3e 98 b4 31 3f bc 7e e3 bc
       0.32123134 0.24657272 0.6941619 -0.027770393
000350 6d af c3 3f bf 35 4f 3d 33 b5 d7 3e a0 1e 85 be
       1.5287911 0.050588366 0.42130432 -0.25999928
000360 2f 6c 77 bd 09 87 b6 bb cf f5 0a 3e f7 b5 03 bf
       -0.060405906 -0.0055702967 0.13570331 -0.5144953
000370 21 43 36 bf c5 81 1c bf e0 70 9b 3d 8b 88 94 bf
       -0.7119618 -0.6113551 0.075898886 -1.160417
000380 9c d6 58 bd 6a 84 41 3f 84 cb 30 bd 67 5b 03 bd
       -0.052939042 0.7559267 -0.043162838 -0.03206959
000390 a4 56 24 bf 20 c4 16 3f 82 82 fc 3e 54 df a5 bd
       -0.64194703 0.58893013 0.4931832 -0.08099237
0003a0 57 5b 6e be 46 d0 43 3f 6a 98 87 3d 3c f9 a3 3d
       -0.23277031 0.76489675 0.066208676 0.08006522
0003b0 c6 8f c2 3c 4d ef a1 be c6 02 91 3f f0 ef af be
       0.023750197 -0.31627885 1.1328971 -0.34362745
0003c0 2c 3f 6c bf ff 97 d0 be 96 61 c8 be 5b 87 04 3e
       -0.9228389 -0.40740964 -0.39136952 0.12942259
0003d0 ed a0 cb 3d 64 fc 88 3e fe 28 3f bf bb 71 4d 3e
       0.099428035 0.2675506 -0.74671924 0.20062916
0003e0 bb 90 17 3f 19 3c 88 3e bb e7 99 be 79 60 48 3d
       0.59205216 0.2660835 -0.3005961 0.04892013
0003f0 b1 ca 7c 3f a6 be 0d 3f 3d 69 85 be 01 12 a1 3f
       0.9874678 0.5536903 -0.26056853 1.2583619

r_to_mu_sigma.r_to_hidden.bias f4 [64]
000000 aa 9a 0d bf dd 0c e4 be 5a 1f b7 be d4 f6 7e bf
       -0.55314124 -0.44541064 -0.35766107 -0.9959538
000010 e1 54 37 bf 9e 0a 9c 3e 78 bf ba 3c 20 56 07 bf
       -0.7161389 0.3047685 0.022796378 -0.5286579
000020 99 e6 f6 3e 10 bf 5c bf e9 04 b1 bf da 36 d1 be
       0.48222807 -0.8622904 -1.3829623 -0.4086216
000030 69 f4 1b bf 1d 6a 53 bf 33 42 8f bf 0a ae 80 be
       -0.60919815 -0.8258379 -1.1192077 -0.2513278
000040 5a 35 ed 3d 96 86 af bf 85 a5 ef be ca 0d 8d 3e
       0.11582442 -1.3712947 -0.4680597 0.27549583
000050 ae 67 d8 3e c7 ed e5 be 49 ff d6 be 0d 72 d9 be
       0.422666 -0.44907972 -0.41991642 -0.42469826
000060 f7 e4 cb bf e8 f6 e0 be be c0 24 3f 01 63 40 be
       -1.592925 -0.43938375 0.643566 -0.18787767
000070 ac a8 08 bf 58 c9 d2 3e 9d ed b4 3e e6 3d 28 bf
       -0.5338237 0.41169238 0.35337535 -0.6571945
000080 20 bd 45 bf fc 52 8d 3e d8 46 1a 3d f6 db 31 bf
       -0.77241707 0.27602375 0.037665218 -0.6947626
000090 fb dc 23 bf b1 75 24 be 99 9f 65 be f3 69 50 bf
       -0.64009064 -0.1606052 -0.22424163 -0.81411666
0000a0 c7 09 3b be b4 98 f7 3d 85 85 e6 be 6b e9 cb bf
       -0.18265449 0.12089673 -0.45023742 -1.5930609
0000b0 3b 8f f2 be 66 7c 44 3f 68 42 5b bf 55 80 00 bf
       -0.473749 0.76752317 -0.856482 -0.5019582
0000c0 54 43 16 bf 0a a6 59 bf 84 96 d5 3e 08 df 89 be
       -0.58696485 -0.8501898 0.41716397 -0.26927972
0000d0 b6 83 e7 3e c2 1c 06 bf e0 44 b4 be d4 7f 12 bf
       0.45217675 -0.5238763 -0.35208797 -0.572263
0000e0 22 2a 81 bf 81 fd d2 bf 91 31 03 3f 17 47 0a be
       -1.0090983 -1.6483613 0.5124751 -0.13503681
0000f0 a6 dd 07 bf 03 a8 0b bf 66 08 4e bf cd f9 8d bf
       -0.53072584 -0.5455324 -0.80481565 -1.1091858

r_to_mu_sigma.hidden_to_mu.weight f4 [8, 64]
000000 d8 b0 7f bb 7f 61 a3 bd 23 2f 8c bc 27 13 9d bb
       -0.003901532 -0.0797758 -0.01711232 -0.004793543
000010 de f8 c5 bd 87 b6 41 3a 7c dc 21 3b e9 cb 83 3e
       -0.09666608 0.00073895644 0.002469807 0.2574151
000020 d8 c8 1d 3b 05 46 e3 3b cc 2a 29 3a 2f 1a 97 3b
       0.002407601 0.006935837 0.00064532156 0.0046112756
000030 f8 04 33 bc 3d 30 52 bc 80 2d 55 bc 7f bc eb 3b
       -0.010926478 -0.012828884 -0.013011336 0.0071941013
000040 1e 25 d8 bb de 35 21 bb d6 48 a6 3b 7e 42 1e 3c
       -0.0065962216 -0.0024598758 0.0050746007 0.009659408
000050 8d a7 37 3b 49 b6 20 3d 84 2d 4c ba 69 6c 6b ba
       0.0028023452 0.03923634 -0.0007788765 -0.0008980693
000060 a4 1e 19 ba 23 fb 6d bb cd 25 e9 bb 34 ad ac ba
       -0.00058410526 -0.003631302 -0.007115102 -0.0013174177
000070 3d 8d 79 bb f9 e7 08 3b 47 ba 1b 39 c6 a3 41 3e
       -0.003807857 0.002089022 0.00014851346 0.18910131
000080 13 dc 54 39 27 6f 0b bc 58 1e 96 3b b7 d7 ca bb
       0.0002029988 -0.0085103875 0.004581254 -0.006190266
000090 c4 1a 04 3d 03 47 21 bc 05 98 7e bc 9f 22 e5 3d
       0.03225209 -0.009843591 -0.015539174 0.11188244
0000a0 90 3c 91 ba d0 52 0f 3c 96 2d 1a 3b c6 e4 10 3c
       -0.0011080671 0.008747771 0.0023525706 0.008843606
0000b0 e5 69 f3 bc 7c 3b eb 3a 82 08 96 3c 52 27 c6 3d
       -0.02971358 0.0017946805 0.018314604 0.096754685
0000c0 b0 46 c7 3b d6 87 e9 3a 32 c0 0e bb 60 e0 92 bc
       0.0060814247 0.0017816972 -0.0021782038 -0.017929256
0000d0 eb c6 e9 3b c3 79 6e bc c2 03 d7 bd 63 ac 30 3c
       0.0071343086 -0.014555397 -0.104987636 0.010783288
0000e0 0e 11 2a bc 8d d8 85 3c de ae c9 3b ee 2d ad 3b
       -0.010380043 0.016338611 0.006154879 0.0052850163
0000f0 8c 93 fc bb c2 31 0c bc 70 47 6d bc 44 fa 45 3b
       -0.0077080186 -0.008556785 -0.014482364 0.0030208984
000100 fe b5 aa bd 46 1e 2d b9 61 aa dd b8 04 e9 90 bc
       -0.083354935 -0.00016509843 -0.00010569837 -0.017689236
000110 39 3b 44 3e ba 49 81 3c dd 6a f9 ba a8 b1 ce 3d
       0.19163217 0.015782226 -0.001902904 0.10092479
000120 48 94 a5 3b 15 1b 1f bc b9 9b 9a bb fd 7c 3b 3c
       0.005053077 -0.009711047 -0.0047182706 0.011443374
000130 e9 0f 89 bb 35 55 21 3c db ba c2 3b 6d d6 f8 b9
       -0.004182805 0.009846975 0.005942685 -0.00047462006
000140 25 62 24 bc ab b1 46 bc 17 ed 62 3c 5f fd 03 3a
       -0.010033165 -0.01212732 0.013850472 0.00050350087
000150 fb e6 1b 3b 20 92 87 bb 74 f4 4f ba de 58 db bb
       0.0023788798 -0.0041372925 -0.00079328497 -0.0066939434
000160 4b 5c bd bb a7 19 7f bb 88 22 6d b9 22 b4 91 3c
       -0.0057788244 -0.0038925202 -0.00022614945 0.01778609
000170 fe c8 64 b9 f0 96 3d b9 37 e4 8a bb fc 2f 88 bd
       -0.0002181865 -0.00018080673 -0.004238631 -0.06649777
000180 ad 3b 2d b9 d5 1f 38 3a c3 ad 6f 3c e4 ea 13 bb
       -0.00016520797 0.00070237863 0.01462883 -0.0022570426
000190 00 6b 05 3d 1c 01 7e 3b aa a8 75 3c c2 28 dd 3c
       0.032572746 0.0038757985 0.014993826 0.026996974
0001a0 45 0f e6 39 f1 6c c8 3b 73 f6 20 3c a1 bf 18 3c
       0.00043880395 0.0061165025 0.009824383 0.009323032
0001b0 19 c2 4c be 00 84 95 3b a7 96 3b bc c1 f5 8f bc
       -0.19995917 0.0045628548 -0.011449493 -0.01757324
0001c0 d3 dd 18 bc 4e ee 58 3b 17 bc 26 3b a2 35 d2 3b
       -0.009330231 0.0033101025 0.00254417 0.006415085
0001d0 c4 b0 30 3c 87 26 51 3d c4 fe 48 bc 21 07 9e bb
       0.010784332 0.051062133 -0.012267772 -0.004822627
0001e0 44 ca 9d 3b e2 6d a3 bb 7e c9 d1 ba 6f b6 a8 bb
       0.0048153717 -0.0049874643 -0.0016005484 -0.005148701
0001f0 63 d9 79 bb 1a 8f 80 bb f8 63 da 3b 5e 11 4e bd
       -0.0038123957 -0.003923309 0.0066647492 -0.05030953
000200 af cc a7 3e 6a 39 0e 3e 95 2a b2 3e b0 1b eb 3f
       0.3277335 0.13889089 0.34798113 1.8367825
000210 cf 07 a2 3c 66 22 60 3c bd be 9e 3b ae 91 9b bd
       0.019779114 0.013680076 0.004844515 -0.075961456
000220 f9 83 db be fe 8e af be 43 7c 99 bd bf e4 2d 3d
       -0.42874125 -0.34288782 -0.07494404 0.042454477
000230 d9 81 0a 3e d1 e8 af 3d ca fa 56 3f 3e 82 1c 3e
       0.13526095 0.08589328 0.83976424 0.15284058
000240 24 35 cd be ce d9 d4 bf 2c 41 02 bf c0 73 ec be
       -0.40079606 -1.6628969 -0.50880694 -0.4618206
000250 77 27 32 be ba 0b f3 bc f0 91 06 3e 49 4d 42 3e
       -0.17397867 -0.029668678 0.13141608 0.18974794
000260 6d bf b2 bd 09 de af 3c 54 a3 ea be 88 30 fc bc
       -0.08727918 0.02146818 -0.45827734 -0.03078486
000270 6e 71 8c 3e a3 b0 c7 3e ea c1 44 3f 0b 22 1c 3c
       0.2743029 0.3900195 0.7685839 0.009529601
000280 99 9a 9e bd 20 18 1e 3e 2b b1 43 be 1e 02 64 bc
       -0.07744331 0.1543889 -0.19110553 -0.01391652
000290 ce a4 83 3c ec 6b ec bd 08 d6 c3 3d 1b f4 80 3e
       0.016069796 -0.11544022 0.095623076 0.25186238
0002a0 34 2e e4 3c 23 65 2e 3c d6 50 ab bd 79 45 72 bf
       0.027854063 0.01064423 -0.083650276 -0.94637257
0002b0 84 77 3d 3e 9b b6 a3 3d 0f d5 a3 3d c2 b3 2d be
       0.18502623 0.079938136 0.07999622 -0.16963103
0002c0 1d fc 7d be 5f 12 c6 3e fd 9f 20 bf fb f2 80 3c
       -0.24803205 0.3868589 -0.6274412 0.015740862
0002d0 f4 dd 56 bd 2b 69 7e 3e 2c 1d 45 bd c4 11 a0 3e
       -0.052457765 0.24844806 -0.048123524 0.31263554
0002e0 05 43 e2 bd 95 71 65 3d f0 aa 51 be 49 08 07 bf
       -0.11047939 0.056016523 -0.20475364 -0.5274702
0002f0 28 fb 3b 3c 6d 79 36 be e1 6c 9d be b6 6e 04 3c
       0.011473455 -0.17819758 -0.3074713 0.008083036
000300 60 4e 1a 3e 80 b8 56 3d 3a 60 c7 be 29 83 67 be
       0.1506896 0.052422047 -0.38940603 -0.22608627
000310 9a df 09 be 77 56 e1 be 36 8b ac bd be fa 80 bd
       -0.13464203 -0.4401128 -0.0842499 -0.06297825
000320 47 d4 8d be af 47 33 3d b6 a2 66 3e aa 37 9c bc
       -0.27701017 0.043769535 0.22523007 -0.019069511
000330 5a 1d a5 be 85 cd a0 be 07 3e 26 bf a8 f4 f4 be
       -0.32248956 -0.314068 -0.64938396 -0.47842908
000340 70 c7 ba 3e aa 94 94 bf 6a 13 b9 3e 2d 2c b4 bd
       0.36480284 -1.1607869 0.36147624 -0.08797488
000350 ce 33 30 3f a3 2a 3a bd 01 23 a1 3e e2 84 13 3d
       0.6882905 -0.045450818 0.31472018 0.0360154
000360 f2 3a 7c bc d8 10 7e 3d 2f 3d 50 bd 4c 1f 25 3e
       -0.015394913 0.062027782 -0.0508396 0.1612522
000370 1a 63 d1 be db 76 00 3f 64 69 b4 3d 4e d9 19 3d
       -0.4089592 0.5018136 0.08809164 0.037560754
000380 e2 f8 b5 be be 7b 1b be c6 7e 4a bd e8 9d 51 bd
       -0.35541445 -0.15183923 -0.049437307 -0.05117598
000390 80 af 21 be 06 e9 87 3e 8a da 13 3e a9 ea 1e be
       -0.15789604 0.2654497 0.14438835 -0.15519203
0003a0 5e 00 ac 3b 5d 54 b4 bd d0 fb 93 be 48 34 c2 be
       0.005249067 -0.088051535 -0.28903055 -0.37930512
0003b0 61 ba 9d bd 93 79 b1 be 25 b1 ad 3e 27 8b 5a 3d
       -0.077015646 -0.34663066 0.33924213 0.053355362
0003c0 6b 2f 56 be f1 19 f4 bd dd 79 bb 3b 8c 3d 0b be
       -0.20916526 -0.119190104 0.0057213143 -0.13597697
0003d0 18 84 fa be b4 0d 18 be 6c 9f 0e 3e 3c ca e0 3d
       -0.48928905 -0.14848977 0.13928002 0.10976073
0003e0 4f 3b e2 3e 02 19 0f bd 35 c5 64 3d d8 91 d7 bd
       0.44185874 -0.03493596 0.055852134 -0.10525864
0003f0 a4 9e 85 3d ab ca b3 3e f4 d7 88 be e5 06 29 3f
       0.06524399 0.3511556 -0.2672726 0.66026145

r_to_mu_sigma.hidden_to_mu.bias f4 [8]
000000 cd 66 d7 3b 17 b9 11 3c 4b 86 4c 3d 99 b2 83 3e
       0.006573534 0.0088942265 0.04993276 0.25722197
000010 a6 3f 1f 3b 08 47 18 3c 8a 86 d5 3a aa 86 0a 3f
       0.0024299412 0.009294279 0.0016290706 0.5411173

r_to_mu_sigma.hidden_to_sigma.weight f4 [8, 64]
000000 0b 6d 35 3d ca fb b6 bd 25 4b f8 bc fa 43 ea bc
       0.044293445 -0.08934744 -0.03030927 -0.028596867
000010 18 81 c2 3d 9c 80 38 3d 2e 9c 93 b9 57 dc 13 bd
       0.09497279 0.045044526 -0.00028154388 -0.036098804
000020 2a ef 3d 3d 37 9a ab 3d 1d 4e 18 3d 01 48 d7 bb
       0.046370663 0.083790235 0.03718387 -0.006569863
000030 a1 cf 31 bd 75 1b 8e bb 3a eb 79 3d 1a 77 40 bc
       -0.0434109 -0.004336769 0.061015345 -0.011747146
000040 70 6e 28 bd be fa 7c 3d f6 5f 26 3d 2e ba 64 bc
       -0.041120946 0.061762564 0.04061886 -0.013960404
000050 34 ac 51 3c bb af 6a 3e 2f 7f a6 bd 41 a1 00 3d
       0.012797404 0.22918598 -0.08129727 0.031403784
000060 d3 cf aa bb 10 b1 9f 3c 12 f9 5c 3d 3d 11 13 bd
       -0.005212763 0.01949361 0.05394847 -0.03590511
000070 df 75 50 bc c5 b5 0f bc d5 5f ad ba e7 6a ca 3e
       -0.012723415 -0.008771365 -0.0013227413 0.39534685
000080 de 76 83 3d 5f 39 14 ba 53 e4 49 bc 8e 2e 8f bd
       0.064191565 -0.0005654301 -0.012322503 -0.069913015
000090 25 4c f2 3c 7b 7d 84 3d b2 8a c3 3d 62 b0 c1 3e
       0.029577324 0.06469246 0.095479384 0.37829882
0000a0 36 7f af 3c 00 d9 50 3c f1 6c 63 bd 48 a1 d1 3d
       0.021422964 0.012747049 -0.055523816 0.1023584
0000b0 c5 7b 20 bc 90 8d 87 bd c1 0e a6 bb 42 00 3e 3d
       -0.009795134 -0.06618798 -0.005067677 0.046386965
0000c0 aa 3c 36 3c 73 d3 b0 3b 4a 26 f5 3c 58 87 b6 bc
       0.011122862 0.0053963005 0.029925484 -0.022281334
0000d0 0c 9f 2c bb f7 d4 d7 3d fe 32 e8 3d f2 51 4a 3d
       -0.0026339917 0.10538667 0.11337851 0.049394555
0000e0 16 7e 33 3c 8a ce a7 3d bf 36 54 bc 70 6a d6 3c
       0.010955354 0.08193691 -0.012952506 0.0261738
0000f0 cd ac c4 bc cb c6 0b bb 03 b2 42 3d 48 35 08 3d
       -0.02400818 -0.0021328207 0.047533046 0.033253938
000100 48 e3 2b 3e bb 97 a8 3d 01 b3 3a 3d 45 71 df bd
       0.1678592 0.08232065 0.045580868 -0.10910276
000110 01 93 82 3e f9 fe f6 bc 44 ed d6 3c 44 1f 5c be
       0.2550278 -0.030150877 0.026236184 -0.21496302
000120 70 25 da 3c 36 ad 75 3d 1b e6 37 3d 59 1f c0 b9
       0.02662918 0.05997964 0.04489718 -0.0003664445
000130 30 c2 9e bb 40 49 05 3d dd 20 ea 3c 21 8e 26 bc
       -0.0048449263 0.03254056 0.028580124 -0.010165722
000140 f3 c7 94 bc 02 b1 09 3e a0 0e 96 3d 01 5d 47 3c
       -0.01816175 0.1344643 0.07327008 0.01216817
000150 14 72 f4 3a 09 3b 7f be 0e 2b be bd 2d b7 c3 3c
       0.0018649721 -0.24924864 -0.09285556 0.023891056
000160 e8 55 3b 3c e8 b5 13 bc 71 01 99 3d e8 37 34 bb
       0.011434056 -0.009015538 0.07470978 -0.0027499143
000170 91 fd 6d bc 11 aa 90 bd 9d 87 a6 bc ea 12 c8 3e
       -0.014525787 -0.070636876 -0.020328337 0.3907693
000180 b5 1f 98 3d e8 63 a0 bc 25 bf 8d 3c 03 79 09 bd
       0.07427923 -0.019578889 0.017303059 -0.03356267
000190 a0 8a 17 3d 93 30 98 3c f7 ce 44 3d b0 ee c1 3e
       0.036997437 0.01857785 0.04804894 0.37877417
0001a0 1d 95 8e bb f6 10 e3 3c 8c e2 df 3c aa a8 1c 3e
       -0.004351272 0.027718049 0.027329706 0.15298715
0001b0 0a 4f 6d bc 8a 83 f2 bc a3 4b 92 3d c6 1a 4b 3e
       -0.014484176 -0.029603738 0.07143333 0.19834432
0001c0 72 d4 15 3d 51 ed b4 bc ea 51 76 3d e4 5d ba bc
       0.036579557 -0.022085818 0.060136713 -0.022749849
0001d0 0f 69 36 3d fd d8 cd 3b 0e c8 24 be 7c ab 98 3d
       0.044533785 0.0062819705 -0.1609194 0.07454583
0001e0 d4 61 23 3c c9 a7 46 3d aa c9 ab 3b 4a f1 ae 3d
       0.0099720545 0.048499856 0.005242546 0.08542116
0001f0 63 c8 8d 3c 50 74 9b bc 3f 3c d9 bc f6 3e 82 3d
       0.017307466 -0.01897636 -0.026517985 0.06359665
000200 38 0c 51 bd b9 4f 0d bb f5 dc 2a be e6 92 62 bd
       -0.051037043 -0.002156241 -0.16685851 -0.055315875
000210 b2 48 9d 3c b7 1e 35 be 89 76 95 3f ea 9b 29 be
       0.019199703 -0.17687498 1.1676799 -0.16563383
000220 2f 05 12 3f 11 c7 8e 3e 90 3d 32 3f 2b 66 24 3f
       0.5703916 0.2788625 0.69625187 0.64218396
000230 2d b2 90 be 56 7e 3d 3e f4 c0 2c 3e d4 d9 f9 bd
       -0.28260937 0.18505225 0.16870481 -0.121997505
000240 e5 c4 94 be 88 50 92 3e 76 0a 8e 3f a6 a9 e9 3e
       -0.2905647 0.28577065 1.1096942 0.45637244
000250 0a ef d4 3d 3c d3 94 bd b7 3e 47 bf ea 9b c6 3d
       0.103971556 -0.07266852 -0.7783007 0.09697707
000260 e3 1a c5 3f d4 42 a9 3f a8 73 23 be d8 0b 74 3f
       1.539883 1.3223519 -0.15962088 0.9533057
000270 4a 37 e2 3e d9 f0 7b bf 34 48 df bd 35 e8 34 3e
       0.44182807 -0.9841438 -0.109024435 0.17666705
000280 b7 67 11 3f 8d 6a 16 bf 1f dc f8 3e f0 69 36 3e
       0.5679888 -0.58756334 0.4860544 0.1781385
000290 c9 02 10 3e 27 76 2f 3e 3d 10 be 3b e1 98 92 bc
       0.14063562 0.17134915 0.0058002756 -0.017895164
0002a0 b1 e5 e1 3f f3 05 e2 3d 97 57 25 3f 96 99 98 3f
       1.7648221 0.11036291 0.64586776 1.1921871
0002b0 6d bb 33 be 58 6d 3a bf 9e 1b 6f be 84 3a f2 bd
       -0.17551966 -0.72823095 -0.23350379 -0.11827567
0002c0 d2 db 36 bf 36 20 28 3d 8b 0e 0c bf ad 52 94 3f
       -0.7142917 0.041046344 -0.5470969 1.1587731
0002d0 2a 3c 96 3d d5 c8 31 3d 4d 9a 32 be 10 18 b7 3e
       0.07335694 0.04340442 -0.17441674 0.35760546
0002e0 64 0b 1f 3e 21 68 5e 3f 32 94 46 bf 7d a5 a3 be
       0.15531689 0.8687764 -0.7756988 -0.31962195
0002f0 61 79 cb 3f f9 1b 21 3e f9 fd 32 be d8 07 9c 3f
       1.5896417 0.15733327 -0.17479695 1.2189894
000300 fe 7a 6e be e1 35 92 bd 32 4e 40 bf 08 42 a0 bb
       -0.23289105 -0.07139183 -0.75119317 -0.004890684
000310 d4 2b 96 bc 29 e7 5f bd c4 bb 94 3f d2 3c 52 3e
       -0.018331446 -0.05466381 1.1619802 0.20531014
000320 0c a1 be 3e c7 80 8e 3e d9 2b e1 3e 4d c2 86 3f
       0.37232244 0.27832624 0.43978766 1.0528046
000330 ad 8c 5d bf 22 23 ca 3e b7 7c d5 3e 8f 58 a8 3c
       -0.8654278 0.3947993 0.41696712 0.02055004
000340 a9 cb 79 be f7 3a 3b 3f 0f 4d f0 3e 59 8d 81 bd
       -0.24394096 0.7313685 0.4693379 -0.06325788
000350 09 e2 c0 3e c7 f1 38 3e 78 4c 89 be f5 d5 07 be
       0.3767245 0.1806098 -0.26816154 -0.13265212
000360 c6 24 cd 3f 20 ea 87 3f 67 07 b6 be e5 3c ad 3f
       1.6026847 1.0618324 -0.35552523 1.3534209
000370 99 d9 b9 3d 24 27 54 bf 89 98 38 be 6d d3 cd 3d
       0.090747066 -0.82872224 -0.18026938 0.10050092
000380 93 a7 0e 3f f5 70 3f bf 8a a6 60 3e a6 64 87 3f
       0.5572445 -0.74781734 0.2193853 1.057759
000390 ed ca 1c 3d 5a e6 19 3f a0 32 ae 3d 61 ae 5e 3e
       0.038279463 0.60117114 0.0850575 0.21746208
0003a0 be d5 be 3f 1d bf e1 3e cd ab 7b 3f 48 31 80 3f
       1.4908979 0.4409112 0.9830902 1.001504
0003b0 8f ab 49 bd af a4 59 bf 6b 72 3a bf 68 a8 ad bd
       -0.049235877 -0.8501691 -0.7283084 -0.084793866
0003c0 b8 3b 02 bf 29 70 01 3e 33 4b 8e be a5 5f 7e 3f
       -0.50872374 0.12640442 -0.27791747 0.9936469
0003d0 9b 66 c5 3e bf 4a 0a ba 96 18 cc bd ee a7 50 be
       0.38554844 -0.000527542 -0.09965627 -0.2037656
0003e0 a1 1c 53 3f 85 9b bb 3e 36 85 59 bf a6 04 3f be
       0.8246556 0.3664209 -0.8496889 -0.18654117
0003f0 ef bd d0 3f be 26 35 3f e8 a1 c1 be b5 1a 46 3f
       1.6307963 0.7076224 -0.37818837 0.773845

r_to_mu_sigma.hidden_to_sigma.bias f4 [8]
000000 09 29 3b c0 69 1c 36 c0 24 d1 e2 bf c0 29 06 c0
       -2.9243796 -2.845484 -1.7720075 -2.0962982
000010 77 e2 38 c0 93 34 3a c0 0e 21 39 c0 e7 cf 9e bf
       -2.8888223 -2.9094589 -2.8926425 -1.2407197

xz_to_y.xz_to_hidden.0.weight f4 [16, 9]
000000 18 63 1c c0 12 e8 d9 3b ec 8e 8e 3c be ac c8 bd
       -2.4435482 0.0066499794 0.017402135 -0.09798573
000010 96 2a b7 3d 10 8c e8 ba c7 4e db 3a cc a9 72 bb
       0.089436695 -0.0017741937 0.0016731852 -0.0037027476
000020 0c 1f 0a bd 15 e9 ee 3f 9d d1 9c 3c 37 03 5f bb
       -0.033721015 1.8664881 0.01914292 -0.0034029016
000030 96 c7 78 3e 8b f2 e1 bc a4 c7 47 ba 89 d8 a7 3c
       0.24294886 -0.027581474 -0.00076209963 0.020488994
000040 16 f4 90 3c 51 38 4f 3d 93 0a 94 3f 46 97 30 bb
       0.017694514 0.050590817 1.1565727 -0.0026945635
000050 e4 a9 7f bc b4 34 f1 bb 69 3c af be a0 97 e1 ba
       -0.01560447 -0.007361019 -0.34225777 -0.0017211325
000060 57 54 8c 3c 3c 50 3f bb 5b 8f 85 3e ec ff bc bf
       0.01713006 -0.002919211 0.26085934 -1.4765601
000070 81 97 29 bb 1e 03 86 bc 99 1d 67 3c f2 22 df 3d
       -0.0025877657 -0.016358908 0.014106178 0.10895337
000080 c5 b3 ad ba f9 cc 07 3c 36 4e 16 3a 84 4e 20 3e
       -0.0013252428 0.008288615 0.00057337 0.15654951
000090 c5 7b b0 3f 1b f6 65 3c 68 91 64 bc 69 93 bd bd
       1.3787771 0.014035727 -0.013950683 -0.09256632
0000a0 2c f3 11 bd 40 fe d1 3c 32 ec df bb e0 e7 f9 bc
       -0.035632297 0.025633931 -0.0068335766 -0.030506074
0000b0 63 7b a3 3e c7 0b 05 c0 8f cd e5 3a 5d 5b bd 3b
       0.31930074 -2.0788438 0.0017532575 0.0057787136
0000c0 2d da 95 be c7 d5 5c 3d 38 fb aa bc a2 c3 45 bb
       -0.29268017 0.05391481 -0.020871744 -0.003017642
0000d0 a0 ba fa 3b 99 2f 82 bc bb 6e 40 3f fd d4 bb 3b
       0.007651642 -0.015891837 0.7516896 0.0057321773
0000e0 8b c7 8e 3c a0 b7 a8 bd a1 9e 71 be db 87 1a 3d
       0.017429134 -0.08238149 -0.23595668 0.037727218
0000f0 dc bd c3 3c 65 61 6c bc a8 12 90 be 0f 1e 50 c0
       0.023894243 -0.014427518 -0.28139234 -3.2518346
000100 6b b6 16 3c 97 f7 8c 3c 7f 0b 9a 3e 64 c9 e1 bb
       0.009198765 0.017207904 0.30086896 -0.0068904627
000110 50 1a 97 3b d4 64 0d bd ff b7 f1 3c e0 4c 45 be
       0.004611291 -0.034519985 0.029506681 -0.19267607
000120 d3 87 6c 3f 5d 77 7a bb 78 33 65 3b 0c 4b 5f be
       0.9239475 -0.0038218119 0.0034973305 -0.21805972
000130 60 12 49 3e 1a bc 81 bc bd 28 6b bc ab 92 95 3c
       0.19635916 -0.015836764 -0.0143529745 0.018258413
000140 19 70 92 3d 27 45 90 bf a3 f0 21 bc 54 97 34 3b
       0.07150287 -1.1271104 -0.009884032 0.002755602
000150 c6 c5 01 3c e8 ca a0 3e 13 b1 93 bc 67 b0 45 3c
       0.007920688 0.31404805 -0.018028772 0.012065983
000160 c1 b9 2a b9 32 ab 5d be aa 50 cd bf e3 87 6d 3c
       -0.00016281662 -0.21647337 -1.6040242 0.01449773
000170 df 6c 3c 3c 9c 9e ce be 84 f8 01 bc f5 88 27 3d
       0.011500566 -0.40355384 -0.007932786 0.040902097
000180 0c a6 7c 3c d6 76 93 3b 94 c1 aa 3e ed f7 8a c0
       0.015420448 0.0045002503 0.33350813 -4.3427644
000190 8c 21 f9 3b 7d 2f 88 3c c9 5b e6 3d ab c5 42 be
       0.007602876 0.016624207 0.112479754 -0.19020717
0001a0 82 76 b5 3b af a1 9a bb 55 c9 b5 bb 5c 73 58 3e
       0.005537809 -0.004718981 -0.0055476823 0.21137756
0001b0 03 ad 17 c0 42 cf 36 bc c3 15 2e bc 2e 77 a1 3d
       -2.3699348 -0.011157813 -0.010625306 0.0788406
0001c0 c5 00 71 3d fb c8 0b 3c 17 a8 d8 3b 43 1f 72 bb
       0.058838625 0.008531804 0.0066118347 -0.0036944903
0001d0 d9 a1 96 3d 71 f6 22 c0 e7 89 28 bc 6c 0f 56 3b
       0.07355089 -2.5462916 -0.010286785 0.0032663
0001e0 fa e2 d2 bd f7 15 02 3e 3b 9a 55 3b 3f ce 30 3b
       -0.102971986 0.12703691 0.003259315 0.00269784
0001f0 6b 0b a8 3b f6 ac 23 3e a4 ca 21 c1 c1 4f 21 3a
       0.0051283143 0.15983948 -10.111973 0.0006153547
000200 50 15 d2 bb 3a ef 8d be 7c b9 20 be 9d 39 99 bd
       -0.006411232 -0.27721578 -0.15695757 -0.07481692
000210 ef 27 20 bd 78 da 0b bd fa b4 ab be b2 f6 64 be
       -0.039100584 -0.034143895 -0.33536512 -0.22359732
000220 83 ec 6e 3c 9e d7 ec bb 57 40 8a 3d 5b 02 b5 3d
       0.014582756 -0.007227852 0.06750553 0.0883834
000230 e2 9e 1e 3c e2 b6 8d 3c 99 29 17 bc 73 64 cd be
       0.009681435 0.01729912 -0.009226226 -0.401157

xz_to_y.xz_to_hidden.0.bias f4 [16]
000000 54 d8 a6 3f 95 f9 33 bf a7 cd 80 bf 6f ed af 3f
       1.3034768 -0.70302707 -1.006276 1.3744334
000010 c2 a0 83 be 0e 37 44 3f 82 ee c8 bf 22 c3 2f 3f
       -0.25708586 0.76646507 -1.5697787 0.68657124
000020 29 cd 8b bf f6 4f 72 3f b8 e2 4e bf f4 99 21 3f
       -1.0921985 0.9465326 -0.80814695 0.6312554
000030 6f 5c aa 3f f2 3e 73 3f ae d0 e6 bf 74 fe 71 be
       1.3309458 0.9501792 -1.8032434 -0.23632222
