seed-AuNP-phasemaps/pretraining/tune/128_4_64_9.73E-02_2/model.pt (torch, 163040 bytes, 20 tensors)

xy_to_r.input_to_hidden.0.weight f4 [64, 2]
000000 c9 39 80 bf ed f7 af bf b9 03 99 bf 58 f4 85 bf
       -1.0017635 -1.3747536 -1.1954261 -1.0465193
000010 a0 91 5b bf 5d ce 67 bf ae 3a 50 be 17 4a c2 be
       -0.8576908 -0.9054926 -0.20334885 -0.3794715
000020 63 53 71 bd 3b 92 b2 be 47 1b 76 bf af ee 37 bc
       -0.058917414 -0.3487719 -0.9613537 -0.01122634
000030 7b 9d 29 bf 87 1f 33 bf 7a 76 e8 be 8b e7 d9 be
       -0.6625592 -0.6996998 -0.4540289 -0.42559466
000040 04 bc b3 be e6 34 67 bf 7d 90 91 be 6f 16 ef be
       -0.35104382 -0.9031509 -0.28430548 -0.46696803
000050 65 b4 d7 be 68 8f 50 bf 0c c5 49 bf 8d 2a 0f be
       -0.42129818 -0.8146882 -0.78816295 -0.13981076
000060 10 89 e1 be d5 43 46 bf 42 21 5b bf 40 40 50 bf
       -0.44049883 -0.77447253 -0.8559762 -0.8134804
000070 69 37 82 bf a3 b7 aa bf 23 7e 1a 3d b3 35 19 bf
       -1.017316 -1.3337291 0.03771795 -0.59847564
000080 11 97 f2 bd d5 0a 49 be a8 44 82 3d 75 be 5a be
       -0.1184522 -0.19633038 0.063607514 -0.21361716
000090 fd cb 04 bf 82 bf f6 be a4 42 01 bf a5 00 34 bf
       -0.5187376 -0.48192984 -0.5049231 -0.70313483
0000a0 ba 41 9e 3d c4 3d 9f be c8 97 09 c0 da 6f 42 c0
       0.0772738 -0.3110181 -2.149889 -3.0380769
0000b0 d0 22 2f be 3f 2d fe be d1 2a a3 bf 74 ec 2e bf
       -0.17103124 -0.49643895 -1.2747442 -0.6832955
0000c0 f1 72 a1 3e 02 71 02 bf 76 ae 41 bf 16 d2 97 be
       0.31533006 -0.50953686 -0.7565683 -0.2965247
0000d0 8e 25 35 be d7 0c 21 bf 0f e3 6c 3d 76 27 43 bf
       -0.17690107 -0.6291022 0.057833727 -0.7623209
0000e0 5e 38 a1 bf 9d 38 39 be 4c 49 a1 bf 79 e3 97 bf
       -1.2595327 -0.18088003 -1.2600493 -1.1866294
0000f0 c4 46 61 c0 93 8d 57 c0 ee ff e2 3f 52 ad c3 3f
       -3.5199442 -3.368016 1.7734354 1.5287268
000100 2e 07 8f bd d2 74 39 bf d2 dc 1d 40 32 fd 00 40
       -0.06983791 -0.7244388 2.4666028 2.0154538
000110 65 b2 4f bf c3 48 19 be 6a ad 6e bf f5 66 60 be
       -0.81131583 -0.14969163 -0.9323336 -0.21914275
000120 9e 78 ea 3f 17 12 9b 3f 9f 12 aa be 8b 08 08 bf
       1.831806 1.2114896 -0.33217332 -0.53138036
000130 ac 47 dc bf 52 85 c8 bf 99 7a 45 be bd 81 2c bf
       -1.7209373 -1.5665686 -0.19285049 -0.67385465
000140 50 89 39 be 9c bd 0d bf 9d 41 5b bf 26 47 2f bf
       -0.18118787 -0.55367446 -0.8564699 -0.6846794
000150 b4 39 67 3e 13 79 22 bf 1b a3 04 c0 e2 b3 bf bf
       0.22580606 -0.63465995 -2.0724552 -1.4976771
000160 c5 fc 12 bf 80 f6 a6 bf 38 61 f2 be 04 ee 1d bf
       -0.57416946 -1.3043976 -0.47339797 -0.6169131
000170 b4 a6 b2 bf 12 e1 cf bf df 42 cf 3e 28 81 18 bf
       -1.3957124 -1.6240561 0.40480706 -0.59572077
000180 f7 df 1d c0 aa fe 2c c0 82 b3 e1 bf 20 d7 dc bf
       -2.4667947 -2.7030435 -1.7632906 -1.7253151
000190 09 f8 2a bf 2e 0f 01 bf 37 e7 95 3d 5d 05 8c be
       -0.6678472 -0.5041379 0.07319491 -0.27347842
0001a0 3a 6f c3 be dd b3 48 be fe 68 17 c0 b6 a5 da bf
       -0.38170797 -0.19599862 -2.3657832 -1.7081821
0001b0 37 63 5f be a0 fd 40 bf 00 fc b9 be d7 4e e4 3c
       -0.21815191 -0.75387 -0.36325073 0.027869625
0001c0 32 b1 97 bf 69 51 aa bf 0e 7d 87 bf d9 b0 d6 be
       -1.1850951 -1.3306094 -1.0585039 -0.419318
0001d0 a5 f2 e4 3f eb 6a c2 3f 7a c4 85 bd e4 2c 91 bf
       1.7886549 1.5188879 -0.065316156 -1.1341825
0001e0 f4 b8 b9 be 72 5e da bd a3 6c eb 3f 82 7b b4 3f
       -0.3627392 -0.10662545 1.8392528 1.4100192
0001f0 82 bb 4c bf b0 c5 b1 bf d8 31 38 bf f0 3f 50 bf
       -0.79973614 -1.3888454 -0.71951056 -0.8134756

xy_to_r.input_to_hidden.0.bias f4 [64]
000000 e3 e4 07 bf fc db 02 bf 62 ad 05 bd 52 62 c2 be
       -0.5308363 -0.5111692 -0.032636054 -0.37965637
000010 8a a2 dc be f6 e9 91 bf f3 b6 6f bd 01 dc 64 bf
       -0.43092757 -1.1399524 -0.058524083 -0.893982
000020 98 d2 fe be e1 2d 55 be cb 06 fb bc f7 59 f6 be
       -0.49770045 -0.20818283 -0.030642888 -0.48115513
000030 49 0f dc bd a7 b6 b5 bf 9a 6e 07 bf f8 fe 48 be
       -0.10745103 -1.4196366 -0.5290314 -0.19628513
000040 a0 f1 58 be 5b 91 95 be 8a 0c 2b be 5c 34 f2 be
       -0.21185923 -0.2921246 -0.16704002 -0.47305572
000050 16 d4 b5 bd c7 41 9a bf 7a 6a 43 be 3b 57 cb be
       -0.08878343 -1.2051324 -0.19083586 -0.3971499
000060 cb c2 cd be ae 60 29 bf 43 9a 5e be eb d5 cc bd
       -0.40187678 -0.66163146 -0.21738534 -0.10001739
000070 8d 98 ff be 0a 61 90 bf 5c 44 cd bf c4 cf e8 3f
       -0.49921075 -1.1279614 -1.6036487 1.8188405
000080 58 21 12 be 5b 73 0f 40 cb 10 4b bf 6d cf 69 bf
       -0.14270532 2.2414157 -0.793225 -0.9133213
000090 e0 71 9c 3f fa 88 91 3c 4a 40 c5 be 01 d2 17 bf
       1.2222252 0.01776551 -0.3852561 -0.59304816
0000a0 5f 8c e1 be 5d f0 e1 bd db c9 09 bf 59 d9 08 c0
       -0.44052407 -0.11032174 -0.5382363 -2.1382658
0000b0 a0 4b 07 bf 93 d6 b6 be 92 bc 4c bf fd 69 f6 be
       -0.5284977 -0.35710582 -0.79975235 -0.48127738
0000c0 b0 d1 ee bf b0 e5 63 bf 94 5c 82 bd 5e 3f 86 be
       -1.8657742 -0.8902235 -0.06365314 -0.2622022
0000d0 7e 0c 5e bf 1e f5 fb be 6b 22 8a bc ba 1b 89 bf
       -0.8673781 -0.49210447 -0.016862115 -1.0711586
0000e0 e5 22 cc be 9d 60 04 bf 7d 16 dc 3f 3a 77 04 bf
       -0.39870372 -0.5170992 1.7194363 -0.51744425
0000f0 2f 03 78 be 71 0a e4 3f bf b0 cf be 4b b8 6f bf
       -0.24219964 1.7815686 -0.40564534 -0.93640584

xy_to_r.input_to_hidden.2.weight f4 [64, 64]
000000 7b 62 13 3f 76 94 05 3f 1b 98 13 3f 12 21 df bd
       0.57572144 0.5217966 0.5765397 -0.108949795
000010 ae ae ca 3d ac f4 9d bd a8 ab 29 3f 40 38 a8 bb
       0.09896599 -0.07712683 0.6627755 -0.0051336586
000020 80 a4 b8 3c 16 08 36 bf 7f 40 09 3f 70 ec 09 3c
       0.022539377 -0.7110609 0.5361404 0.0084181875
000030 c6 46 db 3d 21 27 19 bf 7b 0c 19 bf dd b2 35 bf
       0.10706858 -0.5982533 -0.5978467 -0.7097605
000040 34 c0 da bd bc 23 1a bd 74 fa 36 bd fa 42 d4 3d
       -0.10681191 -0.037631735 -0.044672444 0.10364337
000050 00 52 d8 3d 88 bd 49 bf a6 14 af 3d 44 f1 5c bd
       0.10562515 -0.78804827 0.0854886 -0.053941026
000060 1a b3 ce bd 7c 73 e1 bd fc a0 60 bd d8 39 76 bf
       -0.10092755 -0.11008355 -0.054841027 -0.9618201
000070 e4 8e 83 bd bd a4 2b bf 04 85 a3 be 46 14 1d bf
       -0.064237386 -0.67048246 -0.3193742 -0.6135906
000080 82 49 2d bf 82 00 29 bf 20 d5 c1 3d 40 2f 1f 3c
       -0.6769029 -0.660164 0.094644785 0.009715855
000090 5d fb 38 bf 5c e6 2c 3e 2d ef 37 3f 4c 93 3b 3d
       -0.7225855 0.1688475 0.7184933 0.04579477
0000a0 7c cb 0b bd a0 93 ef bd 80 51 fb bb 32 de bc 3d
       -0.034129605 -0.11698079 -0.0076696277 0.09222068
0000b0 bc 7a 72 3d 48 91 9f 3c 33 ca 31 bf 10 5f 70 3c
       0.05919908 0.019478455 -0.69449157 0.014671102
0000c0 62 58 0c bf d2 e5 02 bf eb 31 07 3f a8 06 c9 bc
       -0.5482236 -0.5113193 0.52810544 -0.024539307
0000d0 50 7e 34 3c e3 e0 ad 3e bc 56 fa 3e 08 4b f7 bc
       0.011016443 0.33960637 0.48894298 -0.030187145
0000e0 5c f4 b1 3d 3c 63 0d bd 49 34 49 bf 40 69 51 bc
       0.08689186 -0.034518465 -0.78595406 -0.012781441
0000f0 a4 74 56 3d d0 cd 26 bf 60 d3 aa 3d d5 1e 38 bf
       0.05235733 -0.65157795 0.08341098 -0.71922046
000100 87 85 f6 be 5a 49 db 3d 4c 1a 20 3f 80 ae b4 3a
       -0.48148748 0.1070735 0.62540126 0.0013784915
000110 48 e1 54 3d ca 28 f9 3d 34 f1 08 3f 79 3c ff be
       0.051972657 0.12165983 0.53493047 -0.49850824
000120 e8 b7 ef be 83 16 17 bf 41 64 06 3f 9c 43 2c bf
       -0.46819997 -0.59018725 0.52496725 -0.67290664
000130 a4 83 03 bf 49 43 32 bf 48 76 f0 be 1f eb 30 bf
       -0.5137274 -0.6963392 -0.4696524 -0.69108766
000140 a4 43 ea 3d 48 72 95 3c dd f6 29 3f 54 1b 74 3d
       0.11438683 0.01824297 0.6639231 0.059596375
000150 e8 d1 50 3d b5 29 15 bf d0 a1 f7 3c 1a 9c 32 bf
       0.050981432 -0.58266765 0.030228525 -0.6976944
000160 52 a1 fe bd fd a3 08 bf 1e 5f f4 3e 33 de 2c bf
       -0.12433113 -0.53375226 0.4772882 -0.6752655
000170 e6 98 19 bf e6 5e 2c bf 47 08 25 3f 54 a6 0d bf
       -0.5999893 -0.67332304 0.64465755 -0.5533192
000180 4a 11 ec be 35 9b 0e bf 04 51 f4 3d 2b 5a 03 bf
       -0.4610694 -0.5570558 0.11929515 -0.5130946
000190 1a 81 2f bf f8 29 0d 3f b6 1a 0a 3f 28 9e b6 bc
       -0.6855637 0.55142164 0.5394701 -0.022292212
0001a0 38 5a 22 bd fe a5 10 3f 10 76 35 3f 06 ad dd bd
       -0.03963682 0.56503284 0.70883274 -0.10824017
0001b0 f1 b8 ee 3e fd 3a f4 be 3b 9d 18 bf 38 9f 3b bd
       0.46625474 -0.47701254 -0.59614915 -0.04580614
0001c0 ae 82 01 bf dc 5a 01 bf dd e4 0f 3f 28 0d cd bc
       -0.50590026 -0.50529265 0.5620859 -0.025030687
0001d0 44 a6 33 bf 40 bf 20 3f 65 f9 20 3f 41 3c 1c bf
       -0.70175576 0.62791824 0.62880546 -0.6102944
0001e0 a0 bb 5c 3c a8 7a 29 bf f0 3c 23 bf d8 18 f7 3e
       0.013472468 -0.66202784 -0.6376486 0.48261142
0001f0 22 8e f3 3d 5b 59 fe be bc cd f4 be d3 f0 f4 be
       0.11892344 -0.49677548 -0.47813213 -0.47839984
000200 d3 d5 1f bf c0 cd be 3c 64 b0 ca bd de 47 9b bd
       -0.62435645 0.023291469 -0.09896925 -0.07582067
000210 30 dd e5 3c 90 0d e9 3d 35 78 da be a0 26 57 3d
       0.028059572 0.1137954 -0.42669836 0.05252707
000220 e5 8a 26 bf 40 69 18 3d aa 96 12 bf 3e c8 c4 bd
       -0.65055686 0.03720975 -0.57261145 -0.09608506
000230 a0 e2 11 bf f4 70 21 bf 54 82 de be 56 6b f0 be
       -0.5698643 -0.6306298 -0.43458807 -0.4695689
000240 1c 04 a9 bd 88 82 26 bd 77 b7 04 bf 70 31 ba bd
       -0.08252737 -0.040651828 -0.51842445 -0.09091461
000250 e8 52 cf 3d aa 20 1d bf c8 b7 c1 3c 00 90 d5 bc
       0.10123235 -0.61377966 0.023647204 -0.026069641
000260 96 b1 87 bd 98 e1 b9 3d 94 a4 01 bf 84 ad 09 bf
       -0.06625669 0.09076232 -0.5064175 -0.5378039
000270 fc bc 1a 3d 9c 1f e2 be 24 53 ec 3d 22 30 20 bf
       0.037777886 -0.4416474 0.11539295 -0.62573445
000280 63 67 21 bf 78 12 12 bf 50 38 8e bc 2e 8b 88 3d
       -0.6304838 -0.5705943 -0.017360836 0.066671714
000290 ea f6 12 bf 48 db 08 bf d4 d2 fe be 98 b6 00 bd
       -0.5740801 -0.53459597 -0.49770224 -0.031424135
0002a0 78 32 63 bd f1 b7 05 bf 9d f1 08 bf 52 77 f8 bd
       -0.055468053 -0.522338 -0.5349367 -0.121321335
0002b0 52 08 e4 be 8d cb 11 bf 06 f9 1d bf 1c eb 37 bd
       -0.44537598 -0.5695122 -0.61708105 -0.044901952
0002c0 65 05 24 bf 3e e2 f3 be d7 48 f4 be 2e 1e ec bd
       -0.6407073 -0.47633547 -0.47711822 -0.11529194
0002d0 70 57 af 3d 87 ae 24 bf 8e 65 da be f8 9a 8e 3d
       0.08561599 -0.6432881 -0.42655605 0.06963152
0002e0 94 e0 ea bd f4 68 94 bd 32 be 13 bf e6 cf e2 be
       -0.11468616 -0.07246581 -0.5771209 -0.4429924
0002f0 34 e6 8a bd 98 46 15 bf 0f 55 eb be 48 55 17 bf
       -0.06782189 -0.5831084 -0.45963332 -0.59114504
000300 fa e6 21 bf 0a 77 9f 3d df b9 11 bf d6 c0 c7 3d
       -0.6324307 0.07786377 -0.5692424 0.097535774
000310 8a 9c f2 3d 6c cd a8 3d 6e 47 27 bf ac 80 23 bf
       0.11846264 0.08242306 -0.6534337 -0.6386821
000320 19 3a 08 bf 2d 05 08 bf 10 31 2a bf c0 3e 27 bf
       -0.5321365 -0.531329 -0.66481113 -0.65330124
000330 a0 8f 0b bf 1a 4f 2d bf 66 5b ff be fd 44 00 bf
       -0.5451603 -0.67698824 -0.4987442 -0.5010527
000340 20 3d 57 3c 50 7d 97 3c 59 d3 1f bf f0 19 a7 3c
       0.013137132 0.01849237 -0.62431866 0.02039811
000350 80 45 ef bb 33 dd 2e bf 7c 40 c4 bd c5 c6 07 bf
       -0.007301986 -0.68306273 -0.09582612 -0.53037673
000360 ba ca bb bd 86 a8 0f bf e5 26 00 bf 32 4f 02 bf
       -0.091695264 -0.5611652 -0.5005935 -0.5090209
000370 bf 3c ed be 08 e1 26 bf 0a 62 18 bf 97 34 32 bf
       -0.46335408 -0.6518712 -0.59524596 -0.69611496
000380 61 75 2e bf 6d 1c 0a bf e8 84 03 bd 26 ec 07 bf
       -0.68147856 -0.53949624 -0.03210917 -0.5309471
000390 66 28 1d bf ae 34 fe be d8 72 23 bf 08 79 a3 3d
       -0.6138977 -0.49649566 -0.6384711 0.07982069
0003a0 8c bd 74 bd fc b4 ee be 85 d6 33 bf 4a b7 e8 bd
       -0.05975108 -0.46622455 -0.70249206 -0.113630846
0003b0 1b 8a 0f bf ef 78 1b bf 8f 06 11 bf 00 2d e8 3a
       -0.5607011 -0.60731405 -0.5665063 0.0017713606
0003c0 b6 7a 24 bf b4 56 14 bf e2 ea 1e bf 0a 13 8a bd
       -0.6424974 -0.579448 -0.6207715 -0.06741913
0003d0 69 b6 0f bf a3 a0 28 bf 4c 95 25 bf 4f fd 0a bf
       -0.5613771 -0.6587011 -0.64680934 -0.5429277
0003e0 0e 0e a5 bd e9 be 11 bf f5 0e 0b bf cc 08 04 bf
       -0.08059321 -0.5693193 -0.543197 -0.5157592
0003f0 0e 2b 98 bd f1 c9 0b bf fa 9e 2a bf 8c bd fe be
       -0.07430087 -0.54605013 -0.6664883 -0.49753988

xy_to_r.input_to_hidden.2.bias f4 [64]
000000 1d 91 0b bf c9 12 23 bf fe 02 00 bf d1 3e 10 bf
       -0.545183 -0.6370054 -0.50004566 -0.5634585
000010 97 03 26 bf a3 4d 12 bf e3 39 f0 be 68 c9 89 3e
       -0.6484923 -0.57149714 -0.46919164 0.26911473
000020 93 63 0c bf 7a 48 c4 bd d3 b1 a0 bd c5 db 0c bf
       -0.5483944 -0.09584136 -0.07846417 -0.5502284
000030 6c 20 0f bf c3 22 fb bd ac 7e 1d bf 82 4a dc bf
       -0.55908847 -0.1226249 -0.6152141 -1.7210238
000040 80 b1 a8 bc 40 9c 72 bf 9a 2a 1e bf 4f 53 0f bf
       -0.020592451 -0.9476967 -0.61783755 -0.55986494
000050 26 b9 ef be 74 75 3c bf 06 7b dd bd c1 d6 c4 bf
       -0.46820945 -0.7361672 -0.108144805 -1.5378038
000060 71 be 1c bf ab cf 1a bf 0d 90 0a bf c6 e1 20 bf
       -0.6122809 -0.60473126 -0.54126054 -0.628445
000070 43 b6 06 bf d3 a7 d8 bf 07 29 03 bf d4 9c 11 bf
       -0.5262186 -1.6926216 -0.5123448 -0.56879926
000080 a4 cf 25 be 08 e4 30 bd 73 bf d6 bd 4f e8 1b bf
       -0.1619249 -0.043186218 -0.10485735 -0.6090135
000090 7e 56 35 bf f4 22 24 bf a3 3e 05 bf a0 d8 b3 bc
       -0.708351 -0.64115834 -0.520487 -0.02195388
0000a0 91 b1 11 bf 61 02 d7 bf ea 65 ef bf 8c 56 94 bd
       -0.5691157 -1.6797601 -1.8702977 -0.0724307
0000b0 36 ba 2d bf 7c e4 98 bf 04 ae 17 bd be f9 14 40
       -0.6786226 -1.1944728 -0.03703119 2.327743
0000c0 1d 9d 41 3f e4 e6 c4 bf da e0 0c bf e2 d0 ad be
       0.7563036 -1.5382962 -0.55030596 -0.33948427
0000d0 d2 75 c8 be da 7f 2b bf 73 dc 0e bf bd 43 c5 bd
       -0.3915239 -0.6699196 -0.5580513 -0.09632061
0000e0 c5 53 04 bf 68 aa 01 bf c7 a7 1c bf d5 cc f3 bd
       -0.5169032 -0.50650644 -0.6119351 -0.11904303
0000f0 8d a3 3a bf b3 5f 23 bf d8 b3 06 bf 96 04 2a bf
       -0.7290581 -0.638179 -0.5261817 -0.6641325

xy_to_r.input_to_hidden.4.weight f4 [128, 64]
000000 12 97 31 bf 41 74 30 3f ad e7 fc be 7a bf 20 3f
       -0.6937114 0.6892739 -0.49395505 0.6279217
000010 00 d7 05 bf cd 05 32 3f 18 58 34 3f f1 e4 a1 bf
       -0.5228119 0.695401 0.7044692 -1.2647992
000020 c7 da 14 3f 7f c5 c7 3e bd 8c d4 3e b5 6c ef 3e
       0.5814633 0.39017865 0.41513625 0.46762624
000030 fb 46 04 bf 63 74 e8 3e 0e f9 14 bf fe 75 27 3f
       -0.5167081 0.45401296 -0.5819253 0.65414417
000040 4a ed d2 bd b3 e3 77 3f 0e 3a 1d 3f 64 13 13 3e
       -0.102991655 0.96831816 0.6141671 0.14362866
000050 10 1a b2 3b a0 f0 2c bf b2 1a f4 3d 1b 2c 1b bf
       0.005435236 -0.67554665 0.11919154 -0.60614175
000060 b9 e7 0c 3f f4 6b 0e bf 62 4d e6 be 5b 19 0d 3f
       0.5504108 -0.55633473 -0.44980913 0.55116814
000070 d0 5f 81 be f7 44 5f bf 84 33 27 bf eb 05 2c 3f
       -0.25268412 -0.87214607 -0.6531298 0.6719653
000080 39 a2 2a 3e bf e1 f1 3e 88 86 e3 3e 75 d3 05 3f
       0.16663446 0.47242543 0.44438577 0.5227578
000090 f7 49 ee be 1c be f3 3e 3c da ca 3e a6 a2 e1 bd
       -0.46540806 0.4760598 0.39619625 -0.11017351
0000a0 a8 d1 f3 3e 78 07 db bf 02 74 72 bf a6 90 09 3f
       0.47620893 -1.7111654 -0.94708264 0.5373634
0000b0 95 56 16 bf 71 3c 98 3f 7a a8 a8 3d 79 e7 ae bf
       -0.58725864 1.1893445 0.08235259 -1.366439
0000c0 01 df 7e bf 4e a0 52 bf 3c 81 01 3f cd 94 e6 3e
       -0.99559027 -0.82275856 0.5058782 0.450354
0000d0 83 5e 13 3f b5 ea 29 3f 99 68 3f bf ab 23 20 3f
       0.5756609 0.6637376 -0.7476898 0.62554425
0000e0 41 6f da be c5 20 2b 3f 81 5b 12 bf 64 cc a5 3e
       -0.42663005 0.6684688 -0.57170874 0.323825
0000f0 09 17 2d bf c4 1e 27 3f 84 74 06 bf 99 dc 11 bf
       -0.67613274 0.6528132 -0.5252154 -0.5697723
000100 1a 94 93 3e 4e 05 15 bf fd 10 06 3f 01 93 20 bf
       0.2882393 -0.5821122 0.5236967 -0.6272431
000110 f7 2c a4 3e ab ca 11 bf 32 70 06 bf ea 72 3d 40
       0.32065555 -0.5694987 -0.52514946 2.9601388
000120 df b8 2e bf e1 5b ee be 65 c8 e5 be a1 7b 12 bf
       -0.6825084 -0.46554473 -0.4487945 -0.5721989
000130 0e af 1a 3f 10 23 e0 be 4e 9c 01 bf 2a c6 58 bf
       0.6042336 -0.4377675 -0.5062913 -0.84677374
000140 d2 74 a3 bd 3c 78 47 bf 91 a4 04 bf 29 fe 11 be
       -0.07981266 -0.7791784 -0.5181361 -0.1425711
000150 2d 69 1e bd 40 91 1c 3f a4 f5 df 3d 4e c3 d3 bf
       -0.038674522 0.61159134 0.10935524 -1.6543977
000160 90 2d 34 bf 24 6d 12 3f 28 9f d6 3e 8d b3 26 bf
       -0.7038202 0.57197785 0.41918302 -0.6511772
000170 74 7d a8 3e ca b3 f5 bf 69 8f 2e 3f a8 06 13 bf
       0.32908213 -1.9195492 0.68187577 -0.5743203
000180 c3 0e 54 be 4d 7a 02 bf 44 eb d0 be a8 77 02 bf
       -0.20708756 -0.50967866 -0.40804493 -0.5096383
000190 ac 27 d6 3e bd be 0b bf 45 c8 fc be 00 50 05 bc
       0.41827142 -0.5458792 -0.49371544 -0.008136749
0001a0 5e 48 2a bf ca 0d 8f 3f 8c 1c 13 c0 1c ca 33 bf
       -0.66516674 1.1176083 -2.2986174 -0.7023027
0001b0 f7 f3 c8 3e 60 83 97 bf c0 58 ff bd b6 27 35 40
       0.3924863 -1.1836967 -0.124680996 2.8305488
0001c0 ac ad b3 3f 77 ff 01 c0 e9 1c f0 be 79 86 df be
       1.4037375 -2.0312173 -0.46897057 -0.43657282
0001d0 da ab 21 3f 3c 0b 34 bf 7a 51 34 3f 66 cb 16 bf
       0.6315285 -0.7032964 0.70436823 -0.5890411
0001e0 e0 a4 1d 3f f8 b7 04 bf e8 c6 0a 3f fe cb fb be
       0.61579704 -0.51843214 0.54209757 -0.4917907
0001f0 3d 47 27 3f 03 95 35 bf 0e 5f da 3e 5f d4 11 3f
       0.65343076 -0.709305 0.42650646 0.5696468
000200 cd 29 25 3f 50 72 16 3f 61 ce 28 bf 4a 12 19 3f
       0.6451691 0.5876818 -0.6593991 0.5979353
000210 a9 e3 e5 be 74 bd 02 3f 2a 36 09 3f 39 d7 59 bf
       -0.44900253 0.5107033 0.5359827 -0.8509403
000220 a5 64 08 3f 6c 54 10 3f 9e 45 08 3f 86 74 0c 3f
       0.5327857 0.5637882 0.5323123 0.548653
000230 bd f9 29 3f 4c 13 08 3f 6d ce 24 3f 57 0f 05 be
       0.66396695 0.53154445 0.6437748 -0.12994133
000240 0a dc bb 3d ab 4f 5c bf 90 5a 09 3f 39 01 87 3c
       0.091728285 -0.86059064 0.5365381 0.016480075
000250 88 1f 6e 3e e1 3d 17 bf 8a c5 b0 3d 2b 4b d9 bf
       0.23254216 -0.59078795 0.086314276 -1.6976064
000260 5c 1f 29 3f 7c 33 22 bf c8 4c c7 be 77 bb 07 3f
       0.66063476 -0.6335981 -0.38925767 0.53020424
000270 f8 c1 e3 bd 76 07 e3 bf 49 c3 f1 3e 4d e3 fb 3e
       -0.11120981 -1.7736652 0.47219303 0.49196854
000280 4c b7 95 3e ea 92 16 3f 75 5a 14 3f d5 f9 08 3f
       0.29241407 0.58817923 0.57950526 0.53506213
000290 c6 8e 84 be 41 31 12 3f ac 5f 04 3f 68 b7 1d 3d
       -0.25890177 0.57106405 0.51708484 0.038504988
0002a0 c9 31 28 3f d1 93 17 c0 61 c2 d2 bf 9a 47 f1 3e
       0.65700966 -2.368397 -1.646557 0.4712494
0002b0 a7 55 c2 be 6d 7e 94 bf 0c e5 22 3d 38 f8 f3 be
       -0.37955973 -1.1601082 0.039769217 -0.47650313
0002c0 de 88 29 40 2b a3 e1 bf 71 10 12 3f 68 53 ed 3e
       2.6489787 -1.762792 0.5705634 0.46352696
0002d0 6f f0 d7 be f5 d1 04 3f 45 40 30 bf 40 c1 2c 3f
       -0.42175624 0.5188287 -0.6884807 0.67482376
0002e0 f4 d0 28 bf 2d 16 23 3f 3c a6 0b bf 72 51 f5 3e
       -0.6594384 0.6370571 -0.5455053 0.479137
0002f0 1d 09 14 bf a8 1d 11 3f 2f 85 19 bf 31 cb 1a 3f
       -0.57826406 0.56685877 -0.5996885 0.60466295
000300 15 47 2e bf 01 19 07 3f 53 8f d9 be 16 7b fb 3e
       -0.6807721 0.5277253 -0.4249216 0.49117345
000310 a8 dd ea be 28 f4 30 3f 31 36 33 3f a1 ed 7c bf
       -0.45872235 0.6912255 0.70004565 -0.9880009
000320 8d 58 f3 3e 78 4f 29 3f a9 41 b9 3e 74 2d 10 3f
       0.47528496 0.66136885 0.36182907 0.56319356
000330 b6 db 20 3f 24 de e1 3e 45 ce 31 bf 3f d6 82 3f
       0.6283525 0.44114792 -0.6945537 1.0221633
000340 44 5f c6 3d 4d c4 6e 3f bf 51 27 3f b6 eb 53 3d
       0.09686139 0.9326828 0.6535911 0.051738463
000350 db 1f c3 3d f3 ac 34 bf 8c 58 cf bd 2a 16 c3 3e
       0.0952756 -0.705764 -0.10124311 0.38102847
000360 f8 e5 1a 3f 89 c2 1b bf 90 a5 14 bf 45 0f f5 3e
       0.60507154 -0.6084371 -0.5806513 0.47863212
000370 ad a9 3a be 54 5b 88 bd bf b3 2c 3f 9b d5 1a 3f
       -0.18228789 -0.066580445 0.6746177 0.60482186
000380 d0 28 62 3e 4e 2c e3 3e 88 9e e6 3e 5f 0b 15 3f
       0.22085881 0.4436974 0.45042825 0.58220476
000390 2e ec 01 bf 42 66 14 3f 8b 2c 00 3f 4a b4 a3 3d
       -0.50751007 0.57968533 0.5006797 0.07993372
0003a0 08 91 f1 3e bf 2a 8f bf de a5 95 be 38 0f 34 3f
       0.47180963 -1.118492 -0.2922811 0.7033572
0003b0 74 12 b0 be 2f 98 a7 3f c6 80 d3 3d a5 67 d2 bf
       -0.3438908 1.3093318 0.10327296 -1.643788
0003c0 65 08 c7 be 13 62 8c be 6d 5f 25 3f 16 a0 18 3f
       -0.38873592 -0.27418575 0.64598733 0.5961927
0003d0 37 d8 1c 3f fa db 16 3f 29 04 2b bf c6 98 26 3f
       0.6126742 0.5892941 -0.6680322 0.65076864
0003e0 06 6c fb be 93 3c ec 3e e1 fb 19 bf 9a c8 e7 3e
       -0.49105853 0.46139964 -0.6014996 0.45270234
0003f0 13 5e 21 bf ea 56 19 3f 0c a3 ee be a2 ca 12 3f
       -0.6303417 0.59898245 -0.4660877 0.57340443

xy_to_r.input_to_hidden.4.bias f4 [128]
000000 b4 26 84 c0 20 94 63 40 b3 ae 78 c0 bf 3f 01 3f
       -4.1297245 3.5559158 -3.8856628 0.50487894
000010 a6 56 86 c0 86 37 37 3f a1 d0 58 bf 04 da 88 40
       -4.198077 0.715691 -0.8469334 4.276613
000020 f0 1e 89 40 9c 7c 40 40 35 72 7e 40 ba 02 4c bf
       4.2850266 3.0076056 3.9757206 -0.7969166
000030 fd 64 2d 3f 38 50 7d 40 77 db 0d c0 9b fe 8e c0
       0.6773222 3.9580212 -2.21652 -4.46858
000040 b0 c8 31 40 03 7c 51 40 d2 72 6a bf bb db 71 40
       2.777874 3.273194 -0.9158145 3.7790363
000050 d2 09 24 40 86 c9 95 40 ad 83 5c c0 0b 45 95 40
       2.5630994 4.68085 -3.4455369 4.664678
000060 3d f7 23 40 4e 32 7d 40 04 2a 41 c0 33 3f 84 c0
       2.5619652 3.9561954 -3.0181894 -4.1327147
000070 c0 ef 76 40 fa 1b 81 bf 06 a7 72 3f cd 37 f5 be
       3.8583832 -1.0086663 0.9478611 -0.47894135
000080 ab bd 39 c0 01 de 54 bf e4 45 8c 40 69 ed 7f 3f
       -2.9022014 -0.8315125 4.3835316 0.99971634
000090 7f 0c 62 3e e9 83 7b bd eb a5 38 c1 92 45 79 40
       0.2207508 -0.061405096 -11.540507 3.8948712
0000a0 bc 71 57 3f 46 4f cf 3e 56 82 86 c0 7d 19 2b 40
       0.8415792 0.40490168 -4.20341 2.6734307
0000b0 99 c8 f1 3e 6a 36 6b 3f c1 33 2b c0 af 6a 04 bf
       0.47223356 0.91879904 -2.6750338 -0.51725286
0000c0 ca f2 7a c0 55 89 d2 c0 ae 1f d4 c0 86 18 1a be
       -3.9210687 -6.579264 -6.628867 -0.15048417
0000d0 b7 e2 cc 3e 6d 97 39 40 8d ac 58 bf 00 d2 1c c0
       0.4001672 2.8998673 -0.8463829 -2.4503174
0000e0 a5 67 80 bf 72 90 90 40 31 da 8e c0 67 7b 45 40
       -1.003163 4.5176325 -4.4641347 3.085657
0000f0 67 ba 77 c0 b0 42 71 40 59 58 83 c0 8e 9a 73 bf
       -3.870752 3.7696953 -4.1045346 -0.95157707
000100 9d 49 6a 3e e1 41 40 40 06 11 35 bf 57 11 85 3e
       0.22879644 3.004021 -0.707291 0.25989792
000110 9e e9 da be f3 a0 fb 3e f5 de 4b bf 59 34 28 40
       -0.4275636 0.49146232 -0.7963708 2.628195
000120 39 2a 88 40 61 d1 40 41 86 11 74 c0 fb 9c 5f c0
       4.255154 12.051118 -3.8135695 -3.4939563
000130 bd a3 22 3f 0f c0 7e c0 8d 23 c7 3e b6 20 da 3c
       0.63531095 -3.9804723 0.3889431 0.026626926
000140 b2 7e 79 c0 50 6f a5 be ff 18 87 40 62 0c fd 40
       -3.8983579 -0.32311487 4.2218013 7.9077616
000150 94 60 40 40 8f 8d e3 40 72 55 7a bf 24 f0 2a c0
       3.0058947 7.11103 -0.9778663 -2.670907
000160 8e b3 5b c0 d3 10 7b 40 e9 99 40 c0 0d 66 5d 3f
       -3.4328341 3.9229019 -3.009394 0.8648384
000170 f6 28 65 3f 7d 13 5a c0 51 74 9a bf f8 5e 8a c0
       0.89515626 -3.4074395 -1.2066747 -4.324093
000180 84 6b e4 c0 59 57 e5 40 d4 00 8f c0 b2 e3 24 40
       -7.1381245 7.1669126 -4.468851 2.5763974
000190 83 c2 65 bf a4 29 31 40 6e be 80 3f 2e e3 92 c0
       -0.89749926 2.7681665 1.0058115 -4.590232
0001a0 2d 8a 80 3f a0 a9 67 3f fc c0 56 bf aa e7 84 c0
       1.0042168 0.904932 -0.8388822 -4.1532793
0001b0 a3 50 7a 3f ae c4 4a 40 19 26 86 be c2 ae 5e bf
       0.9777929 3.1682544 -0.2620094 -0.8698541
0001c0 74 36 37 40 72 ab 71 c0 70 b3 28 40 7e 9e 5c 3f
       2.8626986 -3.7760892 2.635952 0.8617934
0001d0 b5 27 79 bf 15 ce 85 40 58 f1 84 40 e3 78 80 3f
       -0.97326213 4.1814065 4.154461 1.0036892
0001e0 fd 3e 82 c0 23 0e 7a be 0f 5d d7 40 68 20 3b 40
       -4.070189 -0.24419455 6.7301097 2.923853
0001f0 96 31 18 c0 86 ea de be e2 f1 50 3f 94 54 aa c0
       -2.3780265 -0.43538302 0.81619084 -5.3228245

r_to_mu_sigma.r_to_hidden.weight f4 [128, 128]
000000 bf 1d 1d 40 0f a9 f5 bf 8c 3e fb 3f 06 fe a2 3f
       2.4549406 -1.9192218 1.9628463 1.2733772
000010 d3 e9 16 40 e7 08 12 3f 56 75 b7 bf 01 d5 21 c0
       2.3580215 0.57044834 -1.4332683 -2.5286257
000020 22 3c ca bf cf d7 88 3f 1e 51 eb bf 3f 6f 8d bf
       -1.5799601 1.069086 -1.838413 -1.1049575
000030 aa 93 f8 3f 69 d9 0d c0 10 41 d5 bf 1e 9c 03 40
       1.9420063 -2.2163947 -1.666048 2.0564036
000040 9a 24 bb 3e 10 5e db bf f5 e9 cc 3e d0 50 f1 bf
       0.36551362 -1.7138081 0.40022245 -1.8852787
000050 c6 b5 15 3f 10 3d f3 bf a5 09 ec 3f 8c 70 fa bf
       0.5848049 -1.900301 1.8440443 -1.9565597
000060 e4 0b ce 3c f4 40 22 c0 c0 5e 09 40 21 d6 2d 40
       0.025152154 -2.5352144 2.146408 2.7161944
000070 0a 5c dc bf 2c 2b bb bf ae 76 6c be c2 2c ed bf
       -1.7215588 -1.462255 -0.23092148 -1.8529284
000080 8c fb 1d 40 ca 81 5c 3e 23 4d 00 c0 96 bd 5c be
       2.4684782 0.21533886 -2.004708 -0.21556696
000090 17 b7 3e 3d a1 c4 42 bf 17 e1 fd 3f 49 ca dc bf
       0.046561327 -0.7608128 1.9834317 -1.7249233
0000a0 d2 e2 67 bd 5f 96 0d 3f c7 96 ad 3f 26 22 24 3f
       -0.056612797 0.55307573 1.3561639 0.64114606
0000b0 51 32 06 bf 84 f4 92 3f db 59 03 bf 51 a3 89 bf
       -0.52420527 1.148087 -0.51308984 -1.0752965
0000c0 bf 49 28 40 7e 2c d7 3f b4 f8 27 40 55 c0 b0 3e
       2.629501 1.6810453 2.6245546 0.34521738
0000d0 1c 1a a8 3f b4 f1 0c c0 82 0e c2 bf 43 22 95 be
       1.3132968 -2.2022524 -1.5160677 -0.29127702
0000e0 a9 71 04 bd 05 76 07 c0 58 c6 ff 3f 11 a5 11 c0
       -0.032334957 -2.1165783 1.9982405 -2.2756999
0000f0 0c e7 e3 3f d0 cb ee bf 41 af 26 40 69 24 84 bd
       1.7804885 -1.8655949 2.6044466 -0.06452257
000100 19 68 d8 be 6b b8 1b c0 de 18 9f 3f a8 93 1e 3e
       -0.4226692 -2.433131 1.2429464 0.15486014
000110 49 66 4f bf 5c 59 9b 3f 4e ad cd 3d 63 73 82 3e
       -0.8101545 1.2136645 0.10042821 0.25478658
000120 ee 6b fe bf 49 9d 8a bf fd 07 eb 3f 03 9b fd 3f
       -1.9876688 -1.082925 1.8361813 1.9812931
000130 64 2e fa 3f 3c 73 0c 40 7b d4 ce 3e fe e4 24 3f
       1.9545407 2.1945333 0.40396485 0.64411914
000140 b4 01 e5 3f 40 d0 a6 bf f9 11 fd bf b6 33 91 bf
       1.7891145 -1.3032303 -1.977111 -1.1343906
000150 ce b2 ed bf 92 d8 58 bf 19 46 1c bf d8 7e 3a be
       -1.8570192 -0.8470546 -0.6104446 -0.1821245
000160 59 8c f5 3f bb ca d3 bf ca e9 0a 40 95 08 a5 3f
       1.9183456 -1.6546243 2.1705194 1.2893244
000170 7f f4 51 3e 97 31 25 c0 9b 4f 20 40 1b cb fb 3f
       0.20503424 -2.5811517 2.5048587 1.9671358
000180 ea 0f 71 3f 10 cb b3 bf 7b 18 f7 3f 60 7b 26 3e
       0.9416491 -1.4046345 1.9304346 0.16258001
000190 bc e3 b3 bf 07 a6 b0 3e 05 47 aa 3f f0 e6 f8 3f
       -1.4053874 0.3450167 1.3302923 1.9445477
0001a0 ef 4c 5a be 24 a3 bf 3f d3 f5 a6 be 4c 7d fc 3f
       -0.2131841 1.4971662 -0.32609424 1.9725738
0001b0 af 57 15 3f 7a 52 0f c0 d4 4d f6 bf 1c bc 9e 3e
       0.5833692 -2.239409 -1.9242501 0.3100289
0001c0 0d 94 56 3f 90 46 e8 3f 6e de e1 3e 53 d9 62 3b
       0.8381966 1.8146534 0.44115013 0.0034614399
0001d0 bf 5e 89 3e b5 d8 03 c0 b5 69 f2 bf f5 c0 85 3f
       0.26830098 -2.0601017 -1.8938509 1.0449511
0001e0 99 56 30 40 24 3f 6c bf 07 c0 2c c0 e2 4c 05 c0
       2.7552855 -0.92283845 -2.6992204 -2.0828176
0001f0 18 53 5a bf 42 a6 b3 be 2f 72 94 3e 8f 29 d8 3f
       -0.8528304 -0.35087782 0.28993365 1.6887683
000200 51 a3 be bf f2 6d dd bc 8e ca 25 c0 1b cc 97 bf
       -1.489359 -0.027029965 -2.590488 -1.1859163
000210 ab d2 b6 bf 70 a3 b9 bf 4e 91 a8 3f f1 ff bb bd
       -1.4283041 -1.4503002 1.3169343 -0.09179676
000220 8d c9 20 bf 8d 3c dd bf 3c 31 26 40 85 3e c9 3f
       -0.6280754 -1.7284104 2.596755 1.5722204
000230 9f 90 6b 3f 18 7e ba 3f 45 bd 14 40 fe 28 24 c0
       0.9201755 1.4569731 2.324052 -2.565002
000240 55 b8 13 c0 f2 24 d9 3f 1a c7 b2 3f 18 1b 24 40
       -2.3081257 1.69644 1.3967011 2.5641537
000250 68 77 09 c0 88 a9 1c 40 1c a3 ce bf 60 20 22 40
       -2.147913 2.4478474 -1.6143527 2.533226
000260 de bb 16 c0 e2 a1 b3 3f 7d fb c7 bf a2 bb b3 bf
       -2.3552165 1.4033778 -1.5623623 -1.4041636
000270 ea 69 b6 3f 4e 1a a7 3f 52 be a5 bf 74 bd 5b bf
       1.4251072 1.3054903 -1.2948706 -0.8583596
000280 65 db d2 bf e7 68 ac 3f d2 f0 20 40 6c 69 b0 bf
       -1.6473204 1.3469514 2.5146985 -1.3782172
000290 ea 7d b2 bf 99 9b ae 3f 2f 44 1f 42 46 83 b7 3f
       -1.3944676 1.3641235 39.816586 1.4336936
0002a0 91 a9 b1 bf 23 66 b7 bf 39 32 d0 bf e2 e1 06 c0
       -1.3879873 -1.4328045 -1.6265327 -2.1075368
0002b0 5a 73 ac bf 45 3b b3 bf fe 9b 10 40 22 51 a5 3f
       -1.3472703 -1.4002463 2.259521 1.2915385
0002c0 e4 b1 bb bf d1 8b b3 be 95 3a e3 3e 16 47 b3 bf
       -1.4663663 -0.3506761 0.44380632 -1.4006069
0002d0 c1 c5 bd bf a0 b7 c8 3f d3 f6 a9 3f 14 51 17 40
       -1.4825975 1.5681038 1.327845 2.3643236
0002e0 64 98 a9 3f 81 09 1c 40 fb 96 24 c0 99 5c d8 3f
       1.3249631 2.43808 -2.571715 1.6903259
0002f0 78 6c f8 3e de 88 ba 3f f4 30 c1 bf 91 0b b5 3f
       0.48520255 1.4573019 -1.5093064 1.4144155
000300 e2 af b4 3f 45 2a ce 3f 54 20 46 bf 6c 51 a4 bf
       1.4116175 1.610665 -0.7739308 -1.2837348
000310 26 2b ba 3f f3 af 9b bf 65 43 a3 3f e5 e9 15 c0
       1.4544418 -1.216307 1.2754942 -2.3424008
000320 78 58 1d 40 43 f0 54 c0 b3 75 c8 bf fe 7d da bf
       2.4585247 -3.3271644 -1.5660919 -1.70697
000330 49 8d 82 3f a4 cf b6 bf a6 56 ba bf 8e df b9 bf
       1.0199367 -1.4282117 -1.4557693 -1.4521348
000340 bc 3b c3 bf 62 37 a0 3f 67 32 1d 40 7b 88 1b c1
       -1.5252604 1.2516901 2.4562013 -9.72082
000350 bb 86 c5 3f e0 d5 a1 40 e8 41 a6 3f be 35 12 40
       1.5431741 5.057358 1.2988863 2.2845302
000360 0c c7 d0 bf 11 2d c7 3f 49 a5 cc bf 3e a9 ab bf
       -1.6310744 1.5560628 -1.5987941 -1.3411024
000370 29 dd b4 bf e7 61 6a 3f f8 a1 0e c1 15 a0 1f c0
       -1.4129993 0.9155564 -8.914543 -2.4941456
000380 24 3d db 3e d3 53 1a c0 4e c0 1b c0 0a 40 13 c0
       0.42820084 -2.4113662 -2.4336123 -2.3007836
000390 b1 a0 af 3f 74 b7 15 c0 14 12 a7 bf b4 9e 1c c0
       1.3720914 -2.339322 -1.3052392 -2.4471865
0003a0 99 1b a9 bf 78 8d a5 bf 1e 18 aa 3f 7b 00 1f c0
       -1.3211547 -1.2933798 1.328861 -2.4844043
0003b0 6d 5b a8 bf c8 d9 ae 40 73 be 7b 40 08 89 bc 3f
       -1.3152901 5.4640846 3.933499 1.4729319
0003c0 ce 4a 0c c0 8c dd b8 bf eb 49 12 c0 ba 0c a3 bf
       -2.1920657 -1.4442611 -2.2857616 -1.2738259
0003d0 12 27 b5 3f f6 c2 1d 40 27 2c 1f 40 33 4e ae bf
       1.4152548 2.4650245 2.4870698 -1.3617615
0003e0 8a 22 b4 bf de e6 ba 3f 6f 80 ef be e3 75 d4 3f
       -1.407304 1.4601705 -0.46777675 1.6598476
0003f0 e2 f8 0a 40 b9 79 af 3f c4 db a9 bf b8 17 05 40
       2.1714406 1.3709022 -1.3270192 2.0795727

r_to_mu_sigma.r_to_hidden.bias f4 [128]
000000 23 05 3c c0 61 63 8f 3f cb dc c8 40 91 2f 68 c0
       -2.9378135 1.1202203 6.2769523 -3.6279032
000010 2c 82 11 40 d1 02 c8 bf b0 d4 5e 40 c3 c6 0f 3f
       2.27357 -1.562586 3.4817314 0.5616266
000020 f0 c8 e3 40 d0 75 60 c0 2f c7 65 40 e9 ef 5f 40
       7.1182785 -3.5071907 3.5902822 3.499018
000030 bd 66 39 3f ed b0 4a 3f d1 4b 6a 40 a9 9d 34 c0
       0.7242239 0.7917622 3.6608775 -2.8221228
000040 e4 6b d1 40 bb f8 d7 41 66 94 8f bf 84 9d 34 3f
       6.5444202 26.99645 -1.1217163 0.7055285
000050 f8 16 ae bf 81 93 81 3f 23 d2 92 bf c0 bf cf 40
       -1.360076 1.012314 -1.1470379 6.492157
000060 0e 3b 2c 41 c2 dd 5a 3e 58 17 6f bf 65 40 48 c0
       10.764418 0.21373656 -0.93394995 -3.1289303
000070 17 ab 90 3e 10 bd a6 be 3e 54 5f 40 bd cc 4c c0
       0.2825553 -0.32566118 3.4895167 -3.1999962
000080 86 a7 0d 3f 49 ca 81 c0 97 da 49 c0 73 59 2c c0
       0.55333745 -4.055943 -3.1539667 -2.6929595
000090 e4 b7 77 bc 17 c7 5c 40 d2 af 8e 40 1a a2 1e 3f
       -0.015119527 3.4496515 4.4589624 0.619661
0000a0 f4 e2 e7 3f e5 59 a3 3f 8d 25 7e bf 3f 14 df 3e
       1.8116136 1.2761809 -0.9927605 0.43570134
0000b0 f0 cd 5d c0 64 e4 02 3f 40 25 52 bf 10 4f a0 3f
       -3.4656944 0.51129746 -0.8208809 1.2524128
0000c0 6e 1e b5 3f 7f 21 ca 3f 69 cf 81 c0 57 81 05 3f
       1.4149911 1.5791472 -4.0565686 0.5215048
0000d0 c4 11 8d be 1c 02 96 be 25 f0 5a c0 f0 0c 0c 3d
       -0.27552617 -0.29298484 -3.4209073 0.034192026
0000e0 fa 2c 13 3f 48 17 36 40 56 73 36 c0 9e 26 44 40
       0.57490504 2.845171 -2.8507895 3.064857
0000f0 ba c5 be be a1 12 b5 3f 2b df 81 3f ec 98 5d c0
       -0.37260228 1.414631 1.014623 -3.4624586
000100 f6 7b c3 40 a1 f8 02 3f 5c a8 29 41 dc 2a 94 40
       6.108882 0.5116063 10.603603 4.630232
000110 d4 82 b0 3f 29 f4 86 bf 66 99 e8 40 41 80 03 3f
       1.3789926 -1.0543262 7.2687254 0.51367575
000120 5f ff c5 3f e9 6c 2c 40 e3 c2 88 c0 df 03 61 40
       1.5468558 2.6941473 -4.27379 3.5158613
000130 5c 34 cb bf f0 65 31 c0 a8 28 8b 40 81 59 21 3f
       -1.5875354 -2.7718468 4.348713 0.630272
000140 f1 84 57 40 fa 01 57 c0 70 31 83 c0 5b fb d8 40
       3.367489 -3.3594956 -4.099785 6.780683
000150 10 f7 5e c0 a5 a5 f2 bf 68 76 31 41 1d 95 19 3f
       -3.4838295 -1.8956801 11.091408 0.59993154
000160 a7 00 bb 40 99 27 10 c0 cc e6 a3 3f dc 79 60 40
       5.8438296 -2.2524168 1.2804809 3.5074377
000170 7c a6 d4 bf b6 f7 65 c0 53 33 87 bd 20 d7 22 bf
       -1.6613307 -3.593244 -0.06601586 -0.63609505
000180 d3 ab af c0 e1 6e 7c bf d4 e1 47 3e 27 20 84 bf
       -5.4897246 -0.9860669 0.1951974 -1.0322312
000190 78 62 ed 3e 7a 40 c8 bf 6e 3c a6 3f e6 7f ba 3f
       0.46364188 -1.5644677 1.2987192 1.4570282
0001a0 67 fc 63 be 55 fb 8e 40 98 3d 60 40 ee d9 60 40
       -0.22264253 4.46818 3.5037594 3.5133014
0001b0 38 4c d6 40 ca 4f 9f 3f b4 13 ff 40 3c eb 63 c0
       6.696804 1.2446225 7.971155 -3.5612326
0001c0 1f d1 4c c0 02 2d 87 bf f4 32 76 3f d2 27 f2 3e
       -3.2002637 -1.056061 0.961715 0.47296005
0001d0 25 0c 51 bf 04 93 75 bf 13 72 a8 bf f3 37 7f bf
       -0.81659156 -0.95927453 -1.3159813 -0.99694747
0001e0 5a e9 b8 be 76 46 1e 40 b7 3a 66 40 cc 7a be 3f
       -0.36115533 2.4730506 3.5973337 1.4881225
0001f0 53 da 41 40 5b 88 07 40 62 a9 15 40 53 69 63 40
       3.0289505 2.1176975 2.3384633 3.5533035

r_to_mu_sigma.hidden_to_mu.weight f4 [4, 128]
000000 2e 7a 1f 40 06 a1 07 bf ab 7e 64 be 26 22 11 40
       2.4918323 -0.5298008 -0.22313945 2.2677093
000010 cc 1c 21 bf 09 10 37 be 30 1b e0 be ba 4d 86 3f
       -0.62934566 -0.1787721 -0.43770742 1.049247
000020 1e 5e 99 bf 83 10 0f 40 b8 c7 e0 be 49 15 0e bf
       -1.1981847 2.2353828 -0.43902373 -0.5550123
000030 3f 8c 08 bf 1e b8 dc be 33 36 0f bf 18 65 08 3f
       -0.53339 -0.4310922 -0.55942076 0.53279257
000040 87 fa b7 bf d1 8b 2d bf 78 b5 13 40 72 74 8f 3f
       -1.437333 -0.6779147 2.307951 1.1207411
000050 0b 00 50 3f e4 a4 05 bf f8 86 27 bf 0e 6c dc be
       0.81250066 -0.5220473 -0.6544032 -0.4305119
000060 29 7a 91 bf ff 43 f0 3f 81 b9 ef bf c8 32 2c 40
       -1.1365405 1.8770751 -1.8728486 2.6905994
000070 7f be 3e bf 36 8c 36 bf fa 1c 15 bf 72 af 19 40
       -0.74509424 -0.71307695 -0.5824734 2.4013333
000080 72 f8 b1 3f 8f 51 1c 40 95 60 1f 40 8a 8b c0 3f
       1.3903944 2.442478 2.49027 1.5042584
000090 d0 2c b3 be 5a 25 08 bf 3a 3d 05 bf 1e fd 09 bf
       -0.34995127 -0.53181994 -0.5204655 -0.5390185
0000a0 b3 8e 04 bf 2e ac a1 bf e5 66 91 be 88 53 67 3f
       -0.5178024 -1.263067 -0.28398815 0.90361834
0000b0 33 00 1f 40 83 f8 8d 3f e1 00 66 3f 0f 2d 16 bf
       2.4843872 1.1091465 0.8984509 -0.58662504
0000c0 01 36 00 40 a4 ac 30 bf 9d 92 23 40 fc 1e 5a 3f
       2.0032961 -0.6901343 2.5558236 0.8520353
0000d0 4f 4d 9d 3f e6 f5 9c bf 3d f4 1a 40 2a ef 7f 3f
       1.2289218 -1.2262542 2.4211571 0.9997431
0000e0 5d be ed be 7b c3 0f bf 9f b2 09 be bd 35 7c c0
       -0.46434298 -0.56157655 -0.13447045 -3.94078
0000f0 bd c6 7b be f5 c7 90 bf 45 69 23 bf ae d5 1d 40
       -0.24587531 -1.1311022 -0.63832504 2.466167
000100 3b 3a 42 be 10 24 84 3f cb 35 8a bf e3 5d f3 bf
       -0.18967526 1.0323505 -1.0797666 -1.9013027
000110 38 53 8a bf 98 45 3f be c3 6e 75 bf 32 8e c5 3f
       -1.0806646 -0.18678892 -0.95872134 1.543402
000120 cf e9 8e bf a0 2c f0 be 55 c8 17 40 e1 f1 d4 be
       -1.1165103 -0.46909046 2.3716023 -0.4159079
000130 1e 69 58 3f 0b 81 20 3f d9 d0 41 bf 8d 34 bb 3f
       0.84535396 0.62696904 -0.757093 1.4625412
000140 b2 af ea be 94 60 19 3f 87 1d 00 3f d2 57 d6 be
       -0.4583717 0.5991299 0.50045055 -0.41863877
000150 41 cb 20 40 ab fc ba 3f 13 0b 12 bf 6e da 64 3f
       2.5124056 1.4608358 -0.5704815 0.893958
000160 c4 4f 1f bf 8b 4e 24 3f 10 0f 18 bf e1 f4 e6 be
       -0.6223109 0.6418235 -0.59397984 -0.45108703
000170 d8 71 3a bf 26 c2 20 40 42 f4 91 3f d2 8c 21 be
       -0.7282996 2.5118499 1.1402667 -0.15776375
000180 f3 9a 72 40 e1 22 2b be ae 89 fc 3f 8f e5 50 be
       3.7907073 -0.16712524 1.9729517 -0.2040007
000190 de cf b2 3f 3f c0 59 3f 36 34 7d bf c4 e8 cd bf
       1.3969686 0.8505897 -0.9890779 -1.608666
0001a0 e8 7a 4e 3e 31 2a 83 bf e5 de d9 be c6 28 0b bf
       0.20164073 -1.0247251 -0.42552868 -0.5435909
0001b0 f0 cb 02 c1 40 7e 85 bf 51 39 80 bf de 7a 1f 40
       -8.174789 -1.0429153 -1.0017492 2.4918742
0001c0 99 a2 08 40 dc ab dc bd 29 cd 0c bf b2 0a 5d 3f
       2.1349242 -0.10774967 -0.5500055 0.86344445
0001d0 91 2d 0e 40 88 65 38 be 0b 60 38 3f 4d 34 15 be
       2.2215312 -0.18007481 0.7202155 -0.14570732
0001e0 9e 58 e9 3f 08 4c 81 c0 42 aa 0a bf eb 4b 0d bf
       1.8230169 -4.040531 -0.5416604 -0.55193967
0001f0 83 67 0b bf 28 8e 12 bf 60 f0 02 bf 4c cd 03 bf
       -0.5445482 -0.57248163 -0.51148033 -0.51485133
000200 02 24 c8 bf 53 77 d5 3e 81 7e cf 3e 55 88 bd bf
       -1.5635989 0.416926 0.40526202 -1.480723
000210 9e 0e ad 3b 22 15 a0 bf 87 35 ef 3e 41 72 a4 bf
       0.0052812835 -1.2506449 0.46720526 -1.2847368
000220 8b a3 a4 3f 7e 0e c7 bf a9 48 c7 3e d8 6e 12 3f
       1.2862409 -1.5551298 0.38922623 0.57200384
000230 df 53 b8 3e 5e 52 d1 3e 53 b6 c0 3e 8e c3 bc be
       0.3600149 0.40883154 0.37639102 -0.36867946
000240 4d 12 ab 3f c9 0a bf 3e 25 f7 e1 bf 16 00 15 c0
       1.336496 0.37312916 -1.7653548 -2.3281302
000250 90 87 89 be d8 b8 cf 3e f8 d7 5e 3e 11 86 c1 3e
       -0.26861238 0.40570712 0.21762073 0.37797597
000260 be 16 a4 3f cb b9 c7 bf 38 67 22 bf 6c 01 cc bf
       1.281944 -1.5603575 -0.6343875 -1.5937934
000270 97 ae ab bf cd a3 ee bf a5 96 05 3f 09 d5 c3 bf
       -1.3412656 -1.8643738 0.5218299 -1.5299388
000280 c8 a7 80 bf 06 67 c8 bf d0 48 c2 bf bb 00 c9 bf
       -1.0051203 -1.565644 -1.5178471 -1.5703348
000290 aa 9e 5a bf 17 30 28 3f d3 e5 20 3f c6 f6 9b 3e
       -0.8539835 0.6569838 0.62850684 0.3046171
0002a0 18 2c ba 3e 8e d4 8b 3f f0 77 3b 3f 88 53 a6 bf
       0.36361766 1.0924242 0.73229885 -1.2994242
0002b0 3c cb ca bf 70 3e 9f bf 28 a2 b4 bf 34 b5 22 3f
       -1.5843272 -1.244093 -1.4111986 0.63557744
0002c0 0a 8e cb 3f 9d 8a 0a 3f cb 7a cf bf 8d 11 ad bf
       1.5902722 0.5411776 -1.6209348 -1.3520981
0002d0 ab 39 87 bf 5e 35 74 3f 24 82 c2 bf a8 6d 75 bf
       -1.0564474 0.9539393 -1.5195966 -0.9587045
0002e0 6f aa cc 3e 63 2e 19 3f 32 74 2e 3f 0d 42 07 40
       0.3997378 0.59836406 0.6814605 2.1134064
0002f0 92 40 4e 3f dc 3a 70 3f ae 77 92 3b 0f f0 cb bf
       0.80567276 0.9383981 0.0044698333 -1.5932635
000300 c8 81 d0 3e 67 ad be bf 20 c5 ac 3f 40 ad e6 3e
       0.40724015 -1.4896668 1.3497658 0.45054054
000310 9e c4 39 3f 56 d1 54 3f 48 08 c5 3f d1 e6 a5 bf
       0.7256564 0.8313192 1.5393152 -1.2961065
000320 15 00 6b 3f 8f b6 d9 3e 81 9a c4 bf d3 6c 0d 3f
       0.91797 0.42522094 -1.5359651 0.5524418
000330 21 8c a8 bf 7a e0 b2 bf bd 3d 38 3f 9b fa 9d bf
       -1.3167764 -1.3974755 0.71969205 -1.2342104
000340 21 b4 c2 3e 44 76 1e bf 0f 31 38 bf b9 0a c6 3e
       0.38028052 -0.6189921 -0.7194986 0.38680056
000350 4f ff c5 bf 17 44 c4 bf ff ee b4 3e 90 32 90 bf
       -1.5468539 -1.5333279 0.3533859 -1.126543
000360 49 e7 0f 3f 3e 11 67 3d ed cd 01 3f 41 c4 1b 3f
       0.5621229 0.056412928 0.5070484 0.60846335
000370 52 32 51 3f 80 3c c2 bf 3a 42 cf bf 9e 85 4b 3f
       0.8171741 -1.5174713 -1.6192086 0.7950076
000380 96 6c 6e c0 2a 37 4a 3f eb 84 c5 bf a7 36 4b 3f
       -3.7253776 0.78990424 -1.5431188 0.7938027
000390 e9 08 90 bf 16 de c3 bf 05 a3 3e 3f 75 2c 43 3f
       -1.1252719 -1.530215 0.744675 0.7623971
0003a0 d8 7d d5 bf 96 c0 2c bf 10 14 21 3f 3c be 14 3f
       -1.667903 -0.6748136 0.6292124 0.58102775
0003b0 0b 62 ed 40 7d 31 2f 3f 3b 3b a6 3f ce d6 ce bf
       7.418218 0.6843489 1.2986826 -1.6159303
0003c0 28 41 c2 bf 45 3c 51 3f bf cc fc 3e 5e f8 93 bf
       -1.5176134 0.8173259 0.4937496 -1.1560171
0003d0 fe 4c 9c bf 78 c9 45 3f 72 89 a8 be d7 15 48 3f
       -1.2210996 0.7726054 -0.32917362 0.78158325
0003e0 f7 b1 24 c0 e4 df 14 40 db 90 1f 3f a7 b7 68 bf
       -2.573362 2.3261652 0.62330407 -0.9090523
0003f0 43 f7 c2 3e 35 90 ed 3e 21 58 04 3f e0 24 03 3f
       0.3807927 0.46399084 0.51696974 0.5122814

r_to_mu_sigma.hidden_to_mu.bias f4 [4]
000000 27 f9 a1 c0 72 0c 82 40 cb 27 27 c1 45 54 f7 bf
       -5.061664 4.064019 -10.447215 -1.9322592

r_to_mu_sigma.hidden_to_sigma.weight f4 [4, 128]
000000 19 3b 18 3f d1 46 0d 3f 2a cf 56 3d 87 ee 8c 3d
       0.59465176 0.5518618 0.05244366 0.06881433
000010 f0 f5 6c 3d 79 0f 1d 3f be d6 29 3f aa 9c 20 3f
       0.05785173 0.61351734 0.66343296 0.6273905
000020 50 a0 10 3f d0 a6 21 3f a9 26 1b 3f dd e5 1a 3f
       0.5649462 0.6314516 0.60605866 0.60506994
000030 db 6e 31 3f b5 c0 16 3f 89 de 1b 3f 32 e7 1d 3f
       0.6930978 0.588878 0.60886437 0.616809
000040 3b 2d b2 bd fe 03 32 3f dc c1 08 3f a9 21 16 3f
       -0.08700033 0.6953734 0.53420806 0.5864511
000050 2e 8a f7 bc a6 8d 2c 3f 7a 23 14 3f f6 61 2f 3f
       -0.030217256 0.6740364 0.5786663 0.6850885
000060 91 3a 35 3d 6d dc 95 3d 18 0f 00 3d 65 91 26 3f
       0.044245306 0.073174335 0.031264395 0.65065604
000070 34 da 01 3f 89 d7 02 3f 88 71 f6 3e b9 0f 06 3f
       0.50723577 0.5111013 0.48133492 0.5236774
000080 aa 15 08 3f b3 51 1f 3f 1e d0 ff 3e 72 03 1a 3f
       0.53158057 0.6223404 0.49963468 0.6016151
000090 3c 8f 29 3f 63 d9 0e 3f 5a 50 0b 3f f7 2b 36 3f
       0.66234183 0.55800456 0.5441948 0.71160835
0000a0 5e 00 14 3f 65 37 14 3f ea 33 2a 3f ab 85 12 3f
       0.5781306 0.57897025 0.66485465 0.5723521
0000b0 22 de 0a 3f be 7b 19 3f d8 13 19 3f 8b ab 1b 3f
       0.542452 0.5995444 0.59795904 0.6080863
0000c0 41 cf 45 bd 82 70 02 3f 1e 99 29 3f 69 0a 06 3f
       -0.048293356 0.50952923 0.66249263 0.52359635
0000d0 b9 5e 04 3f 0b d2 fc 3e 13 9f 25 3f 9c 1e 92 3c
       0.51707035 0.49379 0.64695853 0.017836861
0000e0 3a 48 27 3f f1 8c 2b 3f 8b cb f6 3e c2 3a 1e 3f
       0.65344584 0.67011935 0.48202166 0.6180841
0000f0 b1 f9 60 3d 66 c7 13 3f 93 b9 2e bd 9e b5 0a 3f
       0.054925624 0.5772613 -0.042657446 0.54183376
000100 c9 ee 15 3f 47 a3 1d 3f 28 05 9b bd 0a 7b 9a bd
       0.5856748 0.61577266 -0.07569343 -0.07542999
000110 53 cd 25 3f 7e c2 11 3f 94 8e ff 3e ab cc 2e 3f
       0.64766425 0.56937397 0.49913466 0.6828105
000120 09 d7 15 3f 44 99 32 3f ff 96 02 3f ce df 24 3f
       0.5853124 0.69765115 0.5101165 0.64404
000130 42 7f 0f 3f 15 ff 28 3f 1c 1d 59 3c 5b 95 04 3f
       0.56053555 0.66014224 0.013251569 0.517904
000140 c0 e6 0e 3f 08 df 5e bc c6 08 1e 3f 82 4b 36 3f
       0.55820847 -0.0136029795 0.6173214 0.71208966
000150 f9 62 1e 3f cf f2 9e 3d e0 8f 1c 3f ba 78 16 3f
       0.6186977 0.07761156 0.61157036 0.58777964
000160 5c 29 1d 3f 84 93 26 3f 29 df 02 3f b2 eb 1b 3f
       0.61391234 0.6506884 0.51121765 0.6090652
000170 7a d2 2f 3f 77 6d 1e 3f ae 83 1a 3f 95 d0 1b 3f
       0.68680537 0.6188578 0.6035718 0.60865146
000180 4d ed 39 3d 33 f1 04 3f 43 e0 72 bd d2 70 12 3f
       0.045392323 0.5193054 -0.059295904 0.572034
000190 ab ec 17 3f 41 00 13 3f ed ab 29 3f b6 f1 00 3f
       0.593455 0.5742226 0.6627796 0.5036882
0001a0 8e ed 1b 3f 62 09 00 3f d0 65 18 3f 3d 17 12 3f
       0.60909355 0.5001432 0.59530354 0.5706671
0001b0 61 50 50 3d 28 35 29 3f 38 3c b2 3d 64 1f 21 3f
       0.050857905 0.66096735 0.08702892 0.62938523
0001c0 d5 8b 18 3f 0d e4 04 3f 35 36 0b 3f 93 47 f3 3e
       0.59588367 0.5191048 0.5437959 0.47515544
0001d0 35 8b 3e bd b5 31 07 3f 4e ce 14 bd 3e ff 03 3f
       -0.046519477 0.5281022 -0.03632956 0.51561344
0001e0 34 e2 ba bc 4c 14 a2 bd ca a9 f2 3e ad f2 0c 3f
       -0.02281294 -0.079140276 0.47395164 0.55057794
0001f0 10 89 13 3f 2d 30 18 3f 75 9b 1e 3f 24 28 1c 3f
       0.57631016 0.5944851 0.6195596 0.6099875
000200 17 91 2a 3f c9 0d df 3e ca 93 3c 3f 72 4a 15 3f
       0.6662764 0.43565205 0.7366301 0.5831672
000210 aa 03 07 3f f1 3a 51 3f 8c 0e d1 3e 7e ad 13 bf
       0.52739966 0.8173056 0.4083141 -0.57686603
000220 d0 fe cd 3d ae f7 18 bf 75 4f 7e 3f 5f 58 50 3e
       0.10058367 -0.5975293 0.9933999 0.20346211
000230 4a c2 81 3f 29 e0 e4 3e 6c ce b4 3e 87 a9 f2 be
       1.0137417 0.4470227 0.35313737 -0.47394964
000240 ce f1 e7 3e be 0e 4a 3e 09 6f 23 bf f4 6a 32 bf
       0.4530167 0.19732186 -0.638413 -0.6969445
000250 0a d0 55 3f f6 57 83 3f f0 8e 4a 3e a2 26 bf 3e
       0.8352057 1.0261219 0.19781089 0.37334162
000260 04 0d 3e 3f aa 41 95 3d a5 10 6f bd f2 fd 1d 3f
       0.7423861 0.07287915 -0.058365483 0.61715615
000270 87 00 01 3f 5e 93 43 3f 08 b5 b0 3e 25 1d d7 be
       0.5039143 0.7639674 0.34513116 -0.42014423
000280 54 bb 13 bf ad 4f 17 3f 84 ab 20 3f c8 aa 2f 3f
       -0.57707715 0.5910595 0.6276171 0.68619967
000290 8d 1e 95 3f ac 76 90 3e 3c 2b 9a 3e 22 19 5d 3f
       1.1649948 0.2821554 0.3011111 0.86366475
0002a0 fd e8 d0 3e dd f1 78 3f c4 0c 70 3f db 02 fa be
       0.40802756 0.97244054 0.9376948 -0.48830304
0002b0 c6 ec 24 3f 5e 9e bf be 05 7e 01 bf 81 e1 a8 3e
       0.6442379 -0.37425512 -0.50582916 0.32984546
0002c0 ae 27 b6 3f 25 03 63 3f 4b 4a fb be c7 cd 0e bf
       1.4230859 0.88676673 -0.4908012 -0.5578274
0002d0 5c 4a 02 bf df 3a 00 bf ea d7 10 3f 3d ad f0 3c
       -0.50894713 -0.5008983 0.5657946 0.029379481
0002e0 f0 7d ce 3e f5 b9 e4 3e 3a 09 fa be 83 81 46 3f
       0.40330458 0.44673124 -0.48835164 0.7754137
0002f0 00 32 54 3f cb 50 55 3f 8c 34 0e 3f 6f d4 1f 3f
       0.82888794 0.83326405 0.5554893 0.6243352
000300 c3 d1 40 3e 35 4b 1f bf ca e0 42 3f a9 10 34 3f
       0.18830018 -0.6222413 0.7612425 0.7033792
000310 2b e5 4b 3e 48 24 69 3f 6c ed 4f 40 76 fe 2e bf
       0.1991164 0.91070986 3.248866 -0.68357027
000320 8e 63 58 3f 12 2e e1 3e 3f 1e 1c bf c5 36 b1 3e
       0.8452691 0.4398046 -0.6098365 0.34612098
000330 e8 24 f7 be f3 85 de be 4c 57 b0 bd 25 16 05 bf
       -0.48270345 -0.4346157 -0.086104006 -0.51986915
000340 e2 7c 9e 3e 76 82 a6 bd 24 a6 5c 3f 1b 6b ff 3e
       0.30954653 -0.08130352 0.8619101 0.49886402
000350 39 00 09 3f f6 ce 08 3f 62 72 74 3f 29 91 09 bf
       0.53515965 0.534408 0.95487034 -0.5373712
000360 c1 5a 79 3e 8b ab 01 bf 7c ed 5a 3e 75 a0 c0 3e
       0.24351026 -0.5065238 0.21379656 0.3762242
000370 b8 af 3a bf 6c 80 0c 3f 7d d5 0f bf 72 3e 56 3f
       -0.72924376 0.54883456 -0.5618513 0.83689034
000380 98 63 37 3f 8e b4 5c 3f f9 64 8d 3d a9 2c 74 3f
       0.71636343 0.86213005 0.06904025 0.95380646
000390 8d cd 03 bf 86 fa 0c bf 23 ce 5b 3f 85 be 87 3e
       -0.5148552 -0.5506977 0.85861415 0.26512542
0003a0 f8 c7 40 3f 56 20 23 3e df ac a5 3e f7 71 a4 3e
       0.7530513 0.15930304 0.32358453 0.32118198
0003b0 f6 e4 05 40 3b b2 5f 3f 6d 3d 32 3f 7c 48 28 3f
       2.0920997 0.87381333 0.6962498 0.657356
0003c0 59 35 21 bf 43 51 6c 3f 85 98 88 3e 38 72 20 bf
       -0.6297203 0.92311496 0.26678863 -0.62674284
0003d0 34 c8 a3 3f 2c aa 61 3f a8 aa 31 3f 62 6e 63 3f
       1.2795472 0.88150287 0.69401026 0.88840306
0003e0 0d fa a3 bd 59 d1 22 3f d2 0e af 3e 0b a8 3d 3f
       -0.08006678 0.6360069 0.34190995 0.7408454
0003f0 e3 e2 e1 3e e9 5d b5 3e cc da 86 3e 06 a1 9e 3e
       0.44118413 0.3542321 0.26338804 0.30982226

r_to_mu_sigma.hidden_to_sigma.bias f4 [4]
000000 63 77 72 40 25 c7 6f 40 7b cc 75 c0 df 90 0e 40
       3.7885368 3.7465298 -3.8406055 2.2275922
