seed-AuNP-phasemaps/pretraining/tune/128_4_32_8.33E-03_8/model.pt (torch, 108000 bytes, 20 tensors)

xy_to_r.input_to_hidden.0.weight f4 [32, 2]
000000 32 af 6d 40 bc b0 40 c0 cd da a1 be c4 70 17 be
       3.713818 -3.010787 -0.31612244 -0.1478911
000010 4a f5 3c 3e 4b 72 07 bd ca 2d ae be 44 71 ad bd
       0.18452945 -0.033067983 -0.3401931 -0.08468869
000020 02 6b a5 3e 3e 3e ce be 1c 89 32 3c 52 7d 11 bf
       0.32308203 -0.40281862 0.010896947 -0.5683185
000030 aa 8e a3 3e 85 4d bf be 27 2b 1c 3e 41 a5 bd be
       0.31944782 -0.3736383 0.15250836 -0.3704014
000040 f4 24 80 3f 48 8e b9 3f a2 13 b4 bf 71 fe 2c c0
       1.0011277 1.4496546 -1.4068491 -2.7030299
000050 7f 37 4a c0 35 6b 50 c1 ed 56 32 bf 3f 1c 31 c1
       -3.1596372 -13.026174 -0.6966389 -11.069396
000060 68 e4 dd 3f 75 d1 81 3c a9 b8 0e be b9 85 81 3d
       1.7335329 0.015846947 -0.1393763 0.06324334
000070 35 18 a5 3e 9a b2 99 bd db d8 16 bf e9 19 95 be
       0.3224503 -0.07504769 -0.58924645 -0.2912133
000080 0b f1 c0 be 42 6d c2 be d5 b7 a5 c0 5b 5f f3 c0
       -0.376839 -0.37973982 -5.1786904 -7.60539
000090 73 f2 1a 3f 9c 41 39 bf 28 e2 02 bf ae b2 1c bf
       0.605262 -0.72365737 -0.5112634 -0.61210144
0000a0 4d 74 2f c0 6a d6 21 3f 10 6c 44 c0 1b 36 51 c1
       -2.7414734 0.63217795 -3.0690956 -13.075709
0000b0 98 a3 1e be b0 57 01 bc a5 8a 95 3e ad 2a 44 bf
       -0.15492094 -0.0078944415 0.2920734 -0.7662762
0000c0 86 96 33 be 6d b9 b4 3c 7e fd 20 40 54 d2 13 3e
       -0.17537889 0.022061074 2.515472 0.14435703
0000d0 d3 a2 f4 be 06 0b f7 be 37 92 95 c0 6d 68 6e 3f
       -0.47780475 -0.48250598 -4.6740985 0.9312809
0000e0 6c eb fe bf 14 28 ee 3e 99 a5 15 bf 9c 83 8d b8
       -1.9915595 0.46514952 -0.58455807 -6.747918e-05
0000f0 10 af 7a 40 ef f3 44 3e 5c e0 44 3d c9 c9 9d be
       3.916935 0.19233678 0.04806553 -0.30818012

xy_to_r.input_to_hidden.0.bias f4 [32]
000000 fb f4 ff bf 2e 86 ab bd 7a be 3b be b3 b4 2a be
       -1.9996637 -0.08375202 -0.1833438 -0.16670494
000010 a6 b0 9c be 6b 20 09 bc 63 38 1e bf e6 ee 7b be
       -0.30603522 -0.008369545 -0.6180479 -0.24602851
000020 44 34 93 bf 4c 9c e1 3f b6 5b f0 3f 09 cd d0 3f
       -1.1500325 1.7625823 1.8777988 1.6312572
000030 62 a5 05 c0 20 ab 4d be c3 60 a6 be 76 42 69 bd
       -2.0882192 -0.2008481 -0.32495698 -0.056948148
000040 0f 62 7e bd ea 62 99 3e 43 2b 1b bf 43 57 b1 bd
       -0.062105235 0.29958278 -0.6061289 -0.08659222
000050 69 c3 2b 3f da 3c 1a 40 bc 12 0f bf fa 7b 89 be
       0.6709505 2.409964 -0.5588796 -0.268524
000060 c2 16 8d bd d3 de 67 bf ae d8 10 be a5 00 48 3e
       -0.06889106 -0.9057438 -0.14145157 0.19531496
000070 9c 96 9d 3f eb 48 84 bb 0e ed 35 c0 b7 cb 0e bd
       1.2311587 -0.004037013 -2.8425937 -0.034862246

xy_to_r.input_to_hidden.2.weight f4 [32, 32]
000000 ba 67 fc 3d 27 39 0c 3e 52 e8 91 be c9 56 ca 3d
       0.12324472 0.13693677 -0.2849756 0.09879834
000010 5b 31 e5 bd f9 71 53 be d3 f5 9d bd a6 12 34 3e
       -0.111910544 -0.20648946 -0.07712903 0.17585239
000020 67 01 90 bc 31 82 2d be 0b ba 9d be d5 72 3c bc
       -0.017578794 -0.16944195 -0.30806002 -0.011501987
000030 7a 6c 7c be b9 9e d3 bd 83 76 a4 bd b2 75 c9 bd
       -0.24650756 -0.10333008 -0.08030417 -0.09836902
000040 cb dc 07 3d 86 39 a4 be 6b bc 05 3e 14 6d 73 3d
       0.03316955 -0.32075137 0.13060157 0.059430197
000050 46 a1 10 3d a1 db 5f be 93 dd fb 3c 98 24 36 3d
       0.035310052 -0.21861126 0.030745303 0.044468492
000060 2e c7 2f bc 02 4d f1 be f4 ed e1 3d 34 56 84 bd
       -0.0107286405 -0.47129065 0.11031714 -0.064617544
000070 a2 6f 8b 3d c7 ec 2c be c6 46 57 bd 25 e1 8f be
       0.06808402 -0.16887198 -0.05255773 -0.2810146
000080 41 bc 5a be d2 19 fa 3c f1 b7 1e bd 97 9e b1 bc
       -0.21360876 0.03052989 -0.03874964 -0.021682067
000090 09 4c 05 be cc c5 42 be 59 62 b4 3d 9c b4 e1 bc
       -0.13017286 -0.19020766 0.08807821 -0.027551942
0000a0 60 b6 8b be b9 1b 94 be 47 d6 65 be 06 f5 97 be
       -0.2728758 -0.289274 -0.22445022 -0.29679126
0000b0 51 42 23 3e 64 ea b1 3d 9d 5e 2c bd 88 14 49 3d
       0.15943266 0.086872846 -0.042082418 0.049091846
0000c0 d4 40 20 be 27 bb 09 3d d4 b4 67 be 46 04 2b 3e
       -0.1564973 0.033625748 -0.22627574 0.16700849
0000d0 1c 24 82 be 7d 77 85 be f5 be 9b 3d 9c 7f 5a be
       -0.25418174 -0.26067725 0.076047815 -0.21337742
0000e0 93 e2 89 3d e1 8c 0e bd 5c 2b 1c 3e 58 01 61 be
       0.06732669 -0.03480232 0.15250915 -0.21973169
0000f0 df ac b1 be 31 e2 31 be ad ff 5e 3c b4 4b a2 3c
       -0.34702203 -0.17371441 0.013610763 0.019811489
000100 31 63 be bd 30 8a 1e 3e 2f 18 1c 3e 94 89 74 3d
       -0.09296263 0.15482402 0.152436 0.059701517
000110 b1 a3 04 be 3e 73 e0 3d 4e 41 a7 3d 27 ee b7 bd
       -0.12953068 0.10959481 0.08166753 -0.08980971
000120 01 84 a5 bd 31 30 8b be 42 79 9a be d9 c6 2d be
       -0.08081818 -0.27185205 -0.30170637 -0.16970386
000130 7d a4 31 be d0 fd e6 bd 07 fe 78 bd a1 53 93 bd
       -0.17347904 -0.1127888 -0.060789134 -0.07193685
000140 07 fc 1d be 93 75 14 bd d3 81 9b 3d b7 f9 04 be
       -0.15428172 -0.03624494 0.075931214 -0.12985884
000150 26 37 8a bd 59 5f aa bc d2 7f 27 3e 0e fa 8e bd
       -0.067488 -0.020797418 0.16357353 -0.06981288
000160 4a ba 07 be 8c d5 dd bd c5 36 d8 3d f3 8a a0 3e
       -0.13254657 -0.108317465 0.105573215 0.3135601
000170 48 f7 a9 be d2 fc 25 be 67 1d 24 be c0 8b 31 be
       -0.33196473 -0.16209725 -0.16026841 -0.17338467
000180 a9 03 a9 bd d4 ff 59 3d 9f db 97 3d d7 05 22 3e
       -0.08252651 0.053222492 0.07414936 0.1582254
000190 b1 da 69 3d b4 1a cd 3d 7b 45 fd 3d aa 0a ed 3d
       0.057093326 0.10014859 0.12366768 0.115743
0001a0 c2 28 d5 be 1a b6 ba bd 4d 1a 55 3c e5 54 56 bd
       -0.41632658 -0.09116764 0.013006759 -0.052327055
0001b0 02 37 ae be d6 14 8f bd 73 c5 1f 3e 78 68 19 be
       -0.34026343 -0.06986396 0.15602665 -0.14981258
0001c0 b2 7a 24 be a7 58 c4 3d 25 35 b6 3b 08 45 b3 bd
       -0.1606243 0.095872216 0.0055605345 -0.08753401
0001d0 8d 94 02 3c 8b 46 85 3e 96 f5 35 3d 10 b9 7d bd
       0.007969988 0.26030383 0.044423662 -0.061944067
0001e0 ce 0b 3f be f5 bd 0e be 7c 07 1c be f2 36 ce ba
       -0.18656847 -0.1393965 -0.1523723 -0.0015732928
0001f0 b4 0c c8 be 3f 75 fe bd 56 26 91 be 5f 29 10 bd
       -0.39072192 -0.12424707 -0.2834956 -0.035195705
000200 c4 5e c1 bc aa 81 9e 3d bd 27 46 3d 0c 46 07 bd
       -0.023604758 0.07739575 0.04837774 -0.033025786
000210 c8 6b e1 bd 31 e1 2e 3e 16 c6 c4 3d 01 68 ae bd
       -0.11006886 0.17078091 0.096080944 -0.08515931
000220 d3 79 ab be ba f2 e9 be 52 46 ee be 3a f3 f4 be
       -0.33491382 -0.45692998 -0.46538025 -0.47841817
000230 a3 f8 39 be 52 b1 fb bd 5b c3 42 3c 97 b3 49 3c
       -0.18161254 -0.122896805 0.011887397 0.012310884
000240 0d f6 8f 3d d0 36 e6 be bb 77 9e bd 40 d9 c7 bc
       0.07029352 -0.44963694 -0.077376805 -0.024395585
000250 c3 88 f3 be c5 cd 86 3f d5 81 b7 3c 0b fa ba 3d
       -0.47565278 1.0531546 0.022400776 0.09129723
000260 e0 82 a5 bd 84 ef d5 be 41 45 99 3d 81 8c 07 bd
       -0.08081603 -0.41784298 0.07483912 -0.03309298
000270 fd eb 6f bf 8e 4c 45 bd 78 f6 a7 be 23 9d 69 bc
       -0.93719465 -0.04816871 -0.32805228 -0.014258656
000280 50 79 5f 3d 20 55 1a 3d 25 88 34 be 25 70 06 3e
       0.054559052 0.037678838 -0.1763006 0.13128717
000290 21 63 63 3d 27 0d b0 bd 10 a5 fd 3d 4f 8b 00 be
       0.05551446 -0.085962586 0.12384999 -0.12553142
0002a0 e6 10 08 3d ab 2a ca bd db 18 68 3c 17 6d 94 bc
       0.03321924 -0.098714195 0.014166082 -0.018118424
0002b0 8d 6a 2d be 79 98 bd bd 6f 06 c9 bd ca 9c f6 3d
       -0.16935177 -0.092575975 -0.0981568 0.12041624
0002c0 29 57 89 bc 06 62 df 3c 2e d3 1d be 7f c0 30 3e
       -0.016765194 0.02726842 -0.1541259 0.17260931
0002d0 8b 5e f0 3d 27 2f ba 3c 59 91 c9 3d 66 fa b6 bd
       0.11736783 0.022727562 0.09842176 -0.089344785
0002e0 64 aa 93 3d 9c b1 1d 3c cc f2 1d be bd 6a fb bd
       0.07210234 0.009624865 -0.15424651 -0.12276218
0002f0 40 4f b5 bd fd 47 be 3d ed 4d 20 be 24 0f 8a 3d
       -0.08853006 0.092910744 -0.15654726 0.06741169
000300 08 d2 c7 bc e9 91 d4 bd 5c 1f 81 bd c1 40 c0 bd
       -0.024392143 -0.10379393 -0.063048095 -0.09387351
000310 9d 41 8b 3d 00 9b 11 3e b9 c7 22 bd 71 e3 04 be
       0.06799624 0.14219284 -0.03974125 -0.12977387
000320 68 f7 55 bf 0c 67 1d 3e df df f1 c1 79 98 94 bd
       -0.83580637 0.1537134 -30.234312 -0.07255644
000330 16 42 9c bb 7b 02 ca be fb a3 ce bc 32 47 06 be
       -0.0047686202 -0.39455017 -0.025224676 -0.13113096
000340 a6 10 1d be 50 cc 4c c0 89 75 c9 3c 95 31 28 be
       -0.15338382 -3.1999702 0.024592178 -0.16425164
000350 b6 8a c2 c0 a1 5d 9c 40 f9 b7 fe 3c 3b 28 15 3d
       -6.0794325 4.8864293 0.031093584 0.03641532
000360 1b 97 9c be 0b d6 8c 3e b6 a8 1e be 3a 8c 8d bf
       -0.30584034 0.27507052 -0.15494046 -1.1058419
000370 69 6c ff c0 33 2b 98 bd 46 7f be bd e2 18 24 3d
       -7.9819837 -0.074301146 -0.09301619 0.040062793
000380 df 2c c6 bf 05 52 5c 3d 6b a9 b2 3c 98 31 29 3e
       -1.5482444 0.053789157 0.0218093 0.16522825
000390 ef 79 b1 bc df 4e 91 3d 0b 4f f4 bd 2b 8b bb bd
       -0.021664588 0.070951216 -0.11929139 -0.091574036
0003a0 74 94 2a c2 55 63 a4 3f 81 30 6d 40 9d 79 41 c0
       -42.644974 1.2842814 3.7060854 -3.0230477
0003b0 f9 84 18 be 7c 87 81 be 9c 26 05 be 11 a6 2e 3e
       -0.14894475 -0.2529868 -0.1300301 0.17055537
0003c0 2c 53 30 3e db ea 70 bf b9 ee 27 bd e2 a5 3d bd
       0.17219228 -0.9410836 -0.040999148 -0.046300776
0003d0 a6 17 0a bf ea 86 aa 3f 03 46 c2 bd 45 6d 84 bb
       -0.53942335 1.3322423 -0.0948601 -0.0040413463
0003e0 74 bd ee bd d6 87 5a c1 0d a7 a5 3d 4d 9d ee bf
       -0.11657229 -13.658163 0.08088503 -1.8641754
0003f0 67 ec 84 3e 02 e3 8e bd 10 cc a2 bd b6 7f 5b 3d
       0.2596161 -0.06976892 -0.07949078 0.05358859

xy_to_r.input_to_hidden.2.bias f4 [32]
000000 b0 b0 3a be 19 e3 39 be f2 9e 95 be 14 d0 b3 be
       -0.18231463 -0.18153037 -0.29222828 -0.3511969
000010 10 0a 2c bf 42 6f 2e be 3e 14 7b 3f f6 d6 f4 3d
       -0.67202854 -0.17034629 0.9807776 0.11955063
000020 dd 85 4d be ea 71 a9 bf 79 10 f3 bd 15 4c d1 be
       -0.20070596 -1.3237889 -0.11868376 -0.40878358
000030 6e aa e2 be 8c 20 a5 bf bd 1c 0b 3f 5d 50 6f be
       -0.44270653 -1.2900558 0.54340726 -0.233705
000040 25 9c e1 3e cc 69 ba bb 64 c9 2d bd 6d 2b 07 bd
       0.4406444 -0.0056888815 -0.04242839 -0.0330004
000050 9d a5 ab be f7 0d 3c 3f 5e 6b 4c be 5d 0f 8d be
       -0.3352479 0.7345881 -0.19962832 -0.27550784
000060 fa 1a 0e bf 85 0e f0 be 5a d7 94 be 4a 89 d2 be
       -0.5550991 -0.46886078 -0.2907055 -0.41120368
000070 58 78 dd be 1d 31 82 3c 35 ad 2a bd c2 fb a0 be
       -0.43255877 0.01589256 -0.04166909 -0.31442076

xy_to_r.input_to_hidden.4.weight f4 [128, 32]
000000 3c 4b f3 bd 89 48 0b 3f 9b 84 a9 be 72 cc d8 bd
       -0.11879584 0.54407555 -0.33108982 -0.1058587
000010 3a 72 9b be 63 ea 02 be dc 8d 1d bd 7f 63 e8 bc
       -0.30360585 -0.12784724 -0.038465366 -0.028367756
000020 2b 96 25 bd 36 26 22 3d f9 3c 17 be 40 6b 3d 3e
       -0.040426414 0.039587222 -0.14769353 0.18497944
000030 56 57 9b 3c 29 9c a6 3c 8b 3f f5 3b 28 bc 83 3e
       0.018962543 0.020338135 0.0074843816 0.2572949
000040 ae b5 2d bb 13 7e bc bd 26 d6 c1 3d 03 80 c8 ba
       -0.0026505995 -0.09203734 0.09464674 -0.001529694
000050 fb 48 37 be fa cc f4 3c f6 98 bb 3b 63 01 5b 3e
       -0.17898934 0.029882897 0.0057250215 0.21387248
000060 75 43 86 3d e1 6e 21 3e ab 77 f1 3d fa df 2b 3d
       0.06555835 0.15764953 0.11790403 0.041961648
000070 3d aa 15 3f 5a 22 81 3d bc d0 55 bd 80 37 c3 3d
       0.5846289 0.0630538 -0.052201018 0.0953207
000080 29 06 15 bd 67 84 11 3f 18 b8 b5 3d 39 90 16 be
       -0.036382828 0.56842655 0.08873004 -0.14703454
000090 8c de 38 3e 14 de eb 3d d7 35 7a bc 59 34 8a bd
       0.18053645 0.115169674 -0.0152716255 -0.06748266
0000a0 61 b5 e7 bd 21 72 95 bc bc a3 f3 bc e9 87 fa 3d
       -0.11313892 -0.018242897 -0.02974116 0.12232954
0000b0 0f 7e e3 bc 2e 9a 38 bb 37 33 1b bc 24 cc 9b 3c
       -0.02777007 -0.002816807 -0.00947266 0.01901824
0000c0 10 04 32 3c eb 37 f3 3d 80 0e 67 3d 64 03 dc bd
       0.010865226 0.118759 0.056410313 -0.10742834
0000d0 0c c0 16 bd e9 80 e1 3b e2 92 c9 bb fc 0f 24 be
       -0.036804244 0.0068818224 -0.006151543 -0.16021723
0000e0 cf 4a 40 be ad 9f f9 3d 8a 00 35 bd 8c c6 02 be
       -0.18778537 0.12188659 -0.044189967 -0.12771052
0000f0 40 2a 87 be b9 21 75 3d fa 82 6c bd d3 61 97 bc
       -0.26399422 0.059846614 -0.057742096 -0.018479263
000100 82 b4 21 3e 06 ec d7 3e 12 09 b4 be 5f 18 ad 3d
       0.15791515 0.4217226 -0.3516317 0.08451914
000110 ec 62 b3 be 90 0d e0 3d 13 12 0d bd f3 4c 8b bc
       -0.3503641 0.10940087 -0.034441065 -0.017004466
000120 db a3 06 be c0 cf 1e bd f7 6e 97 3d 2b 7e e8 bc
       -0.13148443 -0.038772345 0.07394212 -0.028380474
000130 3d ef 56 3d 2d 4c 48 bd e1 03 1a bd ac 5a cf 3d
       0.05247425 -0.048900772 -0.037601355 0.10124716
000140 cd b2 82 3c 9b 0c b5 bd 79 f7 b2 be 65 9d 4c 3d
       0.0159544 -0.08840295 -0.34954432 0.04995479
000150 8f 26 1e 3e ac 35 5d bb 4c 7a e3 bc 19 b4 8e be
       0.15444396 -0.0033753915 -0.027768277 -0.2787178
000160 cb ba 71 be 4b 70 6e bd 69 ca 93 3d b9 12 f0 3d
       -0.23606412 -0.05821256 0.07216341 0.11722321
000170 90 c0 6d be 93 d7 12 3e 2d e3 66 3d c1 3f 4e 3e
       -0.23217988 0.14340048 0.056368995 0.20141508
000180 cd 56 40 be 22 2e da be 41 74 3a be d3 c4 66 bd
       -0.18783112 -0.42613322 -0.1820841 -0.05634005
000190 2c a9 a0 be 30 e9 c0 3d a5 34 38 bc 32 08 c8 bc
       -0.31379068 0.09419477 -0.01124302 -0.02441797
0001a0 44 9b fe bd 4c 6e cf bc 38 75 e7 3d 9b 1f b0 bd
       -0.12431958 -0.025321148 0.113016546 -0.08599778
0001b0 b9 00 1b 3c 5f 9f 46 bc 23 02 07 bd 43 03 9f be
       0.0094606215 -0.012122958 -0.032961022 -0.31057176
0001c0 8d bf fd bc 7c af 55 be 75 c0 5c be 79 e5 6d bc
       -0.030975128 -0.20867723 -0.21557792 -0.014520043
0001d0 60 2b 20 3e b9 b3 37 bd 4c 7f 6c bc a2 b3 6e 3e
       0.15641546 -0.04484913 -0.014434647 0.23310712
0001e0 55 ca f2 bd 41 40 81 be b3 4e d3 bc c3 40 26 3d
       -0.11854998 -0.25244334 -0.025794363 0.040589105
0001f0 2f 34 28 bf 05 bb bd 3b bb 50 f4 bd 48 1b 2d be
       -0.65704626 0.0057901167 -0.119294606 -0.16904938
000200 36 65 36 3d 34 e2 c0 be 3c 5c 94 3e 33 ff dc 3d
       0.044530116 -0.3767258 0.2897662 0.10790863
000210 1a 2e 2e 3d ee 6a 13 3d 5d ff fb bb 9e 92 0d bd
       0.042524435 0.035990648 -0.007690354 -0.034563653
000220 7d 5b 3d 3e fa 1a a0 3c 7b b1 cf 3d 27 39 26 be
       0.18491931 0.019544113 0.101412736 -0.1623274
000230 b5 85 a0 3d 09 d7 0e bb 78 f0 8b bb b7 b3 ae be
       0.078380026 -0.0021795651 -0.0042706095 -0.34121487
000240 23 1c 69 3d e4 93 53 bc 83 aa 79 be d6 2a 9e 3c
       0.0569116 -0.012913678 -0.24381451 0.019307535
000250 86 cf 8c 3d 32 63 ed 3c 61 6f 80 3b d0 62 d3 3e
       0.068755195 0.028977964 0.0039195274 0.41286325
000260 3e 60 5e 3e 9d e0 38 3e 68 a2 40 be 42 f9 86 bd
       0.21716401 0.18054433 -0.18811953 -0.06590511
000270 16 c1 99 3e 87 38 43 3d 5d 63 c7 3d a7 48 54 3d
       0.30030125 0.04766133 0.09735749 0.0518271
000280 76 cd bd bc 19 52 9a 3e d3 dc b0 3e 73 8d a4 be
       -0.02316926 0.3014076 0.34543476 -0.32139167
000290 da 25 d8 3d da 32 17 be 20 1c e9 bb fa c5 ce bc
       0.105540946 -0.14765492 -0.0071139485 -0.025240887
0002a0 e6 08 f2 bd 67 db 71 bc c8 32 2b be 87 ff 27 be
       -0.118181035 -0.014761782 -0.1671859 -0.1640607
0002b0 cc 47 5b 3d e1 56 19 bd c9 94 2e 3a 30 61 ac 3e
       0.053535268 -0.03743637 0.0006659744 0.33667898
0002c0 50 f6 24 3c 29 57 19 3d 67 8e a9 3d bf 7e 96 bc
       0.010068491 0.037436638 0.08279114 -0.018370984
0002d0 46 b1 3b 3e 76 79 a4 bc b1 e3 87 bb ec 06 97 bd
       0.18329343 -0.020077448 -0.004147016 -0.07374367
0002e0 c3 60 4c 3e e5 6f 8c bd 78 67 33 3e fd 32 a2 3e
       0.19958787 -0.0685728 0.17519939 0.31679526
0002f0 39 ef 14 3f 17 d9 ea 3d 8d d2 d5 bc 06 a2 9a bc
       0.58177525 0.11467188 -0.026101375 -0.018876087
000300 ca c4 99 3d 1b 31 c4 3e 69 6a aa 3e 85 0f 72 bd
       0.07508238 0.38318714 0.3328431 -0.05909683
000310 7c 0f 98 be 4f 6d ba bd 39 ef 9c bc 84 21 ca 3c
       -0.29699314 -0.0910288 -0.019157039 0.024674185
000320 40 53 9d 3b 7e 5f 2a 3d 51 3e cd bd 6d 8e ab bd
       0.004801184 0.041594975 -0.100216515 -0.08376775
000330 0a 29 97 3d dc ea d8 3c 6f ed 48 bc f6 09 00 3d
       0.073808745 0.026479177 -0.01226364 0.0312595
000340 aa 60 eb 3b 08 ac 6f 3e 95 9d 75 3e db 5c b0 3d
       0.007183154 0.23405468 0.23985894 0.08611461
000350 fe 8e 7b bb 58 54 95 3d ec a0 a3 bc 72 b3 ca bd
       -0.003838479 0.07291478 -0.019974194 -0.09897508
000360 95 2a 60 3e 72 a4 01 3e b3 15 bb 3d c3 0b 8f 3e
       0.21891244 0.12660387 0.09134998 0.2793866
000370 b1 a4 18 3f 4f 23 d8 3c c8 aa b7 3d 52 1e e0 bc
       0.596263 0.026384024 0.08968121 -0.027358208
000380 c1 5f dd bc f5 f1 d1 3d f3 f4 2c 3e d4 46 c2 3e
       -0.027023198 0.10251228 0.16890316 0.37944663
000390 9d 0a e7 3e a9 a5 c8 bd 59 ab ff 3b e0 db c3 3d
       0.45125285 -0.09797222 0.0078024087 0.09563422
0003a0 d6 60 43 bd 9d be 49 3d b8 88 36 3d 1a 9e 2f bd
       -0.04769977 0.04925405 0.04456398 -0.042875387
0003b0 85 4c 21 bc ea 84 03 3d c6 b9 5e 3d 8a fa 1c 3d
       -0.009844904 0.03210918 0.054376386 0.03832487
0003c0 0d d5 46 bc 4e 24 9f 3d a1 ac e9 3d c5 b2 28 be
       -0.012135756 0.077705964 0.114098795 -0.16474445
0003d0 7b 13 9e bc 4b 65 4c 3d 6f 6b 23 3c b9 a4 6c 3e
       -0.019296398 0.049901288 0.009974345 0.23109712
0003e0 92 3a e2 3c 72 b4 0d 3d b8 bc d9 3c dd 81 33 3e
       0.02761582 0.034595914 0.026579246 0.17530008
0003f0 76 3d fb 3e be 20 dd 3d 90 44 63 3e b1 0b d5 bd
       0.49070328 0.10797261 0.22194123 -0.104026206

xy_to_r.input_to_hidden.4.bias f4 [128]
000000 80 a0 7e bc 02 46 64 bd f2 1c 17 bc 02 27 b6 bc
       -0.015541196 -0.055730827 -0.00922321 -0.022235397
000010 fb a3 d6 bc 8a d4 09 3a dd a1 e0 3c ac 55 13 3c
       -0.026201239 0.0005257806 0.027420932 0.008992594
000020 16 23 83 bc 7a 51 8d 3c 7f 78 76 bc 82 48 04 bd
       -0.016007941 0.017250765 -0.015043377 -0.03229571
000030 31 fc 23 3d 10 8a 1f 3c 41 5e c2 3c eb bc c5 bb
       0.04003543 0.0097375065 0.023726584 -0.0060344837
000040 00 fb ab 3c 54 4e 84 3c 2d 64 19 bd a5 ed 0d bc
       0.02099371 0.016150631 -0.03744905 -0.008662616
000050 a3 5a 09 3d b0 2f 8d 3f 59 83 93 bc d1 8d 68 3c
       0.033533704 1.1030178 -0.018006967 0.014193968
000060 e3 4e c1 3c c8 5f ae ba 22 b9 9b 3c ad 74 bc 3c
       0.023597186 -0.0013303692 0.019009177 0.023004854
000070 9d ed 52 3b 3f 15 fe 3b a2 4d df bc 45 e4 b4 bc
       0.0032185086 0.0077539976 -0.027258698 -0.022081504
000080 ac 03 3d bc 74 65 bb bc 62 49 0a bd 47 ed 87 bc
       -0.01153652 -0.022875525 -0.03376139 -0.016592635
000090 72 12 ab bc 54 1d 2c 3c 9a a9 39 3c 0b 28 4b bb
       -0.020882819 0.010505039 0.01133194 -0.003099921
0000a0 5b 48 ba 3c a0 74 80 3d a1 12 a8 bb 1c fe 63 be
       0.02273958 0.062722445 -0.005129174 -0.22264904
0000b0 68 be c7 bb 9b 3a 11 bd 11 c9 9e bb 9a 29 92 bc
       -0.0060956962 -0.03545628 -0.0048457463 -0.017842103
0000c0 cd 79 b1 bc 9b 75 24 3c aa 47 8d 3c 36 15 77 3b
       -0.021664524 0.010037805 0.017246086 0.0037701852
0000d0 53 de b9 bb 2c b7 ea ba 51 d5 f0 bc df d4 a6 bb
       -0.005672255 -0.0017907373 -0.029398592 -0.005091294
0000e0 34 5c d6 3c 2e 1b 4b bc 9e f6 6d 3a 38 d5 83 3f
       0.026167013 -0.012396617 0.00090775813 1.0299444
0000f0 64 eb eb 3c 40 20 b2 bb 4d 99 79 bc 8c db c0 3b
       0.028798766 -0.0054359734 -0.015234304 0.005885547
000100 ff 57 cc 3b 37 4a 99 3c 83 ee 1b 3a 92 be a2 bc
       0.006236076 0.018712146 0.0005948322 -0.019866262
000110 c8 eb cb 3a 6f 24 dc bb 85 68 bf b8 0c 00 a7 bc
       0.0015557939 -0.0067182104 -9.127058e-05 -0.020385765
000120 05 70 e7 bc 0d 23 ae bc 04 42 ea bc 91 b2 7a 3a
       -0.028251657 -0.021256948 -0.028595932 0.00095633516
000130 45 ed eb bc 7b bc c6 bc c6 5f 8a 3c 03 45 1d 3c
       -0.028799662 -0.024259796 0.016891371 0.009598973
000140 86 d3 b7 ba f7 f1 5a c0 fe a4 ad 3b 91 e7 61 3a
       -0.0014024831 -3.4210184 0.0052992096 0.0008617575
000150 60 c2 36 3c a6 3b 18 bf 9a 9c c8 bc 93 8d ec bc
       0.011154741 -0.59466016 -0.024488736 -0.028876102
000160 c3 24 2e 3d 32 c0 93 bb 49 77 a1 3b 0e 57 b8 3c
       0.042515527 -0.0045089955 0.00492755 0.022502448
000170 f5 97 94 ba 65 7f 2e bc 8d c1 2d 3c 41 56 a1 bb
       -0.0011336791 -0.01065049 0.010605228 -0.0049236123
000180 3e de 56 3c 40 27 be 3b 59 e3 56 3b 46 e6 81 3c
       0.01311451 0.005803019 0.0032789318 0.015856873
000190 c7 10 93 3b fb 7b 27 bc 9c f9 a3 3c 8c 7d b4 bb
       0.004488084 -0.01022243 0.020016484 -0.0055081304
0001a0 5c 40 d1 bc f3 8f 97 bc 51 2c 46 3d 33 60 9b bb
       -0.025543384 -0.018501258 0.048382107 -0.0047416924
0001b0 bb 35 53 bc 89 fa d7 3c f9 4d df bb 89 f5 b1 bd
       -0.012891228 0.026364582 -0.006814715 -0.0868941
0001c0 cc 42 51 3b 3c 7f 11 bd a6 68 8c 3c 50 99 b2 bc
       0.0031930683 -0.03552173 0.017139744 -0.02180162
0001d0 bd ce e4 3c e2 75 ee 3c 33 c3 ec 3b 5e 45 56 3c
       0.027930612 0.029108945 0.007225418 0.013078062
0001e0 ce 6e f7 bd 1a e7 64 3c 66 8f 27 3d b1 18 7a bc
       -0.12081681 0.0139711145 0.04090824 -0.015264676
0001f0 9d da cb bc 5a 77 cf 3b d6 7c 91 3f f0 ee f0 b9
       -0.024884516 0.0063313665 1.1366222 -0.0004595439

r_to_mu_sigma.r_to_hidden.weight f4 [128, 128]
000000 14 73 8d 3e 80 ac 0a 3f b8 66 c2 3d a7 17 74 bf
       0.2762686 0.54169464 0.09492248 -0.9534859
000010 e4 64 0e be 88 bc bc 3e 9f d2 bb be 35 b2 bf 3f
       -0.13905674 0.36862588 -0.3668413 1.497626
000020 2a 70 24 3e b4 11 b5 be a7 40 c2 be 80 09 7d 3f
       0.16058412 -0.3536507 -0.3793995 0.9884262
000030 c2 08 f0 3f 44 cf 05 bf 00 b4 cf 3e 7c 69 07 40
       1.8752673 -0.5226939 0.40567017 2.1158133
000040 5c 93 9b be 21 7a ec bd 96 56 0c 3f 96 5f 61 3e
       -0.30385864 -0.11546732 0.5481962 0.2200912
000050 da db 15 bf d2 09 8b 3e f8 cc 9d 3e 5f 4b bf be
       -0.5853859 0.2715593 0.3082044 -0.3736219
000060 09 1e 95 3e 4f 89 a1 3e 0c 0f 0b c0 ab f4 bf bf
       0.29124478 0.3155007 -2.1727934 -1.4996542
000070 89 89 ec be 55 fa 99 be 60 69 52 be c1 98 bd be
       -0.4619868 -0.300738 -0.2054801 -0.37030604
000080 67 1b 91 bd e2 a3 18 bf f2 e6 37 c0 b5 8b 06 bf
       -0.07085305 -0.59625065 -2.8734708 -0.52556926
000090 c4 99 1a be c3 35 30 bf e4 ec f8 3e bc 93 d6 3e
       -0.1509772 -0.68832034 0.48618233 0.41909587
0000a0 c2 82 f9 3d d5 bf a6 be e3 b3 45 3e 5a 53 08 bf
       0.12183143 -0.3256823 0.19306903 -0.53252184
0000b0 cc 76 41 be 8d 28 4d 3f 06 d5 b2 3e 60 a2 3c 3f
       -0.18892974 0.8014 0.3492815 0.73685265
0000c0 10 cf 04 be c2 fe 0b 3e 68 a5 18 be 29 9e 97 3f
       -0.12969613 0.13671401 -0.14906847 1.1845142
0000d0 e6 d2 19 3f 43 0f c2 3f 7a 86 c1 bf cb dd 21 3f
       0.6008743 1.5160908 -1.5119164 0.63229054
0000e0 9e 7b 69 be 17 3b 4a 3e 88 bf 4a bf 74 06 94 3e
       -0.22801062 0.19749103 -0.79198503 0.28911173
0000f0 65 47 52 3f 0e a1 b2 3f 4e 0a f5 3e 84 3f 43 3d
       0.8214019 1.39554 0.47859424 0.047667995
000100 b0 c1 30 be 43 2e 81 be d5 45 1b 3e ff 96 3c bf
       -0.17261386 -0.25230607 0.15163358 -0.736679
000110 29 29 27 3f f6 aa 56 3f 39 a3 50 bf f5 ba 3c 3f
       0.6529718 0.83854616 -0.8149906 0.73722774
000120 0a 0e 84 bf b5 9c 85 be 3a bf 65 bf d6 b0 34 3f
       -1.0316784 -0.2609612 -0.89744914 0.7058233
000130 e9 b1 93 be c3 c5 12 bf 0a 9d 18 3e 5c cf 38 3d
       -0.28846672 -0.5733301 0.14903656 0.04511963
000140 a1 6b bf 3d 20 44 56 3e d1 6a 2d 3f ae 57 bf be
       0.093467005 0.20924425 0.67741114 -0.37371582
000150 83 1f 94 be a9 1b b0 bf 39 45 0b be 51 94 8f 3f
       -0.28930292 -1.3758441 -0.13600625 1.1217138
000160 80 9e 99 be d2 4c c4 3e a8 1d 95 bd 92 2a 64 bf
       -0.30003738 0.3833986 -0.07281047 -0.8912746
000170 b9 9c f4 3e 8c bc 06 40 e0 85 d7 3d 4a fa 8e 3e
       0.4777582 2.105258 0.105235815 0.2792533
000180 76 87 96 3f 06 ef cc 3e 26 c7 93 3f 6e 2a ed 3e
       1.1760089 0.4002611 1.154515 0.46321434
000190 61 1b 71 3f bb 74 18 bf 1c 09 bf bd c6 41 49 3f
       0.941824 -0.59553117 -0.09327909 0.7861599
0001a0 1e 82 66 3e 9b 3d 6f bd 48 d0 98 be 27 e2 1c bf
       0.22510573 -0.05840836 -0.29846406 -0.6128258
0001b0 b9 2f 61 bf 7b 41 5f bf 5b f0 3e be ab 73 4e 3f
       -0.87963444 -0.8720929 -0.18646376 0.80645245
0001c0 02 70 ac bd 25 c2 d9 be 73 d0 22 3f 5e f2 b8 bf
       -0.08419801 -0.42530933 0.6359932 -1.4448965
0001d0 b1 cb 0c 3f 15 91 00 c0 31 f7 ab be ff b0 09 3f
       0.5499831 -2.008855 -0.3358703 0.537857
0001e0 37 fd a9 3f 8a d3 e4 3d 23 b7 b8 bf 6e 5c 99 3f
       1.32804 0.111731604 -1.4430889 1.1981332
0001f0 74 8d 9b 3f 94 c5 a4 3e 46 62 3d be db 9f b4 bf
       1.2152543 0.3218199 -0.1849452 -1.4111284
000200 47 18 78 3d f7 21 90 bc f2 0b 87 bc 05 65 c1 bc
       0.060570028 -0.01759432 -0.016485188 -0.02360774
000210 f3 40 28 3d 73 73 b6 3c 1d a1 9b 3d 69 2f 25 3d
       0.041077565 0.022271847 0.07599089 0.040328417
000220 c2 de 03 3d c5 76 86 bd 55 47 a4 bc a9 2b 8a bc
       0.03219486 -0.06565622 -0.020053545 -0.016866522
000230 7b 46 42 bc 7e 04 96 3d ef 7c 90 3d b3 1a a8 bb
       -0.011857624 0.073250756 0.07055079 -0.005130136
000240 50 0a 2f 3c 1e 17 07 bd d2 38 0b 3d f4 6e 9b bc
       0.010683611 -0.03298103 0.033989735 -0.018973805
000250 66 c9 97 3c 2b 4c 5f 3f 16 18 72 bd 51 36 03 bd
       0.018528651 0.872256 -0.059105 -0.032034222
000260 8b 37 e5 bc 61 2c b1 bd 6e 21 75 3d c7 f3 8c bb
       -0.027980587 -0.08651043 0.059846334 -0.0043015215
000270 2b bb cc 3d 51 c4 42 bb 1d 7c 83 3d 79 ab c0 3b
       0.09996637 -0.0029719064 0.06420157 0.005879816
000280 85 2f 84 bd 5b 87 3b bb 5c b2 62 3b e5 0a a0 bd
       -0.06454376 -0.0028614614 0.0034591174 -0.07814578
000290 2c 38 b6 bd 4d 8b 2a bd 91 34 b8 3c 0e da ec bc
       -0.08897433 -0.041636754 0.022486003 -0.02891257
0002a0 c1 15 2e 3c 49 fe 3b c0 d2 86 bf bc cb 06 0e bf
       0.010625304 -2.9373953 -0.023379717 -0.55479115
0002b0 dc 6a 90 3b 45 3f c1 3c 25 14 22 bd 5a 2b a8 bc
       0.00440727 0.02358974 -0.039569993 -0.020528484
0002c0 a0 c0 b6 3c b8 dd f5 3c 1c b3 47 3c 1d 87 82 3b
       0.022308648 0.03001295 0.012188699 0.003983392
0002d0 c7 57 0c bd c3 30 a8 bc 67 39 28 bd 51 d6 e3 3b
       -0.0342634 -0.020531064 -0.04107037 0.0069530387
0002e0 56 e7 3c 3d c7 a4 45 3c 64 eb 5c bc df ba 34 3f
       0.046119057 0.012063212 -0.013483856 0.7059764
0002f0 68 7d 0d bd b2 75 1e bd 7d 4a 36 3c 3e 4a 93 3d
       -0.034543425 -0.03868646 0.011126158 0.07191895
000300 ca 16 1e bd 24 2c df bb 9f 4b 80 bc 2f 40 07 3d
       -0.038595952 -0.006810682 -0.015661059 0.033020195
000310 87 7b 9f 3b ed 55 cd 3b 0a 8c c6 3b cf 2a ea bb
       0.0048670205 0.0062663467 0.0060591744 -0.0071462165
000320 93 34 9c 3d 5e fa 9e 3c af 20 1c 3d 1a b9 ba bc
       0.07627215 0.019406494 0.038117107 -0.022793341
000330 ac 30 7f 3d 33 b4 18 bd d5 49 e3 3c 56 37 57 3d
       0.062302276 -0.037281226 0.027745167 0.052543007
000340 77 6d 64 3d ba 0a 42 3f e5 fa 4e bd 1a 47 84 bc
       0.055768456 0.7579762 -0.05053224 -0.016147185
000350 58 c0 e0 3c d0 87 c6 ba ab 48 50 3d ea 88 2f 3c
       0.027435467 -0.0015146676 0.05085055 0.010713795
000360 cd 24 d1 bc e6 13 44 bd 5f fa 81 bd 71 3c a1 bd
       -0.025530243 -0.04787054 -0.063465826 -0.078728564
000370 d4 2f ae 39 48 a6 c7 3b 74 6d fd 3b 0e 01 6b 3d
       0.000332235 0.0060928203 0.007733995 0.057374053
000380 0a 1b 2a bc 14 e0 3f bd 8f ca 83 3d 09 66 94 ba
       -0.010382423 -0.046844557 0.06435119 -0.0011321913
000390 7a 80 45 3d 6f 82 74 bd 29 21 ae 3d 55 6c 36 bd
       0.048218228 -0.059694704 0.085024185 -0.044536907
0003a0 ab a2 a5 3c ca 25 d2 3c d0 ad 0f bc e4 38 f2 bb
       0.020219168 0.025652785 -0.0087694675 -0.007392036
0003b0 dd a3 13 bc 35 1d 8d ba 44 a9 92 bd 8b 02 23 3e
       -0.009011236 -0.0010766151 -0.07161191 0.15918939
0003c0 2d 97 6a 3d 7b 49 ce 3b 67 84 5d 3c 1b 25 04 bd
       0.05727308 0.0062953806 0.013520337 -0.03226195
0003d0 62 95 b6 bc 8d 05 99 bd 0c 30 97 bd 1e 37 9a 3d
       -0.022288028 -0.07471762 -0.07382211 0.07530044
0003e0 da 3d 38 bf c5 cd 87 3d 8d d4 8c bd da 74 31 bd
       -0.7196938 0.06631044 -0.06876478 -0.04332433
0003f0 fe df 07 3d fa 29 f1 3c 56 57 53 be 32 b3 35 bd
       0.0331726 0.029438961 -0.20638785 -0.044360347

r_to_mu_sigma.r_to_hidden.bias f4 [128]
000000 4d 75 cc c0 18 47 d5 be 90 96 e0 c0 06 75 8f c0
       -6.389319 -0.41655803 -7.018379 -4.483035
000010 ce 28 8b c0 f1 34 a9 c0 66 5f 87 c0 08 28 7c bd
       -4.348731 -5.2877126 -4.2303953 -0.061561614
000020 f5 5d 58 c0 bb 1b 8d c0 e4 3f b5 c0 21 0d b6 c0
       -3.3807347 -4.409635 -5.664049 -5.6891026
000030 a3 ab 84 c0 6f fd 94 c0 a5 bb 63 c0 fa 3e be c0
       -4.1459517 -4.6559367 -3.558328 -5.9451876
000040 d2 ff 96 c0 75 11 b7 c0 0d be 8c c0 de f2 b7 c0
       -4.718728 -5.720881 -4.3981996 -5.748397
000050 ac df 98 c0 40 e0 dc c0 e4 11 78 c0 08 aa 9c c0
       -4.7773037 -6.9023743 -3.876092 -4.895756
000060 13 94 86 c0 1e fb 93 c0 21 ab ac c0 ce 9c 92 c0
       -4.2055755 -4.624404 -5.3958898 -4.581641
000070 37 9b 92 c0 6d da 8f c0 95 3e 80 c0 a3 21 c0 c0
       -4.581447 -4.4954133 -4.0076394 -6.004106
000080 22 6f c5 c0 4a a1 b7 c0 5b 30 9c c0 e1 f2 76 3f
       -6.169816 -5.7384386 -4.880903 0.96464354
000090 74 0f a4 c0 86 ca 8b c0 d8 ea 90 3e c6 c4 13 3f
       -5.1268864 -4.368472 0.28304172 0.5772213
0000a0 8d 9e 96 c0 d3 54 89 c0 9a 5a 76 c0 0d 54 b7 c0
       -4.7068543 -4.2916045 -3.8492799 -5.72901
0000b0 67 79 af c0 ef cb 86 c0 e4 36 b0 c0 b2 74 d6 c0
       -5.4835696 -4.212394 -5.5067005 -6.701745
0000c0 54 c0 09 c0 10 5c 65 c0 70 76 fb c0 de fb 8f c0
       -2.1523638 -3.583744 -7.8582077 -4.4994955
0000d0 6a fd f4 c0 72 96 9a c0 e2 eb a7 c0 e3 bd 66 c0
       -7.6559343 -4.830865 -5.2475443 -3.6053398
0000e0 8d 95 94 c0 ad fe 3b bf cf 69 ac c0 1b 07 97 c0
       -4.6432557 -0.7343548 -5.387916 -4.7196174
0000f0 ef 11 3c 3f 28 6e 82 c0 ec 32 78 c0 14 92 67 c0
       0.73464864 -4.075947 -3.878108 -3.618291
000100 97 4f bb c0 36 01 dc c0 15 f8 9d c0 c5 67 b1 c0
       -5.8534656 -6.875148 -4.9365335 -5.543917
000110 83 d9 b8 3f 7b 56 ab c0 eb a9 a7 c0 a2 79 b1 c0
       1.4441379 -5.3543067 -5.239492 -5.5460978
000120 2f b0 9e c0 96 e8 9d c0 bf 76 88 c0 55 5d 83 c0
       -4.959007 -4.934642 -4.2644954 -4.105143
000130 dc bd c9 c0 ad 43 97 c0 9b a6 9b c0 b0 4e a2 c0
       -6.304426 -4.727011 -4.8640876 -5.0721054
000140 2b 07 9c c0 fa 1f 9e c0 b2 b5 cb c0 a7 b3 9a c0
       -4.875875 -4.9414034 -6.3659296 -4.83443
000150 cd 05 a7 c0 7c 35 b7 c0 e9 f0 a2 c0 36 8e a8 c0
       -5.219458 -5.725279 -5.091908 -5.2673597
000160 f7 b8 bf c0 6f bf 74 c0 af f1 9d c0 8b 5a 99 c0
       -5.9913287 -3.8241842 -4.9357524 -4.7923026
000170 e9 0a cc c0 ca 6c ae c0 7c fa 95 c0 39 0b 8a c0
       -6.376332 -5.45078 -4.6868267 -4.31387
000180 9e 20 ac c0 7c 27 7e c0 42 ca 9c c0 03 65 89 c0
       -5.3789816 -3.97116 -4.8996897 -4.2935805
000190 3f 8e ae c0 a5 67 9a c0 b7 5c e9 c0 e9 db 5d c0
       -5.454864 -4.825152 -7.2925677 -3.4665473
0001a0 42 f6 72 c0 21 99 96 c0 d0 ce a9 c0 8f c9 88 c0
       -3.7962804 -4.7061925 -5.3064957 -4.2746043
0001b0 0d 98 93 c0 64 3d 8d c0 e3 d2 a2 c0 f4 39 84 bf
       -4.612311 -4.413744 -5.088243 -1.0330186
0001c0 c1 f9 4d c0 c8 03 93 c0 ad 54 59 c0 87 53 0a c0
       -3.2183688 -4.5942116 -3.3957932 -2.161348
0001d0 e5 26 9f c0 b9 b6 0d c1 c8 7b c5 c0 9c 79 92 c0
       -4.973498 -8.85711 -6.17136 -4.577345
0001e0 c4 87 a9 c0 37 d9 84 c0 bb d7 6c c0 67 e9 66 bf
       -5.297823 -4.1515155 -3.7006671 -0.90199894
0001f0 3a e2 8b c0 12 4e 9a c0 09 6b b4 c0 6c 43 a1 c0
       -4.3713655 -4.82203 -5.638066 -5.03948

r_to_mu_sigma.hidden_to_mu.weight f4 [4, 128]
000000 30 75 74 be 44 43 58 bd f8 3e 17 bc df 38 f3 bd
       -0.23872828 -0.052798524 -0.0092313215 -0.11876082
000010 a1 60 97 3d 48 16 3e be 74 e2 0a be 9d 7f 3b bd
       0.073914774 -0.18563187 -0.13562948 -0.045776
000020 70 8d f4 3e 58 be b2 3d 5a 31 b8 3c 37 5e 02 3f
       0.47764158 0.087277114 0.02248447 0.5092501
000030 42 21 1c 3d 12 de bc bd bb c1 c2 be 23 df 41 3d
       0.038117655 -0.09222044 -0.3803843 0.04733194
000040 c7 4d 2e bd e5 ef 13 3f 63 fe bc 3e 2c 5f d0 3e
       -0.042554643 0.57787925 0.36912832 0.4069761
000050 df 4c 8c be fc a3 0e bc 2b 20 a6 3e 64 ca 53 be
       -0.27402398 -0.008706089 0.32446417 -0.20682675
000060 48 d7 70 bd fc 68 14 3f c7 94 08 3f 13 ae 77 3e
       -0.05879906 0.57972693 0.53352016 0.24187498
000070 54 f4 01 3e d6 ce 69 3e 44 73 96 be 73 ff d9 bd
       0.1269086 0.22832808 -0.29384816 -0.10644426
000080 c9 aa cb bd bf ac 1c 3f cf 07 37 bd 6e 82 59 3d
       -0.09944684 0.6120109 -0.04468518 0.053102903
000090 4e 12 63 3e be f3 aa 3e a7 53 36 3d 05 1b 11 3d
       0.22174951 0.33389086 0.04451337 0.03542616
0000a0 7a 67 4a 3e 3c 13 31 3e d3 b1 59 bb 7a f7 14 be
       0.19766036 0.17292494 -0.0033217564 -0.1454753
0000b0 5e 1b dd bc ee 37 9a 3d e0 c0 88 3e 65 10 42 bf
       -0.026990589 0.07530199 0.26709652 -0.75806266
0000c0 75 e2 1f bd 1b 22 cd 3d 98 a3 2f 3e 4a ae 94 bd
       -0.039034326 0.10016271 0.1715225 -0.072598055
0000d0 6a 58 03 bc b3 aa 7d be af 94 c3 bb 26 53 b6 3d
       -0.008016685 -0.24772148 -0.005968652 0.08902578
0000e0 7b a7 15 be 15 16 55 bd d6 3a 33 bf 28 97 f2 bc
       -0.1461467 -0.052023012 -0.7001165 -0.029613093
0000f0 57 fd 84 bd 99 9d a6 3b 0b 2d de bd b4 8a a9 3e
       -0.06493633 0.005084705 -0.10848435 0.33113635
000100 02 f5 c2 be 5f bb b8 3d c6 01 7d 3e f3 27 a7 bc
       -0.3807755 0.09020113 0.24707708 -0.020404791
000110 0f bf e6 3c e9 f4 46 be f6 3f 81 be ba 3a 1d 3e
       0.028167276 -0.19429363 -0.2524411 0.15354434
000120 b5 2b 91 be da 49 be 3e 82 dd 45 3d e7 99 0a 3f
       -0.28353658 0.3716572 0.04830695 0.54141086
000130 85 80 94 3e d8 97 f2 3d fa d8 89 be f3 16 18 3e
       0.29004303 0.11845368 -0.26923352 0.14852504
000140 24 61 26 be e1 98 95 be 96 60 56 be 76 13 f4 3d
       -0.16247994 -0.292182 -0.20935282 0.119177744
000150 7a c9 c0 3c 46 d0 aa 3e 82 c5 b1 bd 22 4b 01 3f
       0.023533572 0.33362025 -0.0868025 0.5050527
000160 f3 fe a5 3e fa f9 81 3d 62 68 96 3e 6f df 83 3e
       0.32421073 0.06346507 0.29376513 0.25756404
000170 aa 9e 92 be 16 45 41 3c 20 bc be bd 96 0e 78 3e
       -0.28636676 0.0117962565 -0.09313226 0.24224314
000180 50 25 11 3f c1 c9 29 bd 3e 9d d2 3e cb e8 cc bc
       0.5669756 -0.041452173 0.4113559 -0.025013348
000190 47 e3 8a 3e e5 f3 cf bd b6 3d c0 bd 75 01 6b 3e
       0.27126524 -0.10153941 -0.093867704 0.22949775
0001a0 17 14 23 be 3c 88 69 3b 0b 9d 4d 3e fc 3f c0 3e
       -0.15925632 0.003563418 0.20079438 0.37548816
0001b0 55 47 24 bd 7f 36 b9 3e 61 df 45 3e 02 19 d7 bc
       -0.04010709 0.3617439 0.19323494 -0.026257042
0001c0 c4 e2 f2 3b 4c 4c 2a 3d 46 d4 7f be 50 22 d5 bb
       0.0074122865 0.04157667 -0.2498332 -0.0065043345
0001d0 ff 54 06 3d 6c ab e8 3e 77 c1 90 3e b7 f4 ab bc
       0.032795902 0.45443285 0.28272602 -0.020990713
0001e0 10 7f 87 bd 45 f8 b0 3d e4 11 ac be 9b 1e e5 bb
       -0.06616032 0.08641104 -0.336074 -0.006992174
0001f0 45 97 04 3e d0 a5 dd be 52 9f 02 be 11 54 d1 3e
       0.1294833 -0.43290567 -0.12756088 0.4088445
000200 ea c8 a7 be 32 36 a2 be 31 a1 1a be d9 34 98 3e
       -0.32770473 -0.31681973 -0.15100552 0.2972782
000210 97 b0 cf bd d9 a8 b1 3e 76 52 d2 be ac 42 fe 3e
       -0.10141104 0.34699133 -0.41078538 0.49660242
000220 be bd 23 bc 65 0f 0a 3f c7 81 93 3e 28 8b ee 3c
       -0.0099939685 0.5392974 0.2880995 0.02911909
000230 80 84 ad bd 36 03 fe 3c d4 9b 9e be f0 82 cf be
       -0.08472538 0.03100739 -0.30978262 -0.40529585
000240 1f 8c 35 3e d5 0a ce be 94 ca 2c 3d 22 d0 10 bd
       0.17729233 -0.4024264 0.04218538 -0.03535474
000250 13 f7 01 3e de 52 db 3e 7a bc 8f be d3 c1 a2 be
       0.12691908 0.4283666 -0.28073484 -0.317885
000260 ad 21 5b be 93 4b f4 bd 9a a8 62 3e 60 30 00 3f
       -0.21399565 -0.11928477 0.22134629 0.50073814
000270 6e f4 97 3d ae 03 5d be 3f 65 88 3d fd 0b d0 3e
       0.07419668 -0.21583435 0.06659936 0.40634146
000280 df c5 9c be 4c 5f 99 bd 09 87 e1 3e be 93 08 bf
       -0.30619714 -0.074888796 0.44048336 -0.53350437
000290 d1 c3 8e 3d 72 5b 81 3e 8e 3a 04 3f 2c 7f 75 3e
       0.06970943 0.2526508 0.5165185 0.23974293
0002a0 0f 5d b3 3d aa 43 03 bd b7 cb 11 3f 5a 10 37 3d
       0.08757984 -0.03204695 0.5695147 0.04469333
0002b0 68 d2 c2 3e 94 8f f0 bd 94 33 1e 3d 4a c0 5d 3e
       0.38051152 -0.11746135 0.038623407 0.21655384
0002c0 ad 24 72 bd e9 9e a9 bd 04 63 a8 be 00 86 2a be
       -0.059117008 -0.08282263 -0.32888043 -0.1665268
0002d0 f6 eb 75 3c a6 8f d7 bd 4d 67 16 bf f4 91 02 3c
       0.015009871 -0.10525446 -0.58751374 0.007969368
0002e0 0e 9e f6 be 19 15 03 bd 88 f9 c1 3e 36 8b 09 be
       -0.4816746 -0.032002542 0.3788569 -0.13432011
0002f0 72 6f 0a bb 1e 3d 28 3d 07 44 91 3c 6b 07 af be
       -0.0021123555 0.04107391 0.017732633 -0.34185347
000300 47 a1 78 3e cb 7b 25 be 66 f3 fd bd 4f fb 35 3d
       0.24280272 -0.16160505 -0.1239994 0.04442912
000310 b1 0f ac be 8e 72 0e be f0 85 bc 3e 00 9f 8d 3d
       -0.33605722 -0.13910887 0.36820936 0.069150925
000320 6c 2d 2d be 8e c5 0f 3d a7 59 07 3e 8d 3e 69 3e
       -0.16911858 0.035100512 0.13217793 0.22777767
000330 88 ff a3 3e e3 cc 06 3f 96 de a7 be 4a 1a 7e be
       0.32030892 0.5265638 -0.32787007 -0.24814716
000340 81 86 09 3e 95 d9 c5 bb 36 4d 8e be 99 86 f5 bd
       0.13430215 -0.0060379007 -0.27793282 -0.11988563
000350 46 99 2c 3d ab 09 4f bd ba f3 c4 3e 49 01 76 3d
       0.04213836 -0.05054633 0.384672 0.06005982
000360 0e 28 1f 3d 71 de c5 3d 59 62 57 bd ad 87 fa 3d
       0.03885656 0.09661568 -0.052584026 0.12232909
000370 37 a6 37 3e a3 67 a8 be 25 97 a2 be 0d de a8 3e
       0.179345 -0.3289157 -0.3175594 0.3298191
000380 c8 a3 3d 3d 75 fb 47 be 03 37 b0 bd 72 07 5b 3e
       0.046298772 -0.19529517 -0.08604243 0.21389559
000390 a9 c1 a8 be 7c 4e 16 bd f5 46 c6 3d cf f3 f3 bc
       -0.3296025 -0.036695942 0.09681503 -0.029779343
0003a0 af 6d 76 3e b0 72 b9 be 76 f5 17 bf 35 9c 50 3d
       0.24065278 -0.36220312 -0.5935892 0.05093022
0003b0 78 65 be be 70 5b 9a 3d 9b 93 a6 be a5 5c a4 bd
       -0.3718679 0.075369716 -0.3253449 -0.08025483
0003c0 7c fc 19 3e c1 c7 17 3d c7 64 6f 3e 78 76 41 3e
       0.15037721 0.037055735 0.23378287 0.18892848
0003d0 da 04 49 bf 76 e3 f0 be a6 0f 13 3e 58 22 08 be
       -0.7852303 -0.4704854 0.14361438 -0.13294351
0003e0 89 bf 3d 3e a9 7a fe be f2 ac aa 3e 6f 8d f2 3c
       0.18530096 -0.49702957 0.33335072 0.029608456
0003f0 7e 04 e5 bd e7 e0 8f 3e 75 3d fd 3e 70 93 07 3f
       -0.111824974 0.28101274 0.4946095 0.52959347

r_to_mu_sigma.hidden_to_mu.bias f4 [4]
000000 97 78 cc 3c 63 a8 ed be ed 95 da be 31 9d a9 3e
       0.024959845 -0.4641753 -0.4269251 0.3312774

r_to_mu_sigma.hidden_to_sigma.weight f4 [4, 128]
000000 30 80 21 3f 5f 93 1d 3c b4 2f 72 3e b7 6e 0d bf
       0.63086224 0.009617656 0.2365101 -0.5524706
000010 ca 1f b8 bd 68 df d8 3e 67 0a a0 3e 80 e2 38 3d
       -0.08990438 0.42357945 0.31257936 0.045137882
000020 74 72 55 be d6 90 56 be 85 bd 94 3e 3b c4 a3 3e
       -0.20844442 -0.20953688 0.29050842 0.3198565
000030 53 a8 9a 3e 16 f5 55 bd 66 ee a1 3e 45 be 49 bf
       0.30206546 -0.052235685 0.31627196 -0.78805953
000040 99 07 43 3e 8e 24 db 3e 72 6e c5 be ad b6 72 3f
       0.19045867 0.42801327 -0.38560826 0.9480999
000050 47 b4 96 bd 8d 95 42 3e 25 58 2e 3e be db 5e be
       -0.07358604 0.19002362 0.17025812 -0.21763512
000060 14 bd 6e 3f aa 2f 51 3f 38 10 db 3f 74 26 2c bf
       0.9325726 0.81713355 1.7114325 -0.67246175
000070 ee ba ed 3e a2 01 03 3e 9e bc cf 3e cf 3b 4f 3c
       0.4643168 0.12793592 0.4057359 0.012648537
000080 ce cf 43 3f f7 be 10 3f f3 be 4e bc 37 a5 ab 3c
       0.7648896 0.5654139 -0.012618768 0.020952804
000090 cf 5b 98 3d c8 a7 03 3f 5c ce 6b 3e 1e d8 0e 3e
       0.07439386 0.5142789 0.23027939 0.1394963
0000a0 8c d6 24 3f c4 b8 4f bf 19 6a ba 3e 39 8f c9 be
       0.6438987 -0.81141305 0.3640907 -0.39367083
0000b0 94 65 9b 3e 0f 73 00 3f 75 fb 1c be d8 eb 1e be
       0.30350935 0.50175565 -0.15330298 -0.15519655
0000c0 58 9d 06 3e a2 94 d4 be 17 10 3c 3e 48 7d 87 bf
       0.1314596 -0.41519648 0.18365513 -1.0585108
0000d0 b3 86 1f 3c 06 44 1f 3f d0 38 82 3e 02 58 bd bd
       0.009736705 0.6221317 0.2543397 -0.09245302
0000e0 da ee 45 3f 62 7a eb 3c 92 08 6a 3f 8b cb 6c bf
       0.77317584 0.02874488 0.9141933 -0.9249808
0000f0 dd c7 bd 3d ac 79 4c 3d 3e a5 93 3d d3 e8 8e bd
       0.092666365 0.049920723 0.07209252 -0.069780014
000100 e6 d2 dc 3e 39 78 a2 3e 33 c1 09 bf 8e 25 24 3d
       0.43129653 0.31732348 -0.53810424 0.040074877
000110 03 c7 1a bd 76 43 16 bf 87 dc 2d bf 20 06 13 3f
       -0.03778745 -0.5869669 -0.67914623 0.5743122
000120 fc 89 a3 bd 7b 68 dc be fd d4 75 3d c9 8b 34 be
       -0.07985303 -0.43048462 0.060017575 -0.17631449
000130 f9 89 5b 3e df 55 4b bf e3 ca 2f 3f 18 c5 1f 3f
       0.21439351 -0.79427904 0.68668956 0.62410116
000140 7c 23 9d be 8f 68 99 3e 50 1e a1 be 0d 4b 5b bd
       -0.30691135 0.29962584 -0.3146844 -0.05353837
000150 3d 08 cf 3e 58 75 2d 3e c4 b9 15 3f 3a ff 21 3f
       0.40435973 0.16939294 0.5848658 0.6328007
000160 aa c5 c9 bd 86 ea 16 bd c9 47 2f 3f 29 59 60 bf
       -0.098521546 -0.036844753 0.6846891 -0.8763605
000170 e7 51 17 bf 42 40 6f bc e7 04 29 bf e6 24 01 3e
       -0.5910935 -0.014602723 -0.66023105 0.12611732
000180 24 52 2a bf 34 dc d5 3d 64 b0 6e 3f 16 c9 5b be
       -0.66531587 0.10442391 0.932379 -0.21463427
000190 aa 30 d2 bc 53 91 a9 3e d3 32 da 3d 04 cc 57 bf
       -0.02565797 0.33118686 0.10654225 -0.8429568
0001a0 23 c2 55 3d 42 29 c3 3d 56 9f cf be e1 bb d3 3e
       0.052187096 0.09529354 -0.4055125 0.41354278
0001b0 92 d0 a2 3e 90 34 ff be 7d 2a 10 3f 53 2c 23 bd
       0.31799752 -0.4984479 0.5631483 -0.039837193
0001c0 f6 a0 e6 bc b0 c2 ec 3d 57 13 d3 3e 2b d7 2c 3c
       -0.028152924 0.11560571 0.41225693 0.010549347
0001d0 16 2a 2c 3f c4 24 ce 3e 8e fe cc 3e 6d 90 57 3d
       0.6725172 0.40262425 0.4003796 0.05262797
0001e0 24 6a a7 bb d7 6c 10 3f ab 7f 21 3e 07 45 e9 3b
       -0.0051090885 0.56416076 0.15771358 0.0071188244
0001f0 7b ec 36 3f 27 7b bf 3d 21 e0 aa 3e dd 44 ba 3d
       0.7145459 0.09349661 0.33374122 0.09095166
000200 58 a1 47 3e 81 81 54 3e 6b 2c 46 3f 7d 57 79 3f
       0.19495142 0.20752527 0.77411526 0.9739912
000210 3a 9a 2f bf a7 51 b0 3f 2c e0 19 3f a8 bd 51 3e
       -0.68594706 1.3774918 0.60107684 0.20482504
000220 23 3a 12 3f 32 18 20 3d 7b 65 f4 be 7c 09 9f bb
       0.5711996 0.039085574 -0.47733673 -0.0048534255
000230 d6 38 5c be 41 63 7d 3f db c1 06 bf a8 7e 59 bf
       -0.21506056 0.98979574 -0.5263955 -0.8495889
000240 7a 62 87 be 77 a8 7c 3e 59 ef 91 3f 8e 2e cb be
       -0.2644232 0.24673639 1.1401168 -0.39683956
000250 22 dc 70 bf 31 1a c0 be 14 71 12 bf 45 55 be bd
       -0.94085896 -0.37519982 -0.57203794 -0.092936076
000260 99 fa 09 40 9d a6 01 3f c1 70 8e 3e 19 74 ce 3e
       2.1559203 0.50644857 0.278204 0.4032295
000270 01 75 07 3f e5 22 ab 3e fb cb 82 be 95 85 98 bd
       0.5291291 0.3342506 -0.2554625 -0.07447354
000280 ca 17 00 bf 33 5e 54 3f 6e 1f c0 3d c3 94 63 3e
       -0.500363 0.82956237 0.09380995 0.22224717
000290 bc c5 46 3f 17 b2 3e bf 74 d2 a5 3e a2 b3 ad 3d
       0.7764547 -0.74490494 0.32387125 0.08481528
0002a0 86 2b 10 3e de ef 4e 3c 73 be 2d 3f cf 38 3e be
       0.14079103 0.012630431 0.6786873 -0.18576358
0002b0 52 98 3c 3e 0a e4 1d bf fb 0d a1 3f 56 65 7e 3f
       0.1841748 -0.61676085 1.2582392 0.99373376
0002c0 19 8c 2a 3e b4 51 52 3d 76 04 01 3f 44 25 3e 3f
       0.16655006 0.05134745 0.5039743 0.7427561
0002d0 91 e9 3b 3f ed ec 6a 3e 41 1e c9 3d 2d aa 0f 3f
       0.7340327 0.22941943 0.098202236 0.5611904
0002e0 6e 70 87 3f fa 1e 6d 3f 7e 9f 6e bf 95 40 7e 3e
       1.0581186 0.9262539 -0.93212116 0.24829324
0002f0 56 77 80 3e 54 8e 0c 3f 96 bf 9c bc c6 9b 74 bf
       0.25091046 0.54904675 -0.019134324 -0.9555019
000300 02 80 0f 3c 86 fc 4a 3f 73 04 1b 3f 47 1c 6b 3c
       0.008758547 0.7929157 0.60553664 0.014350004
000310 26 fb 67 3b 6a 9b 97 bd 90 cb 54 3f ac cc 97 3e
       0.00353975 -0.0740269 0.8312311 0.2964834
000320 87 37 58 bf 9b ee 2b 3f a5 67 f0 3d e5 5e 51 bf
       -0.8445973 0.6716096 0.117385186 -0.8178542
000330 62 28 87 bf f8 2c ef 3e b8 43 9b 3e e5 3f 29 bf
       -1.0559199 0.46713996 0.30325103 -0.6611312
000340 36 e0 8b be e0 6e 59 3f 4d 3c 02 be 9f 28 fe 3f
       -0.27319497 0.84934807 -0.12718315 1.9856147
000350 2f c3 e1 be 2c c6 60 3f b7 33 12 3e bc 33 40 3d
       -0.44094226 0.87802386 0.1427754 0.046924338
000360 4a 11 1f bf bd 90 a6 3e 9f df 15 3d 10 12 09 3f
       -0.62135756 0.32532302 0.036590215 0.53543186
000370 d9 c7 c6 be b8 b8 32 3e db a2 32 bf 37 ea 16 bf
       -0.38824347 0.17453277 -0.6977975 -0.58951133
000380 d8 6b f3 3e fa ea 2b 3e 0b f3 4c be a8 f1 0d be
       0.47543216 0.16788855 -0.20014589 -0.13861716
000390 95 95 05 3f 86 5d e2 3e fa 49 5b 3e c6 e7 2a bf
       0.5218137 0.44211978 0.21414939 -0.6675991
0003a0 f2 ef b6 3f 76 7f e5 3d b0 bd ef 3f a3 19 f3 bd
       1.4291975 0.11205952 1.8729763 -0.11870124
0003b0 10 6b 8e be a2 46 95 bc 5e 37 31 3e 80 b3 5b 3f
       -0.27816057 -0.018222157 0.17306277 0.8582077
0003c0 ae ec 70 3e b2 fb 57 3f ef 57 0c 3f 16 60 30 3f
       0.23527786 0.8436843 0.54821676 0.68896616
0003d0 ac 9e d8 3f cc 18 04 40 e4 84 ac 3f 12 b9 33 3f
       1.6923423 2.0640135 1.3478055 0.7020427
0003e0 61 3c 82 3f ba 3d c3 be a1 c2 14 bf ba 1e 85 3f
       1.0174676 -0.3813303 -0.5810948 1.0400002
0003f0 01 13 bc be 02 fd 21 bf 0b 51 88 3f 12 fb a9 3d
       -0.3673325 -0.63276684 1.0649732 0.08299841

r_to_mu_sigma.hidden_to_sigma.bias f4 [4]
000000 d9 be d5 bf d0 b5 a3 c0 dc 55 a2 c0 3a 31 76 c0
       -1.6698867 -5.115944 -5.072981 -3.8467546

xz_to_y.xz_to_hidden.0.weight f4 [32, 5]
000000 57 19 12 bf b9 9a 3a 3d 6d 2b 35 bf 66 d8 10 bf
       -0.57069916 0.04555771 -0.7076939 -0.565802
000010 db 65 e0 be 9c a8 d0 c1 79 2a 15 3e 0e 5e b2 3e
       -0.4382771 -26.082329 0.14566983 0.34837383
000020 94 ef 23 3f d3 bc 1a 3f c5 41 fb c0 69 a9 25 be
       0.6403744 0.6044437 -7.8517785 -0.16177906
000030 4a 95 8b 3f 76 98 c3 be 8a 2e ab bd 5f d7 28 3d
       1.0904934 -0.38202256 -0.08358486 0.04122102
000040 58 3c 4d 3d bd b6 32 3f c5 1a 04 3f a7 f4 0e 3f
       0.050106376 0.69810086 0.5160335 0.5584206
000050 c5 47 c8 bf a1 92 14 3e e9 70 22 bd 13 e7 28 be
       -1.5646902 0.1450906 -0.03965846 -0.16494398
000060 7a 11 81 3e 36 97 81 c1 c1 86 c4 3c 84 f0 e7 bd
       0.25208646 -16.198833 0.023990037 -0.113251716
000070 be db 74 bd e2 7b 3f bf bc 84 f5 c0 2c bc 90 be
       -0.059779875 -0.74798405 -7.672453 -0.28268564
000080 fe ed 1b bf c1 c3 1a 3d 0b 2b 57 bf 73 ed d3 bf
       -0.6091002 0.03778434 -0.84050053 -1.6556839
000090 38 de 15 bd 20 ca 8f bd 0e 93 f9 3c 0a 3b f9 bc
       -0.036588877 -0.07020974 0.030465629 -0.03042366
0000a0 8a 6d f8 c0 bc d8 26 bd 13 84 da be 05 86 a3 3d
       -7.7633715 -0.040734038 -0.4267889 0.079845466
0000b0 e8 6f 9b 3e 0e e7 32 c0 fd 87 a8 3e 9d b9 08 3e
       0.30358815 -2.7953525 0.3291625 0.13352056
0000c0 45 52 0e 3e e5 00 32 3d 28 d4 3f c1 f8 d7 1c 3d
       0.13898571 0.043457884 -11.989296 0.0382919
0000d0 e2 ed 2e 3f e6 2b 33 3f 7a 63 8f 3e 95 68 1b c0
       0.6833173 0.6998886 0.28005582 -2.4282582
0000e0 31 0c 12 3c c1 10 88 bd 9c f7 c0 3d ee bf c4 3b
       0.0089140395 -0.066438206 0.09422228 0.006004325
0000f0 cf 3b 6d c1 fd d6 26 3d 55 81 72 bf ad 9f 58 3b
       -14.827102 0.040732373 -0.94728595 0.0033054159
000100 f8 77 78 3d ac ae 28 c0 27 e2 ce 3d 7d b3 07 3d
       0.060661286 -2.6356611 0.10101729 0.033130158
000110 6f 50 4d 3e 74 b7 90 3d 95 04 11 41 8a 2b 4d 3d
       0.20050214 0.07066241 9.063619 0.05009035
000120 aa 41 af 3e 7e b9 de be 40 c1 59 3e cc 6d 13 c0
       0.34229785 -0.43500894 0.21265125 -2.3035765
000130 dc a6 f1 3d 28 f3 80 bd 18 03 fa 3c a8 d6 86 3d
       0.11799404 -0.062963784 0.030519053 0.06583911
000140 85 8b 8f c0 61 7f ec be 2b 60 b7 3e a0 15 89 3d
       -4.485781 -0.46190932 0.35815558 0.06693578
000150 f6 58 1a 3e ee 15 68 c1 62 15 2c be 7d 23 44 3f
       0.15072998 -14.505354 -0.16805032 0.7661665
000160 d5 82 d8 3e 7f 19 03 3f ce e3 21 c0 12 25 74 3d
       0.42287317 0.5121078 -2.529529 0.059605666
000170 d4 50 2e be 5b e5 e6 bc 9d bb 35 3d 78 89 cd c1
       -0.17023021 -0.028185537 0.044368375 -25.692123
000180 20 72 6d 3e 6d 7a 81 3e 01 3b a3 be ce 7f 05 3f
       0.23188066 0.25288716 -0.31880954 0.5214814
000190 79 26 b1 c0 ea 52 69 bd df c8 cd 3e c5 66 8f 3e
       -5.5359464 -0.05696384 0.40192315 0.28008094
0001a0 86 6e 80 bf cb 40 a8 c0 be b9 89 bd 0c 9c 00 3f
       -1.0033729 -5.2579093 -0.06724881 0.5023811
0001b0 fd b9 b0 3e 89 38 fe be 67 cc f8 c1 98 7b 19 3d
       0.34516898 -0.49652508 -31.099806 0.037471384
0001c0 45 ab 78 3e d7 20 10 3e 3c 3d 89 3e cb bb 02 41
       0.24284084 0.14075027 0.2680453 8.170848
0001d0 d7 a3 b3 3b 37 11 bf 3e 70 4b 1f bd 69 b1 83 be
       0.0054821777 0.3731782 -0.038890302 -0.2572129
0001e0 8f 41 fa bf 1d 4d 5d 3f db dd a6 bd c0 d7 50 3d
       -1.9551257 0.8644579 -0.08147784 0.050987005
0001f0 bc 3e 28 bd 99 90 02 c1 db 3f 61 bd f8 a2 db 3e
       -0.041075453 -8.160302 -0.054992538 0.42897773
000200 ae 43 4d be 6e 1c 5a 3e f5 c8 a7 40 f4 43 49 be
       -0.20045349 0.21299908 5.243281 -0.19654828
000210 48 b3 84 3f 81 60 89 bf 9e 46 19 bf 23 24 ab 40
       1.0367212 -1.0732576 -0.5987338 5.348161
000220 5b 27 23 be 14 1a e8 be 1e 96 f1 3e 80 d7 63 3e
       -0.15932982 -0.45332396 0.47184843 0.22250175
000230 54 f3 e1 40 4d 81 3f ba d9 6a 02 3f 19 89 e7 be
       7.060953 -0.0007305339 0.50944287 -0.45221785
000240 93 e5 77 be b5 0c df c0 18 10 d0 3d 3b b0 3c 3d
       -0.2420867 -6.970301 0.1015932 0.046066504
000250 5c c0 15 3e 49 49 9b 3e 6d db 04 40 b5 c7 7e 3e
       0.1462416 0.3032935 2.0758927 0.2488087
000260 07 e2 85 bd e9 dd b5 bd 0d b7 18 bd ef 34 d5 40
       -0.06537252 -0.08880217 -0.037283946 6.6627116
000270 ad e0 d6 bc b0 5e 73 be c7 8b 5c 3c 70 0d d5 bd
       -0.02623018 -0.23766589 0.01346106 -0.104029536
