seed-AuNP-phasemaps/pretraining/tune/16_4_16_1.32E-04_2/model.pt (torch, 13536 bytes, 20 tensors)

xy_to_r.input_to_hidden.0.weight f4 [16, 2]
000000 47 3b 37 bf c4 16 ff 3e 3f 15 1d bf 43 fc a3 3d
       -0.71574825 0.49822056 -0.61360544 0.080070995
000010 d9 cd a7 3d aa 74 42 3f df c5 68 bf d2 4f 65 3f
       0.08193559 0.75959265 -0.9092693 0.8957492
000020 fd 83 1d bf ea 04 9e be da 46 b6 3e 18 ec d5 bd
       -0.61529523 -0.30863124 0.3560093 -0.10445422
000030 a9 73 9b bf 50 be 4e 3f 02 71 3a 3f a3 f4 83 3f
       -1.2144672 0.80759144 0.72828686 1.0309032
000040 bd 26 bf be 84 68 ec be 3a e1 82 be d0 c0 c7 be
       -0.37334242 -0.4617349 -0.2556246 -0.39014292
000050 29 84 f6 3e eb 92 6c bd fe de 2e bf 98 f6 dd be
       0.48147705 -0.0577573 -0.6830901 -0.433522
000060 ac f0 a8 3e 08 d2 b5 bc ad ec 4b 3f 90 38 50 bf
       0.32996118 -0.022194877 0.79658014 -0.8133631
000070 2e 2d 05 bf 8c 05 84 3d fe ec 27 bf f8 f9 80 be
       -0.52022064 0.064463705 -0.65595996 -0.2519071

xy_to_r.input_to_hidden.0.bias f4 [16]
000000 7e 57 99 3e c4 1a 1a 3f 7a f4 46 bd fe 6d bd 3e
       0.29949564 0.6019709 -0.048572995 0.3699798
000010 63 d8 72 be f8 d0 9a 3e b3 d0 99 be df 27 8b be
       -0.23715357 0.30237556 -0.30042037 -0.27178857
000020 e8 c4 0a bf 59 b3 ff be 85 13 2f be 6e 39 43 3f
       -0.54206705 -0.4994152 -0.1709729 0.76259506
000030 dd 9d a8 be ce 35 8e 3d 2f 15 13 3f 34 16 09 3f
       -0.3293294 0.06943856 0.574542 0.53549504

xy_to_r.input_to_hidden.2.weight f4 [16, 16]
000000 32 ce 22 be 60 c8 04 3e 78 d9 47 bd 24 c4 f5 bd
       -0.1589897 0.12967062 -0.04879138 -0.120003015
000010 42 2b 74 3e d6 4f 46 be aa f8 22 3e d8 fe 0e bd
       0.23844627 -0.19366392 0.1591517 -0.034911007
000020 cc d9 52 be 60 70 be 3d 18 72 27 3d d4 7f ac bd
       -0.20590895 0.092987776 0.040880293 -0.08422819
000030 96 f7 51 be a4 92 9b 3d b0 60 1e 3d 40 02 1f be
       -0.20504603 0.07596329 0.038666427 -0.15528202
000040 6a f2 0d 3e 15 e3 e7 3e b8 a5 74 bd d7 a2 d9 bd
       0.13862005 0.45290437 -0.059728354 -0.10626762
000050 18 79 e6 3d af ba d5 3d e4 f9 e8 be b0 01 7b be
       0.112535655 0.10435998 -0.4550315 -0.24512362
000060 fc be 06 3e 34 f1 ab 3d 25 76 40 bf 76 35 cf 3e
       0.13158792 0.08395615 -0.75180274 0.40470475
000070 72 9d 85 3c 3c d2 df 3d 1c c2 ae 3e 0a e0 ff 3e
       0.016310427 0.10928771 0.3413247 0.49975616
000080 31 e1 27 3e 9d 5f 6b 3d 1a 8f 32 3e 8e ae 94 bd
       0.16394497 0.05746423 0.17437401 -0.07259856
000090 b4 c9 bd bd 8e 92 8a 3d a8 41 7b 3f 2a 89 1f be
       -0.092669874 0.06766234 0.9814706 -0.15579668
0000a0 38 74 49 be b2 5e 73 3e ab 7e 3b bf c1 e4 ad be
       -0.1967324 0.23766592 -0.73240155 -0.33963588
0000b0 7f cf d7 3d df 94 30 3f 05 68 9e 3d fa c4 a3 be
       0.105376236 0.6897716 0.07734684 -0.3198622
0000c0 41 e9 17 bd 9e 8f b3 be 57 4f 62 3e 06 6e 9c bd
       -0.037087683 -0.3507051 0.22100578 -0.07638173
0000d0 00 b9 e6 3b ea d9 88 be 5f 61 4d be 83 8c d4 3e
       0.0070410967 -0.26728755 -0.20056675 0.41513452
0000e0 70 83 3c 3e 20 65 73 3c 95 69 18 3e 38 89 3f 3d
       0.18409514 0.014855653 0.14884026 0.04676172
0000f0 cc c7 9f bd ee 5f 02 bd f8 4c c9 be 75 46 6c bf
       -0.0780178 -0.031829767 -0.39316535 -0.9229501
000100 67 88 cc 3e 97 61 b1 3e c2 eb 0f be 18 6f 88 3e
       0.39947817 0.34644768 -0.14054778 0.26647258
000110 70 95 7c 3e cd 32 84 3e ee 13 eb 3e 1c df 82 be
       0.24666381 0.25820008 0.45913643 -0.25560844
000120 12 b9 3c 3e e8 ba d5 3d 67 b6 6b be 4e 97 d0 be
       0.18429974 0.1043604 -0.230188 -0.40740436
000130 20 ed ec 3d b7 f7 15 3f cc a0 a0 3c 35 96 0e bf
       0.115686655 0.5858111 0.019607924 -0.5569795
000140 83 7c 57 3e 51 5a 46 bd b3 b1 0a 3e 65 e3 f2 3d
       0.21043591 -0.048425976 0.1354435 0.11859778
000150 80 b2 6c 3d 5e 81 d6 3b ff 9e 08 3e c7 65 54 bd
       0.05778742 0.0065461835 0.13341902 -0.051854875
000160 d2 ac 0f 3e 5c fc b9 bd 4b 10 3a 3e 82 ee 8b be
       0.1403077 -0.09081337 0.18170278 -0.27330405
000170 2b 46 70 3d 18 fe 8e 3e 10 cf 91 3e dd 76 c9 be
       0.058660667 0.27928233 0.2847829 -0.39348498
000180 b3 38 31 bb 02 e1 38 3e 73 a3 85 3e 12 bc d5 3e
       -0.0027041852 0.18054584 0.26101264 0.4174505
000190 d2 0f 5f be 2d 8a 0e 3b b1 85 10 3f 92 12 8a 3e
       -0.21783379 0.002174984 0.56453997 0.26967293
0001a0 2e c4 4b 3e c0 ca e6 3c 2b e2 e7 3d 85 8d f6 be
       0.19899055 0.02817285 0.11322435 -0.48154846
0001b0 43 ed 45 be c3 56 c9 3d 16 ba 57 3e bc a7 a8 be
       -0.1932879 0.098310016 0.2106708 -0.3294047
0001c0 0b af 09 3f 9b b1 a5 3e 27 bf 31 3e 9c 57 19 3e
       0.5378272 0.32362065 0.17358075 0.14974827
0001d0 d6 85 2a 3e 25 06 d1 bd 89 9e 43 bf f1 68 67 be
       0.16652617 -0.1020625 -0.7641378 -0.22598626
0001e0 ec b8 a1 3d 86 e1 6d 3e 94 42 a9 bf 7f 3a 05 be
       0.07896599 0.23230562 -1.3223443 -0.13010596
0001f0 5a c5 7c 3e 4a 33 ea be 62 49 2e 3e 47 1c 8d be
       0.24684659 -0.45742255 0.17020181 -0.27560636
000200 ac 9c 81 3e 3c 06 99 3d 0a 56 04 be 21 4f bc 3d
       0.25314844 0.07471892 -0.12923446 0.0919478
000210 68 a1 30 bd bc 6b 25 3e e8 d8 51 3e be 2a a7 3d
       -0.04312268 0.16154379 0.204929 0.08162449
000220 00 3b 7d bb 88 56 70 3e 88 bc 77 bc ae 72 b2 be
       -0.0038639903 0.23470509 -0.015120633 -0.3485312
000230 83 e0 87 3e e9 f8 09 3f 12 7c b6 3d 4a 24 81 be
       0.26538476 0.5389543 0.08910383 -0.25223
000240 41 46 63 bd 28 7a 1c 3d 6c 76 e9 3c 2e 9b 23 be
       -0.05548692 0.038202435 0.02849885 -0.15977165
000250 e8 34 61 bd 8d c2 33 3e 2f cb 2a bf 5b a9 23 3f
       -0.054982096 0.17554684 -0.66716284 0.6393029
000260 28 7f 58 3d d0 90 64 bd 5e 9a 80 3f a0 37 71 3e
       0.05285564 -0.055802166 1.0047109 0.23556376
000270 9a 79 d8 bd 46 ca bb bd fc 94 b1 3d 2b f9 55 3e
       -0.10570069 -0.0916944 0.08670995 0.20895831
000280 b2 d3 05 3f 4f 7a 9a 3e d8 31 1c 3e a7 ab ed 3e
       0.52276146 0.3017144 0.15253389 0.46420023
000290 94 e3 91 3d 98 39 8d bd 28 61 04 3e 54 b4 c5 3e
       0.07123485 -0.06895751 0.12927687 0.38614142
0002a0 ae 0e 61 3e be b0 0c 3e b0 4d a7 bd 38 91 08 bf
       0.21978256 0.13739297 -0.081691146 -0.53346586
0002b0 33 0a 66 3e 50 04 1c be a4 93 81 3e 25 df f4 be
       0.22464828 -0.1523602 0.25307953 -0.47826496
0002c0 d5 a3 d5 3e c8 6a 92 3e 4b e1 17 3e 2e 25 ed 3e
       0.41726556 0.28597093 0.14832036 0.46317428
0002d0 60 a8 fa bd ee ed 8c bd c7 d8 d1 bf 47 15 03 3e
       -0.12239146 -0.06881319 -1.639428 0.12801085
0002e0 d0 fb fe 3c cc b6 83 3d 72 70 c8 3c dd 7a e7 3e
       0.031125933 0.0643135 0.02446768 0.45210925
0002f0 20 ca 67 3e a1 d8 93 bf e9 02 47 3e 6e 05 92 3e
       0.22635698 -1.1550485 0.19434704 0.28519768
000300 c1 f6 d3 bd 74 1c bd bd b8 6a 85 3e 80 59 fb 3d
       -0.10349799 -0.09233943 0.26057982 0.1227293
000310 b0 7a 53 be 83 d8 ab 3e 35 93 76 bf 4c 7b 0a 3f
       -0.2065227 0.33563623 -0.9631837 0.54094386
000320 98 3e c0 bd 88 2a b5 3d bc 14 60 3f 5a af ae 3e
       -0.09386939 0.08846003 0.8753164 0.34118158
000330 92 de 55 3b 95 e0 e8 be 1e 4e 74 bd c9 74 70 3e
       0.0032633883 -0.45483842 -0.05964481 0.2348205
000340 f4 1d e4 bd 56 a9 22 3e c0 a9 30 bd b8 6f 3b be
       -0.111385256 0.15884909 -0.043130636 -0.18304336
000350 6c bb f6 bd bc 78 33 be b0 21 1e bd 10 06 d8 bd
       -0.12047467 -0.17526525 -0.038606346 -0.10548031
000360 80 51 7a bc ac fa 13 be 0c 69 94 bd 6c 8c f1 bd
       -0.01527822 -0.14451092 -0.072465986 -0.117943615
000370 34 21 26 be 74 8b 4a 3e 00 7d cb bd 08 bc fb bd
       -0.16223603 0.1977976 -0.09935951 -0.122917235
000380 06 05 4d be 5a 4e 2d be 2e c9 02 be 40 d2 f2 3d
       -0.20021448 -0.1692442 -0.12772056 0.11856508
000390 da d6 78 be 58 9d 72 be 30 61 26 3d d0 2d 2b 3d
       -0.2430071 -0.23692834 0.04062003 0.041791737
0003a0 90 b6 76 be fe 7b 11 be ec da f1 bd 08 be 10 3d
       -0.2409308 -0.14207456 -0.11809334 0.035337478
0003b0 90 8c e1 3c e0 45 45 3d ec 76 59 be 60 11 2b 3e
       0.027532846 0.04816234 -0.21236771 0.16705847
0003c0 6b 17 bd 3e 44 3e 4a 3e 06 8c f8 3d 67 ae 8b 3d
       0.3693193 0.19750315 0.12136082 0.06820374
0003d0 68 97 81 bd cd 65 a3 3c aa 69 63 3f 95 02 05 be
       -0.063277066 0.019946003 0.88833106 -0.12989266
0003e0 58 4f 87 bd 4e ec 7a be bc 42 2f bf 96 85 4b 3d
       -0.066069305 -0.24504206 -0.68461204 0.049687944
0003f0 8e bb 8c bd ee 95 f0 3e 54 aa cb bb 26 fb e4 be
       -0.06871711 0.46989387 -0.006215373 -0.4472286

xy_to_r.input_to_hidden.2.bias f4 [16]
000000 80 26 a6 3b d3 70 bf 3e 49 fd 67 3e 7e e4 b3 be
       0.0050705075 0.37390766 0.22655214 -0.35135263
000010 ea 5a fd 3a 33 54 00 3e 24 03 03 3e a5 d5 b6 3e
       0.0019329463 0.1253212 0.12794167 0.35709873
000020 36 d6 a6 3d dc f5 54 3e 91 fe fb 3c 38 03 83 3e
       0.08146326 0.20796913 0.030761035 0.25588393
000030 7a 7a 38 bd 50 33 ee bd 72 40 47 be 05 8a 47 3d
       -0.045038678 -0.11630881 -0.19458178 0.04871561

xy_to_r.input_to_hidden.4.weight f4 [16, 16]
000000 08 30 ee bd da 8f d4 3e 3c 48 9b 3e 95 ca 56 be
       -0.11630255 0.41516 0.30328548 -0.20975716
000010 66 cf 81 be f5 fe 9b be 37 d9 ce be 18 44 eb bd
       -0.25353545 -0.30467954 -0.40400097 -0.11487597
000020 1a 4e 1a be 8f 07 67 be 27 01 2c be 19 e9 03 bc
       -0.15068856 -0.22561477 -0.16797315 -0.00805118
000030 f9 39 3a be 56 e8 6c be fe 24 70 3e 32 d9 27 3d
       -0.18186177 -0.23135504 0.23451611 0.040978618
000040 00 95 a7 3b 66 41 ee be 65 5f fd 3c fd a2 c5 bf
       0.0051141977 -0.4653427 0.030929277 -1.5440365
000050 2c a3 d8 3d 95 02 d2 bd 74 5d d6 3e 03 ec 92 3e
       0.105779976 -0.10254399 0.41868174 0.28695688
000060 a8 3b fe bd da 79 58 bd e6 ed df 3e 8d fc 11 be
       -0.12413722 -0.05285058 0.4373619 -0.14256497
000070 b7 64 4e be 54 01 57 3e 1c 59 b4 3d b6 6a 31 be
       -0.20155607 0.209966 0.08806059 -0.17325863
000080 f2 62 39 be 91 21 28 be c4 9e eb be 5a 77 94 3f
       -0.18104151 -0.16419055 -0.46019566 1.1598923
000090 31 07 a8 bc c7 59 b2 3e 08 e1 da 3e 03 d7 d6 3e
       -0.020511242 0.3483412 0.4274981 0.41960916
0000a0 5e 54 f6 bd e4 90 9c bc b8 80 05 3f 94 12 41 3f
       -0.120278105 -0.019112058 0.52149534 0.7541897
0000b0 31 d4 b2 3c a0 a3 69 3d 40 45 ba bc 2f 9e 4e bc
       0.021829696 0.05704081 -0.0227381 -0.012610956
0000c0 d4 86 0f 3e fa f0 5c 3f f9 b4 53 bd b0 49 db bd
       0.14016277 0.863052 -0.05168626 -0.10707414
0000d0 2e 33 24 3d 10 49 c3 be 79 22 b0 be 01 2f 57 be
       0.04008787 -0.3814168 -0.344013 -0.21014024
0000e0 47 2c 90 be 9e 28 02 3e b3 39 8c be 4a e4 22 3e
       -0.2815878 0.12710807 -0.2738777 0.15907398
0000f0 c9 6d b4 be d0 22 e2 3c 34 71 94 bd 4b 8a 86 3e
       -0.3524001 0.02760449 -0.07248154 0.26277384
000100 ec 29 8d 3d 1e 7e 01 3e 97 1e 98 bd 0b 6d ff bd
       0.068927616 0.12645766 -0.074277095 -0.1247197
000110 0a f0 4f be 0c 51 d4 3d ed 0d ac bd 02 63 65 bf
       -0.20306411 0.10367021 -0.08401094 -0.896042
000120 dd dc b8 bd 3a 88 c5 3e 67 c4 17 bf 47 cb 30 be
       -0.09026501 0.38580495 -0.5928406 -0.17265044
000130 7a 97 e3 3d 20 ce 96 3c 7a b1 52 3e 5f 3b a1 be
       0.11112876 0.018408835 0.20575514 -0.3149061
000140 5e 9b 06 be 5e 66 d9 3e ed 15 b2 be a1 3b ca 3f
       -0.13145205 0.42460912 -0.34782353 1.5799447
000150 ea 31 24 be f9 91 cd 3d f4 ae 57 be 20 23 be be
       -0.16034666 0.10037608 -0.21062833 -0.37136173
000160 4e 20 90 be 2b 0e 05 3e 47 ab 99 be b7 96 d2 3e
       -0.28149647 0.12993686 -0.30013487 0.4113061
000170 27 de ab 3e 02 eb 59 be 2c 41 ac 3d 7e b8 f5 bc
       0.33567926 -0.21281055 0.08410868 -0.0299952
000180 26 a3 24 be 22 fd 6c bd 6b 38 c9 be 37 a3 e1 3f
       -0.16077861 -0.057858594 -0.39300856 1.7627934
000190 75 2f 1e bf 2a 5c a5 bd 64 98 8c 3d 5c 54 1c bf
       -0.61791164 -0.080742195 0.06865004 -0.6106622
0001a0 ad 9c 23 be 6e b6 d5 3e 7d de 09 be b1 2e 45 3e
       -0.15977736 0.41740745 -0.13463779 0.19256093
0001b0 d2 f7 dc 3e e0 9b a8 bc 1c 86 7a be 74 8a d9 be
       0.43157822 -0.02058214 -0.24465221 -0.42488444
0001c0 24 fc 38 be db 8a 99 3d 8f ec 32 3e aa cb 90 bf
       -0.18064934 0.07497188 0.17473052 -1.1312153
0001d0 63 f9 cc 3e 7a ec 89 3e cf 99 a5 bd 17 b2 99 3d
       0.40034017 0.2693823 -0.08085977 0.07504671
0001e0 00 6a dd 3d c8 44 ab be 0e 00 22 3c da 2f 8f be
       0.108112335 -0.33450913 0.009887708 -0.27966195
0001f0 64 5c 11 bf a8 bd f2 3d 78 61 9a bd 43 5e f5 3e
       -0.567816 0.1185258 -0.07538122 0.47923478
000200 82 06 7e be 41 ba 80 3e a8 c2 c3 3e 53 9f f0 be
       -0.2480717 0.251421 0.38234448 -0.46996555
000210 57 e4 aa be a9 46 1a be c7 8d 15 be 66 e6 c9 be
       -0.33377334 -0.15066017 -0.14604865 -0.39433593
000220 27 f6 34 bd 3b c2 16 be ad fe 98 3c af 7d af be
       -0.04418006 -0.1472253 0.018676126 -0.34275576
000230 3c f3 08 3d 6a 8f 32 be 24 56 a0 bd 45 d0 49 3e
       0.03343509 -0.1743752 -0.0782893 0.19708355
000240 54 0b 57 be 5d 0c 53 bd 96 2b 19 3d 3c 7d b5 bf
       -0.21000415 -0.051525462 0.037395082 -1.4178843
000250 a3 7c 08 3e 4a b6 f8 3d e6 9d 60 3e 1f 50 e4 3d
       0.13328795 0.12144144 0.21935233 0.111480944
000260 42 e2 0f be c6 8b 72 be 39 9d 95 3e 4e fc 99 be
       -0.14051154 -0.23686132 0.29221514 -0.30075306
000270 83 b2 fa be d0 76 b3 bd 18 ad 2b 3d 77 f6 79 3d
       -0.4896432 -0.08762896 0.041913122 0.061026063
000280 cc 35 11 3e 00 5a 7c be a5 52 dc be c1 9c fd 3f
       0.14180678 -0.24643707 -0.43031803 1.9813462
000290 38 70 ae be ee 39 0a be 61 60 05 bc d4 81 65 3a
       -0.3406999 -0.13498661 -0.008140654 0.00087550026
0002a0 15 6a 55 be 7b e0 b7 3e df 5e 1f be fb 30 e7 3e
       -0.20841248 0.35913453 -0.15563534 0.45154557
0002b0 97 90 15 3e 66 35 15 3e 10 f2 e9 bd 82 85 22 be
       0.14605938 0.14571151 -0.11423123 -0.15871242
0002c0 c6 7e 4f 3e 26 0d 01 bd c5 11 8b 3c 06 9e fd be
       0.20263204 -0.03150668 0.016976247 -0.49534625
0002d0 3a 48 83 3e de aa 52 3e 08 8d 79 3e 41 12 35 3f
       0.25641042 0.20572993 0.24370205 0.7073098
0002e0 1d d6 9f bc 90 6a e2 be 8d 1f 01 3e d1 15 b4 3e
       -0.019511277 -0.44221926 0.12609692 0.35172895
0002f0 1f 8a ee be b6 39 5c 3e 5c 8e b8 3d c4 e8 8c 3e
       -0.46589753 0.2150639 0.09011528 0.27521336
000300 0c 38 fb bd 7f 77 14 be e4 34 8d be 20 e6 c1 3f
       -0.122665495 -0.14498709 -0.27579415 1.5148354
000310 43 09 f5 bc 13 f5 7c be e9 59 48 be 39 87 db bd
       -0.029911643 -0.24702863 -0.19565548 -0.10719151
000320 a0 7e 41 3c a9 a8 d0 3c ce 39 af 3c ab 1b c9 3e
       0.011809975 0.025471048 0.021389868 0.3927892
000330 a3 d2 fd 3e 80 6b f8 3b 92 99 64 be 68 74 e9 bd
       0.49574766 0.0075811744 -0.22324207 -0.11399156
000340 5e 96 75 3e bd 3a df 3e 94 db f9 3d f0 53 fd 3e
       0.23983142 0.435995 0.12200084 0.49478102
000350 25 8d 94 be 87 73 97 be 7c 41 8b be 6c e7 1f bf
       -0.29013935 -0.29580328 -0.27198398 -0.62462497
000360 7a 21 91 be a7 a6 8a 3e 4c 91 64 be 76 c9 68 3c
       -0.28345853 0.2708027 -0.22321051 0.014208188
000370 7b 6d 97 3d 8a d7 4b 3e 0e fc 31 be f1 bc cd bd
       0.073939286 0.1990644 -0.17381307 -0.10045803
000380 e6 5b 7a be 7d 6f 05 bf 06 b1 90 3c 37 5a 3a 3f
       -0.24449119 -0.5212324 0.017662536 0.72793907
000390 14 8f 56 3e 64 3b 95 3e 75 45 96 3e c7 31 6b be
       0.20953017 0.29146874 0.29349867 -0.22968207
0003a0 97 12 95 3e 22 47 27 3e 05 f3 54 3e 02 5a ae bd
       0.29115745 0.16335729 0.2079583 -0.085132614
0003b0 08 59 5f 3d 54 f8 d0 3d 42 96 4d 3e ff d5 62 3d
       0.054528266 0.10203615 0.2007685 0.055379864
0003c0 fa 80 7e 3e dd fb cf 3e e9 5b 6a be dd 04 40 3f
       0.24853888 0.40621844 -0.22886623 0.7500742
0003d0 90 2b 24 3e 24 4c 2f bd 49 d5 1b be a7 61 02 3f
       0.16032243 -0.042797223 -0.1521808 0.50930256
0003e0 31 a2 1f 3c 27 e5 02 bf 4c 0e 21 3d 76 66 1d 3f
       0.009743259 -0.5113091 0.039320275 0.6148447
0003f0 25 92 b5 be d0 4c ec bc 40 ff a2 3d 08 74 4a 3e
       -0.35463062 -0.02884522 0.07958841 0.19770825

xy_to_r.input_to_hidden.4.bias f4 [16]
000000 62 58 78 be 2a 4b 2f 3e 54 67 ac 3e 59 0d 34 bd
       -0.24252465 0.17118517 0.33672583 -0.04395804
000010 ee ca 33 be 6f 54 8e bb 8f 19 e5 bd 8e 70 a3 bd
       -0.1755788 -0.0043435614 -0.111865155 -0.079804525
000020 a7 81 22 be 1d 92 11 3e a9 44 a6 bd e0 f4 03 ba
       -0.15869771 0.14215894 -0.08118565 -0.00050337426
000030 20 17 71 be 72 34 9d bc 8a d2 48 be c1 ff 5a be
       -0.23543978 -0.019190047 -0.19611564 -0.21386625

r_to_mu_sigma.r_to_hidden.weight f4 [16, 16]
000000 e2 95 d8 be d8 74 bf 3e 9b 46 a1 3e 91 4a 8d be
       -0.42301852 0.37393832 0.3149918 -0.27595952
000010 62 44 0e be 33 28 ad bd 74 73 1c bd d5 13 17 be
       -0.13893273 -0.08454933 -0.038196042 -0.14753659
000020 86 93 69 be 04 08 97 bd 66 04 72 bd 98 41 81 3e
       -0.22810182 -0.07374576 -0.059086226 0.25245357
000030 f6 37 78 3d 3f dd 82 be ca a9 89 3e 92 d1 fe be
       0.060600244 -0.25559422 0.2688735 -0.49769264
000040 2f 06 08 bd 27 61 ef bd e2 e3 60 3e 68 ec 00 3f
       -0.033209022 -0.11688452 0.2196193 0.5036073
000050 04 c4 d4 be 2e 51 42 bd 7e e6 44 bf e8 05 ee 3e
       -0.41555798 -0.0474407 -0.76914203 0.4648888
000060 8d 27 2a 3d 1b ee fe 3e 2a 39 36 bf d3 23 44 3e
       0.041541625 0.49791035 -0.71180975 0.19154291
000070 33 e4 17 bf 82 57 fd 3d c4 46 6f be 3e 66 32 3f
       -0.5933258 0.123702064 -0.23366839 0.6968726
000080 1b 0d 06 bd 2f a3 03 bf 8d e3 ce 3c 9d 33 bd 3d
       -0.032727342 -0.51420873 0.025254989 0.0923836
000090 42 64 b9 3e 16 4f f2 3e 4d a7 42 3f 8b 72 a2 be
       0.36209303 0.47325963 0.7603653 -0.31728014
0000a0 a7 58 37 be 9a 9c 18 bf b2 2c 01 be ef 01 95 bf
       -0.17904912 -0.59613955 -0.12614706 -1.1641215
0000b0 82 9c 0b be da 3c 35 3f 07 78 74 3e a9 c5 8c be
       -0.13633922 0.7079598 0.23873912 -0.27494553
0000c0 d4 ef 7d be ee 34 78 3e a0 21 c1 3e 1a ba 68 be
       -0.24798518 0.24238941 0.37720966 -0.22727242
0000d0 cc 83 4e be 73 46 0c be 24 b8 1d 3e d7 53 f1 bd
       -0.20167464 -0.13698749 0.15402275 -0.11783569
0000e0 4a 5c d7 bd de 8a 8a 3e 4b c3 cf bd b4 df 16 3e
       -0.105156496 0.27059072 -0.10144671 0.14733773
0000f0 d5 1e 54 3e 75 5b 5e be 3d c1 df 3d ef 20 bf 3e
       0.20714886 -0.21714576 0.10925529 0.37329814
000100 90 e5 8b be f2 bc 74 3e 05 24 a9 3e 25 78 d5 be
       -0.2732358 0.23900202 0.33035293 -0.41693226
000110 e4 06 77 bd ba fc 84 be a9 ae 62 bd fe ac 17 be
       -0.060309306 -0.25974065 -0.05534235 -0.14812085
000120 c3 43 56 bd 34 ef 39 3d ab 71 b0 3d b1 ef 10 3e
       -0.052310716 0.045394138 0.086154304 0.14153935
000130 4a 94 98 bd e1 3e 7c be 9a 7f a4 3e 9a fe 82 bf
       -0.07450159 -0.24633361 0.32128602 -1.0233948
000140 c8 46 b1 be 86 45 9e 3e 5a 7c 52 3e d9 fc c4 be
       -0.34624314 0.30912417 0.20555249 -0.38474157
000150 ba c0 52 be d7 dc cb bd c1 e6 1d be a3 12 3e 3d
       -0.20581332 -0.09954231 -0.15420057 0.046404492
000160 d1 b1 8b be 51 06 cb bd 6e a3 0c be dd dc 9a 3d
       -0.272841 -0.09913314 -0.13734218 0.075616576
000170 d1 07 96 be d3 e7 99 be a8 7e d2 3d 48 85 08 bf
       -0.29302838 -0.3005968 0.10278064 -0.5332837
000180 65 36 5a 3e 11 ba fe bd c5 0b 52 bd 1c 38 a0 3c
       0.21309812 -0.12437833 -0.051280756 0.019558005
000190 14 24 3b be f8 60 90 be b9 de b7 be bc 92 1f 3f
       -0.18275481 -0.2819898 -0.3591211 0.62333274
0001a0 0f c7 63 be 3b 3a bc bd 5c 2a 35 be 3e b1 ea 3e
       -0.22243904 -0.09190794 -0.1769194 0.4583835
0001b0 30 03 9f bd ac 4b 0e be 43 f3 43 3e 48 d7 20 3f
       -0.0776428 -0.13896054 0.19135766 0.62828493
0001c0 42 29 2d 3e ea bf 57 be 9a b9 3f be 1e bd 4c be
       0.1691027 -0.21069303 -0.18723145 -0.19994017
0001d0 ca bc 2f 3e 0e 39 3e be 82 2b 1d be 5c 97 13 3e
       0.17161861 -0.18576452 -0.15348628 0.14413208
0001e0 6e 44 3c 3e 00 ae 02 3d a0 55 eb 3c 90 d3 a8 3d
       0.18385479 0.03190422 0.028727353 0.08243477
0001f0 f4 19 05 3e ee 6e 64 be 86 c5 79 be ce f7 67 be
       0.12998182 -0.22307941 -0.24391755 -0.22653124
000200 55 1c a8 bc 7b bc f1 3c 70 50 19 be 04 80 a8 3e
       -0.020521322 0.02950882 -0.1497209 0.32910168
000210 80 35 61 3d 34 28 f4 bd 3c e6 16 bf db 0e b8 3e
       0.054982662 -0.11921731 -0.5894506 0.35948834
000220 81 d5 73 be 5c b1 42 3e 4c c9 a5 be dd d8 80 3e
       -0.23811914 0.1901297 -0.3238014 0.25165454
000230 9a 4f 1f be f4 eb a2 3c 6f 30 ed be 90 db ee 3e
       -0.1555771 0.019887902 -0.46326014 0.46651888
000240 4b 1a 67 be 6c 22 d6 3d 45 ba b1 3d 7a bf d0 3c
       -0.22568624 0.10455784 0.08678106 0.025481928
000250 8b 8a 87 be ef 4a 12 bd 98 4c 66 3e 2e 73 c2 3d
       -0.26472887 -0.035715993 0.22490156 0.09494625
000260 98 91 ba be 55 3d 60 be a2 d6 32 3e 57 13 f3 bb
       -0.36439204 -0.21898396 0.17464688 -0.007418077
000270 d2 ca 85 3e 23 e3 c9 bd 9f 81 08 3e 06 ba f8 3e
       0.26131302 -0.09857776 0.13330697 0.48579425
000280 93 ad 9f be 47 32 2d bc 92 e5 fb bd 04 ed c7 bd
       -0.31187114 -0.010571069 -0.122996464 -0.09762004
000290 02 8e b3 3d fb 27 c1 3e ac 32 93 3e ba 70 28 bd
       0.0876732 0.37725815 0.28749597 -0.04112313
0002a0 ae 9b 8e be 75 9d a6 be c6 d0 2d 3e 7d f7 6b be
       -0.2785315 -0.32542005 0.16974172 -0.23043628
0002b0 d7 61 8c be dd 68 07 3e 66 a1 2e 3e 35 35 87 bf
       -0.27418396 0.13223596 0.17053756 -1.0563112
0002c0 08 24 d4 3c 20 f8 ad 3e dc ab ba 3e c6 1b 86 be
       0.025896087 0.33978367 0.36459243 -0.26193064
0002d0 4a e2 bf be 28 3e 09 bc 9d 9a 36 bd c3 d4 ea 3c
       -0.37477332 -0.008376636 -0.044581044 0.028665906
0002e0 12 6b 92 3b 9a e8 c0 3d bf 61 e2 3d 05 f4 a6 3e
       0.00446833 0.09419365 0.110538 0.32608047
0002f0 2d 6e a9 3d 71 63 fe bd 92 e7 50 3d 23 e1 5a be
       0.082729675 -0.12421311 0.051002093 -0.21374945
000300 8a 79 c1 bd c9 a0 a5 3d 5f da 4b be ba a9 66 3c
       -0.0944701 0.08087308 -0.1990752 0.014078552
000310 ca 74 ca bd b5 1e 1e 3e 7e 78 80 be c3 45 39 bd
       -0.09885557 0.15441401 -0.25091928 -0.045232546
000320 10 77 32 3d ef 72 e4 bd d0 c4 5c 3e f6 64 c6 bd
       0.043570578 -0.11154734 0.21559453 -0.096872255
000330 62 27 03 be 42 72 82 3e 29 21 b1 3d 2b 42 4a be
       -0.12807992 0.25477797 0.08648903 -0.19751804
000340 c1 cb ab be 34 2b b1 3a 5f c2 16 3f 29 94 a1 3e
       -0.3355389 0.0013516904 0.58890337 0.3155835
000350 e3 1e f5 be dd d0 11 3f a1 9e 94 be 80 6f fe be
       -0.47875127 0.56959325 -0.29027274 -0.49694443
000360 9d 32 96 be 86 92 06 bf d7 11 46 3e ac d0 21 3f
       -0.2933549 -0.5256733 0.19342743 0.63209033
000370 30 7f 8f bd 20 c0 9b bd 04 3b aa be 2a 73 9e 3f
       -0.07006681 -0.07605004 -0.3324815 1.2378895
000380 84 28 87 bd ae 04 cc be 40 9f 35 3e 10 a0 ab 3e
       -0.065995246 -0.3984732 0.1773653 0.33520555
000390 da 15 ab 3e c1 32 48 3f 21 2d 94 3f ab d4 dc be
       0.3341511 0.78202444 1.1576272 -0.43131003
0003a0 1f a3 b1 3d 9b ad d5 be 1c 05 96 3e f5 57 d7 be
       0.08673691 -0.41734013 0.29300773 -0.42059293
0003b0 d8 00 2e 3e ce 88 11 3f 1c f8 a2 be 16 00 50 be
       0.1699251 0.5684937 -0.31829917 -0.20312533
0003c0 08 fc 73 be 07 2c 55 be 77 1c fb 3e c8 57 35 be
       -0.23826611 -0.20817576 0.49045154 -0.17709267
0003d0 d4 92 ae be 81 1d d9 3e 5b d7 30 3e 7a 27 f6 be
       -0.34096396 0.42405322 0.17269652 -0.48076993
0003e0 71 2c eb be c8 f4 96 bd 3d d4 6f 3e c3 90 17 3e
       -0.45932344 -0.07370907 0.23420806 0.14801316
0003f0 a6 1f bf 3d 89 27 43 be f9 f0 56 bd 3d e8 5c 3f
       0.09332208 -0.1905805 -0.052475903 0.8629187

r_to_mu_sigma.r_to_hidden.bias f4 [16]
000000 f0 56 f4 3d 23 e4 22 3e 72 d2 a5 3d 28 59 99 3e
       0.119306445 0.1590734 0.0809678 0.29950833
000010 d4 af 8d bc 24 43 22 3d 0c 90 82 be 10 3c 1e be
       -0.017295755 0.03961481 -0.25500524 -0.154526
000020 c0 17 de 3d 7d 1a 41 3d 96 7c 2c 3e 7c 03 43 be
       0.10844374 0.0471444 0.16844401 -0.19044298
000030 5b df 77 be 8b bd 95 3c 60 ba 58 3e 21 b1 2d 3e
       -0.24206297 0.018278858 0.21164846 0.169621

r_to_mu_sigma.hidden_to_mu.weight f4 [4, 16]
000000 b2 fb 1e 3e 34 ce 7a 3e 8f 7a c7 be dc 66 5d 3e
       0.15525702 0.24492723 -0.38960692 0.21621269
000010 58 48 3c 3e e5 4f d7 3d e8 84 0a bf 10 88 82 bd
       0.18386972 0.105132855 -0.5410905 -0.06373608
000020 25 07 e0 3d 88 e0 8b 3d e8 5e 98 3c 57 ba 05 be
       0.10938863 0.06829935 0.018599942 -0.13059364
000030 7a 98 67 3d 1b 9c 44 bd 60 4a 74 be a1 38 e4 bd
       0.056541897 -0.048000436 -0.23856497 -0.111436136
000040 44 66 98 be ae 8a df 3e 8f 14 85 3e 99 5e 48 be
       -0.29765522 0.43660492 0.25992247 -0.19567336
000050 2e 27 00 be da 76 66 be 0f 63 00 be 74 f1 48 be
       -0.12514946 -0.22506276 -0.12537788 -0.19623357
000060 30 3f 57 3f 9f 44 67 be a3 1b fd bd 88 65 1f 3f
       0.8408079 -0.2258477 -0.12358787 0.622643
000070 16 d1 36 bb 6d 68 61 be fb 88 d7 bd 6f 5f b3 be
       -0.002789562 -0.22012492 -0.10524174 -0.35033748
000080 5e 3e 8b 3b 96 a5 d8 3c 98 2e 12 3e 92 7d 8d be
       0.004249378 0.026446145 0.14275587 -0.27634865
000090 84 0f 2e be 5c 54 89 be bd 99 16 3e 10 f9 7f bd
       -0.16998106 -0.26822174 0.14707084 -0.062493384
0000a0 ae 58 fb 3e d8 4e 04 3e 58 48 5e bd fe df c3 3e
       0.49091095 0.12920702 -0.05426821 0.3825683
0000b0 5d 2a f3 3d 88 1c 05 be 41 54 89 3d 62 05 cc bd
       0.118733145 -0.12999165 0.06705523 -0.09961964
0000c0 bf 3a 6a be 2a 80 0e bf d5 67 2b 3f 70 0b f0 bd
       -0.22873972 -0.5566431 0.6695531 -0.117209315
0000d0 70 c1 a0 be 0e ff 8b be 67 26 71 3f 14 af f5 bd
       -0.3139758 -0.2734303 0.9419922 -0.11996284
0000e0 03 fb 40 bf bb 95 33 be be 5b bd 3d 37 94 8e 3e
       -0.75383013 -0.17537586 0.09246014 0.27847454
0000f0 e2 d4 a0 bd 5e 69 8c 3e 41 de 38 3f 54 cb 89 3d
       -0.07853104 0.2742414 0.7221413 0.06728235

r_to_mu_sigma.hidden_to_mu.bias f4 [4]
000000 cd f5 d2 3d 05 b6 e6 3d 6b 16 85 be ad 35 b8 3e
       0.10300789 0.11265186 -0.25993666 0.3597845

r_to_mu_sigma.hidden_to_sigma.weight f4 [4, 16]
000000 ad f7 20 3e 6b 91 bc bf 3f d4 8b 3f b0 e3 46 be
       0.15719481 -1.4731878 1.0924147 -0.19422793
000010 1b d5 e4 3e 34 85 cf 3e 47 be 69 3f 88 65 52 3e
       0.44693837 0.40531313 0.91305965 0.20546544
000020 44 68 30 3f 4d ff 94 be 2b 9f 0d 3f 3f aa 50 bd
       0.68909097 -0.2910103 0.55320996 -0.05094361
000030 c4 ab 48 bc 90 b3 a6 bf 8f 28 3e bf be 54 28 bf
       -0.012247983 -1.3023548 -0.7428064 -0.65754306
000040 d1 54 39 3e fc ae 51 3f 87 77 91 3f 48 5a 0c bd
       0.18098761 0.8190763 1.1364602 -0.034265786
000050 3c 68 13 3e 71 17 01 3f df 02 c6 3e 90 9d cd 3d
       0.14395231 0.50426394 0.38674065 0.10039818
000060 31 a8 37 bf 6c 3c 1f bf 1f 08 31 40 66 60 6f be
       -0.71741015 -0.6220157 2.7661207 -0.23376617
000070 1c 06 ee bd f2 f8 3e c0 3f c1 30 c0 b8 48 fd bf
       -0.11622259 -2.9839444 -2.7617948 -1.9787817
000080 db 73 30 3e 16 22 1d 3c dd 25 0d bf 0b 67 44 be
       0.17231695 0.009590646 -0.551359 -0.19179933
000090 5f c7 03 3f 71 dd b8 3e a2 9b 96 3e dc 45 ff 3d
       0.5147609 0.36106446 0.29415613 0.124644965
0000a0 ec 1a e8 be 27 b2 10 bf 53 01 df 3f a4 50 d3 be
       -0.4533304 -0.5652184 1.7422279 -0.4127246
0000b0 b0 e0 5a 3d d1 9a 19 c0 49 8a 23 c0 41 26 c2 bf
       0.053436935 -2.4000742 -2.5553153 -1.5167924
0000c0 93 4d fd 3e e5 4b 2b bf 75 7e b8 3f 62 50 db be
       0.49473247 -0.6691268 1.4413592 -0.42834765
0000d0 45 38 bb 3e 7d 41 5a 3e 94 92 44 3f f8 da 05 bd
       0.36566368 0.21314044 0.7678616 -0.032679528
0000e0 b4 4f e5 be 96 79 c8 be 9f fb 9f 3f aa bb bd 3e
       -0.4478737 -0.39155263 1.2498664 0.3705724
0000f0 1d 45 0b 3d 1d 41 e8 bf cb 4c 41 bf b6 f0 af bf
       0.03400146 -1.8144871 -0.755078 -1.3745334

r_to_mu_sigma.hidden_to_sigma.bias f4 [4]
000000 69 8d 92 bf 1c dd 84 3f fc d9 c8 3e 64 6e 6b be
       -1.1449405 1.0379977 0.3922881 -0.2299133

xz_to_y.xz_to_hidden.0.weight f4 [16, 5]
000000 33 3e cf 3e d4 fb 90 be cb 0b 0d 3f 10 9c 38 3e
       0.40477142 -0.2831713 0.5509612 0.18028283
000010 88 c8 dd 3e 35 13 b4 bf 2c 31 99 3e 2c 0e 82 3d
       0.43317056 -1.4068362 0.29920328 0.06350359
000020 a9 17 f0 bd 2b 5d 18 bf 9e 92 51 3e 3a c3 47 3e
       -0.11723263 -0.59517163 0.20466086 0.19508067
000030 be 98 3d be 76 7b 6c be 6d 9b 74 be 5a 79 15 3f
       -0.18515298 -0.23093972 -0.23887415 0.5838829
000040 3c 85 31 be 6d b9 8b be 01 90 83 3d 84 b2 9a 3e
       -0.17335981 -0.27289906 0.06423951 0.30214322
000050 ff 1b ab 3f d4 6c e5 3d 19 99 9c 3e 46 34 07 3e
       1.3367919 0.11202398 0.30585554 0.13203534
000060 68 78 c5 be 03 55 1f 3f 0e 2f 3e 3e 57 41 82 be
       -0.38568425 0.6223909 0.18572637 -0.25440475
000070 55 0e 93 be ea f3 03 3e 1f 6f 49 bf 41 9a 22 3f
       -0.28721872 0.12886015 -0.7868518 0.6351662
000080 6f cb 5f 3d 83 a4 93 be 60 39 87 bf e3 84 fa 3e
       0.05463737 -0.2883645 -1.0564384 0.4892951
000090 78 50 48 be 3e 51 52 3f e7 97 24 3f 3d 66 7f 3e
       -0.19561946 0.82155216 0.64294285 0.24941345
0000a0 6d f8 a0 bc 65 23 6f bd 34 50 8a be bf f0 38 be
       -0.019649709 -0.058383364 -0.27014315 -0.18060587
0000b0 42 f7 1a 3e 29 65 83 3f 0c 23 ef 3d 58 d3 92 be
       0.15133384 1.0265247 0.116766065 -0.28676867
0000c0 4d 62 0d bd 3d b7 86 bd aa c0 94 bf da 99 ca bd
       -0.034517575 -0.06577919 -1.1621296 -0.09892626
0000d0 86 93 d2 be d6 18 c5 bc 2b 61 22 3d a2 f0 a8 3c
       -0.41128176 -0.024059694 0.039643448 0.020622555
0000e0 bb 21 0c be 39 19 97 3e e2 e1 11 3e 2c 5b 21 3e
       -0.13684742 0.2951143 0.14246324 0.15757436
0000f0 a3 d9 b6 be 22 db 4f be b0 49 b8 3c 81 4c 11 3e
       -0.3571292 -0.20298436 0.022496074 0.1418934
000100 b5 bf 7d 3e aa d1 75 bf f4 5f 5c 3e 95 f8 c6 be
       0.24780162 -0.96023047 0.21520978 -0.38861528
000110 d6 0d 1b be 82 db 83 3e 2f ab cd be 6e e6 16 bd
       -0.15141997 0.2575341 -0.40169665 -0.03684085
000120 0e d6 b8 3e 37 98 72 3e 5a 84 84 bd e2 79 b8 3e
       0.3610081 0.23690878 -0.064705566 0.3603049
000130 8c c6 05 3e 89 1f 97 be b5 99 6d 3e 65 ce e9 be
       0.13064021 -0.29516247 0.23203166 -0.4566528

xz_to_y.xz_to_hidden.0.bias f4 [16]
000000 b4 60 2d bd 31 75 44 be 4f 31 6a bd 83 86 18 bf
       -0.04232855 -0.1918533 -0.05717593 -0.5958025
000010 30 50 8a bd ee f2 4e be 52 3c 22 3e ba 95 f9 bd
       -0.06753576 -0.20209858 0.15843323 -0.12186761
000020 1c 66 5d 3e d8 78 c0 be b0 ef 90 3e fb 6c 65 3f
       0.21620983 -0.37592196 0.28307867 0.89619416
000030 79 4f 08 3f d4 75 30 3d 8c 62 d8 be 86 bd c4 3e
       0.53246266 0.04308112 -0.42262685 0.38425845

xz_to_y.xz_to_hidden.2.weight f4 [16, 16]
000000 31 23 ba 3e 21 bc d2 3e 8e 2d 8e 3e 8d 80 fa 3e
       0.36354974 0.41159156 0.2776913 0.489262
000010 1c 59 95 be 72 26 0b 3e 02 73 82 3e 56 31 b0 3e
       -0.29169548 0.13588884 0.2547837 0.3441264
000020 18 f7 bc 3e 28 ed 16 3f 29 e2 cf be 6d d3 f0 be
       0.36907268 0.5895562 -0.40602234 -0.47036305
000030 0e fa 16 be e4 55 93 be a0 66 6a 3d dc b0 d2 3d
       -0.14743826 -0.28776467 0.057226777 0.102876395
000040 48 85 b1 3d 3c e9 88 3d 50 0e cc 3c b4 3d a0 bd
       0.086679995 0.06685111 0.024909168 -0.07824269
000050 28 f9 01 3d 54 83 52 be 00 1b f7 bd 52 44 70 be
       0.031731755 -0.2055791 -0.12065697 -0.23463562
000060 9c 64 87 3d d4 a5 1e be e6 5a 7f be f4 e3 8e 3d
       0.066109866 -0.15492946 -0.24937019 0.06977072
000070 a2 a2 3f be c8 08 90 3d b4 52 aa 3d 00 89 b4 bd
       -0.18714383 0.07032925 0.083165556 -0.08815193
000080 92 9e b9 3e a1 08 96 3e 68 e5 6a 3e 79 32 69 3e
       0.36253792 0.29303458 0.22939074 0.2277316
000090 c8 db 22 3e 58 9b af 3e ab 50 d6 3e 47 5a 43 bd
       0.15904152 0.34298205 0.4185842 -0.047693517
0000a0 cf 35 ad 3e 9a ca ca 3d 80 44 32 3d 2c 6c 6a bd
       0.33830115 0.099019244 0.043522358 -0.057232067
0000b0 b2 58 d0 3c 0f 66 93 3d 81 98 45 3e 57 83 85 3e
       0.025432918 0.071972005 0.19296457 0.26076767
0000c0 0b cc 90 be 44 09 74 bf a7 28 05 bd 7a 5d 36 be
       -0.28280672 -0.9532664 -0.032509472 -0.17809096
0000d0 96 61 84 be ee 05 da 3c bf 18 96 bf bd 9b 17 3d
       -0.25855702 0.026614156 -1.1726302 0.037013758
0000e0 73 85 9c 3a 51 fe e6 be 34 95 c8 3e c0 02 8b 3e
       0.0011941626 -0.45115903 0.39176333 0.27150536
0000f0 5b 30 ab 3e 3f 31 ed 3e dc 19 c9 3d 01 71 3f be
       0.3343533 0.46326634 0.098193854 -0.18695451
000100 57 e9 a2 bd 72 8c 6c bc 3a db 84 bd 39 35 51 bf
       -0.07954662 -0.014437782 -0.06487127 -0.81721836
000110 f9 13 90 3f 72 5f 01 3e 8a a4 bd be 75 dd 3c 3f
       1.1256095 0.12634066 -0.37039596 0.73775417
000120 33 79 21 3e 75 82 76 bb 44 3a 84 3e ab 44 ee ba
       0.1576889 -0.003761438 0.25825703 -0.0018178424
000130 97 cb 00 3f 8c 92 5c 3e 9e d3 a7 bd 37 85 98 bd
       0.50310653 0.21540278 -0.0819466 -0.07447284
000140 70 83 be 3e e7 b4 6b 3d 43 4a c5 3b 7c 0e ee be
       0.37209654 0.05754557 0.0060208156 -0.46495426
000150 18 e6 81 bf 2b 41 57 3e ee 6f 75 3d 7d e2 cd be
       -1.0148344 0.21020953 0.059921198 -0.4021186
000160 a8 35 e7 3d ea b1 af be 16 22 4f 3f d9 a4 ef 3d
       0.11289531 -0.34315425 0.80911386 0.11701364
000170 74 eb 6c be cd b2 c9 3d 9b 96 9a 3c db 05 b9 3e
       -0.23136693 0.09848557 0.018870642 0.3613728
000180 ce 62 a1 3e e7 f0 42 3d 88 28 a9 3d 55 5f e4 be
       0.31520694 0.047593024 0.08259684 -0.44603983
000190 78 2b 6d be e4 56 99 be 8d b1 3c 3e 5e 47 3e be
       -0.23161113 -0.29949105 0.18427105 -0.18581912
0001a0 d1 31 a5 3d 27 70 23 bf da 7c 88 3e b2 28 1d bf
       0.08066142 -0.63843006 0.26657754 -0.6139022
0001b0 13 95 12 3e c7 50 9e 3e be 3d 57 3e 2b 40 2b 3c
       0.1431468 0.30921003 0.21019647 0.010452311
0001c0 21 2f ad 3e a0 e0 0e 3e 47 d6 a3 bd bc 02 8a 3e
       0.3382502 0.13952875 -0.079998545 0.2695521
0001d0 d0 62 67 3e 29 7a 81 3d 79 4b 08 be d5 e5 3d 3f
       0.22596288 0.06322128 -0.1331004 0.7417882
0001e0 4f 4c 38 3e 74 f8 4b be 40 aa 2c 3f 91 f0 94 3e
       0.1799786 -0.19918996 0.6744728 0.29089788
0001f0 02 95 f5 3e e4 89 b7 3e 4d 36 55 bd 50 98 cf 3d
       0.47965246 0.3584739 -0.05205374 0.10136473
000200 75 eb 03 3e cd 83 53 3f db b7 a4 be fe 23 d8 3c
       0.12882788 0.8262299 -0.3217152 0.02638435
000210 ef 4f 0a 3e 3b 96 36 bc c4 cb c4 be 66 ca dd be
       0.13507055 -0.011144216 -0.3843671 -0.4331848
000220 60 fa 40 3e 42 4e d2 be 36 b1 ff 3e 87 fe 1c be
       0.1884551 -0.4107533 0.4993989 -0.1533147
000230 21 41 12 3f f7 26 9d 3e 93 94 0a 3d 13 be a1 be
       0.5713063 0.3069379 0.033833098 -0.31590328
000240 56 6a 7b 3f 44 b5 7f 3c 38 25 8a 3e cf 82 40 3e
       0.9820913 0.015607182 0.2698152 0.187999
000250 10 77 30 bf f8 b1 5a be 79 7b 5a 3e 98 ef 20 bd
       -0.68931675 -0.21356952 0.21336164 -0.039290994
000260 4a ad 10 be d7 16 92 be 14 10 1b 3f 09 ee 02 bf
       -0.14128605 -0.2853305 0.6057141 -0.5114446
000270 4f f1 33 3e 32 44 df 3e 0a ef 0e be 74 d5 a0 bd
       0.1757252 0.43606716 -0.13958374 -0.07853213
000280 37 4b d7 bb 3d db 71 3f d8 46 de bd 11 49 d0 be
       -0.0065702456 0.94475156 -0.10853356 -0.40680745
000290 b3 91 3b 3e c7 85 13 be f9 ba e8 be 5f 1f 9f 3e
       0.18317299 -0.14406501 -0.4545515 0.31078622
0002a0 df 1e 6e 3e 4e cd d1 be 05 af 9e 3d 30 77 a9 bc
       0.23253964 -0.40976948 0.07748226 -0.020686716
0002b0 ce cf eb 3e 54 bd bc 3e 1c 27 17 3e 58 80 23 3d
       0.4605698 0.36863196 0.14761013 0.03991732
0002c0 85 27 44 bd cc 0b aa bd e6 88 71 be 3f e0 6e 3e
       -0.04788925 -0.08303031 -0.23587379 0.2332773
0002d0 ce d5 3e be 91 4c bd bd 4c 8d ac 3d ec 41 9b bd
       -0.18636248 -0.092431195 0.08425388 -0.07580933
0002e0 22 df d8 bd e4 da c9 3d 04 80 fb 3c 19 97 10 be
       -0.10589434 0.09856203 0.030700691 -0.14120139
0002f0 ee cf 4b be b5 dd 18 3e 40 21 7e bc b3 89 3b be
       -0.19903538 0.14928325 -0.015510857 -0.18314247
000300 73 a9 6a be 4a 19 d4 bc 88 78 b8 3c 7b fb b9 bd
       -0.22916202 -0.025890965 0.022518411 -0.09081169
000310 d3 92 15 3e b1 eb 89 3d 34 da f9 bc 33 18 6a be
       0.1460679 0.06734408 -0.030499555 -0.22860794
000320 58 21 44 be 37 b7 02 3e c5 12 19 3e 7e 56 7b 3d
       -0.19153345 0.12765203 0.14948566 0.061361782
000330 d4 b9 ca bd 70 23 cc bd f9 89 58 3e 0b 6c 8e be
       -0.09898725 -0.09967697 0.21146382 -0.27816805
000340 40 fb 6b be cd 03 2b bf 7f e4 aa bd 6c f2 eb be
       -0.23045063 -0.66802675 -0.083443634 -0.4608339
000350 e1 6d 09 be 2c 35 81 3e cb 96 9f 3c b6 10 a6 3e
       -0.13420822 0.2523588 0.019481083 0.32434624
000360 0e da a5 bc 01 18 99 bd 10 a0 2c 3e f1 2c e2 bd
       -0.020245578 -0.074752815 0.16857934 -0.11043728
000370 ac c9 54 3d 4e 97 cd be e1 63 6a be 80 db a5 3e
       0.05195014 -0.401545 -0.22889663 0.32394028
000380 02 41 47 be 4c dc 80 be f3 9f c8 bc 28 8e 83 3e
       -0.19458392 -0.25168073 -0.024490332 0.25694394
000390 14 53 44 3f cf 19 2e 3e 59 79 54 be b3 de 9b 3c
       0.7668927 0.17002033 -0.20749415 0.01902709
0003a0 8c e5 e5 bc 51 3a e5 3e fd 3d bb be f9 10 8d bd
       -0.028063558 0.44771054 -0.3657073 -0.06888003
0003b0 bb f0 27 3e 12 f4 92 be 65 3b 15 3e 89 4e 04 bc
       0.16400425 -0.28701836 0.14573438 -0.008075365
0003c0 90 d0 d8 3e 68 47 ae be d7 6e e4 bd 59 ce 2e bf
       0.4234662 -0.34038854 -0.111539535 -0.6828361
0003d0 77 94 fc 3c c2 04 43 3d b0 51 59 3d 35 7d 44 3f
       0.030832512 0.04761196 0.05305642 0.7675355
0003e0 f0 23 48 3d e5 75 1b be 78 d1 c4 3e 26 ac e0 3e
       0.048862398 -0.15181692 0.38441062 0.4388134
0003f0 83 e8 c3 3e 8d 9f b6 3d 6e 17 74 be a7 31 4c 3d
       0.3826333 0.08917151 -0.23837063 0.04985204

xz_to_y.xz_to_hidden.2.bias f4 [16]
000000 4f 57 30 be 80 e0 74 be 2b 70 68 be 07 ca f7 3e
       -0.17220806 -0.23913765 -0.22699039 0.48396322
000010 25 c9 4e 3e 44 cd 3f 3d 8a 61 ba 3e ee 91 8b 3e
       0.20193918 0.046826616 0.3640254 0.27259773
000020 36 6c 0d 3e eb 00 ff 3d d8 9d 5c 3e af 35 68 bd
       0.1381081 0.12451347 0.21544588 -0.05669182
000030 40 f3 1c be 5a 04 0d 3f 4c 92 ff 3d 1d a8 6d 3e
       -0.15327168 0.55084765 0.12479076 0.23208661

xz_to_y.xz_to_hidden.4.weight f4 [16, 16]
000000 bd c4 c4 3e 50 85 bd 3d b6 51 08 3e bc 59 a7 be
       0.3843135 0.09253943 0.1331242 -0.3268565
000010 fe 9e 37 be 2a 57 af be 1d 43 b1 bf 6a da 3e be
       -0.17931744 -0.34246188 -1.3848606 -0.18638006
000020 9a 29 87 be 59 9f 73 bf 9d 29 77 be c0 25 fe bb
       -0.26398927 -0.9516502 -0.24136968 -0.007755965
000030 a9 9b a6 bc 08 de 37 3d 56 cb 8f 3e 0e f4 56 3e
       -0.020337896 0.04488948 0.2808482 0.20991537
000040 76 b3 24 be 32 15 3d 3e c2 92 15 be 62 67 6a 3e
       -0.16084084 0.18465117 -0.14606765 0.22891
000050 ae c7 00 be 38 24 cc 3d d8 27 4d 3d 90 a2 49 bd
       -0.12576172 0.09967846 0.050086826 -0.049227297
000060 54 19 4a be 40 fa 31 3e 16 61 21 be d8 d7 1c 3e
       -0.19736224 0.17380619 -0.15759692 0.15316713
000070 16 64 21 be 20 e8 1a bd 60 00 22 be 32 74 34 be
       -0.15760836 -0.037819028 -0.15820456 -0.1762245
000080 7a 67 02 be 40 bf 92 3d 4b 37 33 b9 c9 3e b1 3e
       -0.12734786 0.07165384 -0.00017091368 0.34618214
000090 10 df 90 3d 60 47 7a bd 89 8b ca 3d b5 17 80 3e
       0.07073796 -0.061103225 0.098898955 0.25018087
0000a0 ab a2 94 3e e1 ea 4d be cc 83 82 3d 07 6b 96 3c
       0.29030356 -0.2010913 0.063727945 0.018361581
0000b0 93 9f f6 bd d2 59 ea 3e ce bb db 3d a9 43 1e 3e
       -0.12042155 0.45771652 0.1072918 0.15455498
0000c0 df cd 1b bf 6a b9 3c 3e 71 45 0d bc 44 9b f8 3e
       -0.6086101 0.18430105 -0.008622513 0.48555958
0000d0 13 ca 79 bd 78 9e 18 3f be f0 91 bd fb ea b5 bd
       -0.06098373 0.59616804 -0.07125996 -0.088827096
0000e0 66 2b bf 3e b0 00 90 3e a2 c8 d9 3e 44 e3 c4 3d
       0.37337798 0.28125525 0.42535883 0.0961366
0000f0 22 84 8f bd 93 c3 65 3e 8b e2 1f be 46 45 d0 3e
       -0.07007624 0.22437887 -0.15613763 0.4067785
000100 d1 9b 9e 3d 0a dc 42 be 5a 4a f2 bd fa fa 87 be
       0.07744563 -0.1902925 -0.11830588 -0.26558667
000110 b3 fc a3 bd 1c 70 8d bc 24 7d 57 be a2 49 54 be
       -0.08007183 -0.017265372 -0.21043831 -0.20731214
000120 5c b6 2f be fc e3 66 3e 4a 7f 0e 3e cc 8a 80 3d
       -0.17159408 0.22547907 0.13915744 0.062764734
000130 de b3 79 be b8 37 57 bc 14 ef 5f be fa 05 b1 bd
       -0.2438502 -0.013135843 -0.21868545 -0.08643718
000140 ca f7 07 be 40 0a 3f bc 01 22 86 be 58 73 75 3f
       -0.13278118 -0.011660159 -0.26197818 0.95879126
000150 d0 1c bd 3e f8 7b eb 3c 01 ee c0 3d 5e b9 36 be
       0.36936045 0.028745636 0.09420396 -0.1784415
000160 7f bb a0 3e e6 4b d8 3e 10 a5 cb be aa 3a 06 3e
       0.31393048 0.42245406 -0.3977437 0.13108316
000170 6e 16 19 3d b8 4c 41 3f e8 b3 fa bd 2d 58 a6 3e
       0.037374906 0.7550769 -0.12241346 0.32489148
000180 35 d6 77 3d d0 4d 6b bd f9 07 f5 bd 97 1e b4 3e
       0.060507018 -0.057447255 -0.11964411 0.35179588
000190 2e 54 87 3f 58 29 82 bf 06 71 5a c0 6e 3d 5c be
       1.0572565 -1.0168867 -3.4131484 -0.21507809
0001a0 cd 73 45 bf 43 06 a4 3e 03 25 92 be 30 4e 9e bc
       -0.7712982 0.32036027 -0.28543863 -0.019324392
0001b0 bc 74 bc 3d b4 f3 c7 3e 72 68 dd 3e 28 f4 fc be
       0.09201953 0.39053118 0.43243748 -0.49405026
0001c0 15 30 90 bd 54 59 1b 3e 30 49 06 3d 34 26 a7 bd
       -0.07040421 0.15170795 0.03278464 -0.081615835
0001d0 8b ce 81 be 26 b9 95 be 56 e3 27 bd 5f e8 50 3d
       -0.25352892 -0.2924282 -0.04098829 0.051002856
0001e0 62 a8 bc 3d ff 68 35 bd 94 1b 5a be 6c f2 f0 3d
       0.09211804 -0.044289585 -0.21299583 0.11764988
0001f0 86 28 13 be cb 76 32 be 14 a2 0a be 3a 03 f9 bd
       -0.14370927 -0.17428128 -0.1353839 -0.121588185
000200 c0 d7 96 3c 80 28 50 bb e8 9a f4 bd 3a cd 7c be
       0.018413424 -0.003176242 -0.119436085 -0.24687663
000210 64 0c 9e bd 0c 6f a5 3d e0 ec b2 bc 1c 87 d0 3d
       -0.07717207 0.08077821 -0.021841466 0.1018202
000220 ca e6 6a be a0 08 42 bc 9c bf d1 bd 96 6f 64 3e
       -0.22939602 -0.011842877 -0.10241625 0.22308192
000230 de 4f 70 3e 18 1e 5d be 70 8c f3 bd 68 1d f2 bd
       0.23467967 -0.21593511 -0.11892021 -0.11822015
000240 f0 61 cd 3e 90 3b 4f be 9b 69 94 3e 73 0c 81 be
       0.40113783 -0.20237565 0.2898682 -0.2520481
000250 41 31 43 3e 9d 22 16 bf 30 7c b8 3d 61 19 58 3e
       0.19061758 -0.58646566 0.09008062 0.21103431
000260 42 db 92 3d 3e 3f ad be b6 c0 45 bf 48 a0 2d bd
       0.07170726 -0.33837312 -0.7724718 -0.042389184
000270 ce 33 16 bd c4 ea 0f 3e 62 2c c7 3c c5 fc a4 be
       -0.0366705 0.140544 0.024313156 -0.32224098
000280 26 fb 43 3e 40 d3 dc bd 68 29 92 3e 32 5f cc 3c
       0.19138774 -0.1078248 0.28547215 0.024947736
000290 e9 97 a5 be 64 02 f9 3c 57 93 a0 3d 1d 9a e9 bd
       -0.3234246 0.030396648 0.07840603 -0.11406348
0002a0 68 7a 16 3f dd 9e f8 bb 53 5b 35 c0 a7 16 7b be
       0.5878053 -0.0075872974 -2.833699 -0.2452036
0002b0 49 6e 07 3e 7e 45 b1 be 30 62 7d 3e 20 08 91 be
       0.13225664 -0.3462333 0.24744487 -0.2832651
0002c0 5e 54 0d bf 40 04 a1 bc f8 10 0a bf b0 ce 55 3f
       -0.5520686 -0.019655347 -0.5393214 0.83518505
0002d0 d9 c4 19 be e7 83 11 3e 30 5a 1e 3f f0 ef 89 3c
       -0.15016498 0.14210473 0.61856365 0.016838044
0002e0 89 76 3d 3f b1 17 f9 3e 71 c4 d9 3e 7e 1d 67 be
       0.74008995 0.48650888 0.42532685 -0.22569844
0002f0 07 31 0c be de 9d d3 be b1 88 c8 3e 7e cd 63 3d
       -0.13690577 -0.4133138 0.39166787 0.055615894
000300 63 b4 3f 3e 0c 03 b7 bd 42 59 77 3e 97 64 e1 3d
       0.18721156 -0.08936128 0.24155143 0.11005514
000310 b2 22 6d be d4 7f 9b 3d 03 50 62 be dd 5d 9b 3d
       -0.23157766 0.07592741 -0.22100835 0.075862624
000320 9b cc 91 3d 80 b6 68 be b2 82 20 bf 9f 38 50 3d
       0.071191035 -0.22725868 -0.62699425 0.050835248
000330 03 6b 0e 3d df 12 70 3e 8a b7 97 be 79 ec 26 3e
       0.034770023 0.23444699 -0.29632217 0.16301145
000340 4c 8a e8 be 58 36 60 bd a7 6b a9 3e c4 cc a7 3e
       -0.45418012 -0.054739326 0.33089945 0.3277341
000350 46 b4 82 3d 19 74 85 3d f2 71 8e 3e be 9c fa bd
       0.06382041 0.065162845 0.27821308 -0.122369274
000360 f7 12 a7 3d 7f b9 a3 3d de 7f 6d be 48 9d 79 be
       0.08157914 0.07994365 -0.23193309 -0.24376404
000370 b1 e8 29 be b3 90 5c 3e 9a 53 c8 bf dd db a3 bd
       -0.16592671 0.21539573 -1.5650513 -0.0800092
000380 9f a0 b8 bd 14 44 80 bd 07 de 14 3e fa 7e 4e 3e
       -0.09015011 -0.06262985 0.14537822 0.20165625
000390 40 43 0d bf 7c c4 fa bd e4 ee 12 bf bd 14 8b be
       -0.5518074 -0.12244508 -0.5739577 -0.2716426
0003a0 35 29 30 be 93 21 8c bc 55 87 82 3d dc a0 fd 3d
       -0.17203219 -0.017105853 0.06373469 0.12384197
0003b0 a1 42 02 3e ab c2 eb 3e 0d 49 22 bf be b8 2a 3e
       0.1272073 0.46046957 -0.63392717 0.16672036
0003c0 5c 09 30 3d ec 35 16 3e ef bb 47 3c 28 34 c2 3e
       0.042977676 0.14669007 0.012190803 0.37930417
0003d0 74 b8 ed 3d 0b 82 a2 3d 21 d9 6e 3d 08 22 84 3e
       0.11607447 0.0793496 0.05831254 0.25807214
0003e0 1a 49 e8 be f6 17 a8 be 87 51 2b bf 3b c7 7e 3c
       -0.45368272 -0.3283078 -0.66921276 0.01555043
0003f0 2f d0 94 bd bb c4 e5 3d 7d 5a 19 bf 43 47 52 be
       -0.0726627 0.11219164 -0.599037 -0.20534997

xz_to_y.xz_to_hidden.4.bias f4 [16]
000000 de 94 df 3c 68 bf 6e be ac a7 74 3e fd 13 d9 3e
       0.027292665 -0.23315203 0.23892087 0.42398062
000010 b7 9e 3a 3e 28 de 13 3f 8d ef 71 3d d0 42 5d 3c
       0.18224607 0.5776086 0.059066344 0.013504699
000020 80 58 94 bc e5 d3 20 be 63 9b 75 3d cb 6d d1 3e
       -0.018108606 -0.15705831 0.05996264 0.40904078
000030 d0 3c 55 3e 6a d1 16 3d 5e a8 81 3e ab a7 ec 3d
       0.2082398 0.036820807 0.25323766 0.115554176

xz_to_y.hidden_to_mu.weight f4 [1, 16]
000000 77 6a 9f bf 40 85 ae 3c ed 7a 29 3e e2 51 50 be
       -1.2454365 0.021303773 0.16550799 -0.20343736
000010 f2 ad 64 bd 45 0a 38 3d b8 a9 b7 bd ec 45 01 3e
       -0.05582995 0.04493167 -0.08967918 0.1262433
000020 70 a4 85 3d 82 b7 38 3f ea 18 99 3e 4b 4c 95 bc
       0.065255046 0.7215501 0.2990182 -0.018224856
000030 68 1e ad 3e 33 2e 29 3f 7c 10 39 3f 8c 9d f9 3e
       0.3381226 0.6608612 0.7229078 0.4875301

xz_to_y.hidden_to_sigma.weight f4 [1, 16]
000000 84 5a bc bf 8a 86 79 be 8b b6 de be e7 f7 95 bd
       -1.4715123 -0.24367729 -0.43498644 -0.07322674
000010 f9 06 45 3e a1 e1 97 bf 56 e9 b8 c0 6e 87 41 3e
       0.19240941 -1.1865731 -5.7784834 0.18899319
000020 f4 f9 82 3d 2b 89 99 3e 50 d7 93 bd 07 28 6e c0
       0.06395331 0.29987463 -0.07218802 -3.721193
000030 6a 88 27 be 25 1b 58 bf bb e9 1c 40 d5 e0 07 bf
       -0.16360632 -0.8441642 2.4517658 -0.5307744
