seed-AuNP-phasemaps/pretraining/tune/128_16_64_3.58E-03_4/model.pt (torch, 178400 bytes, 20 tensors)

xy_to_r.input_to_hidden.0.weight f4 [64, 2]
000000 65 f7 ad bf 4c ed dd c0 85 67 19 be 2b 12 33 3d
       -1.3591124 -6.935217 -0.14980896 0.0437185
000010 84 fd 28 bf 01 0a 4d 3d f1 37 7e bf 5d 6f cd bf
       -0.66011834 0.05005837 -0.9930411 -1.604961
000020 3f f0 27 3e 52 a2 fd be df 10 98 bf e0 95 90 3d
       0.1640024 -0.49537903 -1.1880149 0.070598364
000030 c4 51 ab bd a3 5a 79 be 50 d6 d8 bd da d4 04 bf
       -0.08365205 -0.24350981 -0.10587752 -0.51887286
000040 82 80 45 40 42 9b ea 3e b5 78 70 bc 46 60 cd bc
       3.0859685 0.45821577 -0.014677216 -0.02507032
000050 0d 66 df be f7 89 94 3d ef c1 ca be 01 98 89 be
       -0.43632546 0.07252877 -0.39601085 -0.26873782
000060 c4 09 dc 3d 94 7d 2c 3e e7 7b 20 40 df df 32 c0
       0.1074405 0.16844779 2.5075624 -2.794914
000070 5d 73 cb be 96 b9 19 bd 03 1e 92 bf c5 c0 56 3d
       -0.39736453 -0.037530504 -1.1415409 0.052429933
000080 85 50 fc be 9d b6 66 3e 87 eb 04 c1 f2 c3 47 3e
       -0.49280182 0.22530599 -8.307502 0.19508341
000090 c8 20 4c be 5b 1e 30 bf 83 c0 5b 3f ce aa 96 bf
       -0.1993438 -0.6879632 0.85840625 -1.1770875
0000a0 fd 3c 18 c0 dd c6 ea bf 15 5e 4a 3f 45 4a de bf
       -2.3787224 -1.8341938 0.7904981 -1.7366415
0000b0 c6 45 f8 3e ea 74 3a 3e 4a af 11 3d fd 69 6d 3c
       0.48490733 0.18208662 0.03556756 0.014490602
0000c0 69 71 93 bf 91 fd 9d 3d 39 54 3b bf 36 15 f9 3c
       -1.1518985 0.077143796 -0.7317539 0.030405622
0000d0 61 1b 2c c0 ec 79 20 c0 14 6a 29 bf 49 69 0e c0
       -2.689171 -2.5074415 -0.6617749 -2.225176
0000e0 b9 2b ff 3f 38 f1 ba c0 53 cb 78 bf 67 9f 96 bf
       1.9935218 -5.8419456 -0.9718525 -1.1767396
0000f0 fd 26 24 bf 9d 51 57 3c 7b 1f ae bc 8f 8e 19 bf
       -0.6412199 0.013142017 -0.021255245 -0.5998315
000100 56 35 36 be e4 6e e0 3d 9d 05 01 c0 63 62 ca 3d
       -0.17793784 0.10958651 -2.0159676 0.09882047
000110 8b 03 8d c0 4c a5 b8 3e e0 e0 b8 3e c5 2c 01 3e
       -4.4066825 0.36063612 0.36109066 0.12614734
000120 e4 cd cf bf fe a8 fd 3d ce 73 31 c0 ce 61 8c c0
       -1.6234708 0.12385748 -2.7726932 -4.386939
000130 0c 03 78 be ed 43 8c bd dc 09 6f be 11 a5 af 3c
       -0.24219912 -0.06848893 -0.23343605 0.021441014
000140 0d c8 67 3f 88 5c 16 c0 2e bd d5 c0 31 43 91 bf
       0.9053963 -2.3493977 -6.679343 -1.134863
000150 25 80 13 bf 83 34 82 3e ac f5 e2 be a8 83 90 3a
       -0.5761741 0.25430688 -0.44328058 0.0011025565
000160 63 40 d3 bd 97 aa 31 3d 04 62 f7 3e 63 8c 42 c1
       -0.10315015 0.043375578 0.48316967 -12.159274
000170 5a bc 3f bc 91 a4 78 bf 51 87 e9 bf 30 db 83 3f
       -0.011702621 -0.9712611 -1.824442 1.0301266
000180 e8 31 60 40 cd 5b 9e be f1 85 90 3f 40 02 23 c0
       3.503046 -0.30929413 1.1290876 -2.5470123
000190 f1 f7 79 3e 24 66 7c 3d 96 bb 8a c0 57 6a 51 3f
       0.24410988 0.061620846 -4.3353987 0.81802887
0001a0 35 52 dc be 92 55 23 bf 6f 4b 85 bf 1f 12 26 c0
       -0.4303147 -0.63802445 -1.0413646 -2.594856
0001b0 28 af 6f 3d 2b 73 94 bf 9f 10 5e 3e c2 a5 01 be
       0.05851665 -1.1597646 0.21686028 -0.12660888
0001c0 10 3d e6 3c e6 be 06 3e aa 6d 27 40 27 46 bc 3e
       0.028105289 0.1315876 2.6160684 0.36772272
0001d0 e8 95 d7 be 67 c8 20 bf d8 93 1e 3e 02 75 91 3c
       -0.42106557 -0.6280579 0.15486085 0.017755989
0001e0 f4 27 04 3f 76 7c c6 be 8c 0a 11 40 13 60 5a 3f
       0.51623464 -0.3876683 2.2662687 0.8530285
0001f0 6b 57 08 bd 35 a4 a7 3d 22 00 00 bf 35 c8 96 be
       -0.033286493 0.08185617 -0.500002 -0.2944962

xy_to_r.input_to_hidden.0.bias f4 [64]
000000 d9 54 a2 3f c4 75 0a be 59 87 b2 be 7e 5a 00 3d
       1.2682143 -0.13521487 -0.34868887 0.0313363
000010 44 6e f8 be e0 82 76 be 19 03 dc be eb 5e 15 bd
       -0.48521626 -0.24073362 -0.42971113 -0.036467474
000020 20 32 55 c0 1a 49 4e 39 64 4a a9 be 78 4a 0d bf
       -3.3311844 0.00019672923 -0.33064568 -0.55191755
000030 8c 77 5e bf 2c ec 2c bf db 05 ce bc 62 51 51 be
       -0.86901164 -0.6754787 -0.025149276 -0.20441201
000040 11 ee 34 bf 10 67 1c bf 8b 02 1b be 92 60 18 3f
       -0.7067576 -0.6109476 -0.15137689 0.59522355
000050 7a fc a4 3f 91 5e 19 bf b2 37 82 bf 3f 92 98 bd
       1.288955 -0.5990992 -1.0173247 -0.07449769
000060 24 b7 7a be a2 26 10 be 98 49 a5 3d 94 f8 b4 3d
       -0.24483925 -0.14077237 0.080706775 0.08836475
000070 c3 ba 42 bf 33 09 dc 3c 91 4c 53 bd 7f f1 2d be
       -0.76066226 0.026859855 -0.05158669 -0.16986655
000080 c9 07 d8 be 76 52 c2 be 22 5e 8f bf fb 33 55 bf
       -0.4219344 -0.37953538 -1.1200602 -0.8328244
000090 45 24 fe be 38 76 a5 3f 3a 1a 00 3b 6d 58 8a bd
       -0.49637046 1.2926702 0.0019546882 -0.06755147
0000a0 58 fa 2f bf 04 c2 71 3f 27 8d 4b bf a3 77 1d bd
       -0.6874137 0.9443667 -0.79512256 -0.038444173
0000b0 76 47 6e be ed fd e5 3e e9 b8 14 3d 45 f9 09 be
       -0.23269448 0.44920292 0.036309157 -0.13473995
0000c0 a9 ee ff bf 2e 92 5f bf 0f cf f9 be b4 03 b8 3d
       -1.9994708 -0.8733243 -0.48790786 0.08985081
0000d0 9f 48 c6 be 95 64 af 3d a4 4c 5b ba 5c 17 bd be
       -0.3872728 0.085641064 -0.00083656074 -0.36931884
0000e0 76 1f 08 bf fe 83 71 bf 40 b5 5d bd 0d 66 54 be
       -0.53173006 -0.9434203 -0.05412793 -0.20742054
0000f0 d7 55 1c bf 62 a1 04 c0 63 30 dc be cd 26 06 bf
       -0.6106848 -2.07235 -0.43005666 -0.52402955

xy_to_r.input_to_hidden.2.weight f4 [64, 64]
000000 fc f1 ce bd da 2e 2f be a2 f6 0a be c2 e2 9f 3d
       -0.101047486 -0.17107716 -0.13570645 0.078069225
000010 8e 35 f1 3d 61 24 3d bd ea be 93 bd 04 ab fe bd
       0.11777793 -0.04617727 -0.07214148 -0.124349624
000020 94 b9 fe 3c 80 10 ba bc d5 22 a1 be 40 5e 96 bc
       0.03109435 -0.022712946 -0.31471887 -0.018355489
000030 4a 55 7c 3d a6 f3 68 be a6 92 eb 3d 8a cf 1d be
       0.061604775 -0.22749195 0.1150258 -0.15411201
000040 91 ba c8 3d f5 46 6f be a0 75 f9 3d 83 06 ae bd
       0.0980121 -0.23366912 0.12180638 -0.08497336
000050 30 96 5a be 5d 01 f3 3c 28 d4 9b 3b 5f 6d 7c bd
       -0.21346354 0.029663736 0.0047555156 -0.061627742
000060 d8 6c b7 bd 80 d1 1b 3e b1 04 ea bd 6f 71 b1 3b
       -0.08956307 0.15216637 -0.11426676 0.0054151337
000070 8d 93 80 bd 44 3a 6c bd 30 bc 92 3c 56 87 e8 bd
       -0.06278143 -0.057672754 0.017912 -0.11353938
000080 cb b0 17 be f4 ac 14 3c e3 1b 31 be 33 86 24 3e
       -0.14813535 0.009074438 -0.17295794 0.16066818
000090 3b c3 af be 4b cf 84 3c eb de 36 bd 47 cd 6f be
       -0.34328637 0.016212126 -0.044646185 -0.23418151
0000a0 8b 9f b2 bd d0 34 e0 bd c4 e8 be bd c7 83 4b be
       -0.08721837 -0.10947573 -0.0932174 -0.19874488
0000b0 3f dd f0 bd be 0d fd bd 09 55 03 be 13 3e c7 bd
       -0.11760949 -0.12356137 -0.12825407 -0.097286366
0000c0 37 4f 14 3d 45 19 90 3c 3e ae 2f 3e fc b0 07 be
       0.036208358 0.017590174 0.17156312 -0.13251108
0000d0 2c b4 fb 3d 11 7a 4e be 74 ba 4c be f0 28 0e 3c
       0.122902244 -0.20163752 -0.19993001 0.008676752
0000e0 44 dc 0e 3d ac 48 e7 bb 42 f9 8c bd 4b 68 d5 bd
       0.03487803 -0.0070582237 -0.0688348 -0.10420283
0000f0 d8 51 51 bd b1 02 ef 3d d2 df af 3d a4 68 98 bd
       -0.051103443 0.11670435 0.08587612 -0.074418336
000100 b2 dc 1a 3e 0d b3 4d bd 83 21 b0 bd 11 6d e8 3d
       0.15123251 -0.050219584 -0.08600142 0.11348928
000110 f6 40 f0 bd 92 ef 3c 3d 3a 89 f2 bd d8 90 7b bd
       -0.1173114 0.04612691 -0.1184258 -0.06141743
000120 9d 78 39 be 3d 53 e0 bd 7c 8e 8e 3d 30 59 66 bd
       -0.18112417 -0.109533764 0.069607705 -0.0562374
000130 b6 15 7a bd b2 55 f0 be f4 bf b8 3d 5d 8f 92 3d
       -0.06105586 -0.4694038 0.09020987 0.071562506
000140 89 1d ba bd 6b f4 e9 3d 30 6e 76 bc 43 fa e9 be
       -0.09087665 0.11423572 -0.015040919 -0.45698747
000150 f0 40 98 bd 5b e3 fa bd 03 98 e9 bd f0 b4 c9 bd
       -0.07434261 -0.12250396 -0.11405947 -0.09848964
000160 4f c0 f2 3b 48 27 c3 3d 1c dd 59 be b5 0a 14 be
       0.007408179 0.09528977 -0.21275753 -0.1445721
000170 1c ef 73 be 5f 68 91 be fc e3 cd 3d 02 34 ec bd
       -0.23821682 -0.2839994 0.1005325 -0.11533357
000180 7d fe 07 bc d7 ec 8d 3d 69 a2 04 be 87 01 eb bc
       -0.008300421 0.06929939 -0.1295258 -0.028687252
000190 bb af 64 be a9 1b 5b 3e cc 2b fb bd 98 1a 84 bc
       -0.22332661 0.2139727 -0.12264213 -0.016125962
0001a0 fd 47 4e be d2 4b e1 be 64 81 e9 bd 92 87 7c 3d
       -0.20144649 -0.4400316 -0.114016324 0.061652727
0001b0 0b e8 19 be ae f3 c1 be 61 6c f3 bd 74 96 97 be
       -0.15029924 -0.37881225 -0.11885906 -0.29606974
0001c0 2c 48 35 be ab a4 56 be cc 11 a8 3d a4 17 46 be
       -0.17703313 -0.20961253 0.082065195 -0.19344956
0001d0 50 a7 f9 3c 28 4e 97 3d d8 58 4b bd 60 53 3a 3c
       0.030475289 0.07387954 -0.049645275 0.011372417
0001e0 40 6c 9d bc 17 28 fa bd a0 fd 44 3d 93 2d 69 3c
       -0.019216657 -0.12214678 0.04809344 0.014232057
0001f0 ec fd fc bd 32 ff 3c be 8c 36 8b 3d a0 f4 5f bd
       -0.12353119 -0.18456724 0.06797513 -0.054676652
000200 95 d9 70 3c 3e 4a c3 3b 8d f6 c2 bd 0c c6 41 3d
       0.014700313 0.005959778 -0.09519682 0.047308013
000210 3c 88 ac bd b0 0d 57 3d b6 4b d0 bd 60 8b dd 3d
       -0.08424422 0.052503288 -0.10170691 0.10817599
000220 a5 27 af be 96 80 d9 3d ff e6 7d bd c4 fd 2f 3d
       -0.34209934 0.10620229 -0.061987873 0.04296662
000230 77 d2 9a be 99 09 42 be 0c cb 07 3d e5 9e 72 be
       -0.30238697 -0.18948974 0.033152625 -0.23693426
000240 96 11 d4 bd cf 12 30 3d 60 24 db bc a2 a9 50 be
       -0.10354917 0.042986687 -0.026750743 -0.2037721
000250 01 3b 8a 3d cd 01 8d 3c ae 99 56 be 23 23 1d bd
       0.06749535 0.017212773 -0.20957062 -0.038363587
000260 a3 2f 19 bd 70 0d 22 3e 22 0d 2d be a3 25 2a bd
       -0.037398946 0.15825438 -0.16899541 -0.0415398
000270 38 34 c4 3c 78 02 44 be 10 76 e5 bd 10 84 3a 3c
       0.023950681 -0.19141567 -0.11204159 0.011384025
000280 60 ca 19 be cf b5 1a bd bd 86 1e 3d 92 30 9e be
       -0.15018606 -0.037771042 0.038702715 -0.3089643
000290 a9 a9 67 3d 8c 41 a6 3b 4f a3 e4 3c 17 49 88 be
       0.056558285 0.0050737318 0.027909903 -0.26618263
0002a0 90 38 91 bc 1a 76 0c be b0 c1 40 bc 18 c6 b0 bd
       -0.017727166 -0.13716927 -0.011764929 -0.086315334
0002b0 38 f4 ba bd b7 43 8d bb c1 83 05 be 51 52 3f be
       -0.09128612 -0.0043110508 -0.13038541 -0.18683745
0002c0 54 88 06 bd 0d e5 81 bd 03 2b 48 bd b0 4f 38 3d
       -0.032844856 -0.06342516 -0.048869144 0.04499787
0002d0 ec 31 8d bd be a6 27 3b 05 d1 18 be 60 23 69 bc
       -0.068942875 0.0025581564 -0.14923485 -0.014229625
0002e0 94 ff e3 bd f8 df 99 be 70 e6 f4 bd dd 74 75 be
       -0.11132732 -0.30053687 -0.11958015 -0.23970361
0002f0 e0 14 70 3d c7 ae 10 bf 83 a9 1a 3e 42 3b f8 3d
       0.058613658 -0.5651669 0.15103726 0.121206775
000300 46 2c b9 be 92 09 a3 3d ae b1 69 3d 8b a3 b1 be
       -0.3616659 0.0796081 0.057054214 -0.34695086
000310 54 b2 da 3d dc 90 f0 3c b4 5e 57 bd 30 b6 f8 3d
       0.10678545 0.02936595 -0.05258055 0.121441245
000320 a1 38 28 3d b7 53 46 3d f0 74 fa bd 50 ec 58 3c
       0.04106963 0.04841968 -0.12229335 0.013239935
000330 4b 2d 8f 3c 7c eb 44 be bc 97 83 3d 79 8a d6 bd
       0.017477652 -0.19230455 0.064254254 -0.1047563
000340 f7 2e 98 bd e3 3e 85 be 9c 9b f4 3d d8 fb 51 bd
       -0.07430833 -0.2602454 0.11943743 -0.051265568
000350 57 77 27 be 45 4a 29 be a2 b7 b9 3d 3b 05 8f bd
       -0.16354118 -0.16532238 0.09068228 -0.069834195
000360 a3 09 8d bd fb cb d5 3d ff 48 9c be 96 23 98 be
       -0.06886604 0.10439297 -0.30524442 -0.2971465
000370 e9 f0 9e be dc b3 81 be 70 67 9c 3c 38 96 0d bd
       -0.31043175 -0.25332534 0.019092292 -0.034567088
000380 dc 43 61 3d fb 6a 5a be 43 4e e9 3b 30 28 ed bd
       0.054996356 -0.21329872 0.007119925 -0.11579931
000390 61 2b c4 bc 92 31 98 be 4d 08 96 bd 86 3f 23 be
       -0.023946466 -0.2972532 -0.07325802 -0.15942201
0003a0 e9 a4 62 be 48 e4 e5 bd 43 4e 8e bd 27 e3 b0 3d
       -0.2213322 -0.11225182 -0.06948521 0.08637076
0003b0 ad be 88 bd 28 e9 7d be 28 c2 e2 bd 23 04 84 3d
       -0.066769935 -0.24795973 -0.110721886 0.064461015
0003c0 26 fb 9a be 16 ff 9b be 0e 99 4a 3c 30 a7 24 be
       -0.30269736 -0.30468053 0.012365593 -0.16079402
0003d0 c8 1e f6 3d df ef ac be 81 ba 79 be fc db c6 3d
       0.1201759 -0.33776757 -0.24387552 0.097099274
0003e0 60 ba 8d 3b d6 7d 03 be 40 ab c0 bb d4 fb 14 be
       0.004325196 -0.12840971 -0.0058797896 -0.1454919
0003f0 da 13 b0 bd 5f a8 41 bd e7 5e df 3c 9c 1a cd 3d
       -0.085975364 -0.04727971 0.027266933 0.10014841

xy_to_r.input_to_hidden.2.bias f4 [64]
000000 ca e5 9c be 25 3e af be 89 63 90 be b1 2b 96 bd
       -0.30644065 -0.342271 -0.2820094 -0.07332552
000010 84 8a a1 bd 74 3d 58 be e5 59 36 be 11 1f 8a bd
       -0.07887748 -0.21117193 -0.1780773 -0.06744207
000020 a5 e5 fd bd 17 a1 58 be ea 56 82 bd cf 3c 53 be
       -0.12397317 -0.21155201 -0.06364234 -0.20628665
000030 3a 3a 06 be 71 34 b3 bd 83 bf 4e be 93 a4 87 be
       -0.13108149 -0.08750237 -0.20190243 -0.26492748
000040 65 80 44 be 43 e3 68 3f ae c9 30 be e6 ef 87 be
       -0.19189604 0.90971774 -0.17264435 -0.26550215
000050 a1 e9 6d be 24 a5 32 c0 16 9d 65 bd e9 ea a7 be
       -0.23233654 -2.7913294 -0.056058012 -0.3279641
000060 74 b7 17 be 44 b4 db bd 6c f4 24 be 95 78 e7 bd
       -0.14816076 -0.10727742 -0.16108865 -0.11302296
000070 d9 5f 9a bd 9a f0 99 be e0 bd a6 bd bb ac c8 bc
       -0.07537813 -0.30066377 -0.081416845 -0.024496427
000080 75 b7 f3 bd 7c b2 80 be 1f 31 f2 bd d1 8e a6 be
       -0.11900226 -0.25136173 -0.11825775 -0.32530835
000090 b3 20 d3 bd 07 54 0f be ff be c2 bd a3 9d 86 bf
       -0.10308971 -0.13996898 -0.09509086 -1.0516857
0000a0 ab a9 80 be 21 93 ba bb df 4b 93 bd 81 96 ea bd
       -0.25129446 -0.0056938087 -0.07192206 -0.114544876
0000b0 f0 c0 d4 be 37 8a 4b bd 37 8c 37 be 95 7a 60 be
       -0.4155345 -0.04969236 -0.17924581 -0.21921761
0000c0 d2 3d ab be f3 33 c3 be ab b1 14 be af 98 54 3f
       -0.33445603 -0.38125572 -0.145209 0.83045477
0000d0 a1 ef ea bd f4 33 13 be 8d 9b cd bd f1 40 47 be
       -0.11471487 -0.14375287 -0.100394346 -0.19458367
0000e0 a1 f8 39 3e ba c1 5a be 7e f3 92 be 4c 80 4c bd
       0.1816125 -0.21362963 -0.28701395 -0.04992704
0000f0 5a 96 f4 bd e9 1e 09 be 22 49 90 be 1a 2f d3 bd
       -0.1194274 -0.13390698 -0.28180796 -0.10311718

xy_to_r.input_to_hidden.4.weight f4 [128, 64]
000000 f1 8d 24 bd f5 9b 21 be 4a 35 83 3e b5 45 ac bb
       -0.04017443 -0.15782149 0.25626594 -0.005257333
000010 4c 08 d5 bc ca 45 56 3e bb 6e 5d 3d 81 b6 0d 3c
       -0.026004933 0.2092506 0.05406068 0.008649469
000020 51 62 ca bd 4f 83 1b be 0b 90 f8 3d 8f d0 28 3e
       -0.098820336 -0.15186809 0.12136849 0.16485809
000030 8e 78 73 bd 9b ed 65 be 94 74 c7 3d 9e 0d dc bd
       -0.05944114 -0.2245392 0.097390324 -0.10744785
000040 8a eb f6 bd 80 d3 95 bc 3f 8e 9f 3d d5 0d db bd
       -0.12056644 -0.018289328 0.07790803 -0.106959976
000050 6a de fa 3c 79 67 3d bd 9d ac ad 3c 98 f9 18 be
       0.030623633 -0.046241257 0.021200472 -0.14938962
000060 96 16 b1 bb 2a 5c ef bd a5 8e 8a 3c f6 ba e8 3d
       -0.005404304 -0.11687501 0.016913721 0.11363785
000070 d9 6a 62 3c a3 33 8d 3c 83 51 32 bb 24 0c 91 3d
       0.01381942 0.017236536 -0.002720923 0.07082394
000080 9e 65 1d 3e ff 53 27 be 26 d1 0f 3d 19 2b bb bd
       0.15370795 -0.16340636 0.03511157 -0.091390796
000090 45 ed 1b be 7c 59 91 3d 19 bb 41 be 2e b0 31 3b
       -0.1522723 0.07097146 -0.18919028 0.0027113068
0000a0 d7 37 03 3e 2b 48 c8 bc cc 21 0b bb 72 98 3b 3e
       0.1281427 -0.024448475 -0.0021229861 0.18319872
0000b0 94 d2 54 ba 3c 7b ce 3c 01 23 ea bd e5 8a b5 3e
       -0.0008118537 0.025205247 -0.11432458 0.3545753
0000c0 6c a0 3e 3d 9f 4e 6e 3e 5d 5a d4 3d ec bf 24 3c
       0.04653971 0.23272179 0.10368798 0.010055523
0000d0 3e 2d cf 3d e5 4b fb 3c 94 80 10 3c d8 59 19 be
       0.10116051 0.030675838 0.008819718 -0.14975679
0000e0 6e 63 04 3d 8a be 41 bd 75 f1 54 3e 28 9a ea bd
       0.032321386 -0.047300853 0.20795234 -0.11455184
0000f0 82 d8 e9 bc 8b 48 01 3d 1e eb 9a 3e 8a 63 a0 3d
       -0.028545622 0.031563323 0.30257505 0.078314856
000100 7b f3 dc bd 14 7d 79 be 5c e3 3c be f9 7c 8d bd
       -0.10788628 -0.2436412 -0.18446106 -0.06908602
000110 d4 db 52 3d 8c 9c b7 bd 90 08 7f 3c 17 36 7b ba
       0.051479176 -0.08965406 0.015566006 -0.000958295
000120 92 10 16 3e b5 86 0b be ba 89 9a bc 46 ff 6d bd
       0.14654759 -0.13625605 -0.018864501 -0.058104776
000130 88 df 70 bd cc 2d 89 3c 6b 92 0c bd 6e ec 27 be
       -0.058806926 0.01674547 -0.034319323 -0.16398785
000140 96 ed 95 3d a0 a7 d8 bc 93 a8 3c bc 4c fd e2 3c
       0.073207065 -0.026447117 -0.011514801 0.027708672
000150 15 9a 57 be f2 e5 cc 3b fb 5c ec bd 5f 2e b0 3e
       -0.21054871 0.0062529976 -0.11541172 0.34410378
000160 00 7d 1e bc b8 7f f7 3c 5c 15 53 be 0d de 7a 3c
       -0.009673357 0.030212268 -0.20613617 0.01531173
000170 15 85 56 bb 56 c0 b1 bd 9a 46 04 3e e9 80 a5 bd
       -0.0032733132 -0.08679263 0.12917557 -0.08081228
000180 54 64 83 3d 60 0f 01 3e 26 89 47 be 49 e1 26 3d
       0.064156204 0.12603521 -0.19485912 0.040742192
000190 e2 68 88 3e 5f d9 2f 3e ad cf e7 bd 5f 11 9f bc
       0.2664252 0.17172764 -0.11318908 -0.019417463
0001a0 e3 6d 2b bd 93 d8 bc bd 9e ea c8 bd 78 e3 a6 bd
       -0.041852843 -0.09220996 -0.09810375 -0.08148855
0001b0 18 dc 4f 3d 66 ed 1d bd 47 9f 41 3e af 46 36 3e
       0.050747007 -0.03855648 0.18908416 0.17800401
0001c0 3a 9d 9f 3c b3 a9 d3 bd 8b be 05 bc 3a 15 5c bb
       0.019484151 -0.10335102 -0.008163105 -0.0033581988
0001d0 04 11 93 bc 0f fa 07 bc d0 1e b3 3d 95 88 69 3d
       -0.01795245 -0.008299365 0.087461114 0.05701502
0001e0 fb 42 f7 bb 9d ef 3c be 92 8a b5 3d d0 b2 cd 3c
       -0.0075458265 -0.1845078 0.08864321 0.025109679
0001f0 81 74 da bc 31 ca 5d 3d 04 06 05 be fa e6 52 3c
       -0.026666882 0.054147903 -0.12990576 0.012872452
000200 67 7a 64 3d 0e ff 35 bf 50 71 8e be 9d 9f e2 bc
       0.055780794 -0.7109231 -0.27820826 -0.027664
000210 1c 16 13 3e 27 1f 10 be f2 59 90 3d 81 b2 89 bd
       0.14363903 -0.14074384 0.07048406 -0.067235
000220 37 b9 5e 3d ce ff 1a 3e 8c 6f 04 be 44 77 8e bd
       0.054375853 0.15136644 -0.12933177 -0.06956342
000230 5c 79 9b bd 17 9f 08 bd b0 7e cb bd 0d 34 13 3d
       -0.07591507 -0.033354845 -0.09936273 0.03593831
000240 56 ed ce bd 64 d6 07 bd cd ef 88 3d 70 58 0c be
       -0.10103862 -0.033163443 0.06686363 -0.13705611
000250 07 94 46 bd b8 a1 c2 3b 72 44 c8 bd cb 26 80 3e
       -0.048481014 0.0059396885 -0.0977868 0.25029597
000260 3d 85 f6 bb 60 a5 aa bd 11 f5 4a bd 42 a1 7a 3d
       -0.0075232075 -0.08332324 -0.04955012 0.061188944
000270 06 f4 a2 bb 9c 26 0a bd 11 d2 02 3e c1 f8 cb bd
       -0.0049729375 -0.033728227 0.12775446 -0.099595554
000280 50 61 30 be 3b 28 ef 3b 9b cc 3b be 23 8d d7 3e
       -0.17224622 0.007298497 -0.1833977 0.42099866
000290 89 57 e1 3e b4 6b 48 3e 8d f2 e3 bd 2e bd 0c bd
       0.44012097 0.19572335 -0.11130247 -0.034360103
0002a0 16 8c af 3d bc 6e f0 3d c2 34 86 bd 25 d9 34 be
       0.08571641 0.11739871 -0.065530315 -0.17660959
0002b0 93 f5 40 bc 5c 4d 3b bc 3f b0 93 3c 9e da 97 be
       -0.011777299 -0.011432018 0.018028377 -0.2965898
0002c0 c5 93 ec bd 6e 35 2c be 1c 6c 2b 3d fb c6 a6 bc
       -0.11551622 -0.16817257 0.041851148 -0.020358553
0002d0 d3 30 ec bd 71 e9 17 3e 65 7b 0d 3e 53 1f fc 3d
       -0.1153275 0.14835145 0.13816603 0.12310662
0002e0 31 1e 19 bd de 9d 08 bd 14 c4 4e bd 28 bf eb bc
       -0.03738231 -0.03335368 -0.050479963 -0.028777674
0002f0 ee 50 27 3c 93 cd 88 bd 9d 9d 76 be bb 48 85 3b
       0.010212166 -0.06679835 -0.24083562 0.004067508
000300 36 be 06 be d6 85 c6 bc ab d3 b0 bc c8 48 1b bd
       -0.13158497 -0.02423374 -0.021585306 -0.037911206
000310 df 5a c3 bd 36 13 11 3e 27 13 11 be 16 c5 db bc
       -0.09538817 0.14167485 -0.14167462 -0.026827376
000320 39 99 07 be e6 49 8a 3c e8 ce 9d bd 62 17 42 be
       -0.13242044 0.01688094 -0.0770548 -0.18954232
000330 3c 95 13 3e 57 24 b8 3c a8 cb 33 3d 39 a1 95 3d
       0.14412397 0.022478266 0.043895394 0.073061414
000340 ff f8 b4 bd 25 82 33 bc cf 5b 8a bc f4 c8 16 be
       -0.08836555 -0.010956322 -0.01688948 -0.14725095
000350 33 ea 83 3c 37 1c 9e ba 14 99 b6 3d a9 b3 89 3e
       0.016102886 -0.0012062852 0.08915916 0.26894882
000360 15 2e 42 be c8 68 23 bd 00 64 1a 3b 64 97 1a 3e
       -0.18962891 -0.03989485 0.002355814 0.15096813
000370 79 73 15 be 3e df 4e 3d 29 0d 47 3d 14 0d a1 3d
       -0.1459483 0.05050587 0.048596535 0.078638226
000380 fc 8e 35 be 4f 58 c1 3b b3 76 b2 be 59 26 8a bd
       -0.17730325 0.00590042 -0.34856185 -0.067455955
000390 1e 97 71 bd 1c 57 ae bd 1a a6 08 3e e2 1b 08 3c
       -0.058982007 -0.085127085 0.13344613 0.008307429
0003a0 10 3f f8 bd 02 26 1d 3e e2 d2 bb bd cf 52 cb 3d
       -0.12121403 0.1534653 -0.09171082 0.09927904
0003b0 3d 30 43 bd ee d2 2a be 9a 92 69 3d 8d a5 9f bc
       -0.047653425 -0.16682026 0.057024576 -0.01948812
0003c0 c2 9b fb bd 38 c8 47 bd 6f e5 fe bc 0c d8 23 bd
       -0.12285568 -0.048774928 -0.031115262 -0.04000096
0003d0 e9 f9 b9 bb 87 49 3e be 8c 42 ef 3d 74 fe 79 be
       -0.0056755436 -0.18582736 0.11682615 -0.24413472
0003e0 3e e6 1f 3b 42 88 e1 3d 19 49 21 3d 38 76 af 3d
       0.002439871 0.11012317 0.039376352 0.0856747
0003f0 fd 0a 02 3c e2 a0 92 3d 4e e5 05 3d 80 b8 11 bd
       0.00793719 0.07159592 0.032689385 -0.035576344

xy_to_r.input_to_hidden.4.bias f4 [128]
000000 3c e6 9c 3b c9 67 49 bb 2b fd f3 bb 9c f4 14 3c
       0.0047881883 -0.0030732027 -0.0074459515 0.009091523
000010 39 97 b1 bc 83 46 77 3c 2b 30 31 3f cf 39 1f 3c
       -0.021678554 0.015092495 0.69214123 0.0097183725
000020 cf 1f a1 3b d1 fa 1b 3c a7 e2 06 bc 1a 8f 43 3b
       0.004917122 0.0095202485 -0.008232749 0.0029839934
000030 d9 83 1d bc 24 f7 a4 3f 4f 58 64 bc a1 07 00 3c
       -0.009613954 1.2887921 -0.01393707 0.007814319
000040 56 d2 9a 3c 34 2c c5 be ea e3 e4 3d f8 f4 ac bc
       0.018899124 -0.38510287 0.11176284 -0.021112904
000050 ed f7 d3 b7 05 3b 5c bb 0a 8e 1d bb 32 6d 16 ba
       -2.526861e-05 -0.0033604514 -0.002404096 -0.0005738317
000060 c4 66 48 bc f9 30 17 bb 4d 67 34 bb e0 cf 51 bc
       -0.0122315325 -0.0023069961 -0.0027527392 -0.012805909
000070 05 76 f8 3b e0 be 45 3c 43 38 d3 bb d5 0e 88 3b
       0.0075824284 0.012069434 -0.006445916 0.0041521587
000080 d9 c8 f1 bb 9a e7 d1 3b c9 89 76 bf 27 0c 99 bc
       -0.0073786792 0.006405783 -0.96303993 -0.018682553
000090 53 a5 87 3c 03 3b 94 bc ed d7 dd be a5 1d f6 bb
       0.016558325 -0.018094545 -0.433288 -0.007510858
0000a0 d5 17 6e bc d1 d7 6b bc d4 c1 06 3a 1a 2b 85 3c
       -0.014532049 -0.014394716 0.0005140577 0.016255904
0000b0 9b c4 04 bc a9 12 c8 3b a3 e4 33 3c 24 42 ef 3b
       -0.008103515 0.00610574 0.010979804 0.0073015857
0000c0 2f 6f e0 3b 24 e3 b6 39 e7 40 7a 3c ab e9 95 3b
       0.0068491916 0.00034882978 0.015274263 0.0045749745
0000d0 7a 1d bf bc 01 f9 07 bc 9d a1 6b bc fa c6 ba 3b
       -0.023329485 -0.008299113 -0.014381793 0.0056999894
0000e0 91 b0 41 3f 6d 53 7c 3b a1 eb 38 3b 4a 8a aa 3b
       0.75660044 0.0038501874 0.0028216618 0.0052044736
0000f0 ff fe a0 ba ba 87 85 3c 35 02 a1 3c fa 99 e8 3b
       -0.0012283026 0.016300071 0.019654373 0.0070984336
000100 0e a5 0f bc cf 12 55 bb 48 a2 ac 3a 11 f7 bc 3b
       -0.008767379 -0.0032512431 0.0013170922 0.0057667573
000110 8b 95 50 3c 04 e1 6d 39 44 0c b2 bc 18 53 4f 3c
       0.012730966 0.00022685906 -0.021734364 0.012654088
000120 b7 8c c3 3a 6d 18 30 3b 2f 32 3d bb 74 a1 17 bb
       0.0014919256 0.0026870028 -0.0028869023 -0.0023137005
000130 8b 72 76 bc b1 15 13 bc a2 6c 64 3c 49 c0 96 bc
       -0.015041958 -0.00897734 0.013941916 -0.018402236
000140 05 2f 17 b9 72 65 2a bc 88 c2 c7 bc 43 05 4e bc
       -0.00014417998 -0.010400163 -0.024384752 -0.012574497
000150 85 a0 16 bc 1c d6 90 bc cf 1e ac 3b a5 0e f5 bb
       -0.009193544 -0.01768022 0.005252696 -0.0074785524
000160 9c db 75 3c 1f 62 4b 3b bf f2 b3 bb cf c5 1b bc
       0.015005972 0.0031033827 -0.005491584 -0.00950761
000170 78 fd 8c bc ad 25 49 bb 9c 30 75 3b da ae be bc
       -0.017210707 -0.0030692623 0.0037413007 -0.023276735
000180 e3 f5 0a 3b 38 6a 7a bb a0 ee 46 3c 92 51 c8 3b
       0.0021203689 -0.0038210284 0.012141854 0.0061132396
000190 6b 27 07 bc 1b c3 8b bc 0a 21 77 bb b5 ab ac 3c
       -0.008249144 -0.017060807 -0.0037708902 0.02107797
0001a0 9f 73 b0 3a b8 3e 8b bc cb a5 c6 3b ed 08 cd bc
       0.0013462192 -0.01699768 0.0060622445 -0.02502867
0001b0 46 d8 eb 39 16 b6 e3 39 c4 20 8a 3c 93 66 23 bc
       0.0004498383 0.0004343248 0.016861327 -0.009973186
0001c0 0e b0 a0 3f 76 38 28 3c cf fa 52 bb c1 c8 a5 bb
       1.2553728 0.010267368 -0.003219295 -0.005059332
0001d0 10 f4 c1 3c 2c cd 78 bc 1c 54 17 3a 76 9e 70 bc
       0.023675948 -0.015185636 0.0005772726 -0.0146862175
0001e0 ee ea 60 bc 75 15 15 bc 65 fd ce b7 ee 2f 06 3c
       -0.013727887 -0.009099354 -2.467511e-05 0.008190138
0001f0 57 5e 2b bc 36 ff a9 3b 6e f8 61 bb 2b 2b 5b bc
       -0.010459504 0.005187894 -0.003448035 -0.013376991

r_to_mu_sigma.r_to_hidden.weight f4 [128, 128]
000000 38 b6 f3 bd 06 70 94 3e 76 bc c4 be 1d 80 56 be
       -0.1189999 0.28991717 -0.38425034 -0.20947309
000010 a7 ec 8b be e0 b2 7d be e0 2d 4b be 7e d4 d0 3e
       -0.2732899 -0.24775267 -0.19841719 0.4078712
000020 28 28 f4 bd ce be 07 be a3 b3 a1 be 34 33 a5 3e
       -0.11921722 -0.1325638 -0.31582364 0.32265627
000030 db b6 89 be a5 e7 5a 3e 9e ca 2b bf 82 18 d7 be
       -0.2689732 0.21377428 -0.67106044 -0.42010885
000040 2c 01 4b be 2a 55 09 be 9b 73 0c 3e 91 1e 18 be
       -0.19824666 -0.13411394 0.13715975 -0.1485541
000050 df 59 a2 be 10 20 76 bd 9a 3c 84 3e a2 0d 17 be
       -0.3170919 -0.06008917 0.25827485 -0.14751294
000060 71 a6 c0 bd 03 8c 8f 3e 26 9d 89 3d 35 5e fe 3d
       -0.09406746 0.28036508 0.06719427 0.12420312
000070 e2 40 25 3f a3 66 3c 3e 18 84 2c 3c 7f eb 91 3e
       0.6455213 0.18398528 0.0105295405 0.28499982
000080 8f f7 cb bd e2 c1 9f bc e4 88 59 be 71 2c 53 3e
       -0.099593274 -0.01950163 -0.21243626 0.20622422
000090 86 f1 0b be 8c 23 38 3e a2 4b 38 bc 32 79 a9 3d
       -0.13666353 0.1798231 -0.011248501 0.08275069
0000a0 29 d0 56 be 6a d5 36 3d 92 b7 82 be 1b dd 8a bf
       -0.20977844 0.04463712 -0.25530678 -1.0848726
0000b0 b6 97 2e bc fa 63 90 bd 1b 08 49 3f c4 b3 73 3e
       -0.010656288 -0.07050319 0.7852799 0.23799044
0000c0 01 27 82 3e d8 79 73 3d 8f d0 bf bd 49 b5 af be
       0.25420383 0.05944237 -0.09365951 -0.34317997
0000d0 22 09 c6 3c dd 33 38 3e 3f cf c5 be 28 24 de bd
       0.024174277 0.17988534 -0.3863468 -0.1084674
0000e0 27 6f f8 3d 92 12 ef be c2 eb 8b be 7d c9 06 be
       0.121305756 -0.46693856 -0.27328306 -0.13162799
0000f0 47 b6 b0 3d 1f ef 47 3e 7e 42 56 bd 26 23 95 be
       0.08628517 0.19524811 -0.052309506 -0.2912838
000100 20 37 a1 be e8 4d 96 3e 49 32 09 be ca 9f 78 be
       -0.3148737 0.29356313 -0.13398089 -0.24279705
000110 fc 44 e0 3e 4a 9d f3 be c3 62 4d 3e dd d8 16 3f
       0.4380263 -0.4758094 0.20057206 0.5892466
000120 c5 2c 39 3d 0a 09 c4 be 4f c6 ae bc 84 7b 91 3d
       0.04520871 -0.38288146 -0.021334795 0.07103637
000130 2c d5 3e 3e 6b 5f c6 3c a5 62 a7 3d 2f fa 2b 3e
       0.18636006 0.02421542 0.08173112 0.16794656
000140 8f bd b3 be e1 bc 78 3e 7b 11 e0 3e b1 44 34 3e
       -0.3510556 0.24290802 0.43763337 0.17604329
000150 47 73 eb bd 45 b7 ae be 70 17 68 be 28 54 77 be
       -0.11496597 -0.341242 -0.2266519 -0.24153197
000160 33 1a 39 bf 10 16 82 be d7 ff 1c bf 55 c9 17 3f
       -0.723056 -0.25407457 -0.6132788 0.59291583
000170 e0 1f 1e 3f 84 a8 a9 3e 6d b0 f6 3e bb 20 09 3f
       0.6176739 0.3313638 0.48181477 0.5356557
000180 b0 13 e6 3e 36 98 2d 3e f4 2b 2e 3d b9 23 7e 3e
       0.44936895 0.16952595 0.042522386 0.24818315
000190 ee 87 02 be 69 69 ea be b0 54 72 be 9b 3f 11 3e
       -0.12747166 -0.45783547 -0.23665118 0.1418442
0001a0 d0 aa b3 be b7 44 88 be bb 7d 55 be 46 b2 93 3d
       -0.35091257 -0.26614925 -0.20848744 0.07211737
0001b0 2d 84 a6 3e 59 4d 09 3f 2e 3c 3b be c3 64 1c bd
       0.32522717 0.5363365 -0.18284675 -0.03818203
0001c0 10 d0 34 3e 7e c3 94 be 44 73 ac bd 77 d4 9f 3e
       0.17657495 -0.290554 -0.08420423 0.31216785
0001d0 c2 2e 46 3b a4 78 c1 3e 73 1b 01 be a0 83 c7 3e
       0.0030240272 0.37787354 -0.12608127 0.3896761
0001e0 52 f7 df be 52 87 ec 3e 04 c1 2c bf 72 1a 0d 3f
       -0.43743378 0.4619699 -0.6748202 0.5511848
0001f0 4e e2 a3 3d 6a 6c 04 3e bc 55 70 3e 87 51 cc bc
       0.080021486 0.12931982 0.23470205 -0.024941219
000200 b5 ca 62 bb 34 c9 c4 3b 4c 67 41 bd 71 32 50 bb
       -0.0034605686 0.0060054306 -0.047217652 -0.0031768347
000210 ba 1d 81 3b 02 37 a3 3c c4 41 67 3f 08 c8 00 bd
       0.0039403113 0.01992369 0.90334725 -0.031440765
000220 df f8 01 bb 5b 97 2d bd 21 1b f5 ba 36 ae 95 bc
       -0.0019832177 -0.042380672 -0.0018700102 -0.018271547
000230 e1 20 82 bc ac d0 40 3f 99 a4 3a 3c 5c b6 94 bc
       -0.015884819 0.7531841 0.011391782 -0.018153362
000240 9b f6 02 bc 52 2d 99 3e 28 05 54 3f e7 8e b6 ba
       -0.007993366 0.2991739 0.8282037 -0.0013928086
000250 06 2f 0c bd 1e 30 23 bd a0 e4 9c 3c 9d 7e 81 3c
       -0.034224533 -0.03984081 0.019151986 0.015807444
000260 12 c8 07 3c 1c c0 e0 bc b8 18 e0 3b d5 92 da bc
       0.008287447 -0.027435355 0.006838884 -0.026681343
000270 57 70 68 bc 6e 79 d9 ba 0c 76 0f bd 7e 84 de bb
       -0.01418694 -0.0016591975 -0.035024688 -0.0067906966
000280 79 f4 89 3b ba e6 e5 3a 04 42 74 bf 65 df 92 bc
       0.0042100516 0.0017540075 -0.9541323 -0.017928788
000290 b8 f1 c5 bc 03 ed 83 3f c5 2f 5b 3f bf 4c 3b 3c
       -0.024163112 1.0306705 0.85619766 0.011431872
0002a0 96 7f 1a bc fb 85 fc bc 36 6f 55 bc 60 03 f2 bb
       -0.009429833 -0.030825606 -0.013027003 -0.0073856562
0002b0 25 7e 1c 3c 2e 32 d9 3c cd 91 f2 b9 19 79 b2 3b
       0.00955156 0.026513185 -0.00046266467 0.005446565
0002c0 d7 2e 3c bc 3d 44 3e 3c b4 68 56 3d 16 1e cd bc
       -0.011485777 0.011612949 0.052345946 -0.02503876
0002d0 3d ac 36 3c 9e 80 d2 3c c0 9f f0 bb 65 83 40 bb
       0.011149463 0.025696095 -0.0073432624 -0.0029375192
0002e0 56 af 44 bf b8 31 ce bc 79 80 c1 bc bf 4f 5f 3c
       -0.7683004 -0.025170192 -0.02362083 0.013629853
0002f0 cf 9f fd 3c de 2b 87 39 e7 de 5e bc 4c 25 43 3c
       0.030959992 0.0002578189 -0.013602949 0.011910748
000300 d3 02 11 bd eb 15 e4 3c 02 3f fe 3b 77 36 89 3c
       -0.035403084 0.027842483 0.007758976 0.016749604
000310 ea d9 eb 3b 00 63 81 bc c2 cb 13 bb 6e 93 fb bb
       0.0071976082 -0.015794277 -0.002255187 -0.007677487
000320 61 e3 fe bb 44 e9 e6 bc 97 24 2c bc c9 0c ac bc
       -0.0077785705 -0.028187402 -0.010506771 -0.02100219
000330 3f 25 a4 bc af f6 ed ba d6 f6 0a 3c cb e1 83 3c
       -0.020037292 -0.0018155182 0.008481702 0.016098877
000340 ce 6c ac 3c 85 01 4d bc 62 6a f0 bc b9 82 d7 bc
       0.021047976 -0.012512569 -0.029347602 -0.02630745
000350 b1 35 d8 bc 53 75 cf bb e7 f8 16 3d 72 64 4e bd
       -0.02639279 -0.006331125 0.036858466 -0.05038876
000360 db a3 a0 3b 94 fe 69 bc 69 5d a8 3b 13 3e 9c 3b
       0.0049023456 -0.014281888 0.0051380885 0.004768142
000370 41 32 e3 bb cc fb d9 3a 2d 14 f9 3b 8c e3 8d bc
       -0.006933481 0.0016630827 0.007601282 -0.017320417
000380 f8 e2 60 bc e1 18 81 bc 6a b6 bd 3a 76 ae 92 bc
       -0.013725989 -0.015758933 0.0014473919 -0.017905455
000390 93 04 eb bc 9d 27 43 bc d1 0f 7b 3c 13 61 3b 3c
       -0.028688705 -0.0119113 0.015323595 0.0114367185
0003a0 a4 7a 93 bc 9e dc 02 3c ea 6c 36 bc 3d f3 7b bc
       -0.018002816 0.00798717 -0.011134366 -0.015377817
0003b0 0a c2 db bb 3a 4c 74 bb 38 2d c2 3c 3d 1e f0 bc
       -0.006706481 -0.003727688 0.023703203 -0.029311294
0003c0 06 91 2a 3e 43 e4 8c 3c cf 7a 77 3a 39 18 85 bc
       0.16656885 0.017198687 0.0009440602 -0.016246902
0003d0 da af 2e bb 82 ac 8b 3c 83 f4 ee 3c cd 66 a7 bc
       -0.0026655109 0.017050032 0.029169327 -0.020434761
0003e0 6a df 8c 3c 54 45 92 bc b0 b6 ed bc 7a a9 b9 3c
       0.017196376 -0.017855324 -0.029017776 0.02266382
0003f0 16 ae d9 bc 2f e6 47 3c 16 59 f5 3b 0c a0 d0 bc
       -0.026572268 0.012200876 0.0074874265 -0.025466941

r_to_mu_sigma.r_to_hidden.bias f4 [128]
000000 32 89 b3 bf 13 3a 4e be 78 d6 10 c0 1c ff 03 c0
       -1.4026244 -0.20139341 -2.2630901 -2.0624456
000010 95 16 a2 bf f0 d8 df bf 90 d7 db bf 9b 74 d8 bf
       -1.2663141 -1.7488079 -1.717516 -1.6910585
000020 12 cb c8 bf 43 c4 be bf 1e 21 b6 bf e4 e4 0d c0
       -1.5686972 -1.4903644 -1.4228857 -2.2170954
000030 31 a5 d7 bf 7a 21 da bf 02 12 ae bf 48 06 7d bf
       -1.6847287 -1.7041466 -1.3599246 -0.9883771
000040 5e b9 ca bf c6 dc c4 bf be 60 cc bf 99 c7 ad bf
       -1.583782 -1.5379875 -1.5967023 -1.3576537
000050 3d 5c a9 bf d6 45 aa bf bb b6 c9 bf 06 5f 18 3f
       -1.3231274 -1.3302562 -1.575889 0.59519994
000060 c5 6f cd bf 15 a1 b5 bf a7 e7 03 c0 b2 a2 9f bf
       -1.6049734 -1.4189783 -2.061014 -1.2471526
000070 b0 a6 c8 bf 08 bf bf bf c0 7b ad c0 3c 5a af bf
       -1.5675869 -1.4980173 -5.421356 -1.3699412
000080 78 34 c8 bf 4c a9 7b c0 c8 1b c0 bf 4c c6 c1 bf
       -1.5641012 -3.932208 -1.5008478 -1.513864
000090 4c 32 90 bf 51 60 b3 bf 78 53 12 c0 96 5b 77 c0
       -1.1265349 -1.4013768 -2.2863445 -3.864965
0000a0 64 0a 0a c0 80 83 24 3f 26 1c a1 bf 6b a2 bc bf
       -2.1568842 0.64263153 -1.2586715 -1.4737066
0000b0 81 a3 70 bf 21 e0 e0 bf 19 17 94 bf 0b 7f 96 bf
       -0.9399949 -1.7568399 -1.1569549 -1.175752
0000c0 f5 9e f8 bf 6a 19 8e bf b3 01 c0 bf cd 22 af bf
       -1.942351 -1.1101506 -1.5000519 -1.3682495
0000d0 ca bc b0 bf d4 b7 ff bf 8c 66 4b 3f b1 1b 8a be
       -1.3807614 -1.9977975 0.7945335 -0.26974252
0000e0 e4 05 9e 3f be 8b a0 bf 2f f6 83 c0 6d e4 1d bf
       1.2345548 -1.2542646 -4.1238017 -0.61676675
0000f0 9b 3b 8f bf a6 0b 9d bf 6e 29 88 3f 9c 4d b5 bf
       -1.1190065 -1.226918 1.0637643 -1.416431
000100 93 0f ac bf d1 e5 5a c0 fb 08 01 bf 2e ba ee bf
       -1.3442253 -3.4202769 -0.5040433 -1.8650568
000110 55 fd a4 bf 2d 38 2e c0 61 8e 88 bf fc 79 fd bf
       -1.2889811 -2.7221787 -1.066845 -1.9802852
000120 25 83 06 c0 ca af c1 bf d3 9f 04 c0 54 43 93 bf
       -2.1017544 -1.5131772 -2.072255 -1.1504922
000130 15 29 c6 bf 26 c3 ab bf 3e 43 d1 bf 8c 51 ba bf
       -1.5481287 -1.341893 -1.6348646 -1.4556136
000140 82 5b c4 bf 6e f0 a6 bf f6 36 d9 bf 29 bf de 3e
       -1.5340426 -1.3042123 -1.6969898 0.4350522
000150 62 41 b8 bf b9 14 d4 3f 5e 27 cc bf f8 7c 88 bf
       -1.4394953 1.6568824 -1.5949514 -1.0663137
000160 60 c0 b1 bf 21 df a4 bf 08 08 a4 bf 58 9d bd bf
       -1.3886833 -1.2880594 -1.2814951 -1.4813643
000170 0a 7e 07 c0 da b8 10 c0 41 b9 c7 bf 77 6b ac bf
       -2.1170678 -2.2612824 -1.560341 -1.3470296
000180 45 b0 e4 bf f8 87 ef be d6 18 d3 bf 28 6b 9e bf
       -1.7866293 -0.46783423 -1.6491954 -1.2376451
000190 06 66 e4 bf 21 e3 c9 bf 2b f8 c5 bf 79 e2 ce bf
       -1.7843635 -1.5772439 -1.546636 -1.6162864
0001a0 ce ac ca bf 2d 67 d2 bf c4 9c 8a bf 8b 29 c6 bf
       -1.5833986 -1.6437737 -1.0829091 -1.5481428
0001b0 86 95 cd bf 8d a7 e9 bf 0d f3 df bf 1d f9 a1 bf
       -1.6061256 -1.8254257 -1.7496048 -1.2654148
0001c0 9b 49 04 c0 f5 7c de be 6a 3b 9b bf 61 24 dd bf
       -2.0669925 -0.4345471 -1.2127507 -1.7276727
0001d0 cd b2 99 bf 02 81 bf bf 58 61 9a bf 7c 5d 10 c0
       -1.2007691 -1.4961245 -1.2060957 -2.2557058
0001e0 2f 59 a1 bf 6b 9a be bf 98 54 df bf 90 4f 2b c0
       -1.2605342 -1.4890875 -1.7447691 -2.676731
0001f0 b9 99 b8 bf ad 10 e4 bf 64 d3 89 bf 9a 09 c0 be
       -1.4421912 -1.7817589 -1.0767636 -0.37507325

r_to_mu_sigma.hidden_to_mu.weight f4 [16, 128]
000000 2e 45 9c bd 93 b3 27 bb c8 36 28 3d 96 55 3f 3c
       -0.076303825 -0.0025589212 0.04106787 0.01167812
000010 1e d1 a9 bd 66 d0 a6 3d c4 22 64 3c 28 28 81 3d
       -0.08291839 0.081452176 0.013924304 0.06306487
000020 57 31 b9 bb b3 b7 e6 3b a9 a7 db 3d 89 6f 81 bc
       -0.0056516337 0.0070409416 0.10725338 -0.015800254
000030 fb d9 7d bc 63 6d 1f 3e f6 22 32 3e 6a 3e ac 3e
       -0.015493865 0.15569071 0.17396149 0.33641368
000040 03 ae ad 3b 62 ad f5 bc 71 3e 37 3d 30 d8 fa 3c
       0.005300285 -0.029989902 0.044737283 0.030620664
000050 ba ff 74 3e 18 53 5f 3e 8d 4a 8e 3d ce 51 b7 3c
       0.23925677 0.21809042 0.06947813 0.022377875
000060 a4 43 5d 3c ac 97 1d bd aa 10 8f 3e 4e 25 40 3e
       0.013504896 -0.038474724 0.279424 0.1876423
000070 e6 de fb 3d 72 39 7e 3d a7 8e b0 3c 7b 9e 52 3e
       0.12298374 0.062066503 0.021552397 0.20568268
000080 f3 39 b4 3d e4 77 b3 3c 8a 85 54 bd bf 50 e6 3e
       0.088001154 0.021907754 -0.051885165 0.4498348
000090 0b e2 fc bd 13 55 e6 3c 12 d0 c1 3a 99 fa 4a b9
       -0.12347802 0.028116738 0.0014786741 -0.00019357576
0000a0 f0 32 97 3c ce 88 20 3c fe 10 c5 bd 9d 0c 5d bd
       0.018456906 0.009798242 -0.09622382 -0.053967107
0000b0 6d dc be 3d cb 3f 0c 3e 7e aa 07 3e 34 34 aa 3e
       0.09319387 0.1369621 0.13248631 0.33242953
0000c0 65 c0 f7 3c a2 27 cd be dc aa d4 3d d5 da 42 bd
       0.030243108 -0.400693 0.10384151 -0.047571976
0000d0 7d c9 af 3e 03 86 69 3d 78 41 d4 3c 71 c4 20 3c
       0.3433341 0.05701257 0.025910124 0.00981246
0000e0 48 08 81 3b 2e 7d 00 bd 2c 23 83 3c 4a ae 55 3c
       0.003937755 -0.03136938 0.016007982 0.013042042
0000f0 6d 84 71 3e 8e 50 97 3c 41 73 87 ba 6d a5 00 3e
       0.23585673 0.018471029 -0.0010334031 0.12563105
000100 6b ff 8a be 43 ef ea 3b 66 21 c6 ba 26 b1 78 3d
       -0.27147993 0.0071696355 -0.0015116155 0.060715817
000110 0a 18 47 bd f6 fe 2a bd 06 2b 80 3d c4 b3 da 3d
       -0.04860691 -0.041747056 0.06258206 0.10678819
000120 61 f7 29 3d e3 53 35 3e c0 96 58 3e cd 99 7a bb
       0.041495685 0.17707781 0.21151257 -0.0038238645
000130 a3 3e 2b 3e c3 1a 76 3e b8 b0 0d 3d 7f 16 30 be
       0.16723113 0.24033646 0.03459236 -0.17196082
000140 de 41 e4 bc 7e c0 9f be 3f 98 30 3c 30 59 5d bb
       -0.02786344 -0.31201547 0.010778486 -0.0033775084
000150 7d 1c f7 3d 8d 04 11 bc 12 d8 d8 bd 7a 32 64 be
       0.120659806 -0.008851183 -0.10588087 -0.2228488
000160 bb 17 5b 3e d7 69 30 3e 56 ed d8 3c e1 6b 78 bb
       0.21395771 0.17227875 0.026480358 -0.0037906098
000170 d1 b4 a8 bc 68 6e 7f 3c 09 f5 72 3e 4e 2e 9e 3e
       -0.020594032 0.015590288 0.23726286 0.30894703
000180 d4 64 31 3e 7a 6b e5 bb c7 6e 68 bd 93 61 9d bd
       0.17323619 -0.0070013376 -0.05674627 -0.076846264
000190 42 e4 2a 3e 4d c3 a1 3c 15 f4 29 bc 51 79 2a 3e
       0.16688636 0.019746447 -0.010373135 0.16647841
0001a0 33 89 2a be 01 5f 75 3d cb e9 9e 3d 5f 85 7b 3d
       -0.166539 0.059905056 0.07759436 0.06140649
0001b0 2c b7 f1 bd f1 e0 1e 3e 2b b6 86 3e 90 6a 0b 3e
       -0.118025154 0.15515496 0.26310858 0.13614869
0001c0 4e bd ed bd be 3d 32 bb de 14 d8 be 79 aa cf bc
       -0.11608373 -0.0027197446 -0.4220342 -0.025349842
0001d0 80 f8 7e 3e 7e 4f 26 3d ef a8 24 3e 7d ae 78 3c
       0.24899483 0.040603153 0.16080068 0.01517832
0001e0 a5 8e bb 3c 0f 49 47 3e 6d 64 63 bd 14 13 de bc
       0.022895167 0.19461463 -0.055515695 -0.027108707
0001f0 7e c3 00 be b8 c2 39 be 0a e9 c3 3e 71 c6 8e 3b
       -0.12574574 -0.18140686 0.38263732 0.004357152
000200 df a9 d6 3d 0a 72 58 bb 95 0c 64 3e ab e3 68 3e
       0.10481619 -0.0033026957 0.22270425 0.22743098
000210 e1 b9 20 bd 5c 78 a7 3c bd 12 a5 bb d4 05 58 3e
       -0.039239768 0.020443134 -0.005037634 0.21095973
000220 00 ed 1a bc 03 d4 e8 bd 88 80 a0 be 41 ea b4 bc
       -0.009455919 -0.11368563 -0.31348062 -0.022084357
000230 56 a6 00 bc 0d 38 d4 bd df cd 54 be c1 fe 59 3e
       -0.007852158 -0.10362253 -0.20781659 0.21288587
000240 c6 1a ab bd 35 59 a2 be f1 95 5d bb ea 58 2f be
       -0.08354716 -0.31708685 -0.0033811296 -0.17123762
000250 c5 a6 a6 bd b6 28 cb be 7d 2d 2a be 12 6a 3e bc
       -0.081372775 -0.39679497 -0.16618915 -0.011621969
000260 32 10 5c be 39 d0 62 3e 0a 2b a8 3d c2 50 60 be
       -0.21490553 0.22149743 0.08211334 -0.21905807
000270 56 37 7e be bf 43 26 be a2 4b 59 bc 83 3e f0 3d
       -0.24825796 -0.1623678 -0.013262661 0.11730673
000280 02 5d d5 bd 67 36 01 bd 95 ef 0b be 0d 38 99 be
       -0.104181305 -0.031546023 -0.13665612 -0.29925576
000290 27 9d e6 3e b9 77 9f be 1d 25 48 bb 25 17 83 3c
       0.45041773 -0.3114603 -0.00305397 0.016002247
0002a0 8a db 18 3c 16 18 93 3b 08 64 70 bd 63 40 db 3d
       0.009329686 0.0044889553 -0.058689147 0.1070564
0002b0 5b 4e af 3c f4 28 42 be ea 10 be be dd 6d 9c 3c
       0.021399667 -0.18960935 -0.3712228 0.019095356
0002c0 35 89 5d bb cc 34 8e be 2b ed 59 3d 3e 58 f7 3c
       -0.0033803706 -0.27774656 0.053204697 0.030193444
0002d0 e0 bb 3e bd a6 de 7e bc 3c 93 09 bc e5 6d 84 3a
       -0.04656589 -0.015556013 -0.00839692 0.0010103552
0002e0 31 f2 4b 3c a6 44 42 3e 95 c9 46 bc 0a bf a8 bb
       0.01244788 0.189715 -0.012133022 -0.0051497268
0002f0 3a aa 70 3e f0 d7 1f 3e 46 51 4f 3b cb dc bf bd
       0.23502436 0.15609717 0.0031634136 -0.09368285
000300 28 59 00 be 48 ef bf bc 6d ac cb bb 90 fb 77 3d
       -0.1253401 -0.023429528 -0.006215623 0.060542643
000310 e8 99 22 be 8a 33 be bd 64 22 21 3e c5 81 b8 3d
       -0.15879023 -0.09287174 0.15735775 0.090091266
000320 28 25 85 3d e2 d1 c1 be c3 47 5a bc e9 aa a1 bc
       0.065012276 -0.3785544 -0.013322773 -0.019734817
000330 35 c9 eb bd dd 4e c0 3d 72 41 ab be 6c 32 22 3d
       -0.115129866 0.09390042 -0.33448368 0.039598867
000340 61 d4 ae bb 87 47 08 3d 63 45 a7 3d 93 58 52 3c
       -0.005335376 0.03327134 0.08167531 0.012838501
000350 7d 8f aa 3e c0 ce 90 3c 32 54 fd bc c3 85 b9 bd
       0.33312598 0.017676711 -0.030923937 -0.09058716
000360 92 d0 e8 3c 2c 68 3d 3e c0 92 2a be 7c bd 4f 3d
       0.028419767 0.1849677 -0.16657543 0.050717816
000370 2e 85 3f bb fd 6f a5 bc 44 36 8f 3e 72 ad c6 bc
       -0.0029223668 -0.020195002 0.2797109 -0.024252627
000380 f7 c6 6c be a1 3d 0f bc 59 dd 00 be 74 c3 77 be
       -0.23122774 -0.008742721 -0.12584437 -0.24195653
000390 ff 37 8e 3e d7 00 88 3e d5 6a 2b bc 87 c4 da bd
       0.27777097 0.2656314 -0.010462482 -0.10682016
0003a0 62 e8 e8 3c 51 cb 1b bc 87 f0 18 bd 66 43 47 be
       0.028431121 -0.009508924 -0.03733876 -0.19459304
0003b0 1a c4 ce bd ac e4 10 be 33 e7 a2 3e af d0 b4 be
       -0.10095997 -0.14149731 0.31817016 -0.35315463
0003c0 fa d3 9b 3e 33 1b a1 ba d9 34 60 be 3b e3 e0 3d
       0.30435163 -0.0012291431 -0.2189516 0.10980841
0003d0 e7 5d ca bc 3e 2d ca 3d 15 49 4e be 5b 40 9c 3d
       -0.02470298 0.098719105 -0.20145066 0.07629462
0003e0 22 77 b5 bd 8a 03 18 3e 2c 19 c3 bc 66 56 66 bd
       -0.088606134 0.148451 -0.023815714 -0.05623474
0003f0 61 35 ed 3d c1 b6 59 bd e2 e7 a0 3d ae 89 c3 bb
       0.11582447 -0.053152803 0.07856728 -0.0059673404

r_to_mu_sigma.hidden_to_mu.bias f4 [16]
000000 72 fa 46 3c 54 e4 31 3c d7 d6 dd 3b 46 a9 51 bc
       0.012144672 0.01085766 0.0067699957 -0.012796706
000010 de 57 bc ba f8 a7 d6 3c 11 32 4f 3f 5f 73 0c 3c
       -0.0014369448 0.02620314 0.8093577 0.0085724285
000020 ae e3 b0 bc 30 1b 03 bf 12 c9 b8 ba 33 cc 08 3d
       -0.021592941 -0.5121336 -0.001409801 0.033397865
000030 10 c4 3c bf 29 45 b5 3c 5c ce 95 bc 20 dd ca 39
       -0.7373667 0.022127705 -0.018286876 0.00038693193

r_to_mu_sigma.hidden_to_sigma.weight f4 [16, 128]
000000 ae f2 df 3d cf 9a da 3d 82 9d be be f5 6b 81 be
       0.10934959 0.10674059 -0.37229544 -0.25277677
000010 02 a1 ce be bc 9b ce 3e bc 6c 52 bb 18 a2 02 3e
       -0.40357214 0.4035319 -0.0032108268 0.12757146
000020 bb 8c 9d 3c a9 cf ff be d2 5d 72 be 6f b6 c2 3d
       0.019232145 -0.4996312 -0.23668602 0.09507453
000030 1f 0f 0d bf 90 93 7d bd 30 5a 09 3e 28 96 a3 3e
       -0.551012 -0.061908305 0.1341331 0.31950498
000040 b1 eb a5 be 1d 9d c9 3e de 8d 09 bc 5c a2 7e be
       -0.3240638 0.3937768 -0.00839564 -0.24866623
000050 ae 3b 4a be 4d 24 aa 3c 8b 73 8b 3c 8c ff fc 3c
       -0.19749328 0.020769263 0.017022869 0.030883573
000060 c6 da a1 3d ad 0e 1a 3e b3 ee a9 3d 55 a6 87 be
       0.07903056 0.15044661 0.082974814 -0.2649409
000070 06 18 f1 3e 73 de ec be b0 7d ff 3d e8 ff 3f be
       0.4708864 -0.46263465 0.12475145 -0.18749964
000080 2f 60 b6 3d 44 92 35 bc 9d 39 93 bd 3d 94 d8 be
       0.08905064 -0.011082236 -0.07188723 -0.42300597
000090 91 d2 54 be c9 5c ae bd ab 2b 8c bd 15 3a bd 3d
       -0.2078345 -0.08513791 -0.068442665 0.09239594
0000a0 e5 c5 6b 3d c3 a8 d4 3b c7 4b 80 3e ed f7 0b be
       0.057561774 0.0064898445 0.25057814 -0.13668795
0000b0 49 8a 9d be 4a ac b9 bd 6a 22 19 be f1 88 c4 be
       -0.30769566 -0.09066065 -0.14954534 -0.38385728
0000c0 b2 8a a9 3d ce a4 69 bf 8b 09 1d 3f 1e 01 de be
       0.08278407 -0.91267097 0.61342686 -0.43360227
0000d0 8b 60 31 3e 43 1d c0 be 2c b8 8d 3d f3 27 26 3c
       0.17321984 -0.37522325 0.069198936 0.010141361
0000e0 c6 3a a0 3c 7b b4 eb bd 29 37 fd 3b 3c 36 a5 3d
       0.019559275 -0.11509033 0.007727523 0.08066985
0000f0 be 88 41 3e a1 88 95 be 81 b7 72 3c 9d 81 f1 be
       0.18899819 -0.29205802 0.014814259 -0.471692
000100 d0 21 1b 3e b1 b6 53 bc b6 76 04 3c ab d7 12 bf
       0.15149617 -0.012921975 0.0080849435 -0.57360333
000110 0b 41 56 be 35 14 7a be b0 f8 26 3e d3 22 6c be
       -0.2092325 -0.24421771 0.16305804 -0.2306016
000120 db 78 63 bf 64 41 cc bc e3 09 6c 3e ef 33 9b bc
       -0.88856286 -0.024933524 0.23050646 -0.018945662
000130 40 d1 6b bc 2e 0b cf bc c3 3e a3 3d 1c ae 4d 3e
       -0.014393151 -0.025273886 0.07970955 0.20085949
000140 a5 9a 61 3d 3f 5d c8 3d e7 da 9e 3e a5 5b ba ba
       0.05507912 0.0978341 0.31026384 -0.0014217986
000150 2d ea 0d 3e e1 0f ae bd 74 be db 3e b8 d9 20 bf
       0.13858862 -0.084991224 0.42918742 -0.6283221
000160 47 8b a8 be b6 a5 a5 bd 7d be 11 be dc bb fc 3c
       -0.3291876 -0.080882475 -0.14232822 0.030851297
000170 3b 05 11 3d 73 51 87 bc 68 02 aa be 11 7b 70 bc
       0.03540538 -0.01651833 -0.3320496 -0.014677779
000180 72 38 22 3e a7 70 85 bc 7d fb f7 3b 23 32 5b 3d
       0.15841845 -0.016289068 0.0075678215 0.05351461
000190 e9 9c 4a bf 02 c2 1a bf 74 db 2c 3d f6 f7 4f 3d
       -0.79145676 -0.6045228 0.042201474 0.050773583
0001a0 c3 54 10 bf b8 aa 53 be ff d4 fa 3e cb 9a b4 bd
       -0.56379336 -0.20670593 0.48990628 -0.08818587
0001b0 63 a5 65 3e c4 00 dc 3e 74 90 25 3e c7 f4 d1 3d
       0.22426371 0.42969334 0.16168386 0.10251766
0001c0 09 5c 26 be dd e5 80 3d 60 5b 2d bf 14 d8 82 3e
       -0.16246046 0.06293843 -0.6771755 0.2555548
0001d0 31 df 9d 3e 45 f5 49 be cc 17 9a be 8d 69 a4 3d
       0.30834344 -0.19722469 -0.3009628 0.08027945
0001e0 ab 2d 85 bd 44 7a 88 be 6a 1b 4e bd 58 37 80 bd
       -0.06502851 -0.2665578 -0.050319113 -0.06260556
0001f0 bf e5 0d be be 03 fa bd c3 58 89 3e 87 3a dd 3c
       -0.13857172 -0.12207745 0.26825532 0.027005447
000200 06 60 25 bf 91 6b 09 3e 89 8d cc be a1 fa e8 3d
       -0.64599645 0.1341994 -0.39951733 0.11375929
000210 06 b6 0b 3f 2e fe 91 be c4 fa dc bc 79 e2 06 be
       0.5457462 -0.28514236 -0.026975043 -0.1317233
000220 e9 34 43 3d 5e 9a 82 be da a6 20 3f 48 1d a8 3c
       0.04765788 -0.25508398 0.62754595 0.020521775
000230 15 2c d5 3e fe 76 67 3e 46 2f fe bb 3f b4 a5 3e
       0.41635194 0.22603986 -0.0077571003 0.3236408
000240 29 ae c4 be 5e 98 27 bf 60 8c 59 be e6 c2 79 be
       -0.38414124 -0.6546687 -0.21244955 -0.24390754
000250 a3 f1 df 3e c1 a2 38 be 9b 48 33 3f 50 a6 ba 3d
       0.43739042 -0.18030836 0.7003266 0.09113753
000260 c3 ad b8 3d 38 aa 3b be a1 8b 9e 3e 62 10 4c be
       0.090175174 -0.18326652 0.30965903 -0.19928125
000270 d0 ef 51 3e 41 37 b9 be 1a 27 ce 3d f0 c8 02 be
       0.20501637 -0.36174968 0.10066052 -0.12771964
000280 99 dd 02 3f 02 2f e2 3c 5a 9f 77 be 33 20 c2 be
       0.5111938 0.027610306 -0.24181882 -0.3791519
000290 fa 39 bd bd c0 e0 0f 3e b7 94 87 3d e3 8b e7 3d
       -0.09239574 0.14050579 0.06620162 0.11305978
0002a0 9e b3 12 bd 58 03 6e 3c b7 32 20 3f a3 f7 3e 3e
       -0.035815828 0.014527164 0.62577385 0.18649153
0002b0 0c cd 84 be de f7 44 be f5 53 78 be 0d 25 4c 3e
       -0.25937688 -0.19235179 -0.24250777 0.19936009
0002c0 b9 aa 14 3c f4 7e dc be 07 57 ad 3e 61 1d 9a 3e
       0.009073907 -0.43065608 0.3385546 0.3010054
0002d0 c0 af a9 be 22 25 8f be 07 a8 3b 3d 48 5d 5f 3c
       -0.331419 -0.27958018 0.04581454 0.01363308
0002e0 22 e4 70 bd 98 9f 88 3e eb b0 8e bd cf ba cb bc
       -0.058811314 0.2668426 -0.06967338 -0.02486935
0002f0 bc ea fa 3e 29 31 08 3f 50 3c 99 bd ac dc 8e be
       0.49007213 0.5320001 -0.07482207 -0.27902734
000300 16 1c 10 3f 79 b0 17 bc 37 75 c3 39 10 6d f2 3d
       0.56292856 -0.009258383 0.0003728063 0.11837208
000310 8b 43 8c 3e 6a 13 93 be fe 34 83 3e 53 91 48 3e
       0.2739528 -0.2872575 0.25626367 0.19586687
000320 21 fe 0e bc 5e 14 b1 bd 92 cd 2c 3e 53 ba 01 3d
       -0.008727581 -0.08646463 0.16875294 0.031671833
000330 5a 03 83 3e b7 0b 6b 3e da 80 b9 3d ae 4c 67 3d
       0.25588495 0.22953688 0.090577796 0.05646961
000340 d3 07 40 3d 60 85 0c 3f ce b5 72 3e cd 43 4a 3d
       0.04688246 0.54891014 0.23702165 0.049381066
000350 1a 78 c0 3e f7 c5 ad bc db 65 9c be d6 23 d3 be
       0.3759163 -0.021212561 -0.3054646 -0.41238278
000360 6d 28 f5 3b 92 14 e1 3e f3 c6 75 be 8f 07 43 be
       0.007481626 0.43961006 -0.24001674 -0.19045852
000370 83 7a 20 3e 72 8c 59 3d 7d b7 5b 3e a3 10 08 3d
       0.15671735 0.053112455 0.21456714 0.03321899
000380 3c e3 0e be b7 c4 cf 3b 6c d1 36 bf e8 2f a3 3e
       -0.1395387 0.006340589 -0.714133 0.31872487
000390 23 5e 38 be 46 30 2c be da 72 52 bd 2c 0c 97 3e
       -0.1800466 -0.1681529 -0.051379062 0.29501474
0003a0 0f ea 0c be 75 41 14 3e 14 20 97 be 89 3d d1 3e
       -0.13761161 0.14478095 -0.2951666 0.4086726
0003b0 10 52 ab be 34 8f 90 3d 48 58 f0 bd 54 d9 3a bf
       -0.33461046 0.07058564 -0.11735588 -0.72987866
0003c0 95 4a 82 3e 73 87 4f 3d a2 62 a6 be f7 00 dd 3c
       0.25447527 0.050666284 -0.32497126 0.026978
0003d0 ae 67 88 3e ba cc 52 be ef 9b 34 be df 06 1c 3c
       0.266416 -0.2058591 -0.17637609 0.009523123
0003e0 fd ef 89 3e bb 1e 48 3d 9f 2a b2 be 8b a7 dd be
       0.2694091 0.04885743 -0.34798142 -0.43291888
0003f0 90 9b b5 be 82 94 20 3e 58 7e 3d 3f 6d 00 96 3c
       -0.35470247 0.15681651 0.7402091 0.01831075

r_to_mu_sigma.hidden_to_sigma.bias f4 [16]
000000 29 d2 26 c0 bb 76 24 c0 20 e1 27 c0 a9 f3 25 c0
       -2.6065772 -2.5697467 -2.6231155 -2.5929968
000010 5e 32 21 c0 79 aa 25 c0 87 4c 87 c0 30 e5 20 c0
       -2.5186992 -2.5885298 -4.2280917 -2.5139885
000020 e5 ba 29 c0 06 fc 89 c0 d6 5c 24 c0 52 2e 27 c0
       -2.6520321 -4.3120146 -2.5681663 -2.6122022
000030 5f 20 4c c0 8f b2 21 c0 80 a1 24 c0 ff a7 26 c0
       -3.1894758 -2.5265234 -2.5723572 -2.6040037
