seed-AuNP-phasemaps/pretraining/tune/128_2_16_1.68E-03_16/model.pt (torch, 87520 bytes, 20 tensors)

xy_to_r.input_to_hidden.0.weight f4 [16, 2]
00000000: e874 aebd a88d 7abe 2cdc dfbf dc4d 393f
00000010: 8c40 febf 12d2 203f 1a57 07bd 9ff3 d6bf
00000020: 5f6a 033d 7f06 cabc 42ef f9be decd 053f
00000030: 6084 fabd 152a 31bf 33dd b8bf bbdb 9ebe
00000040: df01 06bf 4799 18bf 96e7 d6bd 31a4 873e
00000050: 669c 51bf 641f eebd 7764 6dbf b869 4c3e
00000060: 9a7a 783d 1bba 533f 706a 853f 1650 c1be
00000070: 6e75 9dbf 2786 863e fb0a 8e3f 9acc d63e
-0.08518392 -0.244681 -1.7489066 0.7238443 -1.9863448 0.6282054 -0.03304205 -1.6793097
0.032083865 -0.0246613 -0.48815352 0.52267253 -0.1223228 -0.6920484 -1.4442505 -0.31027016
-0.52346605 -0.5960888 -0.1049339 0.26492456 -0.8187927 -0.11627081 -0.9273142 0.19962204
0.060663797 0.8270585 1.0423107 -0.37756413 -1.2301462 0.26274225 1.1097101 0.41952974

xy_to_r.input_to_hidden.0.bias f4 [16]
00000000: b4f7 47bb c064 83bd 7740 37be 0569 e63e
00000010: 52be 08bf de4e c5bd 95b0 c7be 570c a23e
00000020: faf3 00bf 350a 9cbd 7be0 473f 2cc0 c23e
00000030: 934c 8bbe e930 c7be 7001 453f 743f 24bf
-0.0030512633 -0.06415701 -0.17895685 0.45002 -0.53415406 -0.09634183 -0.3900191 0.3165004
-0.5037228 -0.07619134 0.78076905 0.3803724 -0.2720686 -0.38904503 0.7695532 -0.6415932

xy_to_r.input_to_hidden.2.weight f4 [16, 16]
00000000: 6e72 76be 3996 b53e 0210 cabe 0f20 2b3d
00000010: dc08 5bbe 4413 c43d 5a6d 3ebe fa9d b8be
00000020: 68c6 9bbd cdc9 2c3e b1e9 16bf e54a f1be
00000030: 55e6 833e d482 a1bd bc76 f2bf dfbc 163f
00000040: a0e3 65bd f259 8abd 7ab4 2bbf 1de8 7abf
00000050: 886d b9bd 6306 133e c632 233e b69a 67bd
00000060: 083a f03d c2b0 013f 7ab4 89bf 3b20 6bbe
00000070: 4d7f 103f d15c 43c0 338c e1bd 7376 1c3f
00000080: 3042 dfbc b87f d9bf deb2 0abf 9b83 bcbe
00000090: 5498 9e3d 52e9 18be 6209 3e3e 80e3 243e
000000a0: d8c6 233d df7a 28be ec1c 91c0 582d e53d
000000b0: 6cb9 b4bd a88c af3f cf56 a9be 3ae1 993e
000000c0: cc32 72be 7cd0 333f e355 783f 08ed 853d
000000d0: 680f 473e 3416 663e 08ff 183e 7bb8 dc3e
000000e0: a022 bf3c be82 a1bc ffda 13bf 618a 4f3e
000000f0: 37af b9bd 0a2f 173e 4e00 b73e 43d2 dcbf
00000100: 3c9c 7b3e 7406 c53d 0071 fb3d 6037 a9bc
00000110: c859 99bd d8d0 edbd ec5f 2c3e a4fb b4bd
00000120: e455 dbbd ac6a 53be 005a 863a d08e b03c
00000130: 384e a4bd 144c c03d 38ab d33d 3064 b6bc
00000140: 1c35 213e c05c 8b3d 9c3d 8abd ba8d 97be
00000150: f070 1fbe 245a b1bd a639 68be 5609 85be
00000160: 406b b6bc 458e 8bbe 6ebd 933d 1670 16be
00000170: 175b fabd 4fb9 bd3d edcf 08be b4e9 53be
00000180: e6e6 08be 9318 14be 7715 4c3d d411 30c0
00000190: 808b 62bc 0254 9dbd 7426 98bd f5dd a4be
000001a0: fccc be3d b69b 9a3d 9f17 6a3f c96a 8dbf
000001b0: ec3b 173f 5061 bb3e baab adbf 6654 593f
000001c0: 3021 65be 91c0 d2bf 4bbf bdbe 898b e8be
000001d0: 70b3 2ebd b36b c2be 62de 2b3e f0c7 683b
000001e0: d004 ccbd 3444 29be 9b52 923e 85b2 073f
000001f0: 5dff 9abe 58d6 95bc bf87 e53e 0c9e 20bf
00000200: 48c6 133d 396b 7bbe 1b81 243e f731 a03f
00000210: 78e4 34be 7704 543e 38eb b23d cf4b 52bc
00000220: 4ebe 58be c14b 24c0 769c 96bf 002d aa3e
00000230: 9a3f c4bf 4e28 173f 26bf 3ac0 502b 30be
00000240: 6ef9 143e 1d23 e63d 9855 debd 24b0 9a3f
00000250: 6e54 5ebe 86cd 1f3f 8253 6e3e f393 5fbf
00000260: 1cfa dcbd d41f 9fbd 419d 953d 5e79 8e3e
00000270: 1d35 10be 1a7c 60bf f58b c93e 0131 06c0
00000280: 780f 273d 1c1f 4abf 29a5 74bf 5439 93bf
00000290: 28b4 983d 6fc5 023f 7254 77be 79ce 2d3e
000002a0: 62df 673e 2326 7a3e 2480 e8be 36b6 81be
000002b0: b85b 283f 0a5f 1e3f 7ee5 7c3e 51f1 8d3e
000002c0: 8c61 603e 6c79 1ebf 7d64 94bf 4ef0 3abf
000002d0: e01d 78bc 3f4f de3e b42e 51be 3dd6 6dbe
000002e0: 488c cabd a93f b73e 4c1c b43c e735 e9bd
000002f0: c503 2e3f 1115 adbf 2187 8d3e d4bf 8fbe
00000300: 0459 ed3d 1748 21bf 2d9c 0cbf da88 a9bf
00000310: d44e 57be 55c7 79bf cc10 a9bd 661f eabe
00000320: 1048 da3c 27dd 493e c3d1 aebe a319 7fbf
00000330: cc30 263f 8247 b1bf ec0b 04bf c82c 373f
00000340: d8be 27bd aaf7 193e afa4 0f3e 80dd 6a3b
00000350: 98a3 42bd e565 c73d d046 303d de8f 39be
00000360: 1e34 243e 7c0c 273e ec02 c4bd 7c65 403e
00000370: 91f4 77be 6893 00bd 0c68 73be bcb6 33be
00000380: ba95 153e 37d1 85bf d6ba 50bf bcdb f9bf
00000390: 50a1 9fbc 2c4a b0be e434 e1bd 306f 5c3f
000003a0: 94fd 1f3e ffc7 133e d472 543e 231b 083f
000003b0: 20bf e93e 3411 d0bd b561 863e 6c8a 0d3f
000003c0: 8872 163e 81b5 093f 0120 a3be dc23 233f
000003d0: 426d 673e 66a8 523e 98ae 9d3d bd1e a8be
000003e0: 4ca1 ff3d 9c23 afbd 0488 f03d 7599 f13e
000003f0: 94e7 133e 18a3 86c0 5e89 093f 3748 39be
-0.24067089 0.35466173 -0.39465338 0.04177862 -0.21390098 0.09573987 -0.18596402 -0.36058027
-0.07606202 0.16873856 -0.58950335 -0.47127452 0.25761667 -0.078862816 -1.8942485 0.58881944
-0.056125283 -0.06755437 -0.6707226 -0.98010427 -0.090540946 0.14357905 0.15937337 -0.05654403
0.117298186 0.50660336 -1.0758202 -0.22961514 0.56444246 -3.05254 -0.11013069 0.6111824
-0.02725324 -1.6992102 -0.5417918 -0.36819157 0.07743898 -0.14932755 0.18558267 0.1610241
0.039984554 -0.16453122 -4.5347805 0.11190289 -0.08824429 1.37148 -0.33074042 0.30054647
-0.2365219 0.70239997 0.9700605 0.06539351 0.19439471 0.22469407 0.14941037 0.43109497
0.02333194 -0.019715663 -0.57756037 0.20267631 -0.09066623 0.14764038 0.3574242 -1.7251667
0.24571317 0.096203715 0.122774124 -0.020656288 -0.074878275 -0.116120994 0.16833466 -0.08837059
-0.10709742 -0.20646161 0.0010250211 0.021552473 -0.080227315 0.09389511 0.10335392 -0.02226457
0.15742916 0.068048 -0.06750032 -0.29600316 -0.15570426 -0.08659771 -0.22678241 -0.25983685
-0.022267938 -0.2725698 0.07213865 -0.14691195 -0.12224405 0.092638604 -0.13360567 -0.2069462
-0.13369331 -0.144625 0.049825158 -2.7510881 -0.013827205 -0.07682039 -0.07429209 -0.3220059
0.093164414 0.07549231 0.9144229 -1.1048213 0.5907581 0.3659768 -1.3568032 0.84894407
-0.22375941 -1.6465017 -0.37060007 -0.45418957 -0.042651594 -0.37972793 0.16784051 0.0035519563
-0.099618554 -0.16529924 0.28578648 0.53006774 -0.30272952 -0.018290684 0.4483013 -0.6274116
0.036077768 -0.24552621 0.16064875 1.2515248 -0.17665279 0.20704828 0.08736271 -0.012835457
-0.21166345 -2.5671237 -1.1766498 0.33237457 -1.533191 0.59045875 -2.9179168 -0.17204022
0.14548275 0.11237166 -0.108561695 1.2085004 -0.21711895 0.6242298 0.23274043 -0.8733513
-0.10789892 -0.077697426 0.073053844 0.2782697 -0.14082761 -0.87689364 0.3936459 -2.096741
0.040786237 -0.7895372 -0.95564514 -1.150187 0.07456237 0.5108251 -0.24153307 0.16973294
0.22643808 0.2442861 -0.45410264 -0.25334328 0.6576495 0.6186377 0.2469692 0.27723172
0.21912211 -0.61904025 -1.1593167 -0.73022926 -0.0151438415 0.43419835 -0.20427972 -0.23226257
-0.09890038 0.35790756 0.02198615 -0.11387234 0.679745 -1.3522054 0.27642158 -0.2807604
0.11589244 -0.63000625 -0.54925805 -1.3244889 -0.21026164 -0.9756978 -0.08255157 -0.4572708
0.02664569 0.19713269 -0.3414441 -0.99648494 0.6491821 -1.3849947 -0.5158069 0.71552706
-0.040953487 0.15035883 0.14027666 0.003583759 -0.047519296 0.09736232 0.043036282 -0.18121287
0.16035506 0.16313356 -0.0957087 0.18788713 -0.24214388 -0.031390578 -0.2377016 -0.17550176
0.14607897 -1.0454472 -0.8153509 -1.9520183 -0.0194861 -0.3443159 -0.10996416 0.8610716
0.15624076 0.14431761 0.20746928 0.5316641 0.4565363 -0.10159531 0.2624642 0.5528934
0.14692128 0.5379258 -0.31860355 0.6372659 0.22600272 0.20572051 0.07699317 -0.3283595
0.12481937 -0.08551714 0.11744693 0.4718739 0.14443809 -4.207409 0.5372523 -0.18093954

xy_to_r.input_to_hidden.2.bias f4 [16]
00000000: 1764 013f 534c 31be 1c2c 143e 5bc9 e3be
00000010: d27c 0cbe 9e41 aebc 1332 25bf f982 d13d
00000020: 4686 f83c 0e3f 463e d325 50be 9f94 a03d
00000030: 0fd8 a43e 6780 84bd a19c 6dbe 27c4 01be
0.5054335 -0.17314272 0.14469951 -0.4448956 -0.1371949 -0.021271523 -0.6452953 0.10230059
0.030337464 0.19359991 -0.20326929 0.07840847 0.3219609 -0.06469803 -0.2320428 -0.12672482

xy_to_r.input_to_hidden.4.weight f4 [128, 16]
00000000: de23 0bbe 5f38 b9be e5cb 04bc a9d6 b43e
00000010: 7406 c83d 80ac 0ebe c00e 943f 4538 f6be
00000020: 91d7 903f 2cd4 123f 3683 8fbe 606f 9a3e
00000030: abc6 ed3e c4dd 01be 0d8f b53e a092 283d
00000040: 3b6e 39bf 408b 01bf 1ca6 57bf bfa3 f63e
00000050: 6a88 3abe a302 3a3e a3d7 c4bf 20aa 8dbe
00000060: 132b 2d3f 6fe5 823d 6ba8 16be 4027 283f
00000070: 55d2 873f 04e3 5e3e 8687 983e 671f 06be
00000080: c803 cb3e e441 dabd c7fb 0ebf 204a c2be
00000090: 609e ccbc 2b7c 643e d35c 023f 5cb0 113f
000000a0: 8a92 4fbe 8b99 293f fc07 3fbf 40c6 a1be
000000b0: 0414 dcbd 5a2b 5fbe 3183 ef3b 530b 2cbf
000000c0: 4449 123e 2595 ee3e 173b 48be 01c6 203f
000000d0: 02d9 053e 2a96 ca3b 1a27 a5be c793 a83d
000000e0: ba4f 56bf c3a8 523e 7738 d2bd eab3 fb3d
000000f0: 9097 11bf b878 3ebe 2615 87bb ae88 43bf
00000100: 77b3 2fbe 0dc8 f5bd 1a4a ef3d c0e5 41be
00000110: 904f 7bbd 42ca 213e 84e3 ae3f e5e0 863e
00000120: 596c 7fbf db51 62bf a5ba abbd 33a6 d5be
00000130: b62e fabe 7c91 43be 5f82 0bbe ea1a c13e
00000140: ad26 2b3e 7540 c53d d6a3 6fba 9613 86bf
00000150: e86b 963d 9200 943e 621d b53e f935 763e
00000160: 6af3 c1be 7253 e63e bf9a 82be 489f 35bd
00000170: 6695 17be 03c4 3dbe fc83 203e 2ea0 4fbf
00000180: 8f6d 8e3f 6965 f4be 9430 fcbe 17db 4a3f
00000190: 40d3 e8bc 8e59 843d 5a89 2dbf e673 96be
000001a0: 9b37 26bf f55c 003f 9e74 8b39 7b90 4c3f
000001b0: b4bc 3cbf b68f 7c3c 55ef eb3e 0014 e7be
000001c0: 185d 6a3e b95b ffbe f95c 39be d777 b6bb
000001d0: ce0e 68be 929a f0bb 3f37 6c3e f70d 77be
000001e0: 75f3 853f e95b a73d 64fc 43bf c953 693e
000001f0: cb56 5b3f 4719 363e a4d1 023f 831b 053f
00000200: 692c f93e bc97 133f 04f2 bfbd 3adb 32bf
00000210: 4cc7 c43d 8311 083d 9ddc 82bf a3e9 753e
00000220: 0d47 b23e 8072 c73e 775c 09bf 825d ca3e
00000230: 1b9a d83e 2009 03be 8bfd b3be d7a6 48bd
00000240: fdf2 fabe f3ec 26bf d154 2d3e 7b01 d33f
00000250: 08c7 c3bd 4b21 71be f6fb 16bf 7151 ccbe
00000260: d221 ab3e d1d0 8dbd 2dbf da3e 74d6 953e
00000270: 475f 4bbc 8cc6 163e aa96 00bd 079e 4c3f
00000280: 1f13 903f efc8 77be fe92 31bf 0778 8c3e
00000290: 489d bc3d ab2e 9b3e 89ae fdbe d5d7 ac3e
000002a0: 2290 b3bd 94e7 4b3d 9ec3 903d 8776 083f
000002b0: acde 98be 3699 313e 8553 b3be 0cb1 05bb
000002c0: 519e b13f 7e4d 60be baa6 f4bd 292f 82be
000002d0: 005c dabc fc5a 663d 1a44 1f3f 182d 39bc
000002e0: 0ffa 77bf b51b 65bc 8a23 25bf 2840 03be
000002f0: 0940 2ebe ae7f 95bc 3345 9fbe ab85 093f
00000300: 720a f7be 3196 49be 4303 90be 8d3a eb3e
00000310: 8e7f 77be d0a9 513c 486a ff3e dae3 23bf
00000320: 91b8 403e 9089 203e e762 773e cbc6 443f
00000330: 46fc 863d 553b ec3c eeef fc3e a4bb 503e
00000340: 5a78 3cbe 215d 33be 8f00 ba3e 3ad3 36bf
00000350: ea3d 363e a516 24bc 0717 3d3f 1c28 d93e
00000360: 0ee7 c9bd fb4b 4c3f 7181 b93e f534 293e
00000370: 2634 9ebe 46bb 6bbe c9ab 633e 73b5 c83e
00000380: de2d 4dbf ca85 25be 3bcb 193f 64fe 9d3f
00000390: 7c55 38be b228 6abd 7d85 ba3f 616f 4ebe
000003a0: 0ffe 56bd 3549 6a3c 44e0 51be 2c19 e23e
000003b0: b71e ccbd 3961 383e 4e6d 3c3d 7b46 0abf
000003c0: f9eb 0a3f dcb9 e9bd 9933 3bbf d5b7 3cbe
000003d0: 7c35 dfbd 439a a53e 06fa 0f3f 94cc 2b3f
000003e0: 2029 4bbe f53c e73e 31b5 bbbe d31c 6cbf
000003f0: 848a 22bf 4acc 50be 73f5 ddbe de9b 01bf
-0.13587901 -0.3617582 -0.008105253 0.35320023 0.09766856 -0.13932991 1.1567001 -0.48089805
1.1315786 0.57355 -0.28029794 0.30163097 0.46440634 -0.12682253 0.35460702 0.041155457
-0.72433823 -0.50603104 -0.8423784 0.48171803 -0.182161 0.18165068 -1.5378307 -0.27668858
0.6764385 0.06391417 -0.14712684 0.6568489 1.0611063 0.21766287 0.29790896 -0.13097917
0.39651322 -0.10657099 -0.5585293 -0.37947178 -0.024977863 0.22312991 0.5092289 0.5690973
-0.20270744 0.6624991 -0.7462156 -0.31596565 -0.10746005 -0.21793881 0.0073093404 -0.6720478
0.14285761 0.46598163 -0.19553791 0.6280213 0.13071063 0.0061824517 -0.32256395 0.08231311
-0.83715403 0.2057219 -0.10264676 0.12290175 -0.5687189 -0.18600738 -0.004122394 -0.7638043
-0.17158304 -0.12001047 0.116840556 -0.18935299 -0.061355174 0.15799811 1.3663182 0.26343456
-0.997747 -0.8840615 -0.08385209 -0.41728362 -0.48863763 -0.19098467 -0.13623951 0.37715846
0.16713972 0.09631435 -0.000914154 -1.0474727 0.073448 0.28906685 0.3537398 0.24044026
-0.37881023 0.4498554 -0.25508687 -0.044341356 -0.14803085 -0.18531804 0.15675348 -0.8110379
1.1127185 -0.4773362 -0.49255812 0.79240555 -0.028421044 0.06462394 -0.67787707 -0.29385298
-0.649286 0.5014184 0.00026599033 0.7990796 -0.7372544 0.015415123 0.46081033 -0.45132446
0.22887075 -0.49874666 -0.18101873 -0.0055684852 -0.22661898 -0.007342645 0.2306795 -0.24126421
1.0464922 0.08171827 -0.7655699 0.22785868 0.8567931 0.1778308 0.51101136 0.51995105
0.48666695 0.57653403 -0.09372333 -0.69865763 0.09608325 0.033219825 -1.0223576 0.24014907
0.34819832 0.38954544 -0.53656715 0.39524466 0.42305073 -0.1279645 -0.35154375 -0.048987236
-0.4901351 -0.65205306 0.16926886 1.6484827 -0.095594466 -0.23547857 -0.5897821 -0.39905885
0.3342424 -0.06924594 0.4272398 0.29265177 -0.012412853 0.14724177 -0.031393684 0.7992863
1.1255835 -0.24197744 -0.6936492 0.27435324 0.092096865 0.30309042 -0.49547222 0.33758417
-0.087677255 0.049781397 0.07068561 0.5330586 -0.29857385 0.17343602 -0.35024658 -0.0020399718
1.3876439 -0.21904561 -0.11945863 -0.25426605 -0.026655197 0.056239113 0.6221329 -0.011302255
-0.96865934 -0.013983657 -0.64507353 -0.12817442 -0.17016615 -0.018249359 -0.31107482 0.53719586
-0.48250157 -0.196862 -0.28127488 0.45943108 -0.24169752 0.012796834 0.49885774 -0.6401955
0.18820406 0.15677476 0.24158822 0.76865834 0.06591086 0.028836885 0.49401802 0.20384079
-0.18405285 -0.17515995 0.3632855 -0.71416056 0.17797056 -0.0100151645 0.7386326 0.42413414
-0.09858523 0.79803437 0.36231568 0.16524108 -0.3089916 -0.23020658 0.222335 0.39200935
-0.8014811 -0.16164318 0.6007573 1.2343259 -0.1800136 -0.057167716 1.4571987 -0.20159675
-0.052488383 0.0142996805 -0.20495707 0.4415983 -0.09966796 0.18005838 0.04600268 -0.54013795
0.54266316 -0.11412403 -0.73125607 -0.18429501 -0.10898873 0.32344255 0.5624088 0.67109036
-0.19839907 0.45163694 -0.36661676 -0.9223148 -0.6349261 -0.2039043 -0.43351325 -0.5062846

xy_to_r.input_to_hidden.4.bias f4 [128]
00000000: 32b0 96be 0983 f3bc 0a5e 083e f010 803e
00000010: 40b4 b73e 4228 e13d 4dec 79be ad6c c9be
00000020: 57b5 aebe 904a 0abe 0c91 97be 19ec 72be
00000030: 8c34 cc3c 0722 eabe b04d 503e 4321 fe3c
00000040: 51b6 09be 5ae6 e23e cc4b 78bd 230c 7c3d
00000050: 71c6 133e 9e8f a7bd e40d a73e 230f 06bf
00000060: ac8a 78be 9048 32be a1b5 763c e1f9 b9be
00000070: 97e2 e73d 6404 9a3e e155 babe 5dab 2bbe
00000080: e354 bc3d 722a d13d 174d e6bd adb2 c4be
00000090: a0d7 6bbd ebad 203d 6d51 1e3e 1b40 02bc
000000a0: 58e6 61be 6096 f3be c7ad 20be 8d3b 87be
000000b0: 965e 34be 6211 a53e c04f 8cbd f1de 96be
000000c0: a523 bc3e cf94 6a3e 73e4 9f3c 1a0c d5be
000000d0: 9c99 c1be 2620 953e 8e28 773d cc7a 1a3e
000000e0: 97a2 ca3e 80f0 123e b2ac c43e 98d7 ce3e
000000f0: a117 55be f2fe c93c 22eb 2abe 3993 28be
00000100: 0459 dbbd bc79 f5be d3e4 00bf b0c6 6ebd
00000110: 7a4f a33e fc2e 0d3e 2b70 1abf ac19 0bbf
00000120: f692 1a3f 967a df3d cf62 8e3d c1df 55be
00000130: 45dd afbd 16d9 6a3d 8951 c2bd fa4f 31bd
00000140: 9d14 1dbe ad5a ea3e f8fd 67be bfe9 b53e
00000150: 9c7d 0bbf 67c3 2dbc 01b1 26bb 97b6 1f3d
00000160: 5165 99be 0073 f4bd c905 793e ca20 b9bd
00000170: dea5 203e f60a 3bbe 6b34 e4bd 6fc0 3d3e
00000180: 5d16 b23e 0a4c 18bd 8867 ad3e f3bd 5e3d
00000190: 095b 79bd 9a87 dc3c 6ff0 7fbe c17e 81bd
000001a0: a2e3 82be 84ff 45ba 5cf7 6f3e 5b58 16bf
000001b0: 5da1 dd3e c3e8 b1bd c3b8 b53c 3e83 8ebd
000001c0: 37e9 1b3b 0622 36be 7b2d 93bd 3d8a 113d
000001d0: 4db8 943d e191 083f 2af1 e0bd 24d2 8dbd
000001e0: 851d 37bd a070 d7bd 3c3c 62bd 60b3 bfbe
000001f0: 8cff 2ebe 0d44 dc3e 2a36 a0bc b83d de3e
-0.294313 -0.029725568 0.13317123 0.25012922 0.35879707 0.10994007 -0.24406548 -0.39340726
-0.34122726 -0.13505006 -0.2960285 -0.23722877 0.0249274 -0.45729086 0.20342135 0.03102172
-0.13448454 0.4431637 -0.06061916 0.061535012 0.14431168 -0.0818169 0.32627785 -0.52366847
-0.24271649 -0.17410493 0.015057952 -0.36323455 0.113225155 0.30081475 -0.36393645 -0.16764589
0.09195878 0.10213174 -0.112451725 -0.3841757 -0.057578683 0.03922836 0.15460749 -0.007949854
-0.22060525 -0.47575665 -0.15691291 -0.2641262 -0.17614207 0.32239825 -0.068511486 -0.29466966
0.36745945 0.22908328 0.019518113 -0.41610795 -0.37812507 0.2912609 0.06034141 0.15085906
0.3957717 0.14349556 0.38413006 0.4039886 -0.20809795 0.0246577 -0.16691259 -0.16462411
-0.10710338 -0.47944438 -0.5034916 -0.058294952 0.31896573 0.13787454 -0.60327405 -0.5433605
0.60380495 0.10912053 0.0695244 -0.20886137 -0.08587126 0.057335936 -0.09488208 -0.043289162
-0.15339895 0.45772305 -0.22655475 0.35529897 -0.5448854 -0.01060567 -0.0025435092 0.03899249
-0.2996011 -0.11935997 0.24318613 -0.09039457 0.15688273 -0.182659 -0.111428104 0.18530439
0.34782687 -0.03718189 0.3386805 0.05438037 -0.060877834 0.026920129 -0.24994062 -0.063230045
-0.25564295 -0.00075530284 0.23434204 -0.5872857 0.43287173 -0.08686974 0.022182828 -0.06958626
0.002379013 -0.17786416 -0.07186409 0.035532225 0.07261715 0.53347594 -0.109834984 -0.06924847
-0.044705886 -0.105195284 -0.055233225 -0.3744154 -0.17089671 0.4302067 -0.019557077 0.43406463

r_to_mu_sigma.r_to_hidden.weight f4 [128, 128]
00000000: d8ab ee3e 4ec6 ab3e 4b39 8a3e fb6f c83b
00000010: 9053 6fbf bff9 873d 2b89 d53d bce1 333f
00000020: 0f23 a93f 90de 79be 9622 303f 0f8f 8fbf
00000030: 57da 8dbe cfd5 113f 5f23 75bd 0e0d 893f
00000040: 55ad 05bd 0fbf 5ebf 5086 cbbe e558 1bbd
00000050: 92b1 6ebe 3faa 383e 1741 bcbe 4baf 093f
00000060: 0815 4abe 5be8 fbbe 773b 84be 98e8 363f
00000070: 0e29 8cbe 90f1 e3be 2d79 553e e434 1d3e
00000080: b6db 883e 620b 9c3d e587 5b3f 49ef a73e
00000090: a353 d43e 2346 633e fac3 d23d 94d1 44be
000000a0: dfd2 7d3e 5f0c e63e 7caf 8e3e 6d8a 1c3e
000000b0: 2af9 543d 8ca1 383e 553d 1e3e 38f4 013f
000000c0: 3cad bfbe ba8f ecbd 35eb d73e c835 563f
000000d0: a09d 6c3f 0176 093e 5aa2 f83d 082c cabe
000000e0: 6623 90bf 9b77 5fbc 151e a5bf 4752 a2be
000000f0: 3dcd d03e 409a 0abf 4048 81be 6634 53bf
00000100: 312d 063e 1c3b 673d 526e a13e 5f1a 553f
00000110: 10fa 62be 20e6 1d3e 117c 913f 5cfd 043f
00000120: 66ac 40be 9128 19bc 90c4 e03e bbbe 0e3e
00000130: 90fb 19bc 616b 97bd 582d 723e 14ae 43bf
00000140: e209 29bf 4ecf 23bf b7ad 66be 5b71 edbe
00000150: c481 f33e 314d b93d 4691 e53c 2e72 c1be
00000160: 64a3 1d3e 0046 69be 3133 bf3e 46fe eb3e
00000170: fe82 76be 3c16 b13e 6ece 773e b255 4ebe
00000180: 540d cabe 3540 3d3f 9223 d8be 265a 84be
00000190: ae81 323d 8c17 563d 84a1 0f3d 8ce4 adbe
000001a0: eee1 803f 2001 0bbe 69e2 8b3c 97cb 113f
000001b0: 1ebf d1be db35 3c3f ddf4 953f b70c f1be
000001c0: 6565 67bf aee5 473f e050 973e 8dd6 c03e
000001d0: 256d abbd e3aa b7bf 808c 68be 062c 6fbe
000001e0: 1ea8 e33e 5ce0 87bd 4126 0abc 98ae 8e3f
000001f0: c856 a7bd d563 4cbf 6a85 b2be 32a8 eabc
00000200: deed 6b3f 7182 ce3f 7798 963e b1eb 19bf
00000210: 2c8d 56be 0618 a83d c2a2 a73e 6c20 9f3f
00000220: 5527 6d3e 5ae0 0ebd afcd b8bd 3238 7a3e
00000230: a320 b03d f391 363e 00e7 c63e d5cb e93d
00000240: b45d 0d3e ab29 a73d dd61 ab3e 2451 383d
00000250: dab3 abbd 7d3a 73bd b9d1 45be 1817 37bf
00000260: 5ae7 f3bd ef57 243f 1428 34be 9185 e9bf
00000270: 75bb 2cbf 1972 babf 0fd3 0c3f 60fd 283f
00000280: 62a2 84bf 2a59 133b c69f 9f3f 372c 8b3f
00000290: 1a7b 653e 1659 c03e 2f13 07c0 987f 893e
000002a0: c34b 6e3f d74a 3bbf 9b09 143f 18d3 a53d
000002b0: 3b35 b83e 4746 1fbe f498 4cbf 8d56 413d
000002c0: 9e48 563f 57ab 11be c14b 53be 1283 963f
000002d0: 600e 83bd 4198 0640 ebeb 0b3d ab00 c6be
000002e0: 478f 23be a4c5 4d3d dc9f ccbf ac40 10be
000002f0: 0be2 20bd 374a 8d3e f3df 733f 7ee1 f2bd
00000300: 1e70 b63d 9b43 843f 3936 5ebf 9558 f23e
00000310: d932 633e 6a85 d13e 6199 be3f 08e0 9fbe
00000320: 9dd3 463f b631 8fbe 9e10 34bf c208 c03e
00000330: 4b3c 973e 3419 cdbd 98d4 693f b658 8a3d
00000340: 6081 bc3f e368 96bf f5da 0540 618d 3dbd
00000350: d431 943f 3a33 bcbc e979 833d 5784 e5bd
00000360: 8bd1 ce3e 8596 5a3e 71ae 23be 01ee 53be
00000370: 6e01 be3e eb87 ad3e a21c 83bf 4dc3 4d3f
00000380: 882f 08bf 15f1 423e fdf2 91bf f2ab ebbd
00000390: d20d c6bd e85d a9bd 3b39 f93e 98a2 373c
000003a0: 9dc4 27bf 4ccb 0c3f 762e 453f 0485 1a3f
000003b0: d785 a33f d925 4b3e 03d4 e83e e22f 3f3f
000003c0: 4839 17bf 2338 b83e 51e3 43bf b950 a63f
000003d0: 7534 99bd 2c5d e0be 9f6e 55bf 96fc bb3b
000003e0: 0890 9b3f 55b9 23be df9b 833e 37b5 ce3e
000003f0: d98a 39bf 371c 30bf 2ad8 4a3e 11c1 743d
0.4661548 0.33549732 0.26996836 0.0061168647 -0.9348688 0.06639432 0.10426553 0.7026632
1.3213824 -0.24401307 0.68802774 -1.1215533 -0.27705643 0.5696687 -0.059848186 1.0707109
-0.032636005 -0.8701028 -0.3975091 -0.037926573 -0.23309925 0.18033694 -0.3676841 0.537831
-0.19734585 -0.4920071 -0.25826618 0.7144866 -0.27375072 -0.44520235 0.20847006 0.15352207
0.26730126 0.076193586 0.85754234 0.32799748 0.4147006 0.22194724 0.10291286 -0.19220573
0.24787472 0.44931313 0.2786826 0.1528718 0.051995434 0.18030375 0.15453084 0.50763273
-0.37436855 -0.11550851 0.42171636 0.83675814 0.92428017 0.13423921 0.12140341 -0.39486718
-1.1260803 -0.013639356 -1.2899805 -0.31703398 0.40781584 -0.54141617 -0.25250435 -0.8250183
0.13103177 0.056452855 0.3152948 0.83243364 -0.22165704 0.15419817 1.1365987 0.51949096
-0.18815765 -0.009348051 0.43899965 0.13939945 -0.009398356 -0.07393528 0.2365011 -0.764375
-0.66030705 -0.63988197 -0.22527204 -0.46375546 0.4755994 0.09047926 0.028023373 -0.37782425
0.1539436 -0.22780609 0.37343743 0.46092433 -0.24073407 0.34587276 0.2419984 -0.20149878
-0.39463294 0.739261 -0.42214638 -0.25850028 0.043580703 0.05226855 0.035066143 -0.3396343
1.0068948 -0.13574648 0.017075734 0.5695128 -0.40966123 0.73519677 1.1715351 -0.47080013
-0.9038909 0.7808484 0.2955389 0.3766369 -0.08370427 -1.4349025 -0.22709846 -0.23356637
0.444642 -0.0663459 -0.008431972 1.1147032 -0.08170849 -0.7983983 -0.34867412 -0.028644655
0.9215983 1.6133558 0.29413196 -0.6012526 -0.2095229 0.08207707 0.32741362 1.2431769
0.23159535 -0.034881927 -0.09023606 0.244355 0.08599975 0.17829113 0.38848114 0.11415831
0.13805276 0.081622444 0.334731 0.044999257 -0.08383913 -0.05938195 -0.19318284 -0.71519613
-0.11909361 0.64196676 -0.17593414 -1.8243886 -0.67473537 -1.456607 0.5500955 0.6601162
-1.0362055 0.0022483566 1.2470634 1.0872868 0.22410241 0.37567967 -2.1105459 0.2685516
0.93084353 -0.7316107 0.57827157 0.080969036 0.35978112 -0.15554152 -0.7992089 0.047201682
0.83704555 -0.14225517 -0.20634367 1.175875 -0.06399226 2.1030428 0.034160536 -0.38672385
-0.15972625 0.050237313 -1.5986285 -0.1408717 -0.03927807 0.27595684 0.95263594 -0.118594155
0.089081034 1.0333132 -0.8680149 0.47333208 0.22187366 0.409221 1.4890558 -0.3122561
0.77666646 -0.27967614 -0.70337856 0.37506682 0.29538187 -0.10014573 0.9134002 0.067552015
1.4726982 -1.1750759 2.091489 -0.046277408 1.1577706 -0.022973645 0.06419737 -0.112068824
0.40394244 0.21346481 -0.15984513 -0.2069626 0.37110466 0.3389276 -1.0243113 0.8037613
-0.53197527 0.19037278 -1.1402279 -0.11507405 -0.09670605 -0.08269864 0.48676476 0.011208199
-0.65534383 0.54997706 0.7702402 0.60359216 1.277522 0.19838656 0.45474252 0.7468244
-0.5907178 0.3598033 -0.7651873 1.2993385 -0.074807085 -0.43821084 -0.8337192 0.0057368977
1.215333 -0.15988667 0.25704858 0.4037263 -0.7247749 -0.6879305 0.19809023 0.059754435

r_to_mu_sigma.r_to_hidden.bias f4 [128]
00000000: 7f69 24bf 0e65 57bf a8e4 12bf 89cd d9be
00000010: b83d 3fbf aee3 f2be 8722 d1be 58ca 43be
00000020: 6cc2 a43e 6431 b13e c37e 10bf c9fb 463e
00000030: 7c27 91bc 178a a9bf 7d32 50be 6c69 f1be
00000040: 5441 06bf 930f 4bbf e72c 0d3e ec1a 3ebd
00000050: e628 91bf d3f8 b23e 00e7 babe b36a 25bf
00000060: 96ac 59be 0054 59bf d299 f2be 9bef 3dbf
00000070: bf55 d9be 328f 973e da5b 7cbe e9b2 49be
00000080: d801 73bf ea72 8cbe 74b8 77bf 50d0 01bf
00000090: 5683 b93e d120 eabd c0c1 473e 25b0 22bf
000000a0: 437e c1be 4005 40bf 96e2 08bf ff66 d9be
000000b0: 0fac ef3e 5ee8 f6be 9d23 95bf a7ae 28bf
000000c0: dc7f 4abf 104b 43bf 3796 08bf 1f59 9cbf
000000d0: 5199 a3be 655b 46bf 10da babe 80db 50bf
000000e0: 9314 6abe cc76 02bf 7728 21bf 205a 8cbe
000000f0: ab07 2c3e ab0b c9bf c0c0 3ebf ccfb 8cbf
00000100: 6871 243e e3c4 6cbc 0578 f8be db85 c4be
00000110: 8278 17bf 7097 b2be 06c2 8dbe df78 393f
00000120: 6e46 76be 4580 57bf 4ec9 6abf 2eac fcbd
00000130: 059c 71bf 0657 4d3c 85be 983e 2e46 26bf
00000140: 9700 34bf 5fb5 cc3d 245c 88bf da6e 03bf
00000150: 97d2 c1be 271e bcbf adf6 c2bd 512d e4be
00000160: 2eee 65be 5740 37bf 8ab0 6ebf 0f4f 7ebd
00000170: 2afe 55be aadb f5be 8492 fbbe 5517 f2be
00000180: b731 66bf 0f9d c5be b978 9dbe cb78 8cbe
00000190: baa0 f8be f5eb c13e ec24 a83e 73b0 ecbe
000001a0: eed2 4ebf ae16 22bf 49b6 63bf 06dc 85bf
000001b0: 14cf d63e 8406 e73d 04a3 fbbe 8036 5ebf
000001c0: a993 7a3e 0699 b4be 166c 56bf a222 adbe
000001d0: f041 05bf dbe8 2abf 5ab5 fdba 92f1 65bf
000001e0: 5cee 58bf e56d 25bf 789f 8c3e 560a 86bf
000001f0: e0f2 6abf eb0e 6cbe e8e3 8ebf ba14 7dbe
-0.64223474 -0.8413857 -0.5738015 -0.42539623 -0.7470355 -0.4743933 -0.40846655 -0.19120157
0.32179582 0.34607995 -0.56443423 0.19431986 -0.017719023 -1.3245267 -0.2033176 -0.47150743
-0.5244343 -0.7932064 0.1378666 -0.046412393 -1.1340606 0.34955463 -0.36504364 -0.64615935
-0.21257243 -0.848938 -0.4738298 -0.74193734 -0.42448232 0.29601437 -0.24644414 -0.19697155
-0.9492469 -0.27431422 -0.9676583 -0.50708485 0.36233014 -0.114320405 0.19507504 -0.63550025
-0.37791643 -0.7500801 -0.5347074 -0.42461392 0.46810958 -0.48224157 -1.1651493 -0.658915
-0.7910135 -0.7628641 -0.5335421 -1.2214698 -0.3195291 -0.77483207 -0.36494493 -0.8158493
-0.22859411 -0.5096252 -0.6295237 -0.2741251 0.167998 -1.5706686 -0.74512863 -1.1014342
0.16058886 -0.014451238 -0.48529068 -0.38383374 -0.59168255 -0.34881163 -0.2768709 0.7245006
-0.24050304 -0.841801 -0.91713417 -0.12337528 -0.9437869 0.012532955 0.29832855 -0.64950836
-0.703134 0.09995531 -1.0653119 -0.5134102 -0.3785598 -1.4696702 -0.09519706 -0.44565824
-0.2245414 -0.7158255 -0.9323813 -0.062087115 -0.20897737 -0.48019153 -0.4913522 -0.47283426
-0.8991961 -0.3859639 -0.30756167 -0.27435908 -0.48560125 0.37875333 0.3284067 -0.4622837
-0.80790603 -0.63315856 -0.8895002 -1.0457771 0.41954863 0.1128054 -0.4914781 -0.8680191
0.2447039 -0.35272998 -0.83758676 -0.33815485 -0.5205374 -0.6676156 -0.0019356415 -0.8982173
-0.8473871 -0.6462081 0.27465415 -1.0471904 -0.9177685 -0.23052566 -1.1163301 -0.24714938

r_to_mu_sigma.hidden_to_mu.weight f4 [2, 128]
00000000: 0171 7d3e 0e90 7abf 2b9f 7b3e bec0 543d
00000010: 2cbe 66bf 9b90 7b3d 1ed8 45bc 4c37 6cbd
00000020: cb5a 443e 0cc1 53be 8292 343d f926 973e
00000030: b5e3 2a3f 459f b43d 93b0 613e 264e 2f3d
00000040: 127a d1bc cc83 97bd 5004 543c 9257 a63c
00000050: d1bf de3c 3ae5 233e e327 5ebd 0f3e e4be
00000060: c8b4 4f3d 0975 c0be c5a9 39bc 0bfb fa3d
00000070: c146 ab3e 9be8 69bc e339 fa3d c948 353d
00000080: aa90 f8bc 4467 6a3d 4d0c 0c3e 1420 1e3e
00000090: 93d1 9c3d 4e06 2e3f 9916 46be ffb7 023f
000000a0: 3115 ff3a 9cd3 353f d85a 76bd 7828 0dbd
000000b0: 422f 8dbe f48d ee3e 15cd 473e 403f 78be
000000c0: 1a37 50bf 6436 8d3e 13ea 4abe a1ac 68be
000000d0: fb4c 97bd 72dc 3c3f d55f cbbc 29df bbbe
000000e0: 77cd 133d bb66 17be a1f6 8ebd ce5a c33d
000000f0: e76d 6d3e 88c8 923d 99e9 bd3e 8bad fd3d
00000100: 54cf d0bd 33fc c43d 47f2 c4bd 492e fbbd
00000110: 7d11 0abf 6fe0 423d c901 933d 2e6c f13e
00000120: 7ce9 b1be 2a08 50be 40f5 a03d c0c8 d43e
00000130: 38a4 b23e cc67 4bbe 2072 23be b9da e8be
00000140: 98b2 093e 26ea 5abe c071 fcbd 5796 81be
00000150: cc52 c83e 0225 cebe 1a53 59bc b88b e9bd
00000160: b62f 0abd 1897 bdbe fc84 2f3e 8f0c 3dbd
00000170: 840e 2cbd 880f 433e 13b9 85bd c04b 61bd
00000180: 29e4 a6bd 5793 933c 06e3 34bc 887d 0c3f
00000190: 6a03 3a38 2a41 ecbb 7d8b 13bb 5325 533e
000001a0: 775e 793d 4811 743d 980c 34be 2ecb 663e
000001b0: ff6b 65bd cfa2 123f 982d 913e 226b b0bd
000001c0: 5381 eebd 10f8 acbd 064b 3d3e 6c7f a4bd
000001d0: 6f6b a93e 6711 0b3e 48ab 66bd 4c52 43bf
000001e0: 572a be3e 7ab2 17bd dbe0 94be 530e 90bf
000001f0: 7052 77bd 5aab c83d 5992 693f 9496 dd3d
00000200: ce8d 073d 676a 25bf 5b4a 3f3d fb7f 213e
00000210: df55 a23e 8aad a13d b5a4 153d 0fe7 adbb
00000220: ef09 693e bcca 333e 5d1a 79be f4cc 8cbc
00000230: 66aa a2be d293 07bf 0594 b1bc f2e7 dcbc
00000240: 5310 8abd 8746 523e b25f 38bc f917 3bbe
00000250: fea5 1c3d 21f4 353d a401 8abd 8d4a 723e
00000260: 5cad 343e c9ff c63e ca44 073e 2154 7ebf
00000270: 0ed5 ac3d a7d8 db3e 24bf 46bd 4a68 e73c
00000280: 87a7 a23c 066d 98bc 83ee ff3e 2afb 7a3e
00000290: 5ecb f13d 34cf 66be 8b79 0fbf 3d5c edbd
000002a0: cd97 82bc 576d 813d 9c77 483e a840 e13c
000002b0: 7ccb 8d3d 2cbf 1bbd cd56 fb3c d6cc 033d
000002c0: b886 0a3f 4d70 14bf 9ce0 ea3e aee1 b43e
000002d0: 5189 14be 0c09 2b3f 1f23 94bd 0d38 543e
000002e0: 022e a8bd 179d 26bf 55e8 b13d 81d4 04bd
000002f0: d839 83be b4b8 e0be b369 8cbe e6df 8c3d
00000300: 398c 87be 30bb bfbd 804b 36be 92df e53d
00000310: 8c73 673d 71b3 2abc e61c 233e 6959 24be
00000320: 029e 573e 1649 89bd aed6 1f3b 8185 3cbc
00000330: 68a6 e13d 54f1 86bd 298d 26be e234 5e3e
00000340: c5a3 21bf c6fc f43a e03e b53d dc05 783d
00000350: 1b1a 143e 3d50 2ebe 2a0a ffbc b953 e13e
00000360: 6141 c73b 165c 63be 1111 c1be 448b f6bb
00000370: 5cff 5f3e a165 31bf 8f55 eebc 73ab 293e
00000380: 369c 4e3e f850 3a3d a431 eebd 1bf1 653e
00000390: e90d 7e3d 5aab 88bd c032 0ebc e26b 853f
000003a0: 4555 033e 705a d93e 358c 033d e935 1cbd
000003b0: 32b7 713e 57f8 39be 8eea 9bbe 1a1b 23bd
000003c0: be97 ab3e 3bfc ee3d d64f 8cbe 51b6 ad3b
000003d0: 4624 68be 3b76 86bd a0e7 bfbd 2fca 19bf
000003e0: 0ede 7c3f 24e9 3d3b 8f1f 53bc 7ab9 683d
000003f0: 8d6e 473e 8250 2abd df0e 593f 0ff8 9a3d
0.24750139 -0.9787606 0.24572437 0.051941626 -0.9013393 0.061417203 -0.012075452 -0.057669923
0.1917526 -0.2067911 0.044085033 0.2952192 0.66753703 0.08819441 0.22040014 0.042799138
-0.025570903 -0.07398185 0.012940481 0.020305429 0.027191075 0.16005412 -0.054237258 -0.44578597
0.050709516 -0.3758929 -0.01133198 0.12254914 0.33452418 -0.014276649 0.12218072 0.044258866
-0.030342419 0.057227388 0.13676567 0.15441924 0.076571606 0.6797837 -0.19344558 0.51062006
0.0019461272 0.71026015 -0.06014523 -0.034462422 -0.27575117 0.46592677 0.19511826 -0.24242878
-0.8133408 0.2758056 -0.19815855 -0.22722103 -0.0738773 0.7377387 -0.02482597 -0.36693695
0.03608462 -0.14785282 -0.069806345 0.09538804 0.23186456 0.071671546 0.37092283 0.12386616
-0.10195795 0.09618416 -0.09616523 -0.122646876 -0.53932935 0.047577318 0.07178075 0.47152847
-0.34748447 -0.20315614 0.07859278 0.4155941 0.34890914 -0.19863814 -0.15961504 -0.45479372
0.13447034 -0.21378383 -0.123263836 -0.25310013 0.3912567 -0.4026261 -0.013264442 -0.11403602
-0.033736907 -0.37029338 0.17140573 -0.046154555 -0.04200603 0.19048893 -0.06529441 -0.05500388
-0.08148987 0.018014593 -0.011040455 0.54879045 4.4349035e-05 -0.0072099166 -0.0022513561 0.20619707
0.060881104 0.059586793 -0.17582929 0.22538444 -0.056011196 0.57279676 0.28355098 -0.08614184
-0.116457604 -0.08445752 0.1848565 -0.08032116 0.33089778 0.13580857 -0.05631569 -0.7629745
0.37141678 -0.037035443 -0.290778 -1.1254371 -0.060381353 0.09798308 0.91238934 0.10819736
0.03309422 -0.6461548 0.04670177 0.15771477 0.3170614 0.07894428 0.03653403 -0.0053070853
0.22757696 0.17557806 -0.24326463 -0.017187573 -0.3177063 -0.5295993 -0.021677027 -0.026966069
-0.06741395 0.20534717 -0.011253284 -0.18270864 0.03824424 0.044422273 -0.06738594 0.23661251
0.17644256 0.38867024 0.13209835 -0.9934712 0.084390745 0.4293873 -0.04852213 0.028247971
0.019855274 -0.018606674 0.49986658 0.24509874 0.11806367 -0.22539979 -0.56044835 -0.11589859
-0.015941525 0.06319683 0.19576877 0.02749665 0.06923577 -0.038024113 0.030681038 0.03217777
0.54111814 -0.5798386 0.45874488 0.3532843 -0.14505507 0.6681068 -0.07233261 0.20724507
-0.082119 -0.6508345 0.08686892 -0.032429222 -0.2563007 -0.43890917 -0.27424392 0.06878643
-0.2647417 -0.09361875 -0.17802238 0.11224283 0.05650668 -0.010418759 0.15928993 -0.16049732
0.21056369 -0.06703393 0.0024389434 -0.011506439 0.110180676 -0.065889984 -0.16264786 0.2169986
-0.6314052 0.0018691055 0.08849883 0.060552463 0.14463083 -0.17022796 -0.031132776 0.44009188
0.006080792 -0.22203097 -0.37708333 -0.007523926 0.21874756 -0.692957 -0.029093532 0.16569309
0.20176777 0.045487374 -0.11630562 0.22455256 0.062024985 -0.06673308 -0.008679092 1.0423548
0.12825496 0.4245181 0.032116134 -0.03813735 0.2360504 -0.1816114 -0.3045239 -0.039820768
0.33514208 0.11669203 -0.2740466 0.005301275 -0.22670087 -0.065655194 -0.09370351 -0.6007413
0.9877633 0.0028978074 -0.012885942 0.05681751 0.19475766 -0.041580684 0.84788316 0.07566845

r_to_mu_sigma.hidden_to_mu.bias f4 [2]
00000000: c898 d2be 85fc 15bf
-0.41132188 -0.5858844

r_to_mu_sigma.hidden_to_sigma.weight f4 [2, 128]
00000000: ae06 1c3e 1527 033f 4ad7 ccbd 8613 653f
00000010: f4b1 87be 622f 91bd 0f14 183e 6cd6 1ebe
00000020: d4f0 c1bd 8779 99be 9e31 8f3d 14ac d13e
00000030: 71ed 95bd 0b56 1fbe ca63 713d 08ea 173f
00000040: b017 6f3d b51f b83e 3302 88be da87 2c3e
00000050: 7fea 6e3f e784 00bf 3cd7 40be f1d2 85be
00000060: eda8 6f3e 7a27 93be 74e3 2b3f 63b7 9a3c
00000070: ec85 0ebe 8123 e7be 8b3f 2cbf 3b26 3fbe
00000080: fb97 723f 2dc4 903d 466c 8e3c e45c c0be
00000090: 389b a03d 81dc cfbe bd80 263e ff77 303f
000000a0: de11 6d3f f1fa 4e3e db04 093e cb42 e5bc
000000b0: 3492 2abd 5398 c2be fc27 0b3e d453 553e
000000c0: bc5c d9be ae3c 423f 9285 4bbd f642 333e
000000d0: 1e6d 903e fa06 99bf 6b03 0cbe 8faa cabe
000000e0: ed60 903d 316e e43d 80bb 013d 0e69 d6bd
000000f0: 4ca9 733e f8da 793d a34c dc3d 959e 7c3f
00000100: 26eb dbbe 0508 a63d 2ee7 4bbe ad4e 85bf
00000110: f9d8 f93f 2705 e9bd a988 b93e d778 01bf
00000120: ff37 45bd ea6b 19bf b682 443f 5af4 f63e
00000130: 25e0 b9be bac2 1fbe e107 16be 68e6 03be
00000140: 1b79 523f 026a ab3e a586 453f 5b57 1a3f
00000150: ba91 d13e e649 613d 09e7 7d3f adc0 583d
00000160: 3887 263f 419b f93e 539f c4be 3a13 953f
00000170: 1f90 7abe 9e08 76be 7d02 d53d cb13 a23d
00000180: 39f1 39bd 4b7c 87bc 4639 48bf 5306 ab3e
00000190: 60cb f13e 7deb f1be 4324 34bf 43a4 1a3f
000001a0: 675d d23e f3ad 2f3e addc b43e 8b00 b73e
000001b0: 8b03 9ebe 49d4 0a3e b6d0 22ba af21 3f3f
000001c0: 3aea 193e aa68 ccbe ba2a 223f f509 6dbd
000001d0: 4884 e03e c1c5 a53e 2de0 4ebd 2974 b93f
000001e0: 151a 883e 75b5 0dbf 93fb 883e 00bb 6440
000001f0: d750 713e 9c78 9b3d 7f42 903f 35c5 c13d
00000200: ff1f 5fbe 3624 7d3e 0df3 1cbe e48f b03e
00000210: 6cdc da3d 7488 de3d d169 3e3d ab00 1fbc
00000220: aea0 973d f95e 86bb 9439 37be 72c2 00be
00000230: fc15 01bc d751 fbbd fccd 013d 8c0b 183f
00000240: 2d7f d4bd defc 2d3d 7c21 32be 6e6f 383e
00000250: b11b 513f 4c48 fdbe 9ba0 24be c5ca 1b3e
00000260: d253 81bc f881 afbd db59 183f 1b86 5e3f
00000270: f6c2 4fbe be62 e8be a339 0abf 7fa9 8abd
00000280: 962a 873f 6fd5 5e3d 00f4 f33e 80b0 6cbe
00000290: c5f3 8fbe 757f 56be 3651 933d 4c08 913e
000002a0: a255 493f 956e f03d f967 28bd 932e e53c
000002b0: 6e8c 73be 40b7 eebd f405 613e 8dda 723e
000002c0: 36d7 853e a3b7 293f af30 5c3d 6d17 0a3e
000002d0: 0df9 ba3d f528 65bf 8a80 43be 7ad5 b93c
000002e0: b9d1 f03c 2cf9 5dbf 631a 883d b3d9 943d
000002f0: c212 483e 9c84 023e 7ce6 653e adce 203f
00000300: 52f9 1fbe cfc2 febd 9b26 1ebe 385d 6fbf
00000310: da95 cd3e 8c9e b13d 32d0 1f3f 0e4f 91be
00000320: e32b a9be 60ab 39bf 2cf7 bb3e ca26 033e
00000330: 8c71 373d e365 853d dd05 a6be e35d e3be
00000340: 61d9 c63f 10ae 9abc b375 b73e aca1 b73c
00000350: 9d8b 4f3e 14ea cb3a e502 773f f17a e53d
00000360: 3fa2 3e3f abe4 6d3e 968d b2bd eee3 863f
00000370: f557 943e 3e65 2ebd 3902 51be c2ec 9a3e
00000380: 92da efbd 983f 8abd b5c7 c0be 766e 973e
00000390: 9851 073f 90d0 01bf 0658 02bf 2b1c 453e
000003a0: 4749 8fbd 9947 f7bd c501 7c3e 569d f93e
000003b0: e10e fbbe c630 483d 0979 ac3e 7e16 373f
000003c0: 21c3 e53d 760e 67be f1cc f33e 946f 173b
000003d0: 5969 893f 7acd d83e b9d2 1c3e 4387 7b3f
000003e0: e797 463f 9ff6 17bf 83fd bc3d 22a0 2bbf
000003f0: c378 a33c ac0d 273c c386 fe3f 4296 febc
0.15236923 0.5123151 -0.10002001 0.89482915 -0.26502955 -0.07089116 0.14851402 -0.15511483
-0.094697624 -0.2997553 0.069918856 0.40951598 -0.07320679 -0.15560167 0.058933057 0.5934148
0.0583722 0.3596169 -0.26564178 0.16848698 0.9332656 -0.5020279 -0.18832105 -0.26137498
0.23404284 -0.28741056 0.6714394 0.018886274 -0.13918275 -0.45144275 -0.6728446 -0.18666928
0.94763154 0.070686676 0.017385613 -0.3757087 0.078421056 -0.4059792 0.16260047 0.689331
0.9260539 0.20212914 0.13380758 -0.027985951 -0.041643336 -0.3800684 0.13589472 0.20832759
-0.42453563 0.7587384 -0.04968793 0.17506012 0.2820825 -1.1955254 -0.13673179 -0.3958325
0.07049737 0.1115383 0.031672955 -0.10469256 0.2379505 0.06099984 0.10756805 0.98679477
-0.42952842 0.08106998 -0.19912407 -1.0414635 1.951934 -0.11377936 0.36237076 -0.5057501
-0.048149105 -0.5993029 0.7676195 0.482333 -0.3630382 -0.15601626 -0.14651443 -0.12880862
0.8221604 0.33479315 0.77158576 0.60289544 0.40931493 0.055002116 0.99180657 0.052918125
0.6505008 0.48751262 -0.38402805 1.1646492 -0.2446904 -0.24026725 0.10400865 0.079139315
-0.045396063 -0.01653876 -0.7821239 0.33403262 0.47225475 -0.47249976 -0.7036783 0.60406893
0.41086885 0.171562 0.35324612 0.35742602 -0.30862078 0.13557543 -0.000621091 0.7466077
0.15030757 -0.39923602 0.63346446 -0.057870824 0.43850923 0.32377437 -0.05050676 1.4488574
0.265824 -0.55355006 0.26754436 3.5739136 0.23565994 0.07591364 1.1270293 0.094614424
-0.2178955 0.24720845 -0.15327092 0.3448478 0.106865734 0.1086587 0.046487633 -0.009704749
0.07403694 -0.004100677 -0.17893058 -0.12574175 -0.007878777 -0.12271469 0.031690583 0.5939262
-0.10375819 0.04247748 -0.17395586 0.18011257 0.8168288 -0.4946922 -0.16076891 0.15214069
-0.015787039 -0.085697114 0.5951211 0.8692338 -0.20289215 -0.45387834 -0.53994197 -0.0677061
1.0559871 0.054402765 0.47647095 -0.23114204 -0.2811567 -0.20947058 0.07193224 0.28326643
0.7864629 0.11739842 -0.04111478 0.02797631 -0.23784038 -0.11656046 0.21974927 0.23716183
0.26140755 0.6629583 0.053757366 0.13485499 0.09129534 -0.8951562 -0.19092003 0.022684801
0.029396879 -0.8670833 0.06645658 0.07268085 0.19538406 0.12745899 0.22451204 0.6281536
-0.15622452 -0.124395005 -0.15444414 -0.93501616 0.4015339 0.086728185 0.62427056 -0.28380626
-0.33041295 -0.7252712 0.36712015 0.12807766 0.04478602 0.06513574 -0.32426348 -0.44407567
1.5535089 -0.018881828 0.35831985 0.022415958 0.20268102 0.0015557432 0.9648879 0.1120509
0.7446632 0.23231761 -0.087184116 1.0538309 0.28973356 -0.04257702 -0.20411004 0.30258757
-0.11711611 -0.06750411 -0.37652364 0.29576463 0.5285888 -0.50708866 -0.50915563 0.19249026
-0.069963984 -0.12074203 0.2461005 0.4875285 -0.4903479 0.04887464 0.33686092 0.71518695
0.112188585 -0.2256411 0.47617295 0.0023107277 1.0735275 0.42344266 0.1531476 0.9825327
0.77575535 -0.5936069 0.09228041 -0.6704122 0.019955045 0.010196131 1.9884876 -0.031077508

r_to_mu_sigma.hidden_to_sigma.bias f4 [2]
00000000: e51c f3bf aa99 e0bf
-1.8993193 -1.7546895

xz_to_y.xz_to_hidden.0.weight f4 [16, 3]
00000000: 908a 08bf 8ccd dabc 9ab5 85bc 0a4c 0140
00000010: 3c9f b2bb 2744 0bbd 43f0 dcbc 5c1c 7cbe
00000020: 7506 073e 05c3 35be 58f3 4f3c 42ce 06bc
00000030: 90bb 873e d406 423e 7141 9e3e 56d4 603f
00000040: 9ade 203e 8495 1b3e b999 0640 e405 a63c
00000050: a287 34be 832e 35bf f2ae 45be 900c 30be
00000060: 78fb e13f 99bd 793c fa19 5cbe ef16 d8bf
00000070: f567 02be a593 673c 024c 3ec0 e85f d2bb
00000080: 77a4 82be 814d 97be c2d8 dabe 0e19 a03d
00000090: 9ecf 253f a94a 763e 06aa eebc 6743 96bf
000000a0: 2f7e 7c3d 0646 c93e efd1 a0bf a2e3 cbbc
000000b0: df7b 97be f17a 7d3f 1b97 3cbe 817e 813e
-0.5333643 -0.02670934 -0.016321946 2.020266 -0.005451111 -0.034000542 -0.026970034 -0.24620193
0.13186057 -0.17750175 0.012692295 -0.008227887 0.26510286 0.18947917 0.30909303 0.87824
0.15709916 0.15193754 2.1031325 0.02026648 -0.17629865 -0.70774096 -0.19305018 -0.17192292
1.7654867 0.0152429575 -0.21494284 -1.6881999 -0.12734969 0.014134322 -2.9733891 -0.0064201243
-0.25516102 -0.29551318 -0.42743498 0.07817279 0.64769924 0.24051918 -0.029133808 -1.173932
0.061643776 0.39311236 -1.2564067 -0.024888817 -0.29586694 0.9901572 -0.18417017 0.25291827

xz_to_y.xz_to_hidden.0.bias f4 [16]
00000000: 8076 79bf 5c46 f4be 1d4c 2c3f 9116 f0be
00000010: 001b aabf 019b eabf d39b 413e 5893 673f
00000020: bbec dbbe 9816 ab3f e4fd 273f f8bc ffbd
00000030: 1cad 9bbf 8ec4 69bf 78e9 7d3f 2561 6cbf
-0.9744644 -0.4770993 0.6730364 -0.46892217 -1.328949 -1.8328553 0.18907098 0.90459204
-0.4295405 1.336627 0.6562178 -0.12487215 -1.2162204 -0.91315544 0.9918437 -0.9233573

xz_to_y.xz_to_hidden.2.weight f4 [16, 16]
00000000: 9829 80bd 61f7 07bc d8a7 57bd d6ad 7d3e
00000010: 315f 123d 508e 4fbe 83ed 0abe 7ce3 60be
00000020: 50ed 543e b494 8bbd b903 cbbd 2092 0dbd
00000030: 8428 993d 6135 58be 28f2 18bd c452 96be
00000040: cf83 133c aff3 44be 8328 053f 30f1 8abe
00000050: 4b50 9c3e 6c47 90bc b9a8 00be 56df 8e3e
00000060: 8942 5ebe 64db c13e 7155 b13d 088c a0be
00000070: a461 9cbe 86a5 fabe c3ed b13d 53d9 14bf
00000080: fb85 193e d60a 03bf 56b2 bb3e 2cf9 cabd
00000090: 71a2 0bbe 47aa fc3e 5a27 573f f56b dc3c
000000a0: 0a44 923b 5339 1cbf b184 dd3c 0d31 18be
000000b0: 8493 f4be f4fc b1bf 5c9c 263e 2f39 70be
000000c0: 5f5b 0a3e 14d5 813e 1bc3 793e 0c86 393e
000000d0: 767e 7abe bbc6 083f cabf c13e 26f1 163f
000000e0: bc8d 683d 32d5 b6be c28c ab3e 94de b63e
000000f0: cb91 d03c d1f8 433e db93 77be f862 253f
00000100: f0ff debc d88a 3cbe 98dc b13d 100d 043e
00000110: 51d7 68be 244e 7a3e fc1f 13be 1280 88be
00000120: 2329 94be 7578 13bd bc31 b2bd 5d38 1cbe
00000130: c262 20be d863 96bd f46a 9ebe 1095 47be
00000140: a059 1abe fb37 e3be 38c5 353d 60c5 163e
00000150: e53d 29be 50c4 0dc0 b071 a6be 1ae7 09be
00000160: 934e ef3e a454 613e 6a1d c53f b5ce 5a3e
00000170: 4bdd 5e3d a12d cc3e e094 f6bd fcf4 4fbc
00000180: e087 a53e 061b 11bf b724 6f3e 7a74 7d3e
00000190: 64d6 d5bd ca66 703f 1229 f4bc 82b6 113e
000001a0: 57a1 bbbe cdc6 b93e 0d15 ad3e e7ca 47be
000001b0: 498b 0fbf 458b 933f 4ca7 dbbe 29e1 6d3e
000001c0: 562f dd3d f7f4 36c1 ad1e adbd 30b5 d63d
000001d0: 21e2 6f3f a167 cebf 918d 14bf 2720 7b3e
000001e0: 4923 e2bf 4d6f a9be 25db b23f 420a c1bc
000001f0: 726e 4fbe 547d 58bf 98e8 a03e 83d3 473f
00000200: f3fb 5cbe 4587 e6be 16f7 6f3e 6230 3abe
00000210: 8774 883e f3bd 4c3e 0919 37be 3e44 903e
00000220: b794 10be 7e63 d03e 40e6 3f3f eb2d 44bf
00000230: c08b 78be 71e5 9cbf 5ad1 67bf d7bb 1e3f
00000240: 84e7 9dbd de96 623e c90b 16bf f3fa 3e3d
00000250: d0a5 82be 538d ea3e 423f bf3e 4389 de3d
00000260: 9dc1 293f ce16 a3bf 233e d7be 3a36 cebd
00000270: 7498 153f b221 bbbe c449 c1be 3c2e 243f
00000280: 3299 933d e052 bdbf 9a45 3bbe 7112 eebc
00000290: b9ac e6bc b78e 9e3d 1658 eabd ec9f db3e
000002a0: 204a a6be 8b6b 453f 3b38 0cbe 77f8 ccbe
000002b0: 2bbc 34be 3bfc dbbc 2f06 193f 620f 023e
000002c0: f0b7 63bd aee5 183e 7934 85bd c0f3 333e
000002d0: bc3d 4f3c 655d ddbc 5008 8abe 71ed 95be
000002e0: 3424 073e 61e8 0f3b 7e36 013e dfc9 213e
000002f0: 9d0f b1bd 5194 47bd e958 8abe ca58 98be
00000300: 28af b2bc 8cc9 8abe bede f33b 3148 fd3d
00000310: 4b76 853f 9fe7 3bbf 6dd2 96be 2f5b 223f
00000320: 8120 7cbd 3ea4 613f 01c9 c03c dcc3 a9be
00000330: 7f6f aa3e 7bf5 27bf b874 30be 6875 e33e
00000340: bdd0 f139 efa1 23bc ef4b ce3e 5449 623d
00000350: ee68 b8be 48e6 4f3e b6e0 1e3e bd30 7dbe
00000360: 89c7 d2be 1354 79bf 1504 70be e3e0 26bf
00000370: 3ac3 6ebe ae94 d6be 4150 9bbe 4588 013f
00000380: 6ef7 273c 9816 88be bb76 3cbf 059b 8cbe
00000390: 0100 d8be b381 6fbf 7a0b 26bf f62b 993b
000003a0: 79a2 5a3f 0b3d 853f 039d 1fbe b43d 163e
000003b0: 099b 253f 99ba bf3e 1f07 2d3f d6e9 98bd
000003c0: ce7c 1e3e b24e 8abe 6dae bc3e 46de aa3e
000003d0: c12a 643e 1061 cebe 482d 38bf 25b7 9d3e
000003e0: 9afb e4be abb3 443f e977 db3e 39a2 ed3d
000003f0: 22ce 3bbf 577c 31bd 484f 4d3e a191 c8be
-0.062579334 -0.008298726 -0.052650303 0.24773344 0.035735313 -0.20269132 -0.13567166 -0.21961778
0.20793653 -0.06815472 -0.099128194 -0.034563184 0.07478431 -0.21114112 -0.037340313 -0.2936002
0.009003594 -0.19233583 0.5201494 -0.27137136 0.3053001 -0.017612182 -0.12564363 0.27904767
-0.21705069 0.37862694 0.08658875 -0.31356835 -0.30543244 -0.4895441 0.086879276 -0.5814411
0.14992516 -0.5118841 0.36659497 -0.09910807 -0.13636185 0.4934866 0.8404442 0.026906947
0.0044636773 -0.6102497 0.027040811 -0.14862461 -0.47768795 -1.390532 0.16270584 -0.23459314
0.13511418 0.25357878 0.24390833 0.18117541 -0.24462304 0.5342824 0.37841636 0.58961713
0.056775793 -0.3570953 0.33505827 0.3571669 0.025460145 0.19137885 -0.24177496 0.6460414
-0.02722165 -0.1841234 0.08684653 0.12895608 -0.22738387 0.24443871 -0.1436767 -0.2666021
-0.28937635 -0.03600355 -0.08700892 -0.15255876 -0.15662673 -0.073432624 -0.30940974 -0.19490457
-0.15073252 -0.44378647 0.044377536 0.1472373 -0.16527517 -2.215107 -0.32508612 -0.13467064
0.46739635 0.22004944 1.5399601 0.21367915 0.05441026 0.39878562 -0.120401144 -0.012692686
0.32330227 -0.5668186 0.2335385 0.24751464 -0.104412824 0.93906844 -0.02980474 0.14229777
-0.3664653 0.36284485 0.33805123 -0.19510995 -0.5607191 1.1526877 -0.42901075 0.23230423
0.10800044 -11.434806 -0.084531166 0.104837775 0.9370442 -1.6125375 -0.58028513 0.24523984
-1.7667018 -0.33092728 1.3973128 -0.023564462 -0.20256975 -0.84566236 0.31427455 0.78057116
-0.21580486 -0.45025077 0.234341 -0.18182519 0.26651403 0.19994335 -0.17880644 0.28177065
-0.1411923 0.40700907 0.7496071 -0.76632565 -0.2427206 -1.225752 -0.9055382 0.6200537
-0.07710174 0.22127864 -0.5861173 0.046626043 -0.2551713 0.45810947 0.3735295 0.10866024
0.66311055 -1.2741334 -0.42039594 -0.10068937 0.5843575 -0.36549145 -0.3775159 0.6413305
0.07206954 -1.4790916 -0.1828827 -0.029061528 -0.028158532 0.077420644 -0.11442582 0.42895448
-0.32478428 0.7711722 -0.13693325 -0.40033314 -0.17649905 -0.026853671 0.5977506 0.1270118
-0.05559534 0.14931366 -0.06504149 0.17573452 0.012648996 -0.027022073 -0.26959467 -0.29282716
0.13197404 0.0021958577 0.12618443 0.15799664 -0.08645556 -0.04872543 -0.27020958 -0.2975524
-0.021812037 -0.27106893 0.0074423244 0.12367285 1.0426725 -0.734003 -0.29457417 0.63420385
-0.061554436 0.8814124 0.023533346 -0.3315724 0.3328819 -0.6560895 -0.17232025 0.4442551
0.00046122624 -0.009987338 0.40292308 0.055245712 -0.36017555 0.20302689 0.15515408 -0.24725623
-0.41167858 -0.9739391 -0.23439057 -0.651869 -0.2331666 -0.4191031 -0.30334666 0.50598556
0.010251863 -0.26579738 -0.7361867 -0.2746202 -0.42187503 -0.9355728 -0.6486126 0.00467443
0.85404164 1.0409254 -0.15587239 0.14671975 0.6468969 0.3744705 0.6758899 -0.07466476
0.15477297 -0.27013165 0.36851826 0.33372706 0.22281934 -0.40308428 -0.71944094 0.3080379
-0.44723207 0.7683665 0.42864922 0.11603207 -0.7336141 -0.04333147 0.20049775 -0.39173606

xz_to_y.xz_to_hidden.2.bias f4 [16]
00000000: 9558 6bbe 5c04 2c3f 8c70 32bb 28b2 83be
00000010: edcf ecbd 9240 0cbf 8cd9 4e3f bf3e 2ebf
00000020: d1a9 6c3f a065 71be 4209 963e 52df 6bbe
00000030: 5ced 913e d427 4e3f ac15 33be 8083 d63e
-0.2298301 0.6719415 -0.0027227728 -0.2572186 -0.11563096 -0.54786026 0.808007 -0.6806449
0.9244662 -0.23573923 0.29303938 -0.23034409 0.28501403 0.8052952 -0.17488736 0.41897202
