seed-AuNP-phasemaps/pretraining/tune/128_2_64_3.37E-02_8/model.pt (torch, 160480 bytes, 20 tensors)

xy_to_r.input_to_hidden.0.weight f4 [64, 2]
0	0x3e7e0739	0.24807443
1	0x3c7e31b3	0.015514779
2	0x3e0799f3	0.1324232
3	0xbd4e461d	-0.050359834
4	0xbf867728	-1.0505114
5	0x3cb6e35c	0.02232521
6	0xbe123d15	-0.14281113
7	0xbec5b7f6	-0.38616914
8	0xbf045353	-0.5168964
9	0xbd8d981b	-0.069137774
10	0xbf4057e3	-0.75134104
11	0x3d3997d5	0.045310814
12	0xbef09f56	-0.46996564
13	0xbd562253	-0.052278828
14	0x3ef42611	0.47685292
15	0xbd8dec3b	-0.06929823
16	0xbd986e07	-0.07442861
17	0xbeaeee95	-0.341664
18	0xbec97dcc	-0.39353788
19	0x3e64e49c	0.22352833
20	0xbf251d1f	-0.6449756
21	0xbea63d07	-0.32468435
22	0xbf1d5f4b	-0.6147353
23	0xbed36668	-0.41289067
24	0xbec90acc	-0.3926605
25	0xbef87385	-0.48525634
26	0xbf242698	-0.6412139
27	0xbe45acc8	-0.19304192
28	0x3efb9949	0.49140385
29	0xbe0604dd	-0.13087793
30	0xbecd795a	-0.40131646
31	0xbee21324	-0.44155228
32	0xbf16f58f	-0.5896844
33	0x3ec05179	0.3756216
34	0x3d554831	0.0520708
35	0xbf8e80f4	-1.1133103
36	0xbebb50b4	-0.3658501
37	0x3ec5bd5b	0.3862103
38	0x3e2ad628	0.16683257
39	0xbe272017	-0.16320835
40	0xbebd634a	-0.36989814
41	0x3e597285	0.21235092
42	0xbece515e	-0.40296453
43	0x3e4943ba	0.19654742
44	0xbe4723d0	-0.19447255
45	0xbd8682ff	-0.06567954
46	0x3eb18ed8	0.34679294
47	0xb8afb29d	-8.3779196e-05
48	0xbecf4356	-0.4048106
49	0x3f0f89b5	0.560695
50	0xbe8a435b	-0.27004513
51	0xbdbeaa09	-0.093097754
52	0x3e5f45c1	0.21803953
53	0xbf2cd622	-0.6751424
54	0x3edf9887	0.43671057
55	0xbeedcf57	-0.4644725
56	0x3de9cd8a	0.114161566
57	0x3da4f07c	0.08053681
58	0xbdcd4c9a	-0.10024376
59	0xbf095b07	-0.5365452
60	0xbe82db7c	-0.25558078
61	0x3df2875e	0.118422255
62	0x3e7d15c2	0.24715331
63	0xbf5d7c63	-0.86517924
64	0xbe84a5fa	-0.2590788
65	0xbf7260a1	-0.94678694
66	0xbf4c7acc	-0.79874873
67	0x3ebf257b	0.37333283
68	0x3e9f43ba	0.3110636
69	0x3e88d0b2	0.26721722
70	0x3d3431bc	0.043992743
71	0x3e067892	0.13131931
72	0x3d4791e1	0.048723105
73	0xbdbfaba4	-0.0935891
74	0x3e1cd16a	0.1531426
75	0xbf194a78	-0.59879255
76	0xbe8fd2bb	-0.28090462
77	0xbef7c16f	-0.48389766
78	0xbe1d98b5	-0.15390284
79	0xbde15bea	-0.11003859
80	0x3e8edae7	0.27901384
81	0xba06494e	-0.00051226176
82	0x3e7c06ba	0.24611941
83	0xbeb1c6f6	-0.34722108
84	0xbebbe476	-0.3669774
85	0xbe254b20	-0.16141939
86	0xbf134be0	-0.5753765
87	0x3e83d1a0	0.2574587
88	0xbf15ef15	-0.58567935
89	0x3df10664	0.11768797
90	0xbf51ba62	-0.8192502
91	0xbf144d32	-0.5793029
92	0x3ec1d489	0.37857464
93	0x3e077c3c	0.13230985
94	0xbecc3432	-0.39883572
95	0xbd7f5b3a	-0.06234286
96	0xbc2632c6	-0.010143941
97	0x3ebdc0a0	0.37061024
98	0x3d79c521	0.060979012
99	0xbd8d85c1	-0.06910277
100	0xbedcca1e	-0.43122953
101	0xbeee5db9	-0.4655588
102	0x3e5d77b4	0.21627694
103	0xbf6c9d4a	-0.92427504
104	0xbf2164a3	-0.63044184
105	0x3e1b0cee	0.15141651
106	0xbda934d9	-0.08262033
107	0xbf3621ae	-0.7114514
108	0xbed5ed9e	-0.4178285
109	0xbd03cf7f	-0.032180306
110	0xbec2a6e2	-0.38017946
111	0xbf00367a	-0.50083125
112	0xbd1080c6	-0.035279058
113	0x3efd14c9	0.4942992
114	0x3e8fd71b	0.280938
115	0x3e53a9b8	0.20670211
116	0xbe9c0274	-0.30470622
117	0xbec0b686	-0.37639254
118	0xbf17ecb2	-0.59345543
119	0x3b7d07a7	0.0038609297
120	0x3ecc04aa	0.39847308
121	0xbe4054fe	-0.18782422
122	0xbeb1d786	-0.34734744
123	0x3db04196	0.086062595
124	0xbdcc61d6	-0.09979598
125	0xbdf2133c	-0.11820075
126	0xbf5501b9	-0.83205754
127	0xbef52d52	-0.4788614

xy_to_r.input_to_hidden.0.bias f4 [64]
0	0x3e362f08	0.17791378
1	0xbf27cd6a	-0.6554781
2	0xbd77795c	-0.06041847
3	0xbeb4d6a8	-0.3532002
4	0xbec38225	-0.3818523
5	0xbe9c10ce	-0.3048157
6	0xbe1c4a04	-0.1526261
7	0xbf4624ad	-0.7739971
8	0xbd9a0032	-0.075195685
9	0xbec1fbd6	-0.37887448
10	0xbe280a9a	-0.16410294
11	0xbe9c5167	-0.30530855
12	0xbe06d4b4	-0.13167077
13	0xbf1780d1	-0.59180933
14	0xbf22b3db	-0.6355569
15	0xbf11d35d	-0.5696314
16	0xbf069d35	-0.5258363
17	0x3d8f7cbd	0.07006214
18	0xbf260598	-0.64852285
19	0xbeab5f7a	-0.3347128
20	0xbeb19443	-0.34683427
21	0xbc4073ff	-0.011746406
22	0xbe6a1f69	-0.22863545
23	0xbf08d290	-0.5344629
24	0xbf0ca4cd	-0.54938966
25	0xbe913dce	-0.28367466
26	0x3e03e28b	0.12879388
27	0xbed81a25	-0.42207447
28	0xbedd1879	-0.43182734
29	0xbe3ffcc5	-0.18748768
30	0xbf25f3c6	-0.64825094
31	0xbf0442c3	-0.5166437
32	0xbce68005	-0.028137216
33	0xbef14426	-0.47122306
34	0xbf33f956	-0.7030233
35	0xbeca8e11	-0.39561513
36	0xbf2ba9da	-0.6705605
37	0xbe5c2ba8	-0.21501029
38	0xbc2ea5a7	-0.010659612
39	0xbe9f46c8	-0.3110869
40	0xbd22d36b	-0.039752405
41	0xbefa1d6d	-0.48850575
42	0xbe0725fc	-0.13198084
43	0xbf341cbd	-0.7035635
44	0xbed13b1b	-0.40865406
45	0x3e7e37a9	0.2482592
46	0xbf3e966b	-0.7444827
47	0xbe918257	-0.28419754
48	0x3b2b3c99	0.0026128648
49	0xbe75795a	-0.23972073
50	0xbeb15135	-0.3463227
51	0xbebe6495	-0.37186113
52	0xbf1e0ded	-0.6174
53	0x3ebd855f	0.37015817
54	0xbddac26a	-0.10681613
55	0x3e8323e7	0.2561333
56	0xbf3da296	-0.7407621
57	0xbf63088d	-0.8868492
58	0xbcb07946	-0.021542203
59	0xbeaec0b9	-0.3413141
60	0xbf1e0fb0	-0.6174269
61	0xbf12c669	-0.57334
62	0xbef03089	-0.4691203
63	0xbcf7e085	-0.030258426

xy_to_r.input_to_hidden.2.weight f4 [64, 64]
0	0xbe874986	-0.2642328
1	0x3d85ea78	0.06538862
2	0xbc3eb116	-0.0116389
3	0x3be9e300	0.007137656
4	0xbce70f18	-0.02820544
5	0x3cd60c20	0.026128829
6	0xbd05a040	-0.03262353
7	0xbc9dbe90	-0.019255906
8	0xbda714b2	-0.08158244
9	0xbea86339	-0.328882
10	0xbc975838	-0.018474683
11	0xbdfd3e7a	-0.12365432
12	0x3d55b920	0.052178502
13	0xbd9f8a38	-0.07790035
14	0x3d854d00	0.06508827
15	0x3c4245f0	0.011857495
16	0xbed92877	-0.42413685
17	0xbdef31bc	-0.11679408
18	0xbe9f2e06	-0.310898
19	0xbd7a68a8	-0.061134964
20	0xbebde9ed	-0.37092534
21	0xbedad7b7	-0.42742702
22	0xbd85d37e	-0.065344796
23	0xbdd5f6b6	-0.10447447
24	0xbeb81dfd	-0.3596038
25	0xbd6781c0	-0.056520224
26	0xbd51da80	-0.05123377
27	0x3d1c194c	0.038110062
28	0x3ce195d8	0.027537271
29	0xbd4fbdf4	-0.050718263
30	0x3d8ab852	0.067734376
31	0xbda71bae	-0.08159576
32	0xbde34936	-0.11097948
33	0xbe8c8360	-0.2744398
34	0xbe323b6a	-0.17405477
35	0x3d407dda	0.04699502
36	0xbd214d10	-0.039380133
37	0x3c0f8130	0.008758828
38	0xbba13bc0	-0.004920453
39	0x3d6b6fcc	0.057479665
40	0x3de69b6c	0.11260113
41	0x3dfdd260	0.123936415
42	0xbcb2bd48	-0.021818772
43	0x3ca11d4c	0.01966729
44	0xbca4ff50	-0.020141274
45	0xbcbe4b08	-0.023229137
46	0xbda9423c	-0.08264586
47	0x3cd10bf0	0.025518388
48	0xbf0d0979	-0.5509258
49	0xbdd48232	-0.10376395
50	0xbaa36100	-0.0012464821
51	0x3d772848	0.06034115
52	0x3d909e02	0.070613876
53	0x3c0d5870	0.008627042
54	0xbc8c8ac0	-0.017156005
55	0x3d3136dc	0.04326521
56	0xbed77dfa	-0.420883
57	0x3daf1976	0.08549778
58	0xbdf92bbc	-0.12166545
59	0x3dfb77b4	0.12278691
60	0xbcc58770	-0.024112433
61	0x3d699cd4	0.05703433
62	0xbd8c8048	-0.06860405
63	0xbc2ccc20	-0.010546714
64	0xbe8322d5	-0.25612512
65	0xbc7aadd0	-0.015300229
66	0xbe934732	-0.28765255
67	0xbd608370	-0.05481285
68	0xbdc51faa	-0.0962518
69	0xbe88cda7	-0.267194
70	0xbe49dbd8	-0.1971277
71	0xbe882b4d	-0.26595536
72	0xbe196fc7	-0.14984046
73	0xbe36bdb5	-0.17845805
74	0xbdd73b58	-0.10509366
75	0x3d8915ce	0.06693612
76	0x3d9b3590	0.075785756
77	0xbccb3948	-0.024807587
78	0xbc911390	-0.017709523
79	0x3d9da470	0.076973796
80	0xbe53d961	-0.20688392
81	0xbe1df452	-0.15425232
82	0xbdd12411	-0.10211957
83	0xbe2a8cf6	-0.16655335
84	0xbdb263b1	-0.08710421
85	0xbe9981ef	-0.29981944
86	0x3d8de458	0.06928319
87	0xbe8e0f84	-0.27746212
88	0xbdd32f30	-0.10311735
89	0xbdab1c44	-0.083550006
90	0xbe155003	-0.14581303
91	0xbe0c5985	-0.13706024
92	0xbd968bf0	-0.0735091
93	0xbe0285d8	-0.1274637
94	0xbe54b40c	-0.20771807
95	0xbe26731a	-0.16254845
96	0xbdf87f66	-0.12133674
97	0xbe9a26ca	-0.3010772
98	0xbdb46990	-0.08809197
99	0xbe903584	-0.2816583
100	0xbdc0f4a6	-0.09421663
101	0xbd821f78	-0.063536584
102	0x3d69e404	0.05710222
103	0x3c838ed0	0.01605931
104	0xbe3b64be	-0.18300149
105	0xbe48c1d2	-0.19605187
106	0x3d32cf3c	0.043654665
107	0xbe8df7d1	-0.2772813
108	0xbde97684	-0.11399558
109	0xbe8a602a	-0.27026492
110	0xbe0a7eca	-0.13524929
111	0x3d7b1bb0	0.0613057
112	0xbe9462f0	-0.28981733
113	0xbe06afe5	-0.13153036
114	0xbddd2ee6	-0.10799961
115	0xbe0e8e30	-0.13921428
116	0xbd7efab4	-0.062250808
117	0xbe5180a6	-0.20459232
118	0xbdc16f08	-0.09445006
119	0xbe7f32fb	-0.24921791
120	0xbdd62aaf	-0.1045736
121	0xbe8cf766	-0.275325
122	0xbe8c3e8f	-0.27391478
123	0xbe9a96cd	-0.30193177
124	0xbde8a632	-0.11359824
125	0xbdf16678	-0.117871225
126	0x3c36b7e0	0.011152238
127	0x3d9ddc02	0.07707979
128	0xbe89459e	-0.26810926
129	0xbd9e7e5a	-0.077389434
130	0xbe33a988	-0.1754514
131	0x3d9edfae	0.07757507
132	0x3d737224	0.059435025
133	0xbe5e95f3	-0.21736889
134	0xbe84fa55	-0.25972238
135	0xbe640764	-0.22268444
136	0xbde2324c	-0.110447496
137	0xbdd59cd2	-0.10430302
138	0xbcc861c8	-0.024460688
139	0x3df6f846	0.12059073
140	0x3ddd72ae	0.10812889
141	0xbdd0355a	-0.10166426
142	0xbc513090	-0.012767926
143	0x3de2e450	0.110787034
144	0xbe88aa6b	-0.2669252
145	0xbe7ad57d	-0.24495502
146	0xbe95c9f3	-0.29255638
147	0xbe51a383	-0.20472531
148	0xbe5f3e27	-0.21801053
149	0xbddd1e4e	-0.10796796
150	0x3d5c1954	0.053735092
151	0xbe5f4506	-0.21803674
152	0xbe7951a5	-0.24347551
153	0xbdc7a384	-0.09747985
154	0xbe97d382	-0.29653555
155	0xbe3de414	-0.18544036
156	0xbbddcc60	-0.006768748
157	0xbe9d012c	-0.30664957
158	0xbe3527bf	-0.17690943
159	0xbe0134d1	-0.12617804
160	0xbe4100a9	-0.18847908
161	0xbe863d50	-0.26218653
162	0xbe6de32a	-0.23231187
163	0xbe08e3bb	-0.13368122
164	0xbddfe868	-0.10933
165	0x3d3a2b84	0.045451656
166	0x3c0b6df0	0.008510098
167	0x3dac8cb8	0.084252775
168	0xbdc95f12	-0.09832586
169	0xbe1736d5	-0.1476701
170	0x3d538264	0.051638022
171	0xbe2f1dab	-0.17101161
172	0x3de62b92	0.11238779
173	0xbe6fafcc	-0.23406905
174	0xbe8b6ad5	-0.27229944
175	0xbca93968	-0.020657256
176	0xbe3e4ba7	-0.18583547
177	0xbdb6c9c8	-0.089252055
178	0x3da108c2	0.078629985
179	0xbe365377	-0.17805277
180	0xbc95df78	-0.018295035
181	0xbea2ea31	-0.318193
182	0xbe21af0e	-0.15789434
183	0xbe5c43c1	-0.21510221
184	0xbe0f5eb5	-0.14000972
185	0xbe586cb2	-0.21135214
186	0xbdba9fff	-0.09112548
187	0xbe34d933	-0.1766098
188	0xbe21327a	-0.15741912
189	0x3df71e0a	0.12066276
190	0x3d1db590	0.03850323
191	0xbe704acb	-0.23466031
192	0xbe484018	-0.195557
193	0x3db1c4b0	0.08680093
194	0xbe091c02	-0.1338959
195	0x3d9f08fa	0.07765384
196	0xbdf1fc78	-0.11815733
197	0xbe2abc8c	-0.16673487
198	0xbe4ff9b9	-0.20310105
199	0xbe8ac7fa	-0.27105695
200	0xbde9fdb2	-0.11425342
201	0xbea16550	-0.31522608
202	0x3d834844	0.06410268
203	0xbdd307de	-0.10304235
204	0xbd02b43c	-0.031910166
205	0xbc9ad5c8	-0.018900767
206	0x3d25aca8	0.04044786
207	0xbdd5c98a	-0.10438831
208	0xbdc97c94	-0.098382145
209	0xbdf4170f	-0.119184606
210	0xbe740848	-0.23831284
211	0xbdd7a225	-0.105289735
212	0xbddb56bc	-0.10709903
213	0xbe246bbc	-0.16056722
214	0x3b229540	0.0024808198
215	0xbdca2dde	-0.0987203
216	0xbe239e62	-0.15978387
217	0x3de3847a	0.11109252
218	0xbe6dee7e	-0.23235509
219	0xbdcbf61f	-0.09959053
220	0xbdba6d00	-0.09102821
221	0xbda2e7a7	-0.079543404
222	0xbe80f695	-0.25188127
223	0xbe8f3f27	-0.2797787
224	0xbe8a7001	-0.27038577
225	0xbdb3a1da	-0.08771105
226	0xbdee08e5	-0.1162279
227	0xbe803219	-0.2503822
228	0x3dd0a61e	0.10187934
229	0xbd6d1e94	-0.05789049
230	0x3bf2d300	0.007410407
231	0x3dec0352	0.11524071
232	0xbe2c093b	-0.16800396
233	0xbe87379d	-0.26409617
234	0x3dcbabb8	0.09944862
235	0xbdcb6b5b	-0.09932586
236	0x3daa8496	0.0832607
237	0xbe09f60a	-0.13472763
238	0xbe1abe5a	-0.15111676
239	0xbdd32a36	-0.103107855
240	0xbe6da93b	-0.23209088
241	0xbe7b1ed4	-0.24523479
242	0xbd3e6dd0	-0.046491444
243	0xbdd045b3	-0.10169544
244	0x3d5ee508	0.05441764
245	0xbe924863	-0.28570852
246	0xbe0f14bb	-0.13972752
247	0xbde875d3	-0.11350598
248	0xbe410459	-0.18849315
249	0xbda52553	-0.0806376
250	0xbde1e1b3	-0.11029377
251	0xbe3c1524	-0.1836744
252	0xbe80bef6	-0.25145692
253	0xbdf1f1b2	-0.11813678
254	0x3d2a196c	0.04152815
255	0xbd9c9f85	-0.076476134

xy_to_r.input_to_hidden.2.bias f4 [64]
0	0xbee9cb2b	-0.45662817
1	0xbde55c57	-0.11199253
2	0xbe264e84	-0.16240889
3	0xbe9af9ee	-0.30268806
4	0xbd45a470	-0.048252523
5	0xbde756e6	-0.112958714
6	0xbe9c8e84	-0.3057748
7	0xbe865c53	-0.26242313
8	0xbd94ca14	-0.07265106
9	0xbe457d32	-0.1928604
10	0xbe94aa20	-0.29036045
11	0xbe7d4567	-0.24733506
12	0xbe0dfae1	-0.13865234
13	0xbe4bd917	-0.19907032
14	0xbe85ab24	-0.26107132
15	0xbea33f7a	-0.31884366
16	0xbdd61bca	-0.10454519
17	0xbdfbac06	-0.1228867
18	0xbdfc1e5f	-0.1231048
19	0xbe9c7285	-0.3055612
20	0xbda1e839	-0.07905621
21	0xbe2b6c11	-0.16740443
22	0xbe2f66c6	-0.17129049
23	0xbe487069	-0.19574131
24	0xbda98f62	-0.08279301
25	0xbe986ce3	-0.29770574
26	0xbd924e51	-0.07143844
27	0xbe7c983c	-0.24667448
28	0xbd0c77ab	-0.03429381
29	0xbcef43e8	-0.029207185
30	0xbe368e17	-0.1782764
31	0xbdd08c5a	-0.1018302
32	0xbe39826e	-0.18116161
33	0xbe305122	-0.1721845
34	0xbdeacd3d	-0.11464927
35	0xbe975bf5	-0.29562345
36	0xbe353856	-0.17697272
37	0xbde11d45	-0.10991911
38	0xbd0b77a8	-0.03404966
39	0xbe0bb122	-0.1364179
40	0xbe706d96	-0.23479304
41	0xbe028a75	-0.1274813
42	0xbd7c5ed4	-0.061613873
43	0xbe6d05e6	-0.23146781
44	0xbda2ce9e	-0.07949565
45	0xbe92a473	-0.2864109
46	0xbd35c0ef	-0.04437345
47	0xbe79c4ec	-0.24391526
48	0xbe4043c0	-0.18775845
49	0xbe8ad236	-0.27113503
50	0xbd84694a	-0.06465395
51	0xbe5c6ec2	-0.21526626
52	0xbe46f091	-0.19427706
53	0xbe125395	-0.14289697
54	0xbde44965	-0.111468114
55	0xbdf18436	-0.11792795
56	0xbe654e35	-0.22393115
57	0xbe309ebb	-0.17248051
58	0xbe919fb0	-0.28442144
59	0xbe4db261	-0.20087577
60	0xbe0fa6d1	-0.14028479
61	0xbe8890e2	-0.26673037
62	0xbe7c127a	-0.24616423
63	0xbe67a12a	-0.22620073

xy_to_r.input_to_hidden.4.weight f4 [128, 64]
0	0xbd19a7a1	-0.03751338
1	0xbe6103b4	-0.21974069
2	0xbe2a4afd	-0.16630168
3	0xbe5c3af2	-0.21506861
4	0xbe26408a	-0.16235557
5	0x3dc4f5dc	0.096172065
6	0xbe907195	-0.28211656
7	0xbe3f4c5d	-0.18681474
8	0x3d56ef14	0.052474096
9	0x3e38c8f7	0.18045412
10	0xbe251a3f	-0.16123293
11	0xbe020433	-0.12696914
12	0xbe8eecf3	-0.27915153
13	0xbe6b70b8	-0.22992218
14	0xbe80635c	-0.25075805
15	0xbe3c0b66	-0.18363723
16	0xbd18bb00	-0.037287712
17	0xbd8684f8	-0.065683305
18	0xbdd01f6e	-0.10162245
19	0xbe0036ee	-0.12520954
20	0xbe838455	-0.256869
21	0xbbc75d3d	-0.006084113
22	0xbe4e3bda	-0.20140019
23	0xbe78667e	-0.24257848
24	0xbdc41664	-0.09574583
25	0xbe92cae3	-0.28670415
26	0xbea13478	-0.31485343
27	0xbe409cb1	-0.18809773
28	0xbe54f8e8	-0.20798075
29	0xbb65e000	-0.0035076141
30	0xbe5f34ef	-0.21797536
31	0x3db888d4	0.09010473
32	0xbea69233	-0.32533416
33	0x3e1e7b4f	0.15476726
34	0xbe273f8a	-0.16332832
35	0xbe5a1e42	-0.21300605
36	0xbe7c1701	-0.2461815
37	0xbe808317	-0.25100014
38	0x3c517440	0.012784064
39	0xbe8f3a53	-0.27974185
40	0xbd7a3176	-0.061082326
41	0xbd9fa8c4	-0.07795861
42	0xbd91512e	-0.07095562
43	0xbe83f934	-0.25776064
44	0x3daedf5e	0.08538698
45	0x3dd5dd05	0.10442547
46	0x3e3fd427	0.18733273
47	0xbea86d4d	-0.3289589
48	0xbe214cae	-0.15751907
49	0xbe81f406	-0.25381488
50	0xbcb80150	-0.022461563
51	0xbd9c2494	-0.07624164
52	0xbe3decb0	-0.1854732
53	0x3e06c56e	0.13161251
54	0x3ddc29ed	0.10750184
55	0xbe92e55e	-0.28690618
56	0xbe9a18c0	-0.30097008
57	0xbe1be668	-0.15224612
58	0xbe362183	-0.17786221
59	0xbea09a29	-0.31367615
60	0xbd2e71db	-0.04258905
61	0xbe11ec12	-0.1425021
62	0x3e0820e2	0.13293794
63	0x3d75d389	0.06001619
64	0xbdd6cef1	-0.1048869
65	0x3e10a166	0.14124069
66	0x3e7fb829	0.24972595
67	0x3e7c483a	0.24636927
68	0x3e9f37b9	0.310972
69	0xbcd40bf0	-0.025884598
70	0x3df2d256	0.11856525
71	0x3e059a94	0.13047248
72	0xba64f000	-0.00087332726
73	0xbde1a7e2	-0.11018349
74	0x3db846f8	0.08997911
75	0x3e96f14d	0.29480973
76	0x3e5e3e4d	0.21703453
77	0x3e916fe9	0.28405693
78	0x3ea219fd	0.31660452
79	0x3e275d8c	0.16344279
80	0xbd8c11b4	-0.06839314
81	0xbd9844c6	-0.074349925
82	0x3e80ce33	0.25157318
83	0x3e3acb4e	0.18241617
84	0x3e585581	0.21126367
85	0xbd556f1c	-0.052107915
86	0x3dc23c4d	0.09484158
87	0x3dccacc0	0.09993887
88	0x3dfbdbd4	0.12297788
89	0x3e706909	0.23477568
90	0x3ea2f21c	0.3182534
91	0x3e10f16c	0.14154595
92	0x3de53c24	0.111931115
93	0xbd61b2f8	-0.05510232
94	0x3e6c3e7d	0.23070712
95	0xbdcb5226	-0.09927778
96	0x3e0b87f8	0.13626087
97	0xbd814ba8	-0.063132584
98	0x3def906f	0.116974704
99	0x3e156ff8	0.14593494
100	0x3e252cc9	0.16130365
101	0x3e8a99b7	0.270704
102	0xbdcddac2	-0.1005149
103	0x3e922dc3	0.28550538
104	0xbd85b93e	-0.06529473
105	0x3dbbd809	0.09172065
106	0xbd8b7048	-0.06808525
107	0x3e5e102b	0.21685855
108	0xbd297314	-0.041369513
109	0xbe1f1611	-0.15535761
110	0xbe012b2b	-0.12614124
111	0x3dc8b4f3	0.09800138
112	0x3ea3a166	0.31959075
113	0x3e066587	0.13124667
114	0xbd1115d4	-0.035421208
115	0x3d905b54	0.070486695
116	0x3ea5695d	0.32306948
117	0xbdc2dc31	-0.095146544
118	0xbe17fe28	-0.14843047
119	0x3e19b9de	0.15012309
120	0x3e750ba5	0.23930223
121	0x3e9efabb	0.31050667
122	0x3dc41c68	0.095757306
123	0x3e6e66c2	0.23281386
124	0x3d72bd0b	0.059262317
125	0x3e9d85b1	0.3076606
126	0x3c8dd19b	0.017311862
127	0x3c8f6098	0.017502114
128	0xbdf9b0b1	-0.12191904
129	0x3dbff453	0.09372773
130	0x3e52e7de	0.20596263
131	0x3e59d187	0.21271335
132	0x3e299efd	0.16564555
133	0xbd90e7f4	-0.070754915
134	0x3e6838f4	0.22677976
135	0x3dd050a7	0.10171633
136	0x3dac5d00	0.08416176
137	0x3da3ead5	0.08003775
138	0x3e6ada19	0.2293476
139	0x3dec4699	0.11536903
140	0x3e68959d	0.22713323
141	0x3e59cf70	0.21270537
142	0x3e768472	0.24073961
143	0x3e8291bd	0.25501814
144	0xbc290880	-0.010316968
145	0x3d4f564c	0.05061941
146	0x3e8587bb	0.26080117
147	0x3e18b4ca	0.14912716
148	0x3e5c0f8b	0.21490304
149	0x3e585e7a	0.2112979
150	0x3e4dc5bd	0.20094962
151	0x3e492820	0.19644213
152	0x3bd1f080	0.0064068437
153	0x3ea56a0e	0.32307476
154	0x3e22ca32	0.15897444
155	0x3e970bd5	0.29501215
156	0x3dc93922	0.0982535
157	0x3d908a2c	0.07057604
158	0x3e1a44f6	0.15065369
159	0xbdd44100	-0.1036396
160	0x3dcd6f96	0.10031049
161	0x3e46747b	0.19380371
162	0x3e4642b5	0.19361384
163	0x3dc39e97	0.09551733
164	0x3e18cb7c	0.14921373
165	0x3e5f8f1a	0.21831933
166	0xbda44dde	-0.080226645
167	0xbd49aad1	-0.04923517
168	0x3dd757f8	0.105148256
169	0xbe019e0b	-0.12657945
170	0x3da23e06	0.07921986
171	0x3df2d91f	0.11857819
172	0x3d4b9010	0.049697936
173	0x3e150ff0	0.14556861
174	0xbe3bdf71	-0.18346955
175	0x3e383fef	0.17993139
176	0x3db571ff	0.08859634
177	0x3e40e8a0	0.1883874
178	0x3d855e56	0.06512134
179	0xbe5bd9b6	-0.21469769
180	0x3df27db3	0.118403815
181	0x3ee026d1	0.43779615
182	0x3e1ad215	0.15119202
183	0x3ea32e8f	0.3187146
184	0x3e6939c8	0.22775948
185	0x3e65306a	0.2238175
186	0x3ea8c868	0.32965398
187	0x3e3ef8db	0.18649618
188	0xbe23ef8d	-0.1600935
189	0x3e2dc0e9	0.1696812
190	0x3e0d4ffb	0.13800041
191	0x3c31a192	0.010841744
192	0x3bdf96e1	0.006823406
193	0xbddae228	-0.10687667
194	0xbe220d10	-0.15825295
195	0xbe2eaf11	-0.1705897
196	0xbe30e4fd	-0.17274852
197	0x3daaa3ac	0.08331999
198	0xbe155188	-0.14581883
199	0xbe4e43e1	-0.20143081
200	0x3cc0bff8	0.023529038
201	0x3e10e639	0.14150323
202	0xbdb8473d	-0.089979626
203	0xbea1b482	-0.3158303
204	0xbe422c2f	-0.18962167
205	0xbe8084a1	-0.25101188
206	0xbe687dae	-0.22704193
207	0xbe07835c	-0.13233703
208	0x3b691880	0.0035567582
209	0xbdd1ecc8	-0.102502406
210	0xbdc9cd37	-0.09853595
211	0xbe208314	-0.15675002
212	0xbea08d61	-0.31357864
213	0x3dcbd87b	0.099534
214	0xbe18889a	-0.1489586
215	0xbe1d2403	-0.15345769
216	0xbddd428c	-0.108037084
217	0xbe89aab7	-0.26888058
218	0xbe9dbfa0	-0.3081026
219	0xbe912ced	-0.28354588
220	0xbea5b102	-0.3236161
221	0x3dd3feae	0.10351311
222	0xbe13d1a0	-0.14435434
223	0x3c3b7e10	0.01144363
224	0xbe88f62e	-0.2675032
225	0xbd353e99	-0.04424915
226	0xbe6f5a47	-0.23374282
227	0xbe0f848a	-0.14015403
228	0xbd088ee8	-0.03333941
229	0xbe30e6ae	-0.17275497
230	0xbd8dd690	-0.0692569
231	0xbd6a74e0	-0.057240367
232	0xbd3da780	-0.04630232
233	0xbe1d3dcb	-0.15355603
234	0x3d1c5dec	0.03817551
235	0xbe40fc6a	-0.18846288
236	0x3d8bdac6	0.06828837
237	0x3e42cde0	0.19023848
238	0x3dfaaed1	0.12240375
239	0xbe3920fe	-0.18078992
240	0xbdcb2241	-0.09918643
241	0xbea996a9	-0.33122757
242	0x3d82b93a	0.063829854
243	0xbe48ad44	-0.19597346
244	0xbe5dbf9d	-0.21655126
245	0x3e389b9a	0.18028107
246	0x3e325de3	0.17418627
247	0xbe015faf	-0.12634157
248	0xbdcd8e21	-0.100368746
249	0xbe43d756	-0.19125113
250	0xbe378cb1	-0.17924763
251	0xbe6c08de	-0.23050258
252	0xbe8b31b5	-0.2718636
253	0xbea05e2f	-0.31321856
254	0x3e23e91d	0.16006894
255	0xbdf4e346	-0.119574115

xy_to_r.input_to_hidden.4.bias f4 [128]
0	0xbe9243fa	-0.28567487
1	0xc03d449a	-2.957312
2	0x3f30851b	0.689531
3	0x4043beea	3.0585275
4	0x401816da	2.3763947
5	0x3f06b4af	0.5261945
6	0xbf070cf7	-0.5275416
7	0xbf8e6818	-1.1125517
8	0xbf18fc61	-0.597601
9	0x405429cf	3.3150518
10	0x3f176008	0.5913091
11	0x3e601aa2	0.2188516
12	0xc03cc994	-2.9498034
13	0x4042de94	3.044835
14	0x3e86c7bd	0.26324263
15	0xbf24b99b	-0.6434571
16	0xc056aa9e	-3.3541636
17	0xbebaf2c0	-0.3651333
18	0x3eef15d9	0.46696356
19	0xbf8c1046	-1.0942466
20	0xbf164c91	-0.5871058
21	0x3f5eb412	0.86993515
22	0xbf54815d	-0.8300989
23	0xbeec515e	-0.46155828
24	0xc046ab40	-3.1042023
25	0x40431fe2	3.048821
26	0x3f0b0158	0.54298925
27	0x404a80d2	3.1641126
28	0xbf84b9eb	-1.0369238
29	0x4030549c	2.7551641
30	0x3f1dda62	0.6166135
31	0x403fc4ac	2.996379
32	0xbedb3eea	-0.42821437
33	0xbfd8fb79	-1.6951743
34	0x3eeb26aa	0.45927936
35	0x4035d298	2.8409786
36	0x3db45aaa	0.08806355
37	0xbe3f7e1f	-0.18700455
38	0x4049dcf1	3.1541102
39	0xc03fc864	-2.9966059
40	0xc040fa7b	-3.015288
41	0xc0458455	-3.086202
42	0xc02fae36	-2.745008
43	0xbd7b44b3	-0.061344814
44	0x3f322f8a	0.6960379
45	0xbeaf2ceb	-0.34213957
46	0x40403212	3.003056
47	0x3f037da7	0.51363605
48	0x3d3b1854	0.045677498
49	0x3f21f036	0.6325716
50	0x3f87b6f1	1.0602704
51	0x3f2090c9	0.62720925
52	0x3e68f3fe	0.22749326
53	0x3f16af0b	0.58860844
54	0xbf15a383	-0.58452624
55	0xc04d465c	-3.2074194
56	0x4046244c	3.0959654
57	0x4041ce49	3.0282156
58	0xbf3a333a	-0.72734416
59	0xbfac3248	-1.3452845
60	0x4045c9ad	3.0904343
61	0xc0456cec	-3.084773
62	0x404f79e0	3.2418137
63	0xc04288dc	-3.0396032
64	0x3f088200	0.53323364
65	0x3f3cf9ff	0.73818964
66	0xbf117f13	-0.56834525
67	0xbd84411b	-0.064577304
68	0xbfb3954e	-1.4029939
69	0xbf9bc688	-1.2169962
70	0x404156c0	3.0209198
71	0xbf0286df	-0.50987047
72	0xbfd25fa6	-1.643544
73	0x3f0371fd	0.5134581
74	0x3ee81c6d	0.45334187
75	0xc04b4d45	-3.1765912
76	0xc04fcdb2	-3.2469296
77	0x3f2980f0	0.6621237
78	0x3deb489d	0.11488459
79	0xbd1aa735	-0.037757117
80	0x3f821fdf	1.0165976
81	0x405522c5	3.3302472
82	0x403f333d	2.9875023
83	0xbf18ebf1	-0.5973502
84	0xbf0c3dad	-0.5478161
85	0xbe34b7ef	-0.1764829
86	0xbef21d62	-0.47288042
87	0xbd9ca580	-0.07648754
88	0xbf426ccc	-0.7594726
89	0x3ce236d5	0.027614037
90	0xc03ecb12	-2.9811444
91	0xc035b4dd	-2.839164
92	0x404c1d80	3.1893005
93	0xbe682a59	-0.22672404
94	0x3f2c64d9	0.6734138
95	0xbf470ea8	-0.7775674
96	0xbf05fe39	-0.5234104
97	0x3ebc7eda	0.3681553
98	0xc051e9b4	-3.279889
99	0xbf8755c0	-1.0573044
100	0xbf17739b	-0.59160775
101	0x405644df	3.3479536
102	0x404c7c79	3.1950972
103	0x4045e0fc	3.091857
104	0xc0327615	-2.7884572
105	0x3f78eb49	0.97234017
106	0xbf234b75	-0.63787013
107	0x404433e6	3.0656676
108	0x3f0fa92d	0.56117517
109	0xbf118572	-0.56844246
110	0xc0413501	-3.01886
111	0x3ef14384	0.47121823
112	0x3f3227d3	0.69592017
113	0x3f1f3f97	0.62206405
114	0x3f3d2f01	0.7389985
115	0xc03f4c18	-2.9890194
116	0x404812d9	3.1261504
117	0x404d743d	3.2102196
118	0x3f1a697d	0.6031721
119	0xbf2fc766	-0.6866363
120	0x3f60837d	0.87700635
121	0xbef10d0f	-0.47080275
122	0xc03aee2d	-2.920787
123	0xbd4f6e9b	-0.05064259
124	0x3dcf317a	0.10116859
125	0x404416b1	3.063885
126	0xbf034fdc	-0.5129373
127	0x3e0eff22	0.13964513

r_to_mu_sigma.r_to_hidden.weight f4 [128, 128]
0	0xbf7c71b5	-0.98611003
1	0x3f8f54be	1.1197736
2	0x3f940f3a	1.1567147
3	0xbf6373df	-0.8884868
4	0xbf886b1d	-1.0657688
5	0xbf91d596	-1.1393306
6	0x3f99c89e	1.2014349
7	0xbf5bc046	-0.8584026
8	0x3f81711c	1.0112643
9	0xbf64aff2	-0.8933097
10	0xbf97a80d	-1.184816
11	0xbfaa1520	-1.3287697
12	0x3f83521a	1.025943
13	0xbf7e1ebe	-0.9926566
14	0x3f7c5a18	0.9857497
15	0x3f9aa9a6	1.2083023
16	0x3f81f23a	1.0152047
17	0xbf8f3041	-1.1186601
18	0xbf976a4a	-1.1829312
19	0xbf6847d1	-0.90734583
20	0x3f8ae8a9	1.0852252
21	0x3f830a0b	1.023744
22	0xbf7a4fa0	-0.9777775
23	0x3f914b81	1.1351167
24	0x3f6be344	0.92143655
25	0xbf6c9c67	-0.9242615
26	0xbf9b2cba	-1.2123024
27	0xbf753429	-0.95782715
28	0xbf5d68a2	-0.8648778
29	0x3f4516c9	0.7698789
30	0xbf8ef79a	-1.1169312
31	0xbf7abaf6	-0.9794153
32	0x3f92f214	1.1480126
33	0xbf54a961	-0.8307095
34	0xbf999dd6	-1.2001293
35	0xbf6de6b7	-0.9293017
36	0xbf83bf86	-1.0292823
37	0xbf770557	-0.9649252
38	0xbf7b4949	-0.981587
39	0x3f7616d9	0.9612861
40	0x3f850004	1.039063
41	0x3f5ce2dc	0.8628366
42	0x3f821e1f	1.0165442
43	0xbf692f3d	-0.91087705
44	0xbf8fba7c	-1.1228786
45	0x3f8b4efa	1.0883477
46	0xbf66ed06	-0.9020542
47	0x3f952e97	1.1654843
48	0xbfa1ed92	-1.2650626
49	0x3f728d1c	0.94746566
50	0x3f82b511	1.0211507
51	0xbf56c49d	-0.8389376
52	0xbfa76e03	-1.3080448
53	0xbf9a2184	-1.2041478
54	0x3f8a89ab	1.0823263
55	0x3f735964	0.95058274
56	0xbf5e1be6	-0.8676132
57	0xbf5d8794	-0.86535
58	0x3f9373bb	1.1519693
59	0xbf3fbeb0	-0.7490034
60	0xbf6e0681	-0.92978674
61	0x3f872dac	1.0560813
62	0xbf7bc634	-0.9834931
63	0x3f78b442	0.9715005
64	0xbf6b71d6	-0.91970575
65	0x3f6afe57	0.9179434
66	0x3f972acb	1.1809934
67	0x3f5e7e58	0.86911535
68	0xbf62fb1f	-0.8866443
69	0xbf5b6471	-0.85700136
70	0xbf8ae3c0	-1.0850754
71	0x3f850d81	1.0394746
72	0xbf65f41e	-0.8982562
73	0xbf8e2a24	-1.110661
74	0x3f676d55	0.904012
75	0x3f78cc87	0.97187084
76	0x3f6d301a	0.9265152
77	0xbf91aa80	-1.1380157
78	0xbf9cc738	-1.2248297
79	0x3f7ce5fa	0.98788416
80	0x3f5898b4	0.84608006
81	0xbf69e69b	-0.913675
82	0xbf689b00	-0.9086151
83	0x3f8b75b9	1.0895301
84	0x3f850673	1.0392593
85	0xbf7e0fa1	-0.992426
86	0x3f97c1a3	1.1855968
87	0xbf759899	-0.9593597
88	0xbf579abc	-0.8422048
89	0x3f655671	0.89585024
90	0x3f6e8c33	0.9318268
91	0x3f849621	1.0358316
92	0xbf77b6bd	-0.9676321
93	0xbfb9312a	-1.4468129
94	0x3f613789	0.87975365
95	0x3f839c28	1.028203
96	0xbf8b39af	-1.0876979
97	0x3f7a1cfd	0.9770048
98	0x3f580bd6	0.8439306
99	0xbf641f04	-0.89109826
100	0x3f97c84e	1.1858003
101	0xbf7ea3bb	-0.9946858
102	0xbf68dceb	-0.90962094
103	0xbf86c74f	-1.0529574
104	0x3f8c6e49	1.0971156
105	0x3f836df7	1.0267934
106	0x3f913272	1.134352
107	0xbf786809	-0.97033745
108	0xbf94acb9	-1.1615211
109	0x3f813d0a	1.0096753
110	0x3f6504e4	0.8946059
111	0x3f6c064d	0.92197114
112	0xbf94b947	-1.1619042
113	0xbf8c01f1	-1.0938092
114	0x3f6acea5	0.91721565
115	0x3f66b0e8	0.9011369
116	0xbf9193e9	-1.1373264
117	0xbf76f6a7	-0.9647011
118	0xbf8b78b8	-1.0896215
119	0x3f8e44d2	1.1114752
120	0x3f5ecc6f	0.8703069
121	0x3f9c809d	1.222675
122	0x3f844154	1.0332437
123	0x3f86f526	1.0543563
124	0xbfb8b7ac	-1.4431052
125	0xbf849231	-1.0357114
126	0x3f9659fb	1.174621
127	0xbf7f749b	-0.997873
128	0x3ccb0c97	0.024786277
129	0x3cf3cd3e	0.029760953
130	0xbd8c7897	-0.06858938
131	0xbd7bd76c	-0.06148474
132	0xbd596e2a	-0.053083576
133	0xbda6056c	-0.08106503
134	0x3d56926b	0.05238573
135	0x3b9e7ce7	0.004836667
136	0xbd6353f8	-0.0555
137	0x3d61172e	0.054953746
138	0x3d21fc8d	0.03954749
139	0xbc93f9fc	-0.018063538
140	0xbdafa3d9	-0.08576173
141	0xbd5e4d39	-0.054272864
142	0xbd2bc79a	-0.0419384
143	0x3d90a260	0.070622206
144	0x3d8113b2	0.06302585
145	0x3cd719fc	0.026257508
146	0x3da7867d	0.081799485
147	0xbcc3cc5e	-0.02390116
148	0xbc78e13d	-0.01519042
149	0xbd9148f3	-0.07093992
150	0xbd647a42	-0.055780657
151	0x3d3eb416	0.046558462
152	0x3c2997b1	0.010351107
153	0xbc8f12ce	-0.017465021
154	0x3d126917	0.035744753
155	0xbd52809e	-0.05139219
156	0xbc008608	-0.007844456
157	0xbd8964ae	-0.06708656
158	0xbd885bd0	-0.06658137
159	0xbc8f75cd	-0.017512226
160	0x3d9692e0	0.07352233
161	0xbd4454dd	-0.047932494
162	0xbd8cbcae	-0.06871925
163	0xbdb03adb	-0.08604976
164	0xbd2764a0	-0.040867448
165	0xbd9b1741	-0.07572795
166	0xbb107965	-0.0022045013
167	0xbda3d553	-0.07999673
168	0xbcfa50de	-0.030556139
169	0xbda4740b	-0.08029946
170	0x3d83f8ef	0.06443965
171	0xbd4f1144	-0.050553575
172	0xbda3ac20	-0.079918146
173	0xbc976672	-0.018481467
174	0xbcf9d9ad	-0.030499304
175	0x3daf81da	0.08569689
176	0x3d6c4c90	0.057690203
177	0xbd68a41f	-0.056797143
178	0xbd16d11d	-0.03682052
179	0x3d9dcd83	0.07705214
180	0xbd12b6e7	-0.03581896
181	0xbd9af4ae	-0.075662
182	0x3d6a01c1	0.05713058
183	0xbd1a3eeb	-0.03765766
184	0x3d6a50fc	0.05720614
185	0x3d14b4cb	0.03630523
186	0xbca942f9	-0.020661818
187	0xbda7b29d	-0.08188365
188	0x3d573675	0.05254217
189	0xbd22cbf5	-0.03974529
190	0xbd48a886	-0.04898884
191	0x3d269865	0.04067268
192	0x3da30a48	0.07960945
193	0x3db2fce5	0.08739642
194	0xbc588c3e	-0.01321703
195	0x3db1853e	0.08667992
196	0xbd8641bb	-0.06555506
197	0xbd67ad90	-0.056562006
198	0xbdb0bad6	-0.08629386
199	0x3cbae95d	0.022816354
200	0x3cc7404c	0.024322651
201	0x3d13e575	0.0361075
202	0xbd9b91dc	-0.0759618
203	0xbd01ffc8	-0.031738073
204	0x3da148ec	0.07875237
205	0xbca7995c	-0.02045887
206	0xbba22385	-0.004948082
207	0x3d39cc36	0.045360766
208	0xbd81a1c8	-0.063296854
209	0xbca58b73	-0.020208096
210	0x3d8d13fa	0.06888576
211	0xbd0ce40f	-0.03439718
212	0x3d76b601	0.060232166
213	0x3daa1944	0.083056
214	0xbc2beca0	-0.0104934275
215	0x3d1a622a	0.037691273
216	0x3db3d129	0.087801285
217	0x3c9547a7	0.018222643
218	0x3d15b5d7	0.03655037
219	0xbce62193	-0.028092181
220	0x3cbc54af	0.022989599
221	0xbceb8858	-0.028751537
222	0xbda16a70	-0.078816295
223	0x3d18a349	0.037265096
224	0xbd577b0e	-0.05260759
225	0x3da2e392	0.07953562
226	0xbdb2d1c4	-0.08731416
227	0x3c9209af	0.017826883
228	0xbd0f6195	-0.03500517
229	0xbd893aea	-0.0670069
230	0xbd646695	-0.055761892
231	0xbd7d2582	-0.06180335
232	0x3cf856b0	0.030314773
233	0x3c92aba2	0.017904107
234	0x3c859fc5	0.016311536
235	0x3dae51b2	0.08511676
236	0xbd41cbac	-0.047313377
237	0x3d3893d3	0.04506285
238	0xbcb421fd	-0.021988863
239	0xbaa39885	-0.0012481367
240	0xbd9c3c4d	-0.07628689
241	0x3d7b7495	0.06139048
242	0x3d1fdd62	0.039029486
243	0x3d309079	0.04310653
244	0x3d0b9026	0.034073018
245	0xbc6591e6	-0.014011836
246	0x3d3aacac	0.04557483
247	0x3c119c32	0.0088873375
248	0x3d642d57	0.055707302
249	0xbccf40fc	-0.025299542
250	0x3c9b2312	0.018937621
251	0xbd1ebd2c	-0.038754627
252	0xbd0c113e	-0.03419613
253	0xbc1ab217	-0.009441874
254	0xbd0d0044	-0.03442408
255	0xbda9ecea	-0.08297141

r_to_mu_sigma.r_to_hidden.bias f4 [128]
0	0xbfa18028	-1.2617235
1	0xbdb2f759	-0.08738584
2	0x3f33b514	0.7019818
3	0xbfb33685	-1.4001013
4	0xbee846af	-0.45366427
5	0x3f8a2354	1.0792031
6	0xbfb9c2cf	-1.4512576
7	0xbfa0e349	-1.2569362
8	0xbfa9a3fc	-1.3253169
9	0xbf885a77	-1.0652608
10	0xbfc7dfce	-1.5615175
11	0xbe34dea4	-0.17663056
12	0xbe95fb2f	-0.292932
13	0xbe03d607	-0.12874614
14	0xbfa6412f	-1.2988642
15	0xbfb53a4f	-1.4158419
16	0xbfa81fe8	-1.3134737
17	0xbfb37a6c	-1.4021735
18	0xbfb48161	-1.4101983
19	0xbe263e02	-0.16234592
20	0x3f831bb0	1.0242825
21	0xbfaddc7e	-1.3582914
22	0xbe5face2	-0.21843293
23	0xbfa8f841	-1.3200761
24	0xbecd24d3	-0.40067157
25	0xbe39b33a	-0.18134776
26	0x3f716377	0.94292396
27	0xbfa1528e	-1.2603319
28	0xbfa1a17a	-1.2627404
29	0xbfab6013	-1.3388695
30	0x3d63383d	0.055473555
31	0x3f90efe2	1.1323206
32	0xbdd417c6	-0.10356097
33	0xbe1e8722	-0.15481237
34	0xbe5f0db2	-0.21782568
35	0xbf9f5016	-1.2446315
36	0x3f92f0ed	1.1479775
37	0xbf8ca04f	-1.0986422
38	0xbfbd71bb	-1.4800333
39	0xbe254aa2	-0.16141751
40	0xbfb56a06	-1.4172981
41	0xbfa84785	-1.3146826
42	0x3e0c974e	0.13729593
43	0xbfb60205	-1.4219366
44	0xbe7585ed	-0.2397687
45	0xbfb0f2cb	-1.3824095
46	0xbf79101a	-0.97290194
47	0xbfadc81a	-1.3576691
48	0xbe70c068	-0.23510897
49	0xbfb35d03	-1.401276
50	0xbfa6a72a	-1.3019764
51	0xbe0f0cc8	-0.1396972
52	0x3f46716c	0.7751682
53	0xbf9e8899	-1.2385436
54	0xbfa9ee26	-1.3275802
55	0xbd89948d	-0.06717787
56	0xbe60d2ff	-0.21955489
57	0xbfa066cf	-1.2531375
58	0xbfaa0c25	-1.3284956
59	0xbfc0630c	-1.5030227
60	0xbe93ef5e	-0.2889356
61	0x3f8a755a	1.0817063
62	0xbe829fef	-0.25512645
63	0xbfa0d7e1	-1.2565881
64	0xbf9c7442	-1.2222979
65	0xc006c6a6	-2.1058745
66	0xbd9dd3e5	-0.07706431
67	0xbd81e9a9	-0.06343395
68	0xbf99431c	-1.1973605
69	0xbe721e8e	-0.23644468
70	0xbfbd05bb	-1.4767374
71	0xbe3dcfb8	-0.1853627
72	0xbf9dfa56	-1.2342021
73	0xbf8d3ae8	-1.1033602
74	0xbdfdab91	-0.12386239
75	0xbf9df428	-1.2340136
76	0xbfb1f9a8	-1.3904314
77	0xbfa84fe1	-1.3149377
78	0xbf90b2c1	-1.1304551
79	0xbf34ba3a	-0.7059666
80	0xbfa170f3	-1.2612594
81	0xbe9e33cb	-0.3089889
82	0xbfadba3a	-1.3572457
83	0xbedd0a32	-0.4317184
84	0xbfad45ea	-1.3536961
85	0xbfb49c1a	-1.4110138
86	0xbfb213d8	-1.3912306
87	0xbf94cd90	-1.1625233
88	0xbfb81acd	-1.4383179
89	0x3f59bba3	0.85051936
90	0x3c8ac43b	0.016939273
91	0xbfab81fa	-1.3399041
92	0xbfa0a359	-1.254985
93	0x3e2316d5	0.15926678
94	0x3e17469f	0.14773034
95	0xbe134aff	-0.14384077
96	0xbfa51fce	-1.2900331
97	0xbe3b31f0	-0.18280768
98	0xbf9f3574	-1.2438188
99	0xbe848644	-0.25883687
100	0xbe86f838	-0.2636125
101	0xbe900e7e	-0.28136057
102	0xbe8901f5	-0.26759306
103	0xbf899476	-1.0748432
104	0xbf952385	-1.1651465
105	0xbf9c9b96	-1.2234981
106	0xbe2ed6ec	-0.17074174
107	0xbf6a27b1	-0.91466814
108	0x3f524c78	0.8214793
109	0xbebbbcf9	-0.36667612
110	0x3d48cb8e	0.04902225
111	0xbfd41e09	-1.6571666
112	0xbfbcfe88	-1.4765177
113	0x3f91d304	1.1392522
114	0xbfa735fd	-1.3063351
115	0xbfad6b2e	-1.3548334
116	0xbe756793	-0.23965292
117	0xbeedf514	-0.46476042
118	0xbe248dda	-0.16069737
119	0xbfaee3dc	-1.3663287
120	0x3f888a28	1.0667162
121	0xbe97a1bb	-0.29615578
122	0x3f8daee9	1.1069003
123	0xbe915f94	-0.28393233
124	0xbfbcdba7	-1.4754533
125	0x3f9859de	1.1902425
126	0xbe68cabe	-0.2273359
127	0xbea2cfc1	-0.3179913

r_to_mu_sigma.hidden_to_mu.weight f4 [2, 128]
0	0x3f8fc090	1.123064
1	0x3d4c4c9c	0.049877748
2	0x3f869656	1.0514629
3	0x3f9ad7b3	1.2097076
4	0x3d92a920	0.07161164
5	0xbfb665f4	-1.4249864
6	0x3f993011	1.1967794
7	0x3fa0ef1a	1.2572968
8	0x3f99c3d6	1.2012889
9	0xbe83d323	-0.25747022
10	0x3f833a7f	1.0252227
11	0x3cfab460	0.030603588
12	0x3e0bd652	0.13655975
13	0xbd3f4a2a	-0.046701588
14	0x3f9d7ab1	1.2303067
15	0x3f964e4c	1.1742644
16	0x3f93da02	1.1550906
17	0x3f9d6abf	1.2298201
18	0x3f9baadd	1.2161518
19	0x3d920e76	0.071316645
20	0xbfb45a07	-1.4089974
21	0x3f989050	1.1919041
22	0x3d99e631	0.07514609
23	0x3f9927e2	1.1965296
24	0x3d7f88b4	0.06238623
25	0xbd4b9206	-0.049699806
26	0xbfa55f41	-1.2919694
27	0x3f91a87d	1.1379544
28	0x3f96998b	1.1765608
29	0x3f8781f8	1.0586538
30	0xc00965d4	-2.14684
31	0xbfbf468a	-1.4943402
32	0x3f0a5f53	0.54051703
33	0x3c9bb59a	0.019007493
34	0xbe30f996	-0.1728271
35	0x3f6cd919	0.92518765
36	0xbfc49159	-1.5356857
37	0xbf8553d1	-1.0416204
38	0x3f8f7d5b	1.121013
39	0xbb944f1f	-0.0045260335
40	0x3f9bb368	1.2164125
41	0x3f96d571	1.1783887
42	0x3ed5e003	0.4177247
43	0x3f99c51b	1.2013277
44	0x3d1bbb0f	0.03802019
45	0x3f992391	1.1963979
46	0x3f6c9f8e	0.9243096
47	0x3f8f03c3	1.1173023
48	0xbc70439c	-0.014664557
49	0x3f9d36d6	1.228236
50	0x3f9a69c0	1.2063522
51	0x3ea15d32	0.31516415
52	0x3f631cf7	0.8871607
53	0x3f8f42cc	1.119226
54	0x3f96ae06	1.1771858
55	0x3d721937	0.059106078
56	0x3d049f65	0.032378573
57	0x3f936084	1.1513829
58	0x3f98a3ad	1.192495
59	0x3f945268	1.1587648
60	0x3efcfdad	0.4941229
61	0xbfbaafe4	-1.4584928
62	0xbea49316	-0.32143468
63	0x3f9951a7	1.1978043
64	0x3f937884	1.1521153
65	0x3e245f21	0.16051914
66	0x3c192660	0.009347528
67	0x3dad8a40	0.08473635
68	0x3f770aa2	0.965006
69	0x3d973bd0	0.07384455
70	0x3f9870e4	1.1909451
71	0xbd0c0be0	-0.034191012
72	0x3f963d54	1.1737466
73	0x3f91930d	1.1373001
74	0xbd02d56d	-0.03194182
75	0x3f9607eb	1.1721166
76	0x3f9014a9	1.1256305
77	0x3f971d25	1.1805769
78	0x3f80b982	1.0056612
79	0x3e5ab6bb	0.21358769
80	0x3f939ff9	1.1533195
81	0xbcbbbfe0	-0.022918642
82	0x3f977860	1.183361
83	0xbdf462f8	-0.11932939
84	0x3f9b85b8	1.2150183
85	0x3f99a302	1.2002871
86	0x3f985268	1.1900148
87	0xbf6d6a61	-0.92740446
88	0x3f9d250b	1.227693
89	0x3ddf5a12	0.109058514
90	0xbf6b502d	-0.91919214
91	0x3f9981d2	1.1992743
92	0x3f9bbdb9	1.2167274
93	0xbf5896e6	-0.8460525
94	0x3d63bc6b	0.05559961
95	0xbf6c0387	-0.9219288
96	0x3f9146a9	1.1349689
97	0x3d4346fb	0.047675114
98	0x3f8f5ed6	1.1200817
99	0x3dad5def	0.08465182
100	0x3d5344be	0.05157923
101	0x3d3c11ef	0.04591554
102	0x3d34dbae	0.044154815
103	0xbf81df6f	-1.0146312
104	0x3f9b73bb	1.2144693
105	0x3f6b9c2e	0.92035186
106	0x3ce229f9	0.027607905
107	0x3fb26f87	1.3940285
108	0x3eb0edc6	0.34556407
109	0xbce3d8af	-0.027813284
110	0x3f8edc27	1.1160935
111	0x3f93dfb5	1.1552645
112	0x3f958c94	1.1683526
113	0xbf44a6ea	-0.7681719
114	0x3f97d78e	1.1862657
115	0x3f9bfd08	1.2186594
116	0xbe4f3b5f	-0.20237492
117	0x3d28884e	0.041145615
118	0xbe098dfa	-0.13433066
119	0x3f8c86ce	1.0978639
120	0xbfcdba11	-1.6072408
121	0x3c399e15	0.011329194
122	0xbfbb1b8a	-1.4617779
123	0x3da88946	0.08229308
124	0x3f931920	1.1492043
125	0xbfc68fcf	-1.5512637
126	0xbddb71c3	-0.10715058
127	0x3ce45e4b	0.027876994
128	0xbf7bc66f	-0.9834966
129	0xbb4f0689	-0.0031589589
130	0x3fc508ff	1.539337
131	0xbf54872d	-0.8301876
132	0x3d3bfc62	0.045894988
133	0xc042ef6b	-3.045863
134	0xbf5855a6	-0.8450569
135	0xbf60c990	-0.8780756
136	0xbf640d32	-0.89082634
137	0xbf97df8e	-1.1865098
138	0xbf824d49	-1.0179836
139	0x3ca38cd0	0.019964606
140	0x3dc8c673	0.09803476
141	0xbcde0bfd	-0.027105326
142	0xbf6e3f90	-0.9306574
143	0xbf6e3218	-0.93045187
144	0xbf717877	-0.9432444
145	0xbf53f985	-0.8280261
146	0xbf6e9c54	-0.9320729
147	0x3d4a86c6	0.049444936
148	0xc03e83b4	-2.9767885
149	0xbf54bc03	-0.83099383
150	0x3d835a91	0.064137585
151	0xbf5689a9	-0.838038
152	0x3d4ad9ce	0.04952412
153	0xbc506253	-0.012718755
154	0xc037b91c	-2.8706732
155	0xbf8211a4	-1.0161633
156	0xbf77161d	-0.9651812
157	0xbf822300	-1.0166931
158	0xbf157a88	-0.5839009
159	0xc03d070d	-2.9535553
160	0x3fb6a38b	1.4268659
161	0x3c94d83e	0.018169519
162	0xbe22a83d	-0.1588449
163	0xbf93d377	-1.1548909
164	0xc03ca548	-2.947588
165	0xbf4ade06	-0.7924503
166	0xbf828249	-1.019601
167	0x3b7f2ecc	0.0038937805
168	0xbf5c77c9	-0.8612028
169	0xbf70e2b3	-0.94095916
170	0x3f502d9a	0.8131958
171	0xbf56289e	-0.83655727
172	0xbdf5e3db	-0.120063506
173	0xbf6d97df	-0.9280986
174	0xbf95e2fa	-1.1709893
175	0xbf812c5c	-1.0091662
176	0x3b9139ff	0.0044319625
177	0xbf64fa79	-0.8944469
178	0xbf7765dd	-0.96639806
179	0x3f8037d3	1.0017036
180	0x3fdbb168	1.7163515
181	0xbf83b35b	-1.028911
182	0xbf76e1a9	-0.9643808
183	0xbd84680f	-0.0646516
184	0x3c6c4518	0.01442077
185	0xbf419373	-0.75615615
186	0xbf587e42	-0.84567654
187	0xbf2b17e8	-0.66833353
188	0xbf5f6a1b	-0.8727128
189	0xc0421b3c	-3.0329123
190	0xbd39b8d7	-0.045342293
191	0xbf446269	-0.7671266
192	0xbf6f210d	-0.93409806
193	0xbe13f010	-0.14447045
194	0x3c1ec1cd	0.00968976
195	0x3d979477	0.07401364
196	0x3f601890	0.8753748
197	0x3d49ec8f	0.049297865
198	0xbf6ca59a	-0.9244019
199	0xbc928628	-0.017886236
200	0xbf6ed8d5	-0.9329961
201	0xbf8281c3	-1.019585
202	0xbcd0c277	-0.025483353
203	0xbf76213a	-0.9614445
204	0xbf74a116	-0.955583
205	0xbf62ddde	-0.8861979
206	0xbf89a2d3	-1.0752815
207	0xbf8b40c4	-1.087914
208	0xbf74b536	-0.95589006
209	0x3b8f5148	0.004373703
210	0xbf5e2d81	-0.86788183
211	0xbdd6dd02	-0.10491373
212	0xbf650f91	-0.8947688
213	0xbf72e9a8	-0.9488778
214	0xbf5cd5bf	-0.8626365
215	0xbf39cc38	-0.7257724
216	0xbf582821	-0.8443623
217	0x3fb595ef	1.4186381
218	0xbed56840	-0.416811
219	0xbf4eaaf0	-0.8072958
220	0xbf4e8e1b	-0.80685586
221	0xbf2d39cc	-0.67666316
222	0x3f09342a	0.5359522
223	0x3b7e4a14	0.0038801478
224	0xbf80fa77	-1.0076436
225	0x3d006577	0.031346764
226	0xbf82a24e	-1.0205781
227	0x3d7fe93b	0.062478285
228	0x3d1dfb7f	0.038569923
229	0x3d077896	0.033073984
230	0x3cf3533b	0.029702773
231	0xbf4be5a0	-0.79647255
232	0xbf6b9424	-0.9202292
233	0xbf90d4b3	-1.1314911
234	0x3ca40c71	0.020025464
235	0xbf3aa4da	-0.72907794
236	0x3f4fe695	0.81211215
237	0x3bb0fbae	0.0054010963
238	0x401a0b01	2.4069216
239	0xbf6e5b45	-0.93108016
240	0xbf625ff0	-0.8842764
241	0xbf13f767	-0.5779938
242	0xbf45164e	-0.7698716
243	0xbf52dba4	-0.82366395
244	0xbe38bbc8	-0.18040383
245	0xbb85bc48	-0.0040812828
246	0xbd2704ee	-0.040776186
247	0xbf805e28	-1.0028734
248	0xc03c4bff	-2.9421384
249	0x3b1f17b9	0.0024275614
250	0xc03ed58f	-2.9817846
251	0xbd8a121a	-0.06741734
252	0xbf71c8c2	-0.9444696
253	0xc03cc5ac	-2.949565
254	0x3db6ff83	0.08935454
255	0x3bd71345	0.0065635764

r_to_mu_sigma.hidden_to_mu.bias f4 [2]
0	0x3edfc9f4	0.43708766
1	0xc006791a	-2.1011415

r_to_mu_sigma.hidden_to_sigma.weight f4 [2, 128]
0	0xbda16c47	-0.078819804
1	0xbd07c871	-0.03315014
2	0x3f8d3e20	1.1034584
3	0x3ef6953c	0.48160732
4	0x3ecf8249	0.40529087
5	0xbedda8c4	-0.4329282
6	0x3e7b15f0	0.24520087
7	0x3e978e46	0.29600734
8	0x3e9765d8	0.29569888
9	0x3fc9ff26	1.578099
10	0x3e75ebc6	0.24015722
11	0xbe2ab334	-0.16669923
12	0x3f0f403c	0.5595739
13	0xbe1ccc64	-0.15312344
14	0x3e1f0a62	0.15531304
15	0xbe28395b	-0.1642813
16	0xbd883b02	-0.0665188
17	0x3e7e4c23	0.24833731
18	0x3eda0bf9	0.4258726
19	0xbe36fc38	-0.17869651
20	0xbf01e3fb	-0.50738496
21	0x3ee656bb	0.44988045
22	0x3f3011f4	0.68777394
23	0xbd10d49a	-0.035359003
24	0x3d15c9a5	0.036569256
25	0xbdf34d91	-0.11880029
26	0x3f1cdb02	0.6127168
27	0xbe0a2b34	-0.13493043
28	0xbe1823a1	-0.14857341
29	0x3e8362cd	0.25661317
30	0x3f93e641	1.1554643
31	0xbf2f833e	-0.68559635
32	0x3f917711	1.1364461
33	0xbd94d5ac	-0.07267317
34	0x3dcb3404	0.099220306
35	0x3ea224d0	0.3166871
36	0xbeebae17	-0.46031258
37	0xbfc1643d	-1.5108715
38	0x3f006794	0.5015805
39	0xbdc048ab	-0.0938886
40	0x3ed80c5b	0.42196926
41	0xbe46c0fd	-0.19409557
42	0x4014da68	2.3258305
43	0x3f1b6e13	0.60714835
44	0x3e59dc1c	0.21275371
45	0x3e6e56d8	0.23275316
46	0x3f4f1d78	0.8090434
47	0x3dc7e8a0	0.097611666
48	0xbdf042fa	-0.11731525
49	0x3ec2f3a4	0.38076508
50	0xbf1e5ecc	-0.618634
51	0x3f6c9bf2	0.92425454
52	0x3fb46d49	1.4095851
53	0xbe53be4b	-0.2067806
54	0xbd9d9534	-0.07694474
55	0xbdad54bc	-0.084634274
56	0xbd989de1	-0.07451988
57	0x3eb933eb	0.36172423
58	0x3e82ca44	0.2554494
59	0x3e547db9	0.20751084
60	0x3f977e29	1.1835376
61	0xbf0ecfa8	-0.5578561
62	0xbe6b41e4	-0.22974354
63	0x3eb85cf6	0.36008424
64	0xbeeda942	-0.46418196
65	0x3f87c333	1.0606445
66	0xbd9d2b30	-0.07674253
67	0xbc980525	-0.01855714
68	0xbe622323	-0.22083716
69	0xbe163467	-0.14668427
70	0x3ebe519f	0.37171647
71	0xbd8c0971	-0.06837738
72	0xbc79f1b8	-0.015255384
73	0x3d26c0d8	0.040711254
74	0xbe1df72d	-0.15426321
75	0xbe08c547	-0.13356505
76	0xbe1b2efe	-0.15154645
77	0x3e180e9e	0.14849326
78	0x3c506b73	0.01272093
79	0x3fd90ac3	1.6956409
80	0xbdf27fac	-0.11840758
81	0xbcfa810f	-0.030579118
82	0x3f09d744	0.53844094
83	0x3e97b4d0	0.29630136
84	0x3e97d72b	0.29656348
85	0x3f1323ec	0.5747669
86	0x3edc9ebc	0.43089855
87	0xbf114448	-0.56744814
88	0x3e823a48	0.2543509
89	0x3f5318d9	0.8245979
90	0x3eb7b4c7	0.3588011
91	0x3f0d5d4b	0.5522048
92	0x3eaa6cc7	0.33286116
93	0x3ea43fe7	0.32080004
94	0x3fe269ee	1.7688577
95	0xbe23aed3	-0.15984659
96	0xbdb41cd4	-0.08794561
97	0xbe6d4630	-0.23171306
98	0xbe61f03c	-0.22064298
99	0xbe4dd0ed	-0.2009923
100	0xbddf32a5	-0.108983316
101	0xbe1c6f39	-0.15276803
102	0xbe64d8a8	-0.22348273
103	0xbfb28d14	-1.3949304
104	0xbe106a10	-0.1410296
105	0x3ee135fe	0.43986505
106	0xbd85d652	-0.06535019
107	0xbe7e109b	-0.24811022
108	0x3f4a632c	0.79057574
109	0xbb9f029d	-0.0048526064
110	0x4000b9db	2.0113437
111	0x3e82e585	0.25565735
112	0x3ecd4dfd	0.40098563
113	0x3fc3bc00	1.5291748
114	0x3e9ed9ee	0.31025642
115	0x3e7e4245	0.24829967
116	0x3e9c188d	0.3048748
117	0x3f044e1f	0.51681703
118	0xbda216e4	-0.07914522
119	0x3e8bd4f6	0.27310914
120	0xbf08fd08	-0.53511095
121	0xbe4e0834	-0.20120317
122	0xbf0a4aae	-0.540202
123	0xbe0c3e67	-0.1369568
124	0x3edf9a0b	0.43672213
125	0xbef226d4	-0.47295249
126	0x3d60fe0b	0.054929774
127	0xbe85758a	-0.26066238
128	0xbe19e85c	-0.15030044
129	0xbd87c8ea	-0.06630118
130	0x3de211c1	0.110385425
131	0x3e2d707f	0.16937445
132	0x3cea22dc	0.028581075
133	0x3ffca2b6	1.9737155
134	0x3e006483	0.12538342
135	0x3d6e438d	0.05816989
136	0x3d7cc206	0.061708473
137	0xbfa60bdd	-1.297237
138	0x3e35ee3e	0.17766663
139	0xbe8026f5	-0.25029722
140	0xbc82ee39	-0.015982734
141	0xbe626512	-0.22108868
142	0x3d173aa1	0.036921147
143	0xbe879cd3	-0.26486835
144	0xbe839684	-0.25700772
145	0x3df50ef4	0.11965743
146	0x3e1e03bd	0.15431114
147	0xbe2435f2	-0.16036204
148	0x40004ddf	2.0047529
149	0x3e17ff97	0.14843594
150	0x3d616d59	0.055035923
151	0xbe01a110	-0.12659097
152	0xbe392d36	-0.18083653
153	0xbe887b5f	-0.26656625
154	0x401b4530	2.4260979
155	0xbe5d11f5	-0.21588881
156	0xbe2b795b	-0.16745512
157	0x3df9ab64	0.12190893
158	0x3fa16831	1.2609922
159	0x4003c53d	2.0589135
160	0x3f6bcbdc	0.9210794
161	0xbe090b86	-0.13383302
162	0xbe41a79a	-0.18911591
163	0xbde9d226	-0.11417036
164	0x40018ec1	2.024338
165	0x3f71e4ce	0.94489753
166	0x3d01940f	0.03163534
167	0xbe349794	-0.17635947
168	0x3e29a949	0.16568483
169	0xbe783bcc	-0.2424156
170	0x3f7b06ce	0.9805726
171	0x3e034a6b	0.12821357
172	0x3e825edd	0.25463
173	0x3de6ef98	0.11276168
174	0xbf8cae28	-1.0990648
175	0xbe315397	-0.17317043
176	0xbe5c8572	-0.2153528
177	0x3db5191f	0.08842682
178	0x3d9bdb0d	0.0761014
179	0x3f55200f	0.8325204
180	0x3e08a2d0	0.13343358
181	0xbe723670	-0.23653579
182	0xbe1a0b73	-0.1504343
183	0xbd99b1e4	-0.07504633
184	0xbe8d02d3	-0.27541217
185	0x3d9f56d1	0.07780231
186	0x3e12522c	0.14289159
187	0x3e003461	0.12519981
188	0xbfa7d7df	-1.3112754
189	0x3ffdc6ab	1.9826254
190	0xbe4776df	-0.1947894
191	0x3e23e3f1	0.16004921
192	0xbd8e5b32	-0.06950988
193	0xbf90f9e1	-1.1326257
194	0x3c082c7f	0.00831139
195	0x3d48f8b4	0.049065307
196	0xbd0e4738	-0.03473589
197	0xbe932c1b	-0.28744587
198	0x3e0e73dd	0.13911386
199	0xbe22a56e	-0.15883419
200	0x3e2ad96f	0.16684507
201	0x3d4e1de3	0.05032147
202	0xbe92e28e	-0.28688473
203	0xbe99f4dd	-0.30069628
204	0xbe4f15c7	-0.20223151
205	0x3e3de3d2	0.18543938
206	0xbd546636	-0.05185529
207	0xbfb345fc	-1.4005733
208	0xbe50e419	-0.20399512
209	0xbe5d19bf	-0.21591853
210	0x3e04f618	0.12984502
211	0xbcd1a1e5	-0.025589893
212	0x3d6a30b5	0.057175357
213	0x3e279f7a	0.16369429
214	0x3b148ddf	0.002266757
215	0x3fa1ea05	1.2649542
216	0x3c883e78	0.01663135
217	0xbe2a7525	-0.1664625
218	0x3f5bb94f	0.85829633
219	0x3e229e10	0.15880609
220	0x3de705c2	0.11280395
221	0x3f829e85	1.0204626
222	0x3f8b33d6	1.0875194
223	0xbe197e06	-0.1498948
224	0xbe24aabf	-0.1608076
225	0xbe1e56f1	-0.15462853
226	0xbe89ad24	-0.26889908
227	0xbe71e140	-0.23621082
228	0xbd9410f5	-0.07229797
229	0xbe26b50a	-0.16279998
230	0xbe14cfb0	-0.14532351
231	0x3f5d7283	0.86502856
232	0x3e075e67	0.13219605
233	0xbd12b6dc	-0.03581892
234	0xbe50b48a	-0.2038137
235	0xbe69c3ce	-0.228286
236	0xbe7f5a90	-0.2493689
237	0xbe1c6b2b	-0.15275256
238	0x3f9b691a	1.214145
239	0x3e3b44c5	0.18287952
240	0x3e273f50	0.16332746
241	0x3f4c4566	0.79793394
242	0x3dfbbba7	0.12291651
243	0x3e249e08	0.16075909
244	0xbe400d5e	-0.18755099
245	0x3d607a35	0.054804046
246	0xbe184a92	-0.14872196
247	0x3dba0b10	0.09084141
248	0x3ff5143f	1.9146804
249	0xbe51c58d	-0.20485516
250	0x3ffc3104	1.9702458
251	0xbd1b6cea	-0.037945665
252	0xbdac3f79	-0.08410544
253	0x4001a66e	2.025783
254	0x3b254778	0.00252196
255	0xbd9d7e22	-0.076900735

r_to_mu_sigma.hidden_to_sigma.bias f4 [2]
0	0x3f4bb545	0.7957347
1	0xbf83e819	-1.0305206
