seed-AuNP-phasemaps/pretraining/bestconfig/model.pt (torch, 434144 bytes, 22 tensors)

xy_to_r.input_to_hidden.0.weight f8 [128, 2]
0	0xc00321ff4ae9868c	-2.39160021329082
1	0xbfe7ae2e262c1adb	-0.7400122399856984
2	0x3fcc59f32fb42427	0.2214950545242413
3	0x3f9ecb5c8e1d6794	0.03007263772392539
4	0xc00c325652429cea	-3.5245787073687227
5	0x3fd1a055698fa992	0.2754109888907347
6	0xbfdc8b1dc61eff4b	-0.445990985372181
7	0x401183770a46da17	4.3783837896103455
8	0x3f9b072c9547c334	0.026394554721210287
9	0xc00396f399ec7bf5	-2.448706820039201
10	0xc0021c8eb6044567	-2.2639440746358335
11	0xbfeac57828f45d89	-0.8366051483052824
12	0xbffee16f321c2f93	-1.930037685148794
13	0xbff1c592480d04da	-1.1107352079855475
14	0xc0027968d4a48b3a	-2.3092819798197555
15	0xbfed9386e66380f1	-0.9242586612490681
16	0xbff373906dc05286	-1.2157139098318637
17	0xbfd055ae9b9d92d5	-0.255229618042262
18	0xc003741471ebc6f3	-2.4316796207502818
19	0xbfec600d4fd222a2	-0.8867250975609589
20	0xc0034adb689ca47d	-2.4115513012698657
21	0xbfe86e55ad03e7dd	-0.7634685877994759
22	0xc008195e8195dc78	-3.0123872875079165
23	0xbfd96ad090e78e66	-0.3971444525798006
24	0xbff8f0dba74d22a1	-1.5588032279212387
25	0x3ff21f4be6c25a1a	1.1326407445936924
26	0xbffd40580e2ced2d	-1.828208976147674
27	0xbff31cf03695897c	-1.194565022677664
28	0x3fe55b165e6d29d6	0.6673690647378929
29	0xc01298f2360e0f95	-4.649361462219436
30	0x3ffcea9ed1eb9681	1.8072803688059198
31	0xc001cb9d8e5d754d	-2.224421608187788
32	0x3ff432bde49ccf83	1.2623881273438833
33	0xc006254a99fbac3d	-2.768208697312302
34	0x3fcaed5f2c1172c3	0.21036901141896722
35	0x400f87c7d27a9222	3.9412990993171357
36	0xbffafb89cbb675bb	-1.686410709145419
37	0xbff434641f8d1106	-1.2627907974684276
38	0x40061aff8d269a5f	2.763182738056727
39	0xbfe81eb2500a79db	-0.753747135476995
40	0x40014dcd133c7c54	2.162988806041122
41	0xbffbf8f907ad6aed	-1.7482843685053766
42	0xc000869bbafc90c7	-2.0657267196967015
43	0xbfefafbe6845453f	-0.9902030979666633
44	0xc00cef6956fc9c4b	-3.6169001384583104
45	0x3fcb5e025241c29f	0.21380642906617184
46	0xc00954a64a8e23d7	-3.1663328003528295
47	0x3ff3042ad1062ec0	1.1885173954969304
48	0xc00558bfde867efc	-2.6683347115321094
49	0x3ffe2984641a294d	1.885136023544493
50	0xc004120d6b2e88ef	-2.508814656598694
51	0xbfe6b9545f4108bb	-0.7101232395582636
52	0x3ff26e41b3e3ba6b	1.1519181277214112
53	0x3fcbcbbf8d280f7f	0.2171554030647904
54	0xc00c1c2a406f5ec1	-3.513752463721034
55	0x3f7875c1fb81bef7	0.0059716775359530605
56	0x3ffdc60a0460428f	1.8608493967950925
57	0xc0015ff1e41b72c0	-2.171848089301733
58	0xc00bbfe9e7a99171	-3.4687078570006453
59	0x3fc2159f3e8fbf71	0.14128485255013915
60	0xc00953459c1429af	-3.1656601136830527
61	0x3fe6ec0517da14f5	0.7163110223633838
62	0x3fef84eea139eeae	0.9849770688010346
63	0xc00f427dc4c8a2b2	-3.907466447232161
64	0xc00542b4ed59cadb	-2.6575716536548106
65	0xbfe3be5d78b0800f	-0.616987930032339
66	0x40012ddd2f4accb9	2.1473945326520973
67	0x3f63da3326844cc3	0.0024233817131374693
68	0x400b788538db7807	3.433847850988062
69	0xbfb9fca704880281	-0.10151141987445024
70	0xbff57293765a1593	-1.3404726622696657
71	0x3fccfccbfea48cd8	0.2264647477505608
72	0xc008cfc9e97b8f9d	-3.1014593354065725
73	0x3fdfa40105978182	0.4943850092513672
74	0x3feba3581ddd734e	0.863689478235395
75	0x3fe79eb99d427fb7	0.7381256171683991
76	0xc00b488ad218d0a1	-3.4104210294554638
77	0x3fd7b3f7e45ff707	0.37035939504845355
78	0x40061cb426fade93	2.7640154881772303
79	0xbfee45d39c177dfe	-0.9460237549464521
80	0xbff1d27e9fae3f18	-1.1138902890706444
81	0x3ff0b3e44f367d87	1.043918904710013
82	0x3fe1d8e47389363f	0.5577261215746104
83	0x3fc1477a9c5bacc0	0.1349938643901165
84	0xbfe5b29caa1102a7	-0.6780532189951217
85	0xc00a8858f8b14dd0	-3.3165759495839
86	0x40015ddd44abc29b	2.1708321919362112
87	0x3fd8ef32054d0d46	0.38959932820963095
88	0xc0049f4029adc4e5	-2.5777590995936515
89	0xbfe56d51a8c91fbc	-0.669594602260069
90	0x3fe809c6939ff62a	0.7511933215425348
91	0xc012bd0ceafac9fb	-4.684619590336747
92	0xc0091cb9ddc22dac	-3.1390263867267176
93	0xbfdadfce169bf8d3	-0.4199099751275643
94	0xc00b7107fa99d225	-3.4301909998123556
95	0x3fcf73a00644953c	0.2457160978894225
96	0xc00bf6364b213e19	-3.4952207440872027
97	0x3fc4bbb8be9475ed	0.16197881036434528
98	0x3fde9de4370a5244	0.4783869302275756
99	0x3ffb9bfedcdf4b9c	1.7255848529646078
100	0x3fd09e5dec1f85dc	0.25966594752216365
101	0x3fdf395a893ba1ef	0.4878755893865038
102	0xc00c4858076c4c95	-3.5353241519856717
103	0x3fc12ba0c29afab8	0.1341439199658987
104	0xc00c625c39c9eb18	-3.5480274691339098
105	0x3fd979cc6edc1169	0.3980589945424727
106	0xbfe87fede78dd952	-0.7656163713971103
107	0xc009ddab9801e757	-3.233237445409866
108	0x3fcbef459fe4ac1d	0.2182395010689512
109	0xc0135bebddf7b851	-4.839766948933247
110	0xc00765975de85c12	-2.924605115560106
111	0x3ff2da381f6e40e9	1.1782761791001184
112	0xc00cef2e7c1ad121	-3.616787881439578
113	0x3fdb376fdb5df306	0.4252586023574597
114	0xbffb180ce78a9434	-1.6933716816504445
115	0xbff40448ff38c359	-1.2510461778258188
116	0xbf966a696b1e3f0c	-0.02189030376717853
117	0xc01203b2bfc162ae	-4.503611560991585
118	0x3ff2ef83971f34cf	1.1834751036833955
119	0xbfc2f1e4654aca1d	-0.1480069632139739
120	0xc00a1fb18f6f0a3e	-3.2654753881227228
121	0x3fed7b39c6da97d8	0.9212921985497315
122	0x40026b8c401a7a0b	2.3025136001663262
123	0xbfec30a66e1180f3	-0.8809387349865844
124	0xc00c9034ead5335e	-3.5704134317697216
125	0x3fd0c4520039d6a5	0.2619824411589014
126	0x400369e8e6e48a3f	2.42671375641774
127	0xbfe2affcc7dd14ba	-0.5839828399263276
128	0xc00cc2f092a14578	-3.5951854186502565
129	0x3fd4c8b369ecad8f	0.32474980682555893
130	0xc0032f6584a4fbf8	-2.3981428492402266
131	0xbfef78df55f13448	-0.9835049322661087
132	0x4009a95d171f74e1	3.2076970869517116
133	0xbfcee05e649a2f7d	-0.2412221900198083
134	0xbff3f446fdbe8648	-1.2471380149730908
135	0xc00087a85dfe691f	-2.066239103628632
136	0xbffe68ea8cbd9350	-1.9006143090893666
137	0xbff291487c1efedb	-1.1604695175628226
138	0xc00c297bcfac0e1f	-3.5202556824094837
139	0x3fd5be412f4aaf90	0.33973722093900793
140	0xc00b848411848297	-3.4397050255359534
141	0x3fc82e2faa6fa3d4	0.18890949079584962
142	0xc004d38b620691f2	-2.6032931955580745
143	0xbffc4590dd76ffbd	-1.7669838572473815
144	0x400813fb501bae96	3.0097566851089352
145	0xbfe898ad4c37b5f6	-0.7686373222947498
146	0xc007ae6ce27e4a30	-2.9601686186590754
147	0xbfd34d944eadfaad	-0.3016100662570505
148	0xc00cf4e242964bd6	-3.619572181903531
149	0x3f9d1735d4b91428	0.028408852680758795
150	0xc00c45b06fb94bca	-3.534027932016646
151	0x3fd65ff8fc30bc56	0.3496077025219554
152	0xc00a333a8da7b365	-3.2750140253833018
153	0x3fbeed35e040a92e	0.12080704426685848
154	0x3fbb3740580240a9	0.10631181858684847
155	0xc012bd796e679f60	-4.685033536028499
156	0x3fffb6b3aaadc915	1.982104937280899
157	0xbff9f95821204620	-1.623375062369071
158	0xc006ab3c4f22a393	-2.8336111242719624
159	0xbfe1c1be98d5826c	-0.5549004540481071
160	0xc00c8f1ff75c04fa	-3.569885189529143
161	0x3fbae5675683db46	0.10506292211708254
162	0xc0074551320c03b9	-2.908846274367957
163	0xbfde82ce2812bacb	-0.476733721860836
164	0x400f8cc35f9cc1dd	3.9437320203507924
165	0xbfa2c4f93aa2cf60	-0.036659038932525645
166	0x40074bcb0f4c5c83	2.9120083995035784
167	0xbfef2df60b20d3ed	-0.9743604867313685
168	0xbfdbd35905ce5f3e	-0.43477464262968
169	0x3fee87a0fb18aa7d	0.9540562538362135
170	0x4008c7205e560268	3.097229706764029
171	0xbfeb08adfa6f59fb	-0.8448095217998451
172	0x3ff7148f688e4c16	1.442519577428134
173	0xbff818d9b7d25d26	-1.5060670071159818
174	0xc007758bf6d2418d	-2.9323958666720444
175	0x3ffdcc576419e2aa	1.8623880300712394
176	0x3fbce148c6da0951	0.11281256537225672
177	0xc01359d7eb1f31fb	-4.837737726000792
178	0x400270a6b9695803	2.3050055012963653
179	0x3fcb7e15969e12df	0.21478528837555808
180	0xc004be872fef34a9	-2.59303128670452
181	0x3ffdfd8aa33db07c	1.8743997933006815
182	0xbff607e31b386675	-1.3769255698483935
183	0xc00058cbb1784175	-2.043357264025128
184	0x3ff7c393ca8b4a7c	1.4852483665351022
185	0xc00cd45ace2e7c5d	-3.6036888225494708
186	0x40034b07a2732011	2.4116356555350724
187	0xbff483dc8810dbcb	-1.2821927371094144
188	0xbff365857990dfb0	-1.212285494677399
189	0x3fc476b85c2b7c1f	0.15987305164796425
190	0xbff25cec0be4014d	-1.1476860489347758
191	0x400f10a3da753586	3.8831250254649516
192	0xc00c2eeaacce1dd9	-3.522908544578723
193	0x3fa3af9bd0b0c33b	0.038449162697708116
194	0xc00c63c2d7fdf7c3	-3.5487114786510303
195	0x3fc05c7627152ca2	0.1278217020829731
196	0xbff4c7443c89f5b9	-1.2986490597535136
197	0x3ff7c88a77cef604	1.4864601783768885
198	0xbfc778cdcc13c996	-0.18337414231025367
199	0x400f355e095a9979	3.9010582667135023
200	0x3fa02320508eefe0	0.03151799186113613
201	0x3fde99f0a2fbd044	0.4781457511555838
202	0xbff806b89ccaee11	-1.5016409039225247
203	0xbff9488ceeeb32e8	-1.5802125294459817
204	0xbff9412e823850c0	-1.5784134947507908
205	0xbfe6af81baee2716	-0.7089241648656948
206	0xbffce7ac2697afba	-1.8065606601257813
207	0xbff40a49c0c55d6f	-1.2525117426028733
208	0x4002b06915cb9b73	2.336137933994388
209	0xbffb6159ba052f2f	-1.7112672106185973
210	0x400842056b7a425a	3.0322369000134985
211	0xbff09b630f5f11a6	-1.0379362678951138
212	0x400e296022f0de95	3.7702028970487143
213	0xbfcdec19b70e5c20	-0.23376771391187479
214	0x3f96e1de72bd01e1	0.022345996621199297
215	0x3fe821472dff31d6	0.7540622614265498
216	0x3fbb6257371dab87	0.1069693097648906
217	0xc01208e0a656be9d	-4.5086694708294575
218	0xc00ae8dfc9adfe2b	-3.3637080913756754
219	0x3fdd132135f9ff01	0.45429258605143735
220	0x400b004023973c95	3.3751223354843867
221	0xbfcbc86eeea568a6	-0.2170542397751138
222	0x400ecd366d47193c	3.8502014672586977
223	0xbfd4e99f0b32da4b	-0.32675911038987654
224	0xc00c10f0207e0c20	-3.508270505758915
225	0x3fd05e53894339ef	0.255757221265326
226	0x3fe5a7c957ce609a	0.6767317500080197
227	0xc01095d803220e99	-4.146331833795238
228	0xbff9fc1907b21442	-1.6240473080263347
229	0xbff6052830683772	-1.3762590304281415
230	0xc00526dd0110599c	-2.643976219474281
231	0xbfe4112e7226d236	-0.6270973424457853
232	0xc00c633866a03f09	-3.5484474198964375
233	0x3fd2565a49237fbb	0.2865205492253115
234	0xbff5749ad5bbeeed	-1.3409679745663496
235	0xbffc40473b66c1fa	-1.765692932163914
236	0xbffd7221654ff516	-1.8403638799202944
237	0xbff3d978c7b7d820	-1.240593700551024
238	0xc00cdcf9359edd2b	-3.607897204313891
239	0x3fc3ebf543f574db	0.1556383687811039
240	0xc00b9a85e606f340	-3.4504507037039787
241	0xbf99df61cdb03926	-0.02526619737550919
242	0xbfe107575724d5f1	-0.5321461393384067
243	0xc00f049d2179628d	-3.8772528281372787
244	0xc0074a26ddb66f20	-2.9112069436358894
245	0xbfd7ab2478a44c00	-0.36982070714401516
246	0xbfd83468de2386b0	-0.3781988305400814
247	0x3ffc7ccf509b7010	1.7804711483686368
248	0xc006b5181479b3a8	-2.8384248351707875
249	0xbfdaf8b187db4cf3	-0.4214290453648594
250	0xc00136c5e0c8bf22	-2.151744609953213
251	0xbfec81c2f9e4a0ab	-0.8908400421833184
252	0x4002222e1707abe6	2.2666894721237325
253	0xbff8e27289a5c572	-1.5552850128991307
254	0xc004914643e1abe3	-2.5709348014111
255	0xbfe0147aca4ceecf	-0.502499957197381

xy_to_r.input_to_hidden.0.bias f8 [128]
0	0x3fda1eb44beb2832	0.4081240407364276
1	0xc0047871fb5a58c3	-2.5588111531206734
2	0xbfe5eb630564075e	-0.684983740357193
3	0xbfec0c4f93d13fa8	-0.8765027892168193
4	0xc006cca61bee6c1a	-2.8499262029777244
5	0x3fc8d430b5a46ffc	0.1939755331922014
6	0x3fd677571710606e	0.35103394749012906
7	0x3feadcefc3f60248	0.8394697978365651
8	0xc002c5ac6fd455db	-2.3465203034090627
9	0x3fef78fff2bb3b98	0.9835204830977657
10	0x3fe338aabfa61fd4	0.6006673567908316
11	0x3fe57dcabc954571	0.6716054614318364
12	0xbfff46223ec27342	-1.9546225024743795
13	0x3fdbb224a065cc89	0.4327479902633021
14	0x3fc186135d2e7ca2	0.13690416383631027
15	0xbfe66772a74e23ff	-0.7001279132538228
16	0xbfeb8f56cfc40779	-0.8612474496769514
17	0xbff14a9d8eeb237a	-1.0807166655306149
18	0xbfc9befb84510459	-0.2011408229900862
19	0xbff0bc6877001f90	-1.0459980629402459
20	0xbfe7fe7db5760993	-0.7498158020173825
21	0x3fd4e6a3dc25efd5	0.3265771531948734
22	0x3fd87f944ad3e757	0.3827868204822286
23	0xbf8b7507c34deb22	-0.013406811378208486
24	0xbfe33e1b3f56d84d	-0.6013313519567959
25	0x3fd4b42f8d3eb10c	0.32349766534277147
26	0xc001056ff625fb3c	-2.127654955896473
27	0x3fd23ac93f51c1a8	0.2848380201676499
28	0xbfecb72957b0909b	-0.8973585808457928
29	0xbfd03b3c9ee08400	-0.25361552729924597
30	0xbfe58bbfb8fabbb3	-0.6733091938857484
31	0xbfc772c6bebb66fe	-0.18319019616210847
32	0x3fe427ea12ca4a77	0.6298723570819921
33	0xbffbd9464daabd19	-1.740545562159076
34	0xbff94a19f7609875	-1.580591169660264
35	0xc0039efd2b285564	-2.4526313182529282
36	0xbffb34da7ae2a59c	-1.7004036712845396
37	0xc001f893b2c2601a	-2.2463754621094383
38	0xbfe50ae763b6ff49	-0.6575810382418946
39	0xbfe95d4cd4ed23a3	-0.7926391752927099
40	0xc001f95a608f9820	-2.246754412061833
41	0xc0023a11854453af	-2.2783537303425514
42	0xbfbeeffbb51d6e3c	-0.1208493535208896
43	0xc0002257f036f787	-2.0167692915701454
44	0x3fe37c0eb4059fd5	0.6088937297872642
45	0x3fc5cc5125972952	0.17029775939438224
46	0x3ff11dec0e3f9e64	1.0698051983435102
47	0xbfab6e0ecc3064b9	-0.05357404940168337
48	0x3fbe1ba65a4f3786	0.11760940270252548
49	0xbff79e58c7cde03d	-1.4761588864185022
50	0xc002d8e25ee038ec	-2.355900517671321
51	0xbff89683ed9619d8	-1.5367469101635063
52	0xbf96edf77c4f0f27	-0.022392146074493937
53	0x3fbf6c0cc791b091	0.12274246094028941
54	0x3fdbd574b05eb43f	0.4349033090937304
55	0xbfeb05a1666f02cf	-0.844437313142487
56	0xbfa4604d2e7dc8f4	-0.03979722206612904
57	0x3fd85b20672e0119	0.38056192470686906
58	0xbff18ab05c777d88	-1.0963595973952085
59	0xc00134eeb8499f70	-2.1508459470241448
60	0xbfd8aaa322d2b681	-0.3854148712224302
61	0xbff979e4990fbb8e	-1.5922590235674963
62	0x3fa186f0b4f6ab6f	0.03423263749149085
63	0xbff8ba2fa659862a	-1.5454555986438074
64	0xbff3fa2673d62192	-1.2485718273984259
65	0x3ff50cbd03ac32d0	1.3156099456274895
66	0xbff609b0e0235ec8	-1.377365947284419
67	0x3fe044334bed04f6	0.5083252413679975
68	0x3fe68a07faf0e992	0.704349508399263
69	0x3fb68463202f480f	0.08795756850966562
70	0xbff552207c1017b9	-1.3325505109983011
71	0xc01113b4c77ac99e	-4.269244305486067
72	0xbff3d3dafaf5cce8	-1.239222507775418
73	0x3fd1c0762e78b7a9	0.27737192667233984
74	0x3fe8917a66877882	0.7677585604212853
75	0xbfcf59b884eaf2bc	-0.24492556085706052
76	0xbffc8ccd10e1565b	-1.7843752536185977
77	0x3fd689943d01a8c8	0.3521471591726706
78	0xbff22d61b0ba4dda	-1.1360794928958655
79	0x3feaa7794554f075	0.8329435686241725
80	0x3fd2a3a15ab58268	0.2912372003393444
81	0x3fe509e2d889a826	0.6574568013431914
82	0xbff9d5d0884cf7cf	-1.614700825142325
83	0xbff1b9127dcdee2e	-1.1076836504206642
84	0xbffcc0c7cc255283	-1.7970655416912968
85	0xbfe9887104bd2f1b	-0.7979054539259524
86	0xbffba5e08321b0d1	-1.7279973146751682
87	0xbfd16a8ced4a6bd2	-0.27212832615776705
88	0xbfc74694e05739d5	-0.18184147791039487
89	0xbffe3b5bcf88958a	-1.8894918543604455
90	0xbfe8ca9a7a119002	-0.7747318634178557
91	0x3fe90282d3421932	0.7815565229546222
92	0xbfe2041054b341c7	-0.5629960684109897
93	0xbfedc3d6f0c28d18	-0.9301562025397372
94	0xc004bb04ccccd6ac	-2.59131774902456
95	0xbfe69531393bec77	-0.7057119481900277
96	0x3fda3dd6be8c3b19	0.4100243435686238
97	0xbfd17b065faef7cc	-0.2731338438423989
98	0xbff72129db91e42b	-1.4455965592335456
99	0xbfeeab4348994354	-0.9584061067526854
100	0xc0071e526574b5d6	-2.8898055959932476
101	0x3fddc4067c6d003d	0.46508943701701694
102	0xc00741bcede52561	-2.907098635249597
103	0x3fe356a7ba8c98f9	0.6043280261553995
104	0xbfec19c462c42af3	-0.8781454018620408
105	0xbfe556cb768574c9	-0.6668450655812644
106	0xbff603d5c61c4ae8	-1.3759362925235852
107	0xc0026b2451ac687d	-2.3023153668155474
108	0x3fb15b465d92a8af	0.06779899391645715
109	0xbfc75ac82a86317f	-0.1824579436910305
110	0xbff613b708df8622	-1.3798132273299264
111	0xbff2933660946608	-1.1609405300754378
112	0xbfd215cd24c2ef0a	-0.28258064832674334
113	0x3f70bd85655e6314	0.004086991384519196
114	0xc00ae23e07db5f9b	-3.3604698766539065
115	0x3fe13d04f93fc254	0.5386986606736834
116	0xbfe326e01c130aec	-0.5984955356910553
117	0x3fd07e25024985e1	0.2576992533050469
118	0x3ff08bb5f95b661f	1.034109090853583
119	0x3fde419b6c878a31	0.47275434111193976
120	0xbff6bf7136c0179f	-1.4217388285337405
121	0x3fd9a6d459eb4593	0.4008074644198924
122	0x3fdac094f5b2a75c	0.41800426477367636
123	0xbffa004960dad214	-1.6250699790372254
124	0x3fd7052129baa118	0.35968808245753925
125	0x3fc7f728caa4146c	0.18723020453049644
126	0xbff499416d370ef7	-1.287415911313415
127	0xbfd62a36d5b11eaa	-0.3463265501818379

xy_to_r.input_to_hidden.2.weight f8 [128, 128]
0	0xbff0154e326cc732	-1.0052015275691244
1	0x3fe24f262b66f573	0.5721617553423769
2	0xbff1daa88ce3d5ca	-1.1158833983912353
3	0x3fe6beb585a6874e	0.7107799158440942
4	0x3fabac0055416dce	0.054046640784430985
5	0xbfe7e7967d68312b	-0.7470200013499712
6	0xbfe72f24ce56b915	-0.7245048551610888
7	0xbfef1e8eb0745104	-0.9724801489233248
8	0x3fc9dc34f5a2648f	0.20203268045296283
9	0xbfed67c01ba61b0b	-0.9189148464218716
10	0xbff0172836abf925	-1.005653585015872
11	0xbff1da647274d046	-1.1158184500645958
12	0xbf92b38faf282c5c	-0.0182630968720726
13	0xbfe8fac94d27ae90	-0.780613566106199
14	0xbfe13c990dc8ee40	-0.538647200511555
15	0x3fd6542c7d793338	0.3488875603987256
16	0x3fb0190b097b842b	0.06288212758546823
17	0x3fe90065909fb7db	0.7812984299359828
18	0xbfeb3e5a50e07d75	-0.8513614253642304
19	0x3fe91776dcc66ab3	0.784114295197773
20	0x3fe3d3ffe2a59f62	0.6196288515757085
21	0xbfe8f0c99fc18eb0	-0.7793930168376928
22	0xbffa6161993e3e28	-1.648774717908859
23	0xbfe881f138d4da91	-0.7658620939244704
24	0xbfd69347d2df5145	-0.35273929207803106
25	0xbfeab1d2273386a3	-0.8342066541337839
26	0x3fe9d51d7cc5fb45	0.8072650372485916
27	0xbff3ba012e91db05	-1.2329112834101477
28	0x3fd30f4af636af82	0.29780839962290184
29	0xbff0e748e94a3b7f	-1.0564660179986445
30	0xbfea2cadaad8fb9b	-0.8179539048068024
31	0xbfd210525b8a52fd	-0.28224619807706103
32	0xbff06cfa68deab45	-1.0266059967495533
33	0x3fee331d02a56687	0.9437394191438252
34	0x3ff256d52355bf97	1.1461993580123584
35	0x3fce7ad27253ff5a	0.23812323172023292
36	0xbfdc790732cc31e5	-0.44488697014528916
37	0x3fe87f8a9307c07d	0.7655690070805715
38	0xbff02734bade61d0	-1.0095717715795338
39	0x3fe614c693424016	0.6900360942981958
40	0x3fc1418b75ecbe0a	0.13481276758237498
41	0x3fe4caa0201d3f14	0.6497345568877528
42	0xbfe9404aba487f8e	-0.7890981329291991
43	0x3feef1ae096fc08b	0.9670019325549374
44	0xbff10c173117c547	-1.06545180489441
45	0xbfdef3a4198c48d1	-0.48362066740913884
46	0xbff2ecd3d69feb3f	-1.1828192123200123
47	0xbff40b49d29f9c34	-1.252755949733694
48	0xbff600531c9595bd	-1.375079261453137
49	0x3fe4646649448ceb	0.6372558051120029
50	0x3fe3015fac0a5c2b	0.5939176902928741
51	0xbfe5e79f6f42366e	-0.684524266531026
52	0xbff66b8e7a25faf0	-1.401258923666031
53	0xbfe4bbd092929b02	-0.6479266035792934
54	0xbfe82698d64c9182	-0.7547115502862172
55	0xbfda9b40a623d343	-0.41572586273769135
56	0xbff68e7bf8302a40	-1.4097861952638056
57	0xbfebf5657a2711ea	-0.8737056146424582
58	0xbfddd48c6061a352	-0.46609792148824625
59	0x3fe5ebc2a8a98eaf	0.6850293440042686
60	0xbff4c11aad19509d	-1.2971445810008284
61	0x3feab835c84984cc	0.8349865829333338
62	0xbff6db219aaeb141	-1.4284988443642563
63	0x3fe9fe526cf80d63	0.8122951629924667
64	0xbfeaa63ff2916e85	-0.8327941644342479
65	0xbfeafc211b94d40c	-0.8432775057505082
66	0x3fec7057bdc0a108	0.8887137132742575
67	0xbfe60dc981304321	-0.689182998963677
68	0xbff04e44c0e7b470	-1.019108537231002
69	0xbff3581f50ca33b4	-1.2090142398694583
70	0xbfe69bfa1b2c07ed	-0.7065401583388372
71	0xbfc96a138ea4c45c	-0.19854969468136374
72	0x3fef70a7affb65b2	0.9825018345974768
73	0xbff2a1b25b0a6b3b	-1.164476733806352
74	0xbff86dcf6cc60bf6	-1.5268091439218074
75	0xbff6451f555a282a	-1.3918755849904394
76	0xbfde4f7ccee91e32	-0.47360153394808713
77	0xbfe7720440b85774	-0.7326680435241841
78	0x3fdf54c4aa36527f	0.4895488416889648
79	0xbff14b170a3b1688	-1.080832519497024
80	0xbff36eadcc85020f	-1.214521216301481
81	0xbff20b1dace50ae3	-1.1277138475131145
82	0x3ff19c0312c52029	1.10058886844673
83	0x3feabbc605d098ff	0.8354215730257976
84	0x3fdceb1d982451a3	0.45185031755070265
85	0x3fea4fc494106cfc	0.8222372905615027
86	0x3fdce16843c6ae7d	0.4512577688098885
87	0xbfe0832a9eaa1384	-0.5160115336335456
88	0xbfe8c0b9ec63c4fc	-0.7735261551844412
89	0x3fef0d5f90415f63	0.9703824822890791
90	0xbfdec3b7a45c103d	-0.48069563914055263
91	0xbff04bc19650166f	-1.0184951659770396
92	0xbfb0baa9c24fb340	-0.06534825319222382
93	0x3fe6cc903e23940a	0.7124711240436465
94	0x3fbbb31ea53f3af9	0.10820189985609464
95	0x3fd7be173ee0fcf4	0.3709772218753209
96	0xbff546817ad7bffc	-1.3297133253618076
97	0xbfefc953864dc8b7	-0.9933259604570343
98	0x3fc6de18f00b07cd	0.17865287514547248
99	0x3fe7b9a833486967	0.7414132119768454
100	0x3fd9dcbdc4299721	0.4040979781769796
101	0xbfed3b15d71c8771	-0.9134625626941056
102	0x3fb6349015de29c9	0.08673954519159745
103	0xbff058f465c744b0	-1.0217174506872588
104	0x3fe3b68119789e16	0.6160283563121449
105	0x3fe8fdfcd069a08e	0.781004340225097
106	0x3fef49146a0f2ab5	0.977670867106403
107	0x3fdc12aacbab478b	0.438639353652541
108	0xbfe65c083a4641f1	-0.6987343919918755
109	0xbff1f28682e5da0b	-1.1217103112409201
110	0x3ff0629292f2e08a	1.024065565126906
111	0x3fef744a73bfd5a9	0.9829456577996797
112	0xbff2d4d2845473af	-1.1769585770737014
113	0xbfd3ea4d54299652	-0.3111756631754804
114	0x3fba6a0f1ccbe8bd	0.10318083241500893
115	0xbff0b114b46d00f4	-1.0432326362497948
116	0xbff1de8fc1879b40	-1.1168363151316072
117	0xbfece705e6bf86ac	-0.9032010561752108
118	0xbfe59a621d43d858	-0.6750956126768513
119	0xbff867afdad6beeb	-1.5253141926186184
120	0xbfe46774f6f490e9	-0.6376290152880105
121	0xbfef7e2b8a731259	-0.9841516212550899
122	0xbff3133d02ab1ded	-1.19219685594896
123	0x3fe04edb6a1a91ef	0.5096261093463549
124	0xbff14ea4122a4292	-1.0816994390080805
125	0xbfecad837268e62c	-0.8961808428350131
126	0x3fe4066d26438000	0.625784468396887
127	0xbfefc8f0e26641be	-0.9932789251197887
128	0xc00220af8f046aa9	-2.2659598515723087
129	0x3fd0960662963c28	0.2591567957651386
130	0xbff04934446dfbd7	-1.0178721116096676
131	0x3f86ebbc8d191bb1	0.011191819244357722
132	0xbfd19be8e2abd7ea	-0.2751409734331661
133	0xbffc467bde1ad261	-1.7672079730956727
134	0xbff8e44c26f5e7ea	-1.5557366868874802
135	0xc0005e76bc19a932	-2.046124906094655
136	0xbf8ae61452236ced	-0.013134154087700323
137	0xc0013336c1e7b008	-2.1500067852812244
138	0xc0020ac1644879e7	-2.255251677953527
139	0xc001e0e57e6396e4	-2.2348127245085028
140	0x3fce6e83dadfead3	0.23774765193214495
141	0xbffc46272fe534d1	-1.7671272154723747
142	0xbfe1ee29e199a233	-0.5603227049114764
143	0xbfc25bbe0e38862e	-0.14342475599646448
144	0xbfc9bb2f541fddb6	-0.20102492911949604
145	0x3fa7872031527c3d	0.0459528026778959
146	0xbff9ed723b365377	-1.6204702675797458
147	0x3fc251912e5859bb	0.14311423075623772
148	0xbfc21aea94fe459f	-0.1414464213853934
149	0xbffcfa582eef22f2	-1.8111192544330916
150	0xbffef50f2742bc08	-1.9348289044971825
151	0xbfced8d5d0fd857e	-0.24099228577237491
152	0xbfa796421c1c0e42	-0.04606825440535235
153	0xbffc3ddfe2fffe92	-1.765106093138375
154	0x3fd05ce6f7285001	0.25567030083152537
155	0xbff9a83ee106066c	-1.6035755910856109
156	0xbfccd071cf85eb53	-0.22511122353520338
157	0xbff14b0319dee682	-1.0808135042738347
158	0xbfdb22369f4cf6ef	-0.4239632182760564
159	0xbfd7144e7961866c	-0.36061441281899564
160	0xc00361896afff558	-2.4226253852236077
161	0x3fd7e8dfe551b864	0.37358853716330587
162	0x3fe2edd6af8ebe25	0.5915330342158468
163	0x3fbbf42e18ae76f2	0.10919464209151977
164	0xbfcb7dd3795f167a	-0.21477740694369968
165	0x3fde4607f402a2da	0.47302435711985213
166	0xbfeccf056e3134ba	-0.9002711441222779
167	0x3fcbb1fd513722ea	0.21636930909723812
168	0x3fc7af16a0849d6a	0.18503077352327618
169	0x3fc92c92e004073f	0.19667278230923022
170	0xbfefdf60f3298d14	-0.9960179089797827
171	0x3fe10884c9e28a4c	0.5322898810448549
172	0xc002575711b30e46	-2.292646539952133
173	0xbfdfcaca3b3d2188	-0.49675231728590363
174	0xc00353df21f3f2fa	-2.415952935464131
175	0xbff605b4a745c373	-1.3763929876406251
176	0xbff6e86f21f6d070	-1.4317466093753204
177	0x3fa8f446ba4ee013	0.04873868011731033
178	0x3fcdcb430a99db55	0.2327655603182516
179	0xbfea4b770bf54e0a	-0.8217120393332504
180	0xbff28779453111fa	-1.1580746367263814
181	0xbfeb6202dff98560	-0.8557142614846889
182	0xbfe2c6f2024a4531	-0.5867853207329629
183	0xbf96c5f5787c3f95	-0.022239528158990735
184	0xbff5bd75e09637ec	-1.3587549946710125
185	0xbfff1263335fd618	-1.9419891363917312
186	0xbfd40c9e62730bbe	-0.3132701836986448
187	0x3fcafe98d975c529	0.21089468591848373
188	0xbfe31e9ec5daac66	-0.5974878181781491
189	0x3fbabd37fa0ae10b	0.10444974760583052
190	0xbff9c455a5efcc43	-1.6104332429793125
191	0x3fd261440cb9ed61	0.28718663447189924
192	0xbfe6da1c7673d048	-0.7141249002002121
193	0xc001a945d9923c63	-2.207652759337678
194	0x3fd7ad319a6da1e5	0.3699459083641428
195	0xbff65532d8e76207	-1.3958004448705894
196	0xc0012baf82dfe1f6	-2.1463308548520628
197	0xbfef63aef33b736b	-0.9809183836583605
198	0xbfe389db8e1fe764	-0.6105783248778889
199	0xbfe1c1ec207616c0	-0.5549221643456903
200	0x3fd2a6e5ebf072db	0.2914366535276664
201	0xc000d63a104add07	-2.104602935108804
202	0xbffe0124aeebcedb	-1.875279124532361
203	0xbff4cd5801bbbaa3	-1.3001327579219513
204	0xbfd5d46539e5d7c2	-0.34108858732303926
205	0xbfe3247a26cd2e76	-0.5982027776567083
206	0xbfb80321b881f5bc	-0.09379778627950136
207	0xc002cbbdbe6591a6	-2.34948300120796
208	0xbff7142687614933	-1.4424195564539104
209	0xc00177caf5e7b81a	-2.183492585309989
210	0x3fe416cb0e422f0c	0.6277823713766977
211	0x3fd3f35c436bcb99	0.31172854026879687
212	0x3fc3cabbfb708fd1	0.1546244600041278
213	0x3fd1b9b30859dd15	0.27695918860941166
214	0xbfc026811086c323	-0.12617505366281376
215	0xbfb0a1b0a9ea81c0	-0.06496719501820447
216	0xbfde7f2b5ad4fd12	-0.47651180143653094
217	0x3fe03509aec88c6d	0.5064743436563625
218	0xbfbc97320954d483	-0.11168205955330461
219	0xbffcf5c06ef1e7ec	-1.8099979718958776
220	0xbfc6a2df87875f96	-0.17684549443833636
221	0x3fa6dc201be0d82e	0.044648173716652514
222	0x3fc0e377447f8bd1	0.1319417080368042
223	0xbfbd6e263048e028	-0.11496199301552734
224	0xbff7ca8e42b2284f	-1.4869520764646216
225	0xbff29ccdf2559e59	-1.1632823435010293
226	0x3fbeb4eb25e0eff7	0.11994809794208537
227	0x3fb2490e70c9f9d3	0.07142725232731743
228	0x3fd708bb3f48ec5a	0.3599079244629074
229	0xbffe046ba3ec24b1	-1.8760792163105118
230	0xbfa0014873f905e3	-0.03125978866274772
231	0xc00085de535591c6	-2.065365458535072
232	0xbf93173a8d6aff81	-0.01864329803606735
233	0x3fd047de583687c4	0.2543865071730773
234	0x3fe5aa3f807a4377	0.6770322331741302
235	0x3fd6ced3577f2a1c	0.35637362999537614
236	0xbfe14df27b2af705	-0.5407650380727494
237	0xbfed2b36ff9f812f	-0.9115252487791049
238	0x3fe091556a2e9ec1	0.5177409242505392
239	0x3fe0d3e848ea9582	0.5258675979754772
240	0xbff429c0d81b17c6	-1.2601936761507075
241	0xbfdb909637f3fedb	-0.4306998773972574
242	0xbfd137feeba85f9c	-0.26904271138618596
243	0xc001435a8c76bf24	-2.157887551664219
244	0xbfef9eae2128338e	-0.9881201408003208
245	0xbffaabe23b0105ed	-1.6669637970775242
246	0xbffe06c7d40a430a	-1.876655414849838
247	0xbffb0318fd4f3db1	-1.6882562537101473
248	0xbfe9a2c73b3e64ef	-0.8011203915695243
249	0xbff26d3cfc91d59d	-1.1516694894793098
250	0xc002f446c8e12bbe	-2.369275636073751
251	0x3fc9663264aa7663	0.19843130030942566
252	0xc001ca9bdc9e253f	-2.223930095268457
253	0xbfff75a6696f775b	-1.966223155839052
254	0xbfa0e34577129eac	-0.03298394278072911
255	0xbffe30f2364127a8	-1.8869497412983751

xy_to_r.input_to_hidden.2.bias f8 [128]
0	0x3fd2cb7fc2a700ed	0.293670597162431
1	0xbfd0ff0d6ed40d51	-0.2655671675022023
2	0xbfd53aa2c6b17339	-0.3317038479197439
3	0xbfe7c404fac4be89	-0.7426781556914231
4	0xbfeeb8af43e2f666	-0.96004451045128
5	0xbfed95a26d7bfe1a	-0.924515928112615
6	0xbfe14ea1a6b37d25	-0.5408485656625187
7	0x3fc40783baa15991	0.1564793263702993
8	0xbfec500958f4a466	-0.8847700822272031
9	0xbfe5236a6bfb61d3	-0.6605732068083462
10	0xbfef9e8362e84e72	-0.988099759272201
11	0xbfee37935c8333c9	-0.9442841345677319
12	0xbfeef5ae946eeefc	-0.9674904727066571
13	0xbfeb81f8b6e4b9c6	-0.8596156665933499
14	0xbfd22550230161b7	-0.2835274068688948
15	0xbfeba71b9b326b8b	-0.864148905867624
16	0xbff04e71ecf807b0	-1.0191516167255763
17	0xbfeef7950b9e0a09	-0.9677224375630554
18	0xbfee5123d6c00830	-0.9474047846163156
19	0xbfe26259fda2ad19	-0.5745058015649277
20	0xbfcf819c297cfe11	-0.24614288354676764
21	0xbfd0392bc3657d50	-0.2534894378822701
22	0xbfeb0484fe289d68	-0.8443016971622628
23	0xbfb204c538ee20a5	-0.07038529052636251
24	0xbfe561fbd7c9adc9	-0.6682109083753228
25	0xbfb7266c350b8ac3	-0.09043003363653228
26	0xbfec8b111ed42915	-0.8919759370922146
27	0xbfea6cf29b8c84b8	-0.8257992780746894
28	0xbfe7713fe22ad344	-0.7325744073228653
29	0xbf913b6787ef339c	-0.01682817237069721
30	0xbfeeb8a75cb88279	-0.9600407420112581
31	0xbfd1fa6fc068cd37	-0.2809104327199807
32	0x3fb1c5948fda01f4	0.06942108642579808
33	0xbfded29f16c0c091	-0.48160531255690225
34	0xbfeeeba714c701e1	-0.9662661939437919
35	0xbfeb004ae67226b8	-0.843785715188651
36	0xbfe5f09d6c3bfcc0	-0.6856219400359791
37	0xbfa5fb1b865b1f0c	-0.0429314233311385
38	0x3faecbff7eb08785	0.06015013143065943
39	0xbfc3b73137ef69c6	-0.15402808409892382
40	0xbfd65be1c7261064	-0.3493580288707163
41	0xbfd5d953d3e3a4b9	-0.3413896149855407
42	0xbfed089c80b44d2f	-0.9073011888271248
43	0xbfc4764f60fb5245	-0.159860536913259
44	0xbfef5051f5759aad	-0.9785547060135592
45	0xbfea2ef23a41f714	-0.8182307374806634
46	0xbfd825ac3b396ad8	-0.3772993639337705
47	0xbfc0cd00fdd5e2f4	-0.13125622171698803
48	0x3fd03d4056954540	0.25373848395709686
49	0xbfd32e7bf3b82646	-0.2997121696540471
50	0x3fbef78c8d89b505	0.1209647985030707
51	0xbfeed6f5f1c0ab25	-0.9637403222780888
52	0xbfebd8e21b3d95ca	-0.8702250034372636
53	0xbfe74f0bb7336e7c	-0.7283991411345165
54	0xbfceef7975a5c03c	-0.24168318027978042
55	0xbfea3ed51062419b	-0.8201699562069281
56	0x3fb3ebb0e7ade073	0.07781510978918664
57	0xbfc7843657df21b3	-0.18372229853254182
58	0xbfeec07df7c7a305	-0.9609975661706761
59	0xbfa7e61ae05de607	-0.046677436722301784
60	0xbfe1fc4dd9db21ef	-0.5620488409995782
61	0xbfd4b978632c3c62	-0.32382020649760623
62	0xbfc93e897beba846	-0.19722097922141496
63	0xbfe59ecaf967bef0	-0.6756338950344496
64	0xbfcdd6af11f21b88	-0.23311413170105433
65	0x3fb8eb168d5b7825	0.09733715964418417
66	0xbfef7aad16cf50d9	-0.9837251134399835
67	0xbfd66e7460cf7102	-0.3504916139043105
68	0x3fd22ae757e14ee6	0.2838686330990029
69	0xbfb284b052575ea0	-0.07233716974530546
70	0xbfd7252d9946649b	-0.3616441723657517
71	0xbfa7fb32b8d30cb9	-0.04683836465985664
72	0xbfec7376f5714dae	-0.8890948098946205
73	0xbfece8db149b3a7c	-0.9034247782199851
74	0xbfec3b934c06a37f	-0.8822723851090898
75	0xbff018b6d8adbfc5	-1.0060337509166726
76	0xbfda0f1f799a8480	-0.40717303157186535
77	0xbfe9d299d81bb865	-0.806958124243249
78	0xbfe7a7e3d042c4bc	-0.7392443721384079
79	0x3fa687ea662e8e0a	0.04400570390069099
80	0xbfeeb0e64fbb491d	-0.9590941960580356
81	0xbfe6261fc0bb3e9f	-0.6921538128171568
82	0xbfe5193e813e543b	-0.6593315624510362
83	0xbfdc711ee07c15ff	-0.4444043342813017
84	0xbfe0cef94b52334b	-0.5252653571238651
85	0xbfb59d6f77f123f3	-0.0844335239245451
86	0xbfd4ade5b054d98b	-0.3231138441073191
87	0xbfe538a3b62fd48f	-0.6631640013062156
88	0xbfd3784121b947ee	-0.3042147473653348
89	0xbfd5dff4558b991c	-0.3417940936473245
90	0xbff18e2222109c03	-1.0972005205783268
91	0x3fc3c041288e6278	0.15430464248926845
92	0xbfee47f58efd611b	-0.9462840836304481
93	0xbfe6c2c914fb4ad7	-0.7112775239750943
94	0xbfc524ba1570c942	-0.16518331572440031
95	0xbff1107ce8d1d2b3	-1.0665253729359108
96	0xbfee31fd8435743f	-0.9436023313716148
97	0xbfecf9742fa71625	-0.9054509096828879
98	0x3fbb2ca3fbe87641	0.10614991092776284
99	0xbfc5e9eab66da1ce	-0.1712010756266537
100	0xbfecdf95fe46086e	-0.9022932020454968
101	0xbfe68e4ad0171c72	-0.7048696579230536
102	0xbfec5648c9c9fe09	-0.8855327550117532
103	0x3fbbeeaaf8b9c981	0.10911053249745885
104	0xbfe823834069dc2e	-0.7543350465847476
105	0xbfe691f9284fe058	-0.7053190028518754
106	0xbfd553e8f18865db	-0.3332464560240546
107	0xbfef4e92f4ee7c38	-0.9783415588207225
108	0xbfe836ee57b1c42a	-0.7567054474622001
109	0xbfec5f013d2e6804	-0.8865972704836627
110	0xbff0df8ee94f1684	-1.0545796502714504
111	0xbfee7fee0cb745c1	-0.9531164406163769
112	0xbfec1db61116266d	-0.8786268552514237
113	0x3fc004ac009610cf	0.12514257458327058
114	0xbf66a378046e67a0	-0.0027634948814467403
115	0xbfceb34aa1a6476a	-0.23984654324572868
116	0xbfe99bac6688632c	-0.800253105410865
117	0xbfee65c92da9fc1f	-0.9499250308871331
118	0xbfaadec42bbf13e2	-0.05248082193387639
119	0xbfba0c9cc01e7402	-0.10175494852451553
120	0xbfbbcb34b65bcaf8	-0.10856942607987807
121	0xbfcf1bf44c7ba5e8	-0.24304059729119776
122	0xbfe8b86268b65d90	-0.7725078625834829
123	0xbfe70f148b62d083	-0.7205908510573099
124	0xbfc9452e87c3607f	-0.1974237597376067
125	0xbfe9fb11b3428cc2	-0.811898088566885
126	0xbfbedc3b6ed06fec	-0.12054797606873507
127	0xbfe5bdd4a6c3f3b7	-0.6794226891648724

xy_to_r.input_to_hidden.4.weight f8 [16, 128]
0	0xbfe461667536b381	-0.6368896760301227
1	0x3ff167f11636cf8f	1.0878764026392422
2	0x3fe28882cf0d9c8c	0.5791639369971491
3	0xbfe398743a401894	-0.6123601091101301
4	0x3fd1b2df54e0b3ef	0.2765425042042002
5	0xbfd516614ea4c3cb	-0.3294909732822446
6	0x3fe471bafac8dbe0	0.6388831041466538
7	0xbfe11a926288b9e3	-0.5344936298841357
8	0x3fbc7713d59a2235	0.11119197811979904
9	0x3fe9bb0640efad73	0.8040801304136224
10	0xbfd1707c344ff00b	-0.272490550123394
11	0xbfab6cfdb77a7c0a	-0.053565910956642496
12	0xbfd00e4dececfca4	-0.25087307107237167
13	0xbfd03a602bd5a930	-0.25356296807025824
14	0xbf90a949be30175f	-0.016270782693048044
15	0xbfdeb6dd4087aba0	-0.4799111490416923
16	0xbfdad028508b9988	-0.4189549242568309
17	0xbfdeec77d11168b1	-0.4831828633956646
18	0xbfd10bdbbfe40094	-0.2663487790996524
19	0xbff99b2ccbaa06cd	-1.6003845172530646
20	0x3fe8ce54ba59cb54	0.775186885801626
21	0x3fe20d23cd300d93	0.5641039855549245
22	0x3fc778b2b419e4ae	0.18337091249467136
23	0x3fe60c46049bd12f	0.6889982309353736
24	0x3fdb0f77aa6ecc55	0.42281905788258217
25	0xc007e5cfd07e5d85	-2.987212780815471
26	0xbfd840f4f1f1dad9	-0.37896464946190417
27	0xbfdcc3128ec5f223	-0.4494062799711022
28	0x3fe5584ce047dea7	0.667028844879458
29	0x3fed00bd1180c084	0.9063401548246621
30	0x3fc410554e7414cc	0.15674845057234277
31	0x4001d2e5cb9b0c66	2.2279773623172785
32	0x3fe855f9338e9bd8	0.7604948050474105
33	0xbfb9c1bea3008f24	-0.10061255912347328
34	0xbfba6a585b42052b	-0.10318519809699882
35	0xbfdb0d4e75bd60d6	-0.42268716333411527
36	0x3fe4d3aba5048a4a	0.6508386824610366
37	0xbfe4a1c1697045d8	-0.6447455462786662
38	0x3ff38ea0e2c4f268	1.222321401422187
39	0xbfe84f0d738747fa	-0.7596499687590488
40	0x3fffb92ace7affbf	1.9827068391459617
41	0xbfd50f2aac103694	-0.32905070117053836
42	0xbfbf1aad58bc8af4	-0.12150081077974645
43	0x3fb4b94a4d161f61	0.0809523046683558
44	0xbfdba639c2df0157	-0.4320206072843766
45	0x3fa97b3f1381b536	0.04976842034452959
46	0x3fe760f1c67353ed	0.7305840373979869
47	0x3ff1eb06c3483fd5	1.119879496403873
48	0x3fdabd464e4a7c8e	0.4178024067459284
49	0x3ff262b4a678f587	1.149098062785329
50	0x3fd478f821416561	0.31988337752917145
51	0xbfbf45a15a82eb67	-0.1221562238669499
52	0xbfdd37538353e57e	-0.4565018446442862
53	0x3fe4623fb2eaf780	0.6369932646264118
54	0xc00b3505a021de13	-3.400889636071733
55	0x3fe6b5bd967c1a1c	0.7096851290851336
56	0xbfee34d2e7b01978	-0.9439482236055445
57	0x3ff5525680552ec5	1.3326020253179405
58	0xbfd9f23c37072c0c	-0.4054098641760795
59	0xbfed3a85ddb6f272	-0.913393910442734
60	0xbfdf8156d9ffee95	-0.4922692421821265
61	0x3fc1beb4435e5b8c	0.13863232888681087
62	0x3fe7bc76bea92e49	0.7417558406681987
63	0x3fe3de3466364c7c	0.6208745952921073
64	0x3ff7bbf1656a4802	1.4833845101861702
65	0xbff389bdc3f8a064	-1.221128240120401
66	0xbfb9aa8760338dd6	-0.1002583131662996
67	0x3fe4926e17a6d2cc	0.642874761767041
68	0xbfcfd0da71984862	-0.24856119677184824
69	0xbfa5b214729fe7bd	-0.04237426661707342
70	0x3ff9dce9e43d00e4	1.6164339938696282
71	0x3fbc978f90be7219	0.11168763431346242
72	0xbfdf1c5183259867	-0.4861034184199355
73	0xbfb8fd0339033544	-0.09761066572101124
74	0x3f80a82d19535d01	0.008133270583512433
75	0xbfc6f94df8cb2905	-0.17948317192196597
76	0xbfdaef41f3691a11	-0.42085312624513543
77	0x3fdab266df2b3b4e	0.41713878434977836
78	0x3f54c0c091717556	0.0012666588352410932
79	0x3fe2e3b5ad0d0df1	0.5902965907957293
80	0xbfd7c2b1cb6ff10a	-0.37125820986672464
81	0x3fdac9aa58f7d494	0.4185586804226855
82	0xbffb1b7cbeb1a2a3	-1.694210762880325
83	0x3fc36dd94336c244	0.15178981573036954
84	0xbff475daeb96f981	-1.2787732317661666
85	0x3fec48ad6f28a67e	0.883871762377751
86	0xbfd97298ffc9cdd8	-0.3976194856579389
87	0x3fe2fe3b98a59cd2	0.5935342770943868
88	0x3fe5fd5e8d6ed06f	0.6871788751946165
89	0xbffddddff68f5ff7	-1.8666686660053509
90	0xbfd4e9093c1e501e	-0.3267233931630943
91	0xbfefa3cd6fdf5030	-0.9887454209333608
92	0xbfdba7f0c7d9b380	-0.432125277677919
93	0x3fe3b95762eab4af	0.6163746768921977
94	0x3ff2146e5c43e836	1.1299880603896901
95	0xbfd757a5d0ccf562	-0.36472459212003205
96	0xbfd4c43aeb088c65	-0.3244769377944919
97	0x3fe4e94abbe8074e	0.6534780187650797
98	0xbfce89f35a9012e4	-0.2385849182320704
99	0x3fee66e0f253b273	0.9500584347675399
100	0xbfd416942060bbb7	-0.313878089541443
101	0x3fe6a5923298e54d	0.7077113140323178
102	0xbfd3f1744ee9e604	-0.3116122027055044
103	0xbfd0353bc8791a67	-0.25324911668250255
104	0x3feaf9e9335cbd9b	0.843006706540041
105	0x3fe6e102a7586d60	0.7149670856919492
106	0x3ff8f4d027da839f	1.5597688252239335
107	0xbfd7e6b7388b4974	-0.37345676919826265
108	0x3fd89ea047b4071b	0.3846817684389962
109	0xbfdfc937d5a82c60	-0.49665637841162
110	0xbfc8c347a0159e8d	-0.19345946613906442
111	0xbfd12fb84a8ac6f5	-0.26853759078504363
112	0x3f8e06b3c9141459	0.014661221097876419
113	0x3fe247f749504752	0.5712849075227757
114	0xbff5320d8ebb4bbe	-1.3247199607328493
115	0x3fe1b3c16aa5b84d	0.5531928141551902
116	0x3fe3208a68b94c44	0.5977222485911473
117	0xbfc83aa3ae42eb4d	-0.18928953179223598
118	0x3fed0583543b74d8	0.9069229741250195
119	0xc0061389776a87c4	-2.759539540232227
120	0x3ff448c9872dbaf7	1.2677703171172519
121	0xbfce88cceb66cb01	-0.23854981893745023
122	0x3fdd3441407dd56a	0.4563143853950665
123	0x3fe7a23af0b4cf54	0.7385534955305766
124	0xc009a8cc92f2c848	-3.207421443971757
125	0x3fe49a66bfcc8a9b	0.643847822768595
126	0xbfe374e64996749e	-0.6080199658641907
127	0x3fe5d9ef9a3f28a3	0.6828535092002038
128	0xbfcc57c4b4d551cd	-0.22142847852468464
129	0xbffcc1b8b26f146f	-1.797295281417316
130	0x3fb66597a084dcfd	0.08748767537041498
131	0x3fc914d618b12cd4	0.1959483738486144
132	0xbfd7afb4f60170f4	-0.3700992967985848
133	0x3fc7ce2d597c73a2	0.18597952718201066
134	0x3fa9409d637ea042	0.04932109679731457
135	0x3fc63a6c104bfe4d	0.1736579017233332
136	0x3fb4d8d3d0a05e3d	0.08143352359217544
137	0x3fcfe7bb6a8a6d21	0.2492594022959134
138	0x3fc939099076cda1	0.19705314210805816
139	0x3fd6a0368f177ca7	0.3535286328678446
140	0x3fe22b1598d5a8fe	0.567759321694467
141	0x3fc68b3fcb052fc9	0.1761245480832925
142	0x3fea7a9774ca37f4	0.8274647980740597
143	0x3fe515a51d7327f3	0.6588922095481834
144	0x3fecf6600a95b5c7	0.9050750929579231
145	0x3fc44e5e29e08390	0.158641596267469
146	0x3fc6e522dc0c152a	0.1788676809739312
147	0xbfeb6ae554cac5ec	-0.8567988067717898
148	0x3fdec461a1b841f3	0.48073616784043266
149	0xbfebc465475911bb	-0.8677240746988483
150	0x3fd0216f34f3aad3	0.25204067393376056
151	0xbff65c4e7f4dd624	-1.3975357983412175
152	0x3fa83e17aa67f317	0.04734872775222792
153	0x3ff4d961f04888b2	1.3030719171588712
154	0x3fe89b75146ba40d	0.7689767264211028
155	0x3fe5aed2b5516242	0.6775907079091399
156	0x3fd88a330e4dacd2	0.3834350242311305
157	0xbfaf13d650485521	-0.06069822053920349
158	0xbfc1ad2081a8f842	-0.13809591609055089
159	0xbfd07ef07fb1e547	-0.2577477690716318
160	0x3f8713ae85119ba8	0.011268008647858554
161	0x3fee93814d097772	0.9555059914234632
162	0x3fd07e1c8c9b3182	0.25769723635746555
163	0x3fe5c64949ead1fd	0.680454868669187
164	0x3fd6022e551fcaf5	0.34388311684521905
165	0x3fd68f35f0e635f9	0.3524908878833624
166	0x3fe3ecd013112c82	0.6226578113941204
167	0xbfd8e9602ad0cec3	-0.38924411946502974
168	0xbfe4f9f7e8c499d2	-0.6555137201547103
169	0x3fc37783b40a7f03	0.15208479205193023
170	0x3fda5d2c942e7995	0.4119368979535463
171	0xbfeb02f7ed4675f1	-0.8441123613626457
172	0x3fe477ac9db9eaca	0.6396086769667246
173	0x3fd599f325334b38	0.3375213492665128
174	0xbfe18e30695dac91	-0.5486070688179031
175	0xbfc52fc9d2644bb3	-0.16552088521038186
176	0x3fe2f68be4170b43	0.5925960020907514
177	0x3fe84b1cfbf6599e	0.7591690941942948
178	0x3fe4eee19c085c25	0.6541603133690655
179	0xbfd3fa80c8484768	-0.31216449316808914
180	0x3fe849bd58030d6c	0.7590014189703829
181	0x3fc1313cfa333778	0.13431513039398246
182	0x3ff72bbd2f27fcca	1.448178466991339
183	0x3fd02e64bfd99a2b	0.25283163771965417
184	0xbfe217f85969233e	-0.5654260393431298
185	0xbfff2b83a78dfe2a	-1.9481236024001967
186	0x3fe781bed42fff13	0.7345880646025499
187	0x3fa996b38df3a64a	0.04997788532075427
188	0x3fe992d0ec98977e	0.7991718884484127
189	0xbfd8f7e13b9f4f55	-0.39012938330164576
190	0xbfed21a60fa37ffe	-0.9103575044100578
191	0x3fd2978830a5ab8f	0.2904987788266959
192	0xbff96d2d37a0c7d3	-1.5891544506998698
193	0x3fd82cee4d9a3e4e	0.37774236276979856
194	0x3fd1b841a85c0315	0.276871122754572
195	0xbfe9d2cf2ea1cc01	-0.8069835577756522
196	0x3ff0d638096f3130	1.05229953465739
197	0x3fab983b7b1fd4d1	0.053895815639330664
198	0xbfedf2f66cb72d2b	-0.9359085200643781
199	0xbfeabdd8bde336a9	-0.835674639581801
200	0x3fe437c46e551fb3	0.6318075327808316
201	0x3fe6147b42048b77	0.6900001801881065
202	0x3fc8a6bb1482bb06	0.19258821965691925
203	0x3fddd1d8b7ac7067	0.4659330171286968
204	0x3ff1673173045ad3	1.0876936428882586
205	0xbfd6f3fe48b9aa02	-0.3586421690185092
206	0x3fc922fed3160339	0.19638047511036819
207	0xbfd1ea6e57565749	-0.27993353394537174
208	0x3fe7131881025033	0.7210810203273524
209	0x3fdf8b44e2ed0e1d	0.4928753105234323
210	0xbfe80f1d6dcc17b2	-0.751845087478378
211	0x3fd8188419773fad	0.37649633871933014
212	0xbfe5012f93a49272	-0.6563947566651918
213	0xbfcd056a5c39e4d6	-0.2267277670214642
214	0x3ff31ea8e62a0634	1.194985293463458
215	0x3fccd260b002f6b4	0.22517021745982435
216	0xbfefea1eb9e15998	-0.9973291044687356
217	0x3ff3dcb0117e8355	1.2413788493506293
218	0x3fe38ebd8154827d	0.6111743474940138
219	0xbff00aa063871eea	-1.0025943649106304
220	0x3ff062492d9c149b	1.0239955693844311
221	0x3fdd8a1b40a39d02	0.4615543490640023
222	0x3fa12333597b64b6	0.03347168414411199
223	0x3fe7457b25b352df	0.7272315727555813
224	0x3fdb2ff3cd3a35de	0.42480177919136775
225	0xbfdcd131eb182cdb	-0.45026824911537994
226	0xbfea28b3a870963d	-0.8174684800948807
227	0xbfcc387c84c2d9ac	-0.22047382814862482
228	0x3fcf8f6aa2b2da00	0.24656422561902502
229	0x3fdadd7623e9664d	0.41976693636897694
230	0x3fede7eb26d9e2f4	0.9345603712855266
231	0x3fde2a8c6b281e42	0.47134695496103884
232	0x3fd8020f18d664a5	0.375125669722886
233	0x3fde528dd22ea2f6	0.47378869557955683
234	0xbff1efea270ef8ec	-1.121072914669237
235	0x3febc7d018372fb0	0.8681412194214229
236	0x3fe96438c03d1d8c	0.7934840922034012
237	0x3fe5f3fa4fffe158	0.6860324442377914
238	0x3fca0d6a80a0c2ba	0.20353442459738408
239	0x3fd445bf3bee6cf4	0.3167570195452776
240	0x3fe0707d9cb9f9fc	0.5137317715705758
241	0xbfe5ab3265a7f557	-0.6771480546446281
242	0xbffcc395ccb26beb	-1.7977502819037408
243	0xbfe88cae3ab91007	-0.7671729227954537
244	0x3fc7e654fa9a0d20	0.18671667324461172
245	0x3fdff26af7de9045	0.4991710110282422
246	0xbfcd175506baba5c	-0.22727454022011073
247	0x3ff0a22f9951189c	1.0395961750923908
248	0xbfe1a517bdb05218	-0.5514029221399737
249	0xbfded3dde4573d88	-0.481681321133657
250	0x3fe09625492779ca	0.5183283261101732
251	0x3fd4b6248ab03099	0.32361711066983784
252	0x3ff95d062cfa6bc9	1.5852109677277773
253	0x3fcc0a5556845abe	0.2190653488584839
254	0xbfcbf3035ccff547	-0.2183536723313557
255	0x3fda8277711a5a00	0.41421304745873044

xy_to_r.input_to_hidden.4.bias f8 [16]
0	0xbfe112882a06a610	-0.5335121937579874
1	0x3fe892d6711abb11	0.767924519450249
2	0xbfc4f50281cf37eb	-0.1637271055064383
3	0x3fbda9aba823e757	0.11587021689402142
4	0x3fbca77a9a5e355f	0.11193052548170133
5	0x3fe0e4f7948b3ac8	0.527950086712587
6	0x3f91b05e64e8f402	0.017274355801635728
7	0x3fdc13baa3ce21d7	0.4387041663799471
8	0x3fd3c0025c69f496	0.3085943129042986
9	0xbfed621692eb42e4	-0.9182236547004234
10	0xbfda220ebaff6c02	-0.4083287073278258
11	0x3fdf9c67e49c2203	0.4939212543982025
12	0x3fe84169ac838be1	0.757984959546203
13	0x3fbe9e4170bbd28c	0.11960228922164101
14	0xbf96602bb149b6af	-0.02185123700694785
15	0x3fd0a4948ae692c6	0.26004518093604323
