seed-AuNP-phasemaps/pretraining/tune/64_8_64_2.46E-03_2/model.pt (torch, 98016 bytes, 20 tensors)

xy_to_r.input_to_hidden.0.weight f4 [64, 2]
000000 36 b3 8c be 39 4f 62 be e0 09 41 40 26 91 ed be
       -0.27480477 -0.22100534 3.0162277 -0.46399802
000010 8e 09 4b 40 a5 32 62 3e d0 d2 81 3f 48 2f 16 b9
       3.1724582 0.22089632 1.014246 -0.00014322728
000020 62 b4 a2 c0 79 9b 4c 3f c6 50 c2 3f f9 b8 76 3f
       -5.0845194 0.7992473 1.51809 0.96375996
000030 06 04 2a 40 e9 22 35 3e 22 5d 04 bf 64 a0 f4 bc
       2.6564956 0.17689098 -0.5170461 -0.029861636
000040 92 5c 3c c0 7c d5 41 c0 ae 5c 60 bf d0 93 17 be
       -2.94315 -3.028655 -0.8764142 -0.1480248
000050 4a 2c 73 3f e1 51 45 3d 89 4e 38 be 33 05 d2 3d
       0.94989455 0.04817379 -0.17998709 0.10254898
000060 bb d3 c3 3e 88 24 10 3e 44 ba 16 be cf b2 b5 be
       0.38247475 0.14076436 -0.14719492 -0.35487983
000070 d1 e0 ec 3e 54 ef ca bf 6d 4b ee be 80 b3 34 3e
       0.4626527 -1.5854287 -0.4654192 0.17646599
000080 26 b3 8f bf 13 35 20 c1 df 49 0d c0 5d 08 71 3e
       -1.1226547 -10.012958 -2.2076337 0.23538347
000090 c4 ca c7 be 60 fe b4 be 45 d6 d6 3e d2 f7 88 bf
       -0.39021885 -0.35350323 0.4196035 -1.0700629
0000a0 75 64 f9 be d3 b1 7e 3d 7e e8 a1 3e ba 31 76 be
       -0.48709455 0.062181305 0.3162269 -0.24042407
0000b0 42 ad b4 be 05 15 3c bd 22 1c 00 c0 9c dd d3 c0
       -0.35288435 -0.045918483 -2.001717 -6.620802
0000c0 82 d8 33 bf dc 8a 07 3e 13 6f 3c 3e cd cf 6f 3d
       -0.7025224 0.13236564 0.18401746 0.058547784
0000d0 c8 98 5d 3f 4d 2f b3 3d a9 62 26 bf 62 83 25 bf
       0.8656125 0.08749256 -0.64994293 -0.646536
0000e0 ba e6 c7 3c 1e 63 b6 be ef a4 9f 3e 92 88 a4 bd
       0.024402011 -0.35622495 0.31180522 -0.08033861
0000f0 37 c8 58 be f0 ef be be 34 e3 59 3e 31 a2 88 c0
       -0.21170126 -0.37292433 0.21278077 -4.2697988
000100 9b 09 8c 3c 5d be 18 bf cc 94 76 3e b9 94 67 bf
       0.017094424 -0.5966547 0.24080199 -0.9046131
000110 f3 bb a1 3e 57 ac 2e c0 03 20 4a 3e fa 62 fd 3d
       0.31588706 -2.7292688 0.19738774 0.12372394
000120 f5 10 1f be 34 e4 94 3d be 01 22 bf ef ca f5 3d
       -0.15533812 0.07270089 -0.6328391 0.12001597
000130 60 50 e8 be 1c 93 da c0 d6 0e 17 3f 3e 70 27 bf
       -0.4537382 -6.8304577 0.5900701 -0.65405643
000140 7e c7 c3 3f f7 a8 51 3f fe 79 5d bf b7 ec b2 3d
       1.5295255 0.81898445 -0.8651427 0.08736556
000150 a7 bf 2d c0 1b b7 1c c0 f5 58 94 be e4 f3 0a bf
       -2.7148225 -2.4486759 -0.2897412 -0.542784
000160 7a d7 28 be 31 61 28 3d 27 74 55 be 62 c1 a2 3c
       -0.16488448 0.041108314 -0.2084509 0.019867603
000170 8b b3 d2 3e f7 c9 db 3d 38 f7 c6 bf 64 2b 54 c0
       0.41152605 0.10731881 -1.5544195 -3.3151484
000180 8b 53 79 c0 50 95 13 be 0b aa 8a 3f 33 86 98 3e
       -3.895724 -0.14412427 1.0833143 0.29789886
000190 14 95 b3 3c 4c f4 2f bf b4 1f df be 1f 93 f5 c0
       0.021921672 -0.6873214 -0.43578875 -7.674209
0001a0 4d 26 38 bf 55 8c a0 bf ce 1e ac be 51 26 24 be
       -0.7193344 -1.2542826 -0.33617252 -0.16030242
0001b0 4c 36 07 bf 63 b3 93 be b3 b6 5c c0 cd a4 55 be
       -0.52817225 -0.288478 -3.448651 -0.20863648
0001c0 1a cf 18 c0 a7 ca b4 c0 2f 03 95 be 9f bb c7 3b
       -2.3876405 -5.649738 -0.2910399 0.006095364
0001d0 ba 71 0c bb 7b 06 2c 3c 2e 82 08 bf 65 7d 88 be
       -0.002143009 0.010499592 -0.5332364 -0.26658168
0001e0 57 a1 dd 3e 49 b6 70 bd b2 86 11 3f c6 93 ae bf
       0.43287155 -0.05876759 0.56846154 -1.3638847
0001f0 ce 24 42 c0 bd ee 57 3f e9 c4 8f 3d 1d 61 64 bf
       -3.0334964 0.8434866 0.070199795 -0.89210683

xy_to_r.input_to_hidden.0.bias f4 [64]
000000 3a 2e a4 be 4c 53 bb bf 97 e3 44 c0 a0 f3 86 bf
       -0.32066518 -1.4634795 -3.076391 -1.0543098
000010 ef dd dd 3e 3e 4e c2 bf 9e 9d aa bf 8d 62 f1 bb
       0.43333384 -1.5180128 -1.3329351 -0.0073664845
000020 92 24 ed 3d 34 ee fb 3a df e3 88 bf df bc de be
       0.11579241 0.001922077 -1.0694541 -0.43503472
000030 34 87 3b bf 1b 3a dd be 50 2c ce be 98 db 2a bf
       -0.7325318 -0.43208393 -0.40268183 -0.66741323
000040 eb db 88 3f c7 fc 51 bf 68 63 16 bf c3 f5 bf be
       1.0692114 -0.8202633 -0.5874543 -0.3749219
000050 5e 3f 52 be dd f1 9c be 16 20 03 bf b8 36 62 3f
       -0.20531985 -0.30653277 -0.51220834 0.88364744
000060 86 4a ec be 67 54 b3 be 8a 0d 89 bf ac ef 1a be
       -0.46150607 -0.3502533 -1.0707257 -0.1513049
000070 fa 40 9d bc ec f7 9d be 01 fb 8c be bc d6 1f 3f
       -0.019196022 -0.30853212 -0.2753525 0.62437034
000080 53 f1 8f be b1 6d 53 be 19 9b 72 be e5 5f 1b bf
       -0.28113803 -0.20647313 -0.23691978 -0.606932
000090 57 48 69 be 43 f9 df be e9 40 6b 3e 33 ab 23 bf
       -0.22781502 -0.4374486 0.2297398 -0.63933104
0000a0 85 7c 17 c0 18 4a 97 be 09 96 9d 3f f7 b8 10 bf
       -2.366975 -0.29548717 1.2311412 -0.56532234
0000b0 6b 64 19 be cf 6d f7 be 68 c8 2e bf f3 db 00 3e
       -0.14979713 -0.48325965 -0.68274546 0.12583904
0000c0 cf a8 b3 3b 19 ad e8 bf 13 30 27 bf 3a 91 81 3f
       0.00548277 -1.8177825 -0.6530773 1.0122445
0000d0 36 91 ad 3f 87 4b 1c bf 3c 10 ef be 56 2c bb 3f
       1.355994 -0.61052746 -0.46692073 1.4622905
0000e0 f7 f1 7d 3f 53 83 81 bd 86 39 48 bd 23 15 93 be
       0.99197334 -0.06323876 -0.048882984 -0.28727064
0000f0 6d 49 e7 be ba ab 03 bf 44 0c b8 3e 6b c0 21 bd
       -0.45173207 -0.5143391 0.35946858 -0.039490145

xy_to_r.input_to_hidden.2.weight f4 [64, 64]
000000 5a 8a c8 3d 8c 0c d3 bd 60 57 55 3d e0 f9 0c 3d
       0.097920135 -0.103051275 0.05208528 0.034417987
000010 66 2f 8d bc 44 17 a4 bd 6c e5 c2 bd 90 39 57 bc
       -0.017234515 -0.0801225 -0.09516415 -0.013136283
000020 f2 1b cf bc 70 28 dd 3c 80 a9 4a 3c 58 f9 91 bc
       -0.02528188 0.026996821 0.0123695135 -0.017819092
000030 30 d3 66 3c f2 05 89 bd b0 b8 8a bd 40 fc 6c bb
       0.014088437 -0.06690587 -0.067735076 -0.0036161095
000040 34 6e 94 bd c8 a0 3d bd d8 06 fc bd 30 44 aa bd
       -0.07247582 -0.04629591 -0.12305993 -0.08313787
000050 3c 94 db 3d d0 e5 9a bd 70 9b 2f bc 0a 49 61 3c
       0.10721633 -0.075633645 -0.0107182115 0.013750324
000060 e0 fb c4 3b a0 95 83 3c ba 09 a6 3d 7e 27 fb bd
       0.006011471 0.016062558 0.08107324 -0.12263392
000070 d0 62 73 3c f4 67 80 bd a4 81 3b 3d 86 17 b2 bd
       0.014855102 -0.062698275 0.04577793 -0.08695893
000080 a8 4d e0 3c dc f6 6b bd d4 7d 7a bd e6 1d b9 bd
       0.02738078 -0.05760847 -0.061155155 -0.09038906
000090 6c 34 ee bd 90 4b d3 3c 64 b1 c9 bd 8c fa 0d 3d
       -0.116310924 0.025792867 -0.09848288 0.03466277
0000a0 e8 6f c2 bd c0 4c 16 3c 5f 8f 1b 3d 40 e8 46 bb
       -0.09494001 0.009173572 0.037978526 -0.0030350834
0000b0 1c bb 7b bd bc 79 a3 bd f0 10 eb 3c 62 ac 22 bd
       -0.06145774 -0.07982203 0.0286946 -0.03971518
0000c0 90 56 36 be 2a 4c be 3d 72 67 bd bd 17 eb 0f bd
       -0.17806458 0.09291871 -0.09248246 -0.03513631
0000d0 16 31 83 bb b4 e0 9f 3d b8 7e e9 bc 22 f9 2b be
       -0.0040036542 0.078065306 -0.028502807 -0.16794255
0000e0 d9 8c bd bd cc ff 75 bd 24 bd 16 3d e0 9c 55 3d
       -0.0925538 -0.0600584 0.036801472 0.05215156
0000f0 a0 2f 01 3d d8 63 fc bc 3c 2d 8c bd 8c 92 9d bd
       0.03153956 -0.030809328 -0.06844565 -0.07693967
000100 80 29 10 bc 48 e9 b0 bc 88 67 fe bc 22 25 ab bd
       -0.008798957 -0.021595612 -0.031055227 -0.08356692
000110 3a 55 a3 bd b8 79 6b 3d b8 bf 15 bd d8 88 68 bd
       -0.0797524 0.057489127 -0.03655979 -0.05677113
000120 ec c2 82 bd c6 27 d3 bd 64 73 fc 3d 1c 44 9d bd
       -0.06384835 -0.103103206 0.123266965 -0.076790065
000130 60 ff 3b bd 06 4e d4 bd e8 cd 82 bc 08 55 cf 3c
       -0.04589784 -0.10366444 -0.015967324 0.0253091
000140 1c be f8 bd b8 bc 2c bd 60 27 66 bd 94 85 02 3d
       -0.121456355 -0.042172164 -0.056189895 0.03186567
000150 70 c2 91 3c 98 6f 0c bd 60 26 a5 3b 40 56 09 bb
       0.01779291 -0.03428611 0.005039975 -0.002095595
000160 b4 cc 4c 3d 7c d0 bd bd 66 9a da bd dc 04 f8 3d
       0.049999908 -0.09268281 -0.106739804 0.12110302
000170 1c bf 06 bd 80 d0 fb 3a 50 b6 11 3d 68 23 9b bd
       -0.0328971 0.0019211918 0.035574257 -0.075751126
000180 18 7c fc 3d 00 44 de ba 8c 77 e1 3d 2c 01 3e bd
       0.123283565 -0.0016957521 0.1100913 -0.046387836
000190 98 dc bf 3d 40 d5 56 bd 60 cd b7 bd d4 72 71 3d
       0.09368247 -0.052449465 -0.08974719 0.0589474
0001a0 7c 6a 94 bd 44 f3 5d bd f0 5d be 3d 70 39 e3 3c
       -0.07246873 -0.054187074 0.09295261 0.02773735
0001b0 54 1b 90 bd dc 01 70 3d 20 0b 37 bd f8 6c ea bd
       -0.070364624 0.058595523 -0.044688344 -0.114465654
0001c0 dc 5e 56 bd d0 04 17 bc fe f2 82 3d f4 dd 00 3d
       -0.05233656 -0.009217456 0.06394003 0.03146167
0001d0 6c c8 7e bd 28 7d a4 3c 94 cc 98 3d 76 8e c6 3d
       -0.062202856 0.02007921 0.07460895 0.09695141
0001e0 0a 56 fc bd 4c f6 d2 3d 7c 28 7f bd 1a 56 8a 3d
       -0.12321098 0.10300884 -0.06229447 0.06754704
0001f0 22 18 af bd 78 9c 5f bd 66 41 c3 bd c0 90 c8 3b
       -0.08549525 -0.05459258 -0.09533958 0.006120771
000200 28 b4 c0 bd d8 cb 1c be 4a 4b d7 bd ae 75 3e bb
       -0.09409362 -0.15312135 -0.10512407 -0.0029061842
000210 f4 4f af bd d2 e9 38 bd 72 76 7c bc d7 c8 2f be
       -0.08560172 -0.045144863 -0.015409099 -0.17166458
000220 00 3a b8 39 a8 f6 b3 3d 00 77 ce 3c e0 7c c8 bd
       0.00035138428 0.0878728 0.025203228 -0.09789443
000230 1e 7f b0 bd cc 0d 86 3d 10 90 d0 bc 38 25 c9 3d
       -0.08617996 0.065456 -0.02545932 0.09821552
000240 1a 6f 9a bd f0 54 97 3c 7c b7 db 3d d8 5b 50 bd
       -0.07540722 0.018473119 0.10728356 -0.05086884
000250 00 f5 a3 3d 88 e2 1c bd e4 0c 9c 3d 70 79 78 bc
       0.080057144 -0.038301975 0.07619646 -0.015165672
000260 c2 a9 91 bd 9e 45 e0 bd d4 2b 21 3d 88 68 91 bd
       -0.07112457 -0.109507784 0.03934844 -0.07100016
000270 82 01 bc 3d 8c 1d e2 bd 9a e4 9f 3d e0 77 04 3c
       0.09179975 -0.11040792 0.07807274 0.008085221
000280 b4 37 fa bd e0 35 53 bd a2 2b ad 3d 61 1c 00 be
       -0.12217656 -0.05156505 0.08455588 -0.12510826
000290 06 f7 8b bd d8 fd a1 3d 68 1f bd 3d 5c 41 72 3d
       -0.06834225 0.07909745 0.09234506 0.059144363
0002a0 d5 05 59 3c 2a c6 a7 bd d6 b2 99 bd 14 41 45 bd
       0.013246019 -0.08192094 -0.075048134 -0.048157766
0002b0 6c 4e 86 bd bc e1 97 3d 86 b0 8e bd 00 5f 5f 3c
       -0.065579265 0.07416102 -0.06967263 0.01363349
0002c0 46 90 ef bd 2c e4 df bd 1e 2d c6 3d 3c 1c 52 bd
       -0.1169744 -0.10932192 0.09676574 -0.051296458
0002d0 ce 9f ee bd 8e a7 bf 3d 70 f1 13 bd e0 08 e0 3b
       -0.11651574 0.093581304 -0.036118925 0.0068369955
0002e0 00 58 0f 39 e8 35 ba 3d 08 9a 2c bd 54 6c 16 bd
       0.00013670325 0.09092313 -0.042139083 -0.036724404
0002f0 ec 64 1e be 1f a6 39 bd 80 30 4d 3b 00 30 78 3a
       -0.15468186 -0.04532444 0.0031309426 0.0009467602
000300 04 3f 2c 3d a5 d3 55 c0 d2 0f 11 c0 8f 70 75 be
       0.042052284 -3.3410428 -2.2665906 -0.23968719
000310 2f 0e 93 be c1 6a 98 bf e2 f3 ab c0 66 e6 81 3e
       -0.2872176 -1.1907579 -5.373521 0.25371093
000320 b0 9d ad be 77 13 4a 3d f5 66 8d bf e4 12 bf 3d
       -0.3390937 0.04933497 -1.1047045 0.09329775
000330 f8 88 21 bf ec df 33 bd ab 77 4c 3c 14 46 e4 3d
       -0.6309962 -0.04391472 0.012479703 0.11146179
000340 6d fd 75 c0 d9 2d 71 3e a0 93 d3 bd d1 55 4d 3d
       -3.843593 0.23552646 -0.103308916 0.05013067
000350 37 88 f3 3d e0 3f 3b ba ce 96 e2 bd 35 7c 3e bf
       0.11891215 -0.0007143002 -0.1106392 -0.74408275
000360 b3 21 c2 3d 15 ac 28 be 97 e6 a5 bf 4c 44 18 bd
       0.09479084 -0.16471894 -1.2960995 -0.037174508
000370 74 89 4f 3d 32 d8 e1 3d f2 69 9c 3d 9b 47 11 c0
       0.050668195 0.11027564 0.07637395 -2.2699955
000380 18 ce 29 3d 5f db 19 be 77 5f 46 bf f7 42 99 bd
       0.041456312 -0.1502509 -0.7748942 -0.07483476
000390 74 bb 79 3d d5 ff b5 3d 2f 90 08 c0 46 17 ae bd
       0.060969785 0.08886687 -2.1338003 -0.08500533
0003a0 1f 1b 4e c0 a5 a2 54 be 5d 47 b4 be ac 62 7a 3d
       -3.2204053 -0.20765169 -0.35210696 0.061129257
0003b0 78 e2 f4 3d d0 5b 5e bd f9 1c 17 bf 8d 65 8f be
       0.11957258 -0.054286778 -0.59028584 -0.28007165
0003c0 a6 c1 3e be 31 2d 4b c0 4a fd a7 bd 4d e4 de bf
       -0.18628559 -3.1746333 -0.08202608 -1.7413422
0003d0 55 78 8b bf 90 13 cd 3d fc df 0d 3d 3d 55 c6 3e
       -1.0896097 0.10013497 0.034637436 0.38736907
0003e0 c5 0b 2c c0 1c e9 36 bd 1c d1 97 3d dc 44 14 3d
       -2.6882184 -0.044655904 0.07412931 0.036198482
0003f0 ad ed dc bc 0f 5f e7 bf 59 d6 05 3f d4 e4 54 be
       -0.026968801 -1.8075885 0.52280194 -0.20790416

xy_to_r.input_to_hidden.2.bias f4 [64]
000000 5a 95 30 be 18 69 e7 bd 19 97 f1 bd 77 20 79 3f
       -0.17244473 -0.11299342 -0.11796398 0.9731516
000010 98 5d 40 be de ae 4c be 83 57 3d be fb b7 9c bf
       -0.18785703 -0.19988582 -0.18490414 -1.2243646
000020 97 15 9e 3f 64 33 20 be f0 66 b5 be cd b2 54 be
       1.2350339 -0.15644604 -0.35430098 -0.20771332
000030 2a 65 22 be 2a 65 a7 bc 0a 61 03 be 47 24 c4 bd
       -0.15858904 -0.020433981 -0.12829986 -0.09577232
000040 e4 48 96 bd 0c f7 b9 bd 69 5d 8d bd cd 44 10 bd
       -0.073381215 -0.090803236 -0.06902582 -0.035221864
000050 94 b2 02 be bf c5 1e be bc a1 12 be 22 e1 c6 bd
       -0.12763435 -0.15505122 -0.1431951 -0.097109094
000060 c5 dc 23 be 93 11 92 bd 7f 69 37 3e 3b be e5 bd
       -0.16002186 -0.07132258 0.17911337 -0.11217924
000070 34 73 39 bf 9e c0 fc bd 40 d1 70 be a7 dc 7d bd
       -0.7244141 -0.12341426 -0.23517323 -0.06197801
000080 85 2b 20 be 40 33 c1 be 9a a2 87 be f7 5a 89 bd
       -0.15641601 -0.37734413 -0.26491243 -0.06706803
000090 f5 a0 2b 3f ac 9d 17 be 43 5b 79 be df 99 9e bd
       0.67042476 -0.14806241 -0.2435122 -0.07744192
0000a0 ed 49 0e bf 99 4e 93 bd df 36 57 be 22 18 8c bd
       -0.5558155 -0.07192726 -0.21017025 -0.068405405
0000b0 1f 9b a8 bd d3 dc 83 be 87 a0 a5 bd a0 fd 65 bf
       -0.08232712 -0.25754413 -0.08087259 -0.89840126
0000c0 a8 13 11 bf 85 de 95 bf d6 bc 36 be 8f 35 3b be
       -0.5667062 -1.1708533 -0.17845473 -0.1828215
0000d0 62 0c fb bb 3a ba 98 be 53 32 0e be 7f 64 2a be
       -0.0076613883 -0.2982958 -0.13886385 -0.16639899
0000e0 18 9d cc bd f3 1c 29 be 37 79 36 bf 74 1f a1 3e
       -0.09990901 -0.1651495 -0.7127871 0.3146931
0000f0 d6 b1 f9 bd 2e e5 2c be 62 8c 09 c0 73 45 a9 be
       -0.12192123 -0.168843 -2.1491933 -0.33060798

xy_to_r.input_to_hidden.4.weight f4 [64, 64]
000000 4d ee 28 3e 5a 84 df bd 3b d4 eb 3b a2 14 40 bc
       0.16497155 -0.10913916 0.0071969307 -0.011723669
000010 3f e6 cb 3d 83 20 3b be 51 67 4f be 56 4f e0 3c
       0.09956025 -0.18274121 -0.20254256 0.02738158
000020 01 bf 03 3d d6 9b 3f be f5 0d cb 3c 38 f9 f3 39
       0.032164577 -0.1871179 0.024786929 0.00046534254
000030 87 08 db bd 13 40 3d 3d 2d 62 9a 3d e8 63 6a 3d
       -0.10694986 0.046203684 0.07538257 0.057224184
000040 61 c9 00 3e 08 32 dc bd c5 f6 c9 3d c3 87 2d be
       0.1257682 -0.1075173 0.09861521 -0.1694632
000050 87 f3 95 3c 01 83 52 3d f1 c3 12 3e 6d dc b7 bd
       0.0183046 0.051394466 0.14332558 -0.0897759
000060 dc 03 23 3e 76 32 ba 3d 83 34 de bc e8 c1 ca bc
       0.15919441 0.09091656 -0.027124649 -0.024750665
000070 3e e9 44 bd b0 5f 0f 3e 88 c2 0e be 0d 07 ef bd
       -0.048074 0.14001346 -0.13941395 -0.11671267
000080 ec dd bb 3d 7e ac 28 bb d6 48 a7 bd 79 cd 39 bc
       0.091731876 -0.002573758 -0.08168189 -0.011340492
000090 d9 75 d7 3c 67 cf ac 3d ff bc 68 bd 1e 37 7b bd
       0.026301311 0.08437996 -0.056820866 -0.06133186
0000a0 9c c2 87 3e 27 3d 70 3d 38 ce 9b 3d da c8 87 3c
       0.26515663 0.05865207 0.076076925 0.016575266
0000b0 0f 73 f5 3d 8a 5d 1c bb 3f d9 62 3e 90 82 3b be
       0.11984836 -0.0023859465 0.22153185 -0.18311524
0000c0 b0 1e f1 3d c8 a5 2a bc f8 66 08 3e c2 8c 60 bc
       0.11773431 -0.010415502 0.1332053 -0.013705434
0000d0 4a c5 36 bd 0b 73 f8 3d 58 b1 2f bc 2a 27 8e 3d
       -0.044621743 0.12131318 -0.010723434 0.06941064
0000e0 78 40 d5 bc 0c 83 3b bd 56 8a e5 be ef 43 aa 3c
       -0.026031718 -0.045779273 -0.44832104 0.020784346
0000f0 2f 31 52 bb b0 f8 f0 bb bb 94 38 bc 0e f2 93 3c
       -0.0032072773 -0.0073538646 -0.011265929 0.018059757
000100 31 9b a4 bd 7a 2b aa bd 75 77 19 3e 23 90 ba bc
       -0.08037413 -0.08309074 0.14986975 -0.022773808
000110 ec 24 3f 3e 50 fc f6 3d 80 03 f9 bc 3c 5d 97 3d
       0.18666428 0.120598435 -0.030397177 0.0739083
000120 0d 54 1c bc 5a 20 ff 3d 8c 3e 8f 3c 4f 89 b0 bd
       -0.009541524 0.124573424 0.01748588 -0.086199395
000130 0a c5 00 3c 59 a3 72 bd b5 db 21 be 7e d6 26 3e
       0.007859478 -0.05923781 -0.15806468 0.1629276
000140 7a 04 b3 3d 87 03 e8 3d 75 a2 cb bd 74 14 18 be
       0.08741088 0.11328798 -0.099430956 -0.14851552
000150 d9 f7 8e 3c 89 dd 43 bd 03 09 06 be 42 03 3a 3c
       0.017452167 -0.047818694 -0.13089375 0.011353316
000160 ae 59 2f 3e 4e 7e 8f 3d ba 0b e8 3c e9 fa 2a 3d
       0.17124054 0.070065126 0.028325904 0.041743193
000170 b6 c8 9d be 42 fa ea bd 43 f1 1f bc 82 51 3f 3e
       -0.30817193 -0.11473514 -0.009762111 0.18683437
000180 28 3b bc bd 66 c3 31 3e 1b 3e 63 3e c4 f5 b6 bd
       -0.09190971 0.17359695 0.2219166 -0.08933595
000190 58 98 f7 bc bd 26 89 3d 64 bb ab bc 9c 88 84 3d
       -0.03022401 0.06696842 -0.020963378 0.06471369
0001a0 f9 91 63 bd 94 63 8e bd a4 5a a0 3b 70 c8 c6 3d
       -0.055559132 -0.06952587 0.0048936177 0.09706199
0001b0 60 4a 54 3d 99 e0 2c 3d 9b b8 08 3d 43 55 30 3e
       0.051828742 0.04220638 0.03337918 0.17220025
0001c0 48 c6 83 be 46 b1 dd 3c 8a d2 08 3e 20 ca 28 3d
       -0.25737214 0.02706207 0.13361564 0.041208386
0001d0 8c 3b dd bd 58 0c ac 3d ee 7a 12 bd 2e b4 08 bd
       -0.10802373 0.08400792 -0.035761766 -0.033374958
0001e0 00 0d db 3b bc 1c ea 3b d1 72 8e be 89 16 8e 3d
       0.0066848993 0.0071445387 -0.27821973 0.06937892
0001f0 e5 8f 9d 3d 2d 05 1f 3d cc 76 c7 bc d1 7c 44 bc
       0.07693461 0.038823295 -0.024348639 -0.011992649
000200 ae 25 58 3d 7c c5 af 3d a0 51 d4 bd d3 77 e0 3b
       0.05277031 0.08582589 -0.10367131 0.0068502217
000210 16 85 fb 3d ef 99 95 bd 9d 23 8e bc 79 ee 28 bd
       0.122812435 -0.07304751 -0.017350966 -0.04124305
000220 98 c2 2c 3d 3a b6 08 3e a4 a1 51 3c d8 23 b9 bd
       0.042177767 0.13350764 0.012794886 -0.0904004
000230 5f 40 2d 3e 7f 00 64 bd 3a 09 5a be 70 da 1a 3f
       0.16919087 -0.055664536 -0.21292582 0.6048956
000240 45 69 cd 3d 8a 1e 8d bd c8 ed e3 3d ac 44 23 be
       0.10029844 -0.068905905 0.111293375 -0.15944165
000250 77 63 fb bd 18 25 a3 bc ab 36 63 3e 5b 2f 7a 3d
       -0.12274831 -0.019915149 0.22188823 0.061080318
000260 f0 95 ba 3b a4 eb 89 3d bd 7e 58 bb a8 c2 70 bd
       0.0056941435 0.06734398 -0.0033034526 -0.05877939
000270 84 24 2f bf 8e c7 18 bd 22 15 10 3e 94 03 10 3e
       -0.68415093 -0.037299685 0.14070562 0.14063865
000280 01 f4 b5 3d 41 e7 11 be 65 76 82 3e 2e a9 47 be
       0.08884431 -0.14248373 0.25480953 -0.1949813
000290 c4 c3 a3 3c 12 5d 13 3e c5 ed 42 3e 10 f8 13 3e
       0.01999081 0.14390972 0.19036014 0.14450097
0002a0 f8 2d e1 be 75 fc d5 bc b9 2c 28 3e 3c c5 6c bd
       -0.43980384 -0.026121357 0.1642331 -0.057805285
0002b0 74 78 55 bd c4 89 30 3e 5d 5e eb 3d 44 7d b9 be
       -0.052116826 0.17240053 0.11492608 -0.36228383
0002c0 a3 e1 68 bf 1b 70 17 3d 7d 20 3f 3e c2 f6 1d be
       -0.90969294 0.036972146 0.18664737 -0.15426162
0002d0 00 12 6f bd 7e 82 63 3d 0b ef 46 3d eb 76 c3 3c
       -0.058366776 0.05554437 0.048567813 0.023860415
0002e0 84 62 b4 bd 46 1a a3 bc c2 b8 20 3e 12 5d 13 bc
       -0.08807853 -0.01990999 0.1569548 -0.008994358
0002f0 30 d7 22 bd 1b eb 20 3c c3 79 35 3d 21 93 df bb
       -0.039756 0.0098216785 0.044305574 -0.006822959
000300 0f 5e 4c bd a6 d5 ac bd b0 9f 40 3c 92 4e 45 bc
       -0.04989439 -0.08439188 0.0117568225 -0.012042658
000310 68 b2 4a bc 7d 74 39 be 27 7f b0 bc e6 e3 0c bd
       -0.012371637 -0.18110843 -0.021545006 -0.03439703
000320 96 62 38 3c 85 1f 1c 3c c0 60 b0 3c 20 b0 66 bd
       0.0112539735 0.009528999 0.021530509 -0.05632031
000330 c3 5d df bc 69 d1 1a 3d e3 c9 8c bd 78 5c 97 be
       -0.027266389 0.037797365 -0.06874444 -0.29562736
000340 2a 8b d8 bd 2a 4a bc 3d fc 59 0d 3d 00 f5 15 3d
       -0.105734184 0.09193833 0.034509644 0.036610603
000350 44 52 2f bc cb 47 67 3c bc 5d 52 3d 79 0d 80 3d
       -0.010700766 0.014116238 0.051358923 0.0625257
000360 82 40 f2 bd 2a d9 99 3d 87 13 a2 bc 57 6f 26 bd
       -0.1182871 0.07512124 -0.019784702 -0.040633526
000370 df ab 38 3f ac cd 74 be 8c c9 f8 bd 8e 80 17 be
       0.72137254 -0.23906583 -0.12147817 -0.14795133
000380 a2 f6 1b 3c 0c 3b 44 3e e2 95 fc 3d f0 3b 43 be
       0.009519251 0.1916315 0.123332754 -0.19065833
000390 69 b1 cf 3b a6 a0 b9 3d d3 83 d5 3d 67 5b 2f be
       0.0063382876 0.090638444 0.10425534 -0.17124711
0003a0 27 ac 97 3e 87 05 4a 3c c1 19 29 be 05 0c 71 3d
       0.2962353 0.012330419 -0.1651373 0.058849353
0003b0 7a 1a 6b bd 31 6c b1 bd 22 f2 d2 bb 23 db 16 3f
       -0.057398297 -0.08663214 -0.006437556 0.58928126
0003c0 c2 45 e8 3e 65 6a 20 3c 7a 6d 6c bc da 2d 7d bd
       0.4536572 0.009790991 -0.014430398 -0.061811306
0003d0 71 99 a2 3d d4 9b 86 bc fe 7c 52 3d 1e 18 a5 bd
       0.07939423 -0.016431727 0.051388733 -0.080612406
0003e0 88 46 93 bd ad d7 34 be d6 27 a4 be 09 d5 1d bd
       -0.07191187 -0.17660399 -0.32061642 -0.038533244
0003f0 41 c3 1e ba 88 24 a8 3d 95 5c 61 3c b1 80 d6 bb
       -0.0006056317 0.08210093 0.013754983 -0.006546103

xy_to_r.input_to_hidden.4.bias f4 [64]
000000 c6 41 a7 3c 25 48 53 bc e3 8b de 3a 86 66 43 3c
       0.020417105 -0.012895619 0.0016978945 0.011926299
000010 0e 28 4b bf f2 2d 85 3c 0a 0c 0e bf 61 c8 28 3b
       -0.79357994 0.01625726 -0.5548712 0.00257542
000020 0d 7b 24 bb b9 18 ed bc 54 bd b7 3b 7d 56 32 bc
       -0.0025097758 -0.028942453 0.0056072865 -0.010884878
000030 4d 41 4d 3c 9e 90 81 bc ca d0 71 3c 7e f3 b8 3c
       0.012527776 -0.01581603 0.014759252 0.022577044
000040 e7 e5 06 be 0b df d0 3b 3e 33 0d 3c f9 05 a1 3a
       -0.13173638 0.006374245 0.008618174 0.0012285105
000050 d9 13 50 bc fd d6 d2 3c 8a 4f 19 bd ed 79 a4 3c
       -0.012700045 0.02573728 -0.03742937 0.02007767
000060 2c 68 e8 3c cb 0b ad 3d 1e e8 77 3b b2 ed 11 bf
       0.028369986 0.08449515 0.0037827562 -0.5700332
000070 41 73 01 c0 ed b1 a1 3e 48 5f 31 bc b5 73 81 bc
       -2.0226595 0.3158106 -0.0108259395 -0.015802244
000080 82 10 18 40 9a 48 a0 bc 34 be df 3c 38 81 20 bc
       2.3760076 -0.01956587 0.027312376 -0.009796433
000090 dc 6a 8f 3c f7 26 12 bd 4e d4 8b 3c 0e 10 3b bc
       0.01750701 -0.03568169 0.017069008 -0.011417402
0000a0 1e 90 b8 bc a8 d0 4a 3f 44 89 26 3c de a7 7a 3b
       -0.022529658 0.79224634 0.010164563 0.003824703
0000b0 57 6c 0e bf 7d 43 b7 3b 5e fa 34 3d 21 37 4b bc
       -0.55634063 0.005592762 0.04418408 -0.0124032805
0000c0 6b 4d 60 bb 3a 5c e8 b9 6a 07 85 bc 2b 67 53 be
       -0.0034225832 -0.00044319202 -0.016238887 -0.20644824
0000d0 29 dc 27 bc 13 c3 d9 3c 82 d7 eb bf a9 f0 8c bb
       -0.010245361 0.026582276 -1.8425143 -0.00430115
0000e0 75 9e 7e bc 69 ba a1 bc 82 df a3 bb 81 74 30 3c
       -0.015540709 -0.019742208 -0.0050010094 0.010769964
0000f0 27 4b 4a 3c a5 a3 cf be 21 03 79 3e c2 2b b7 bb
       0.012347019 -0.40554538 0.243176 -0.005589933

r_to_mu_sigma.r_to_hidden.weight f4 [64, 64]
000000 23 27 b3 3d a2 76 6a 3c 21 20 82 3d f3 40 39 bc
       0.08747699 0.014310511 0.06353784 -0.011306989
000010 b9 0a 9b bf ab 26 4e 3d 55 62 9e 3c 06 f1 15 3d
       -1.2112647 0.050329845 0.019333998 0.03660681
000020 b0 ed cc bd 50 7a 13 bd 32 a4 da bd 3b 57 6a 3c
       -0.10006273 -0.03600532 -0.10675849 0.014303024
000030 f3 e0 61 3d e5 7c b1 bd 20 9d e2 bd db af 60 bd
       0.05514617 -0.086664 -0.110651255 -0.05485521
000040 12 ad ef 3d 0a 6b e1 bc 2c 35 d9 bd 24 46 25 bd
       0.117029324 -0.02751686 -0.10605845 -0.040350094
000050 56 0c 48 3d 74 15 2a 3e 76 95 33 be 7f 78 ac 3b
       0.04883989 0.16609746 -0.17537484 0.0052633877
000060 8a 28 84 3c 22 9e c6 3f e5 18 a8 bc 40 5e 0e bf
       0.016132612 1.5517008 -0.020519683 -0.55612564
000070 10 96 79 3e 78 36 be be df d7 15 be b7 77 36 be
       0.2437365 -0.3715093 -0.1463313 -0.17819105
000080 5c 4e bb be 68 c2 03 be 78 c7 9a 3d 76 73 81 3d
       -0.3658322 -0.12867129 0.07557577 0.063208506
000090 f2 63 03 3e 12 6f 6d bc 6a c1 6e 3a 3c 0d d2 bd
       0.12831095 -0.014491813 0.00091078004 -0.102564305
0000a0 3e 15 7d bd b2 7e 86 3e 33 2f b5 bd d7 95 84 3c
       -0.061787836 0.26268536 -0.08846893 0.01618473
0000b0 73 a9 8d 3e 9a 7d 8e bd 34 0a e4 bd 83 ab 94 bd
       0.27668342 -0.0695755 -0.111347586 -0.07259276
0000c0 49 bd 44 bd 3d 63 5f 3d 9a dc b2 3c 40 de 26 3f
       -0.04803208 0.054538 0.021833707 0.65182877
0000d0 de 9d d2 bd 0b 5f 7c bc b8 ce a9 bf fa 41 e3 3d
       -0.10284017 -0.015403519 -1.326621 0.110965684
0000e0 33 56 92 bd a0 04 24 bd 73 52 ab 3d c7 6a 7e 3d
       -0.071453474 -0.040043473 0.08365335 0.06211355
0000f0 c8 08 92 bc 30 72 ca 3f e3 85 45 bf 67 8b ec 3c
       -0.017826453 1.5816097 -0.7715742 0.028875066
000100 6c cc 8e 3e 71 e9 e6 be a2 ba 26 be 10 f6 4f be
       0.27890337 -0.45099977 -0.16282132 -0.20308709
000110 71 df 91 be 38 a7 27 3e 63 db 7f bd 1e 2f ba 3e
       -0.28490785 0.16372383 -0.062465083 0.36364073
000120 d8 b2 cc bd af b2 79 be 83 af 04 bd 89 6f f1 be
       -0.09995049 -0.24384569 -0.032393944 -0.47155407
000130 7a d3 3f 3d d7 77 0a be dc 1b 3b 3e 1e 31 84 3e
       0.04683254 -0.13522278 0.18272346 0.25818723
000140 bc 55 fa 3d 6f e4 9e be 4c f6 45 be 48 4f f2 be
       0.12223384 -0.31033656 -0.19332236 -0.47326112
000150 5b f5 64 3d 73 8e 81 3e 65 06 22 bd 0b 50 89 3e
       0.05589805 0.25303993 -0.03955688 0.2681888
000160 0e a9 e1 bc 26 12 8b 3d 14 34 61 bd 07 a6 ca be
       -0.027546432 0.06790571 -0.054981306 -0.39579794
000170 b3 af 0e 3e 4e 7a 85 3e 3b c7 46 3e 23 b5 f2 3d
       0.13934211 0.26069874 0.19411938 0.11850955
000180 b3 0f 22 3e 77 72 ae be 6f bf 14 3e 17 2d 75 3d
       0.15826301 -0.34071705 0.14526151 0.059857454
000190 4e 20 5f bd 1f fa 34 3d 5c c7 ba bd d8 87 88 3d
       -0.054474168 0.044183847 -0.09120056 0.06666535
0001a0 d6 c2 e1 3c 6b 6b 8f 3e 0c a2 14 3f 47 42 cf 3d
       0.027558725 0.2801164 0.58059764 0.10120063
0001b0 ec 16 ca 3d 1f 31 87 3e 98 86 51 bd fc 82 12 3e
       0.09867653 0.26404664 -0.05115375 0.14307779
0001c0 2b d7 f4 ba 8c e2 80 3d d5 84 a9 3d 86 07 66 be
       -0.0018679848 0.062932104 0.08277289 -0.22463807
0001d0 16 45 1e be 2f 82 c4 3e 66 cd 4b bc 59 fe 2e bc
       -0.15456042 0.38380572 -0.0124391075 -0.010680758
0001e0 ee fb 86 3c 22 6b 91 3e fc b3 82 3e 47 32 01 be
       0.016477551 0.28402048 0.25527942 -0.12616836
0001f0 06 dc 3d 3e 77 97 e9 bd 9d 73 45 bd e4 a1 12 3e
       0.18540964 -0.11405843 -0.04820596 0.14319569
000200 29 fc d3 3d a5 92 13 be af 8b ff 3d 4c f9 cc 3d
       0.1035083 -0.14411409 0.124778144 0.10008487
000210 f0 29 ea 3e 71 a2 58 bb 76 83 fa bc 8b f1 b4 3c
       0.4573512 -0.0033055807 -0.030580264 0.022087833
000220 ae 03 3c bc 57 1c 5f bd e3 8f 8e 3b 0d 23 63 3d
       -0.011475487 -0.054470386 0.0043506487 0.05545335
000230 ef f4 08 bd b1 74 d8 bd 23 49 c2 3c 07 b6 0e 3e
       -0.033436712 -0.10569132 0.023716515 0.13936625
000240 11 88 99 bd 46 dd 01 3d ed fc 9e bd af 95 ee 3b
       -0.07496656 0.031705163 -0.077630855 0.0072810273
000250 bc 7e 45 3d 7e 64 e8 3c 19 20 08 be 25 3f 4a bc
       0.048216566 0.02836823 -0.13293494 -0.012344156
000260 b1 62 8b 3d f9 16 6d 3e ea 91 8f 3d 9e be 08 bf
       0.06805933 0.23153295 0.07010253 -0.5341586
000270 1b b3 3e bf 13 00 1b bf 86 60 d7 3d 6c b7 87 3b
       -0.74492043 -0.6054699 0.10516457 0.0041417386
000280 3c c1 05 40 b7 4d ec bc cc 26 20 3b e2 bb 18 bd
       2.089919 -0.028845651 0.0024437187 -0.037288554
000290 4f c2 99 bd 40 1d a8 bc 2d e1 fd 3d 39 68 df 3a
       -0.075077645 -0.02052176 0.123964645 0.001704461
0002a0 dc 23 f5 bd cf 96 97 bd 5f 30 f8 3d 43 a0 fd 3d
       -0.1196973 -0.07401811 0.12118601 0.12384083
0002b0 2d 5f d8 be 6e d2 c1 bc 89 0e b6 bd dd 2e 1e bd
       -0.42260113 -0.023659911 -0.08889491 -0.03861891
0002c0 18 af 8c 3a 96 23 af bd 68 c3 17 bc d3 e7 b2 be
       0.0010733334 -0.08551709 -0.009262897 -0.34942493
0002d0 a5 77 2e bc c0 3c 52 3d b1 c2 db 3f e1 09 f0 bd
       -0.010648643 0.051327467 1.716879 -0.11720634
0002e0 fd c0 b2 bd 15 f7 e1 bd 14 03 8e bd aa b5 79 bc
       -0.08728216 -0.11033455 -0.06934181 -0.015241066
0002f0 07 d7 9c 3c 46 e3 4d c0 55 a7 e0 3e e4 81 e2 bd
       0.019145502 -3.2169967 0.43877664 -0.11059931
000300 c8 89 c0 bb 44 83 0e 3d b5 46 7a bd 28 c4 b9 bc
       -0.0058758 0.034793153 -0.061102588 -0.022676542
000310 9b 18 78 3f c6 4e 52 3c 77 d2 2c bc b5 6e 59 bc
       0.96912545 0.012836164 -0.010548226 -0.0132710235
000320 90 c2 36 bd 2c 42 79 3c 10 8f dc 3c c3 ce c7 39
       -0.044619143 0.0152135305 0.026923686 0.00038110287
000330 f0 ad 13 bb bc 88 e5 3d 5d 22 8f bd 56 21 1c bd
       -0.0022534095 0.11207721 -0.06988976 -0.03811773
000340 7c d2 d9 bd 03 e0 1b bc 8f 65 32 bc 6a 5b a5 3a
       -0.1063585 -0.009513858 -0.010888471 0.0012615744
000350 c3 db 80 3d 35 32 3a bc 9a 98 77 3d 24 1a cb bc
       0.06291916 -0.011364509 0.060448267 -0.024792738
000360 ea a2 d8 bd 51 c2 f3 3e b8 c8 c9 bd 8f 12 7c be
       -0.105779484 0.4760919 -0.09852737 -0.24616455
000370 c3 fd c6 be c1 28 91 be 35 7a 06 3d 24 30 a3 3d
       -0.3886548 -0.28351405 0.03283139 0.079681665
000380 f0 b6 bc 3c 66 62 3f bd 79 27 40 bc 9c 05 28 bd
       0.02303645 -0.0467247 -0.011728161 -0.041020975
000390 6c 48 04 bd e0 d1 82 3c 37 e4 b7 bc 3f ef 77 bc
       -0.03229563 0.015969217 -0.022447689 -0.015132724
0003a0 3c 24 08 bd 32 3d 33 40 95 37 d8 3b 51 ca c5 bc
       -0.03323768 2.80061 0.006598423 -0.024144324
0003b0 a5 f8 39 3c ed 8d 9f bb 5f b4 05 bd 5a fa 88 bd
       0.011350785 -0.004869214 -0.03264272 -0.06688376
0003c0 ce 63 bc bc ee 8b db bc 48 66 63 3c aa e9 bc bf
       -0.02299681 -0.026800122 0.013879366 -1.4758809
0003d0 66 9c ab 3d 72 37 7e bd 73 74 94 be d9 18 1f 3d
       0.0837944 -0.062064596 -0.28995094 0.038842056
0003e0 d7 94 24 3d ef 6e 93 3d fb 4f d1 bc 4d 09 bf 3d
       0.040181007 0.07198893 -0.025550833 0.09327946
0003f0 88 24 d0 bc 72 f8 a9 bf 25 ef 63 3e e0 75 5c 3c
       -0.025408044 -1.3278944 0.22259195 0.013455838

r_to_mu_sigma.r_to_hidden.bias f4 [64]
000000 0d 37 62 c0 f4 d5 7c bf 39 8c ce bf 61 5f 2c bf
       -3.53461 -0.98763967 -1.6136543 -0.67333037
000010 cf 39 9d bf 3e e5 44 be 44 f0 d9 3f f9 86 04 c0
       -1.2283267 -0.19228074 1.7026448 -2.070738
000020 04 95 b9 bf d7 93 84 bf 04 a5 a6 bf 88 6f 32 c0
       -1.4498601 -1.0357617 -1.3019109 -2.7880573
000030 aa 1d 91 bf bd 34 80 bf 6d bc ce bf 72 89 8a bf
       -1.1337178 -1.0016094 -1.6151253 -1.0823195
000040 b2 75 4e c0 c4 d0 fd bf 70 59 e3 3d 98 56 5d c0
       -3.2259336 -1.9829335 0.11101043 -3.4584103
000050 f6 c9 da bd 45 2a 17 bf 93 e9 a9 bf c7 90 b0 bf
       -0.10683052 -0.59048873 -1.3274406 -1.3794183
000060 4f 67 32 c0 5b 50 34 c0 35 cd 71 bf 1f ac d7 bf
       -2.7875555 -2.8174045 -0.94453746 -1.6849402
000070 77 90 04 c0 72 d7 15 c0 0c 9c a9 bf 83 82 2e c0
       -2.0713174 -2.3412747 -1.3250747 -2.7267158
000080 35 4e 5c be f4 92 02 c0 93 87 a3 bf f7 88 9f bf
       -0.21514209 -2.0402193 -1.2775749 -1.2463673
000090 91 e3 19 c0 45 ae d4 3e f9 32 ea bf db af 89 bf
       -2.4045146 0.41539207 -1.8296806 -1.0756792
0000a0 4a 51 75 c0 f3 8f 30 c0 51 5c 95 c0 78 3b a7 bf
       -3.8330865 -2.758786 -4.667519 -1.3065023
0000b0 b7 8e 8d bf 94 1a 83 c0 93 12 21 c0 14 f2 b5 3e
       -1.1059178 -4.0969944 -2.5167587 0.35536253
0000c0 f7 01 7a 3e c1 07 6e bf de f3 a2 bf 4a 70 50 bf
       0.24414812 -0.9298058 -1.2730672 -0.8142134
0000d0 d9 6e 75 be f7 cd 87 bf dd bd 39 be 00 a8 14 c0
       -0.23968066 -1.060973 -0.18138833 -2.322754
0000e0 50 1c 65 bf bf 2c 65 be 3b bf a2 bf 25 2b 4d bf
       -0.89496326 -0.2238035 -1.2714609 -0.8014396
0000f0 35 97 62 bf 14 6a ac c0 e9 7d 02 3f 69 b1 79 3f
       -0.88511974 -5.387949 0.50973374 0.9753633

r_to_mu_sigma.hidden_to_mu.weight f4 [8, 64]
000000 a4 9f e6 bc 8d 92 1c 3d 5c 66 86 3c 6c 2c 81 3c
       -0.028152294 0.0382257 0.01640623 0.015768252
000010 41 bf 15 bb 24 2a cb bc dc 4c 12 3c eb 79 32 bd
       -0.0022849592 -0.024800368 0.0089294575 -0.0435733
000020 1f 5e 2b 3c 9e f4 61 3d 01 5d 1f 3b 75 50 8f bc
       0.010459452 0.055164926 0.002431691 -0.01749442
000030 7c c9 8e bb 73 66 6f 3a e9 d0 5e bd de 4f fd bd
       -0.004357515 0.00091323926 -0.05439845 -0.12368749
000040 ae 97 a3 bb 10 6a bd 3a df 8c 39 3c 4c 3c 4c bb
       -0.004992447 0.0014451165 0.01132509 -0.003116387
000050 bd a9 3c 3c a4 19 3d bc a1 cf 43 3e bb 0f fb 3c
       0.011515078 -0.011541758 0.19122173 0.03064715
000060 ce a6 04 bc 3f b2 1f bb 46 59 43 bc 41 40 58 bc
       -0.00809641 -0.0024367718 -0.01192314 -0.013198913
000070 fc 45 3f bc a4 d2 18 bc 42 5a 3c 3c a7 ee e8 bb
       -0.0116744 -0.009327564 0.0114961285 -0.0071085277
000080 0e 1d 8c 3c af 97 96 3c 8b 97 9d bd 81 c4 db 3c
       0.017103698 0.018382875 -0.0769492 0.026827099
000090 fc b3 a4 3a 06 ad b5 3c ef 3a 9a 3b ee 60 93 3e
       0.0012565847 0.02217723 0.0047067325 0.2878489
0000a0 80 7e b1 bb 54 b6 96 bc a2 6b 8a 3b 52 1b 1c be
       -0.0054166913 -0.018397488 0.0042242566 -0.15244797
0000b0 27 e8 b7 bd e6 3b 5b 3b bc 89 b0 3c 54 a6 0c bc
       -0.089798264 0.003345245 0.021550052 -0.008584578
0000c0 81 5a 15 bc 6f a7 8a bc 66 4d c3 3d 62 0a 0a bd
       -0.009115816 -0.016925542 0.09536247 -0.033701308
0000d0 a6 ea 7f 3b f9 46 52 bd 8c 1b 13 3c 82 87 e4 ba
       0.0039049773 -0.051337216 0.008978736 -0.0017435404
0000e0 55 ba 4d bd 8a 84 14 3c c3 7d f1 bc 88 9d 25 be
       -0.05022653 0.009064803 -0.029478913 -0.16173375
0000f0 bc 08 56 3e da b0 57 bd 1c 92 a6 3c 74 1c 2e 3a
       0.2090177 -0.052658893 0.020333342 0.0006641813
000100 c5 7f af 3c 60 21 0d 3e 35 9b cf be 1a d7 42 3e
       0.02142323 0.13782263 -0.405481 0.19027367
000110 aa f3 95 bd ee 34 2e be 1e b1 10 3f 30 86 26 3d
       -0.07321866 -0.17012379 0.5652026 0.040655315
000120 a4 0e 96 be af 23 13 3d 8d c7 07 3f db 99 c3 3d
       -0.29308045 0.035922702 0.53038865 0.0955083
000130 fe 50 58 3e 8f 60 a4 be a4 83 76 3c 24 d0 b0 3d
       0.21124646 -0.32104918 0.015046034 0.0863345
000140 0c f3 e2 3e 0c 72 74 3e d1 93 95 be 93 a5 8a 3d
       0.44326055 0.2387163 -0.29214337 0.06769862
000150 5e 17 58 3c ad 29 8c 3c ed b4 36 3f b0 b3 ac 3e
       0.013189165 0.017109716 0.7136982 0.3373084
000160 b2 e4 a1 be 3e e1 b3 3d c5 a8 9a 3e 1e 2d 65 3e
       -0.31619793 0.08783196 0.30206886 0.22380492
000170 da 31 68 3f fe b3 94 3e b8 c2 6e be ac fd 04 be
       0.9070107 0.29043573 -0.23316467 -0.12987393
000180 60 bf 71 3c 91 f8 67 be 0e 96 c2 be 11 fd 26 3e
       0.0147551 -0.22653414 -0.38005108 0.16307475
000190 b7 5c 29 be 4f 6d 67 bf 94 ff 27 3d 6c 5f 0a 3d
       -0.16539274 -0.90401167 0.041015223 0.033782408
0001a0 a4 cb cb be 3e 4a 8d be a4 dd 5f bf 25 46 37 3e
       -0.39803803 -0.27595705 -0.8744757 0.17897852
0001b0 2a c8 99 be ce d5 e9 3e f5 1d 8f be 6d 37 0d 3f
       -0.30035526 0.45670933 -0.27952543 0.551627
0001c0 a8 54 37 3e 78 ed 13 3d 4a 6a a2 bc 92 3a a0 be
       0.17903388 0.03611514 -0.019826073 -0.31294686
0001d0 09 0b 46 3d 73 b4 ec be 0b 43 fe be 69 65 d9 bc
       0.048350368 -0.46231422 -0.49660525 -0.026537614
0001e0 01 02 2d 3e cb 6f 09 3d 7c b3 2a 3e 7f 01 8d 3d
       0.16895296 0.03355388 0.1667003 0.06885051
0001f0 48 e1 0c bc 1f 52 2e bf df 3d 27 3d 30 75 57 3f
       -0.008598633 -0.68094057 0.04083049 0.8416319
000200 a1 cf 47 3c 7f b9 b9 3d f4 70 38 bc 69 31 64 bb
       0.012195499 0.09068584 -0.011257399 -0.003481949
000210 da 2f d3 3c 17 f2 28 bc b6 71 91 3c 3e 02 38 3d
       0.025779653 -0.010311625 0.017754417 0.044924013
000220 31 00 0f 3c 6f 71 b5 bd 19 81 b5 bc a9 16 2a bc
       0.008728073 -0.08859526 -0.022156285 -0.010381379
000230 65 41 cd ba cf 6c 60 3c d0 68 1b be bc dc 8b bd
       -0.0015659748 0.013697817 -0.15176702 -0.06829211
000240 b3 03 34 3c b6 db 84 3c 66 8a 78 38 6c 24 95 b9
       0.01098721 0.016218048 5.92567e-05 -0.0002844663
000250 5d 14 c3 bb f9 27 87 3c 6e 65 4b 3e 2f 8e 10 3d
       -0.005953355 0.016498553 0.19862911 0.035291847
000260 03 f4 3e 3c 9b a7 90 bc e6 2b f3 3d 8f d9 2c bc
       0.011654857 -0.017658046 0.11873607 -0.010549917
000270 bc 08 75 3b 20 b0 c5 bc a6 a1 e9 bb 3a e2 bd bb
       0.003738924 -0.024131835 -0.0071298657 -0.0057947906
000280 ca 62 aa b9 4d 86 56 bc 43 02 62 be 96 d0 9f bd
       -0.0003249853 -0.013093543 -0.22071175 -0.078034565
000290 0c 36 20 bc c9 71 a3 3c a3 c2 54 3b 3c dc 18 3e
       -0.009778511 0.019951718 0.0032464645 0.14927763
0002a0 ff ef 8a 3a fb 89 98 3c 0a ca f1 3c e5 f7 28 be
       0.0010600089 0.018620482 0.029515285 -0.16500814
0002b0 09 d0 c9 bd e5 9a 8c 3d 33 81 b9 3c 16 3e 73 bc
       -0.09854133 0.06865481 0.022644615 -0.014846345
0002c0 01 73 81 3b 42 8e 8d bd 2c 84 c9 bd da b4 6e 3c
       0.003950477 -0.06911899 -0.09839663 0.014569486
0002d0 a0 d9 97 bc a0 73 ff 3d 1c c0 98 bc fe d2 8c 3c
       -0.018536389 0.124732256 -0.018646292 0.017190453
0002e0 3f eb 09 3e ab 04 4e bb 58 9d 04 3d ac 82 10 3e
       0.13468646 -0.0031435888 0.032376617 0.14112347
0002f0 87 35 d5 bd 9a e3 0d 3d 10 8c ae bc 00 30 29 bc
       -0.104106 0.034640886 -0.021307021 -0.0103263855
000300 d4 29 fa 3b 29 e8 fd bd 24 4f dc 3a 78 3f 2d bc
       0.007634381 -0.12397797 0.0016808254 -0.010574214
000310 8c 4a 35 3e da e0 71 bc 4d 5b b3 3b a5 b8 a7 3d
       0.17704219 -0.014763081 0.0054735304 0.08189515
000320 4e a1 a2 ba e2 49 5c bd 9d 5b 7b bc 19 63 33 3d
       -0.0012407692 -0.053781398 -0.0153416665 0.04379568
000330 50 7a 0b bc 16 06 81 3c 83 5f 34 3e 31 be 78 3b
       -0.008513048 0.015749972 0.1761456 0.003795516
000340 b7 fd c7 bc 1b 2d 46 bc cb 94 bd 3c 4e c8 24 bd
       -0.024412973 -0.012095715 0.02314224 -0.040230088
000350 a6 9f ce 3c c4 cf 1d 3c 26 a8 d9 3d 67 47 9c 3e
       0.02522261 0.009632055 0.10627775 0.30523226
000360 f7 4e 41 3c b2 58 e1 bc 17 c4 1a be 93 80 e5 3c
       0.011798612 -0.027508114 -0.15113865 0.02801541
000370 d9 e4 3f 3d fe 0e 5e bb 1e 8a 8e bc a1 e9 cf 3b
       0.046849106 -0.0033883448 -0.017399844 0.0063449894
000380 13 eb 8b 3b 28 ca 0e bd b8 15 c0 3d 67 63 fe 3d
       0.0042699664 -0.03486076 0.093791425 0.12421303
000390 b1 12 e3 bb 05 67 3d 3c ea ca 90 3c 35 b8 6e ba
       -0.0069297184 0.011560206 0.017674882 -0.00091064285
0003a0 86 56 86 3b 73 2c 6a 3a 37 bf a4 3c 63 18 ee bd
       0.00409967 0.0008933015 0.02011071 -0.11625745
0003b0 b6 03 6d 3c c8 dd 97 3d 92 7f 02 bd f6 c8 a7 bc
       0.014466217 0.07415348 -0.03185994 -0.020481568
0003c0 5c b1 35 3a 07 ce c8 3d 25 04 78 bd 45 9b 29 3c
       0.00069310307 0.098049216 -0.060550828 0.010351961
0003d0 d2 61 1a bc 5e 1e ce 3d 96 b2 d9 bb cc c4 a3 3c
       -0.009422736 0.10064386 -0.0066436036 0.019991301
0003e0 31 4d aa bd cb 38 10 bb 29 bf 45 3d 2e 72 10 bc
       -0.08315504 -0.0022006507 0.048278008 -0.008816285
0003f0 5d ae 4c bc 99 c4 84 3c 91 22 91 bc 38 54 d2 bc
       -0.012492743 0.016207026 -0.017716678 -0.025674924

r_to_mu_sigma.hidden_to_mu.bias f4 [8]
000000 63 c0 a4 bc 31 54 e2 be 4e 19 0a bd c5 3c 40 bd
       -0.020111268 -0.44204858 -0.03371554 -0.046932954
000010 04 7a 50 bc 1a 5c 4b bf 1a ee 64 bc f9 df e1 be
       -0.012724403 -0.7943741 -0.013972783 -0.4411619

r_to_mu_sigma.hidden_to_sigma.weight f4 [8, 64]
000000 89 86 f3 3c 8d dd a1 be cc 1e 4c 3d 41 d5 7f 3d
       0.029727237 -0.31614342 0.049834058 0.062459234
000010 1b 34 89 be 36 58 e7 3c 54 3f 6d 3d b7 a4 ce 3c
       -0.26797566 0.028240304 0.057921723 0.025225027
000020 32 65 92 3d d6 24 19 bf af 71 c0 bc 03 4a f7 3c
       0.07148208 -0.5982183 -0.023491709 0.030186659
000030 ff 28 39 3d 9d cf c2 ba 61 92 92 3c d8 87 7a be
       0.045205113 -0.0014862899 0.017892065 -0.24465883
000040 b6 82 f0 3b 96 d5 6f 3d 7a fb bd ba 49 6f 5a bd
       0.0073398007 0.0585533 -0.0014494502 -0.053328786
000050 f7 b5 3c bd cb be 4c bc 74 69 0b 3f 73 ee 1b bf
       -0.046071973 -0.01249666 0.54457784 -0.6091072
000060 4b 34 0a bd 24 9b 64 3d 2d 14 2b 3e ed d7 9b 3c
       -0.033741277 0.055812016 0.16706915 0.01902386
000070 a6 b9 9f 3b 78 39 04 bd 54 6a c5 bc 21 14 04 bd
       0.004874426 -0.03228137 -0.024098553 -0.03224576
000080 ff b2 1a bc b5 4a 0d 3c 44 8f 11 3f 0d fe e5 be
       -0.00944209 0.008623769 0.5685923 -0.44920388
000090 54 7b 13 bc f4 60 e4 3d 2b ab 41 3d d7 c0 89 3e
       -0.009001572 0.11151305 0.04728238 0.26904938
0000a0 b6 35 fc 3c 58 0b 49 3b bd d3 b1 bc d8 10 57 3e
       0.03078733 0.0030676927 -0.02170741 0.21002519
0000b0 29 09 e1 bd c0 36 53 3d 98 44 1a bd 82 0a ae 3d
       -0.10988075 0.051565886 -0.037663072 0.08498098
0000c0 a7 36 be 3c b9 73 cb 3c 84 00 20 3e e9 d7 ae bd
       0.02321942 0.024835454 0.15625197 -0.08537275
0000d0 21 0e f4 bc 9e da ae 3a aa f0 b1 3d 4a 12 98 b8
       -0.029791893 0.00133403 0.08688481 -7.2513314e-05
0000e0 79 3b b1 be b7 fc 88 3c ee 8d 99 bc 14 c7 28 be
       -0.34615687 0.016722066 -0.018744435 -0.16482192
0000f0 a5 0a 2a be c0 64 ab 3d c1 3b 82 bc 31 09 cb bd
       -0.16605623 0.08368826 -0.015897634 -0.099138625
000100 99 3d 76 3f 76 66 07 bf bb c1 25 3e 9a 02 23 3f
       0.9618774 -0.5289072 0.16187184 0.63675845
000110 e8 18 21 bf 36 95 ce 3e 1d 66 aa 3e 22 c0 9f bf
       -0.6292863 0.40348214 0.3328103 -1.2480509
000120 ff 33 6f be 01 39 4b be a8 ff 0f bf 91 64 2f 3f
       -0.23359679 -0.19845964 -0.56249475 0.6851283
000130 ec 85 9a be ed f5 05 3f 02 34 4d 3d d6 39 53 be
       -0.301803 0.5232838 0.050098427 -0.20627531
000140 70 48 e3 3e f0 c4 8f 3f d5 b2 c4 bd 50 17 bd bf
       0.44391203 1.1231976 -0.09604422 -1.477274
000150 51 05 6b 3c 7f 34 af 3f 07 fa 5e be 0d 58 9e be
       0.014344529 1.3687896 -0.21775065 -0.30926552
000160 e3 7b d0 be e8 18 c7 b9 4d ff b3 bd db ae aa bd
       -0.40719518 -0.00037974794 -0.08788929 -0.08334132
000170 23 a1 48 3e 99 70 b9 3e 37 de b5 3e 69 76 e6 bf
       0.19592719 0.36218718 0.355211 -1.8004886
000180 65 4b 74 3f 62 ff ab 3f a7 50 26 bf 9d 32 7e 3e
       0.9542754 1.3437312 -0.64966816 0.24823995
000190 8d f9 2a 3f fb 8c 44 3d c8 4e 05 bf d9 04 55 bf
       0.66787034 0.047986012 -0.52073336 -0.8321052
0001a0 b2 c8 40 3e e6 ca 53 3e ed 5b f2 3f ee fa 0a 3e
       0.18826559 0.20682868 1.8934304 0.13572285
0001b0 5b f6 29 be 55 b4 f2 3f e3 36 d9 3c a7 86 35 bd
       -0.16597883 1.8961283 0.02651543 -0.044317868
0001c0 32 64 45 bb 66 d4 49 3e 60 0e 26 bf e8 82 e7 3d
       -0.0030119536 0.1970993 -0.64865685 0.11304265
0001d0 d8 4f d8 3f 8e 9d ed 3d 97 95 d8 3d 82 45 7b 3f
       1.6899366 0.11602317 0.10575407 0.98152936
0001e0 57 b8 aa 3d 72 1a d9 3f 4a bb 44 3f b3 64 19 be
       0.08335941 1.6961195 0.7684828 -0.1497982
0001f0 f7 15 0a 3e 5c ed 30 bf 2b 6b d4 3e 5b 7e 67 3e
       0.13484941 -0.6911218 0.41488013 0.22606795
000200 59 6d 2e 3d 56 52 08 be 32 10 07 bd 8c b8 5b 3d
       0.04258475 -0.13312659 -0.03297443 0.053642794
000210 b5 d2 b1 be 3b 56 a9 3c 7d 6c 9d 3d 29 19 27 bd
       -0.3473107 0.020671 0.07686708 -0.04079548
000220 0f 7a 06 3d 12 42 5e bf 91 7b 06 bc 40 77 a7 3c
       0.032831248 -0.86819565 -0.008208171 0.020442605
000230 3a 31 6b 3c c2 ee af 3c a0 b0 88 3d 9f d7 82 bd
       0.014354998 0.021476153 0.066743135 -0.06388783
000240 c8 db d2 3d 25 fd b2 3b 86 69 56 bb 74 27 1f 3c
       0.10295826 0.005462306 -0.0032716705 0.009713996
000250 74 d2 fd 3d a7 0d d0 bb 83 7a 29 3e f0 36 b5 be
       0.123936564 -0.0063492837 0.16550641 -0.35393476
000260 fc c3 94 3d 17 4e ff 3d 5b f8 fe bb 2f 45 27 3c
       0.072639436 0.12466066 -0.007781071 0.010209366
000270 9d 6e c9 3d bc 81 89 3d 2e 9c e5 3c e6 71 d0 3c
       0.09835551 0.06714198 0.028028574 0.025444936
000280 26 b8 75 3b f1 44 46 bd 6e 9c 1d be cd 08 e2 bd
       0.0037493794 -0.04840559 -0.15391704 -0.11036835
000290 3d 35 ad 3d e8 08 b2 3b ca 86 4f 3c e0 88 d3 be
       0.0845742 0.0054331906 0.012666414 -0.41315365
0002a0 7e dc 37 3d 89 71 83 3c 34 3e 0b 3d c8 6a 04 bf
       0.044888012 0.016045349 0.03399487 -0.51725435
0002b0 2f b4 ef bd 37 6a cd 3d 3f dd de bc 64 2b d5 3d
       -0.11704289 0.100300245 -0.027205108 0.10408667
0002c0 27 5c 2f 38 60 67 e8 3d 0a 03 27 3d 07 86 02 bc
       4.1809075e-05 0.11347842 0.040774383 -0.007966525
0002d0 e5 2f 66 bc af b8 3c 3e 0b 77 36 3d 07 bd 05 3d
       -0.014049505 0.18429826 0.044547122 0.032650974
0002e0 ae 97 26 3e 38 b3 26 3c 06 c0 e1 3c a7 52 90 3e
       0.16268799 0.010174565 0.027557384 0.2818806
0002f0 f2 b6 9a 3e 56 27 6d 3d b2 92 6e 3b 7b 39 e4 bb
       0.302177 0.05789884 0.0036403355 -0.00696486
000300 bb e1 03 3e 98 d7 97 3d 93 c8 bd bb 80 88 fd 3c
       0.12879078 0.07414168 -0.0057917326 0.030948877
000310 a6 50 54 3e 46 ae 45 3d a1 e4 e8 3d ce c3 82 3d
       0.2073389 0.048261903 0.113717325 0.06385003
000320 73 a0 9b bd ab a1 14 be bd 44 bc 3c f0 43 cf 3c
       -0.07598963 -0.14514796 0.022981996 0.02530095
000330 e6 67 85 bd 41 9b 6a 3d 57 cb 13 3f e9 cd df be
       -0.06513958 0.057276968 0.57732147 -0.43711784
000340 dc 16 dc 3d 1f 82 cf 3d 9b 4a 9b 3d 4a 69 8f bc
       0.107465476 0.101322405 0.07582589 -0.01750626
000350 32 0a d2 3d 58 a4 1f bc f6 f4 7e 3e 89 5d 05 be
       0.10255851 -0.009743772 0.24898133 -0.13023962
000360 d1 bb 42 bb e7 95 71 3d 88 e0 ea bc b8 87 5e 3d
       -0.0029713998 0.05898085 -0.028671518 0.05432865
000370 ec 4b 25 3d 83 d5 a6 3d f8 e3 dd bc e0 da 07 bd
       0.040355608 0.08146193 -0.027086243 -0.03316772
000380 bd f7 63 bb 7f a5 41 bc b7 6f 0d 3e 20 1c e1 be
       -0.0034785115 -0.0118192425 0.13812147 -0.4396677
000390 a9 db e5 bc 43 38 cb 3d a9 12 9b 3c 24 02 4d bf
       -0.028058844 0.099228404 0.018929796 -0.8008139
0003a0 e8 3b 35 3d cd 4b 94 3d 1b 14 e9 3d e1 eb 98 bd
       0.044246584 0.0724102 0.11380788 -0.07466865
0003b0 89 9c ad bd dc 9b aa bc 7f c7 4d bd 1b c8 89 3d
       -0.08477122 -0.020826273 -0.050239082 0.0672762
0003c0 13 e5 68 bd 65 59 29 3e 2f 96 eb 3d 36 d3 8a 3d
       -0.056859087 0.16538008 0.115032546 0.067785665
0003d0 21 de 6d bc 9e e9 74 3e 0f d6 c4 3d e7 d8 41 3d
       -0.014518292 0.23917243 0.09611141 0.047325995
0003e0 9c 14 28 3e 9e d1 f8 3c fb bc bb bd e0 67 bd bc
       0.16414112 0.03037339 -0.091669045 -0.02312082
0003f0 50 14 2a 3d 06 48 e2 3b 9a bc 1d 3d 0d 2e a4 3d
       0.041523278 0.0069055585 0.038509943 0.08016596

r_to_mu_sigma.hidden_to_sigma.bias f4 [8]
000000 86 43 1b c0 25 95 b1 c0 da 4b 14 c0 64 65 15 c0
       -2.4259963 -5.549456 -2.3171296 -2.3343134
000010 05 88 18 c0 f3 e6 60 c0 4a 74 18 c0 f7 19 cb c0
       -2.383302 -3.514096 -2.3820977 -6.3469195
