seed-AuNP-phasemaps/pretraining/tune/64_16_32_9.22E-02_2/model.pt (torch, 55776 bytes, 20 tensors)

xy_to_r.input_to_hidden.0.weight f4 [32, 2]
0	0xbf3523ff	-0.7075805
1	0xbd2f5c6a	-0.042812742
2	0x3c6f89dd	0.0146202715
3	0xbf034303	-0.51274127
4	0xbf356738	-0.70860624
5	0xbe8c5081	-0.2740517
6	0xbf1a2fd8	-0.60229254
7	0xbf30acad	-0.6901348
8	0xbf3012dc	-0.6877878
9	0xbf2a7939	-0.6659122
10	0xbf13b942	-0.57704556
11	0xbefe5225	-0.49672046
12	0xbe7be073	-0.2459734
13	0xbe7ba8da	-0.2457613
14	0xbf57be8a	-0.84275115
15	0xbf6eb931	-0.9325133
16	0xbf486644	-0.78281045
17	0xbf744d5e	-0.9543055
18	0xbf2cda43	-0.6752054
19	0xbf06d220	-0.52664375
20	0xbe78f7dd	-0.24313302
21	0xbf343c2e	-0.70404327
22	0xbf38f3b1	-0.72246844
23	0xbea4799f	-0.3212404
24	0xbd2fa436	-0.042881213
25	0xbf16faa1	-0.5897618
26	0xbe0341d2	-0.12818077
27	0xbef97c64	-0.48727715
28	0xbece61e4	-0.4030906
29	0xbe67779d	-0.22604223
30	0xbdf2b9fa	-0.118518785
31	0x3eda1bee	0.42599434
32	0xbeeed7ad	-0.46648923
33	0xbd9b0045	-0.07568411
34	0xbf022a4f	-0.5084581
35	0xbee6437e	-0.44973367
36	0xbf8d2a26	-1.1028488
37	0xbf4c231e	-0.79741085
38	0xbe716fbd	-0.23577781
39	0xbec64fa3	-0.38732633
40	0xbf4d023d	-0.8008154
41	0xbf4bccc3	-0.79609317
42	0xbe2935d9	-0.16524448
43	0xbe8cbce4	-0.27487862
44	0x3d2bf151	0.041978184
45	0x3eae6cc9	0.3406737
46	0xbd09ae9f	-0.033613797
47	0xbf9d5d91	-1.2294179
48	0x3e301d1b	0.17198603
49	0xbf344847	-0.70422786
50	0xbf3222c1	-0.6958428
51	0x3edef314	0.4354483
52	0xbf57213b	-0.8403508
53	0x3d79c386	0.06097748
54	0xbf310449	-0.69147164
55	0x3e47c56e	0.19508907
56	0x3d6091fd	0.054826725
57	0xbf107eb6	-0.56443346
58	0xbf0463ca	-0.51714766
59	0xbf253b33	-0.64543456
60	0xbf930733	-1.1486572
61	0xbf663e05	-0.89938384
62	0xbeb4bb1d	-0.35299006
63	0xbf1905eb	-0.59774655

xy_to_r.input_to_hidden.0.bias f4 [32]
0	0xbf6c9be3	-0.92425364
1	0xbf87f08e	-1.0620286
2	0xbf87c7e9	-1.0607883
3	0xbf10953a	-0.564777
4	0xbe85cf3c	-0.2613467
5	0x3e40a08c	0.18811244
6	0xbf04f50e	-0.51936424
7	0xbea8c879	-0.32965448
8	0xbee5bd09	-0.44870785
9	0xbde52f09	-0.11190612
10	0xbf07f841	-0.5311318
11	0xbf205d30	-0.6264219
12	0xbe558a78	-0.20853603
13	0xbdc1d4b6	-0.094643995
14	0xbf3ab171	-0.72927004
15	0xbf545069	-0.82935196
16	0xbe530e9a	-0.20611039
17	0xbf323863	-0.6961729
18	0xbea47b0d	-0.3212513
19	0xbf8d947a	-1.1060936
20	0xbcf935db	-0.030421188
21	0xbeebeece	-0.4608063
22	0xbe688640	-0.22707462
23	0xbeb62f09	-0.3558276
24	0xbe570043	-0.20996194
25	0xbf52d308	-0.8235326
26	0xbf519251	-0.81863886
27	0xbf078224	-0.52932954
28	0xbe8dedda	-0.2772053
29	0xbeaf4fe1	-0.3424063
30	0x3e481a96	0.19541392
31	0xbdebe0ee	-0.11517511

xy_to_r.input_to_hidden.2.weight f4 [32, 32]
0	0xbf2b078a	-0.6680838
1	0xbeeed72c	-0.46648538
2	0xbec8e1a7	-0.3923466
3	0xbca31ded	-0.01991173
4	0xbdf8923d	-0.12137268
5	0xbee671bc	-0.45008647
6	0xbe1c6c68	-0.15275729
7	0xbe29a4f3	-0.1656683
8	0x3e1ff221	0.15619709
9	0xbb5c68a5	-0.003363171
10	0xbe2783cd	-0.16358872
11	0xbeed4468	-0.46341252
12	0x3e143b5e	0.14475772
13	0xbe1d3ecc	-0.15355986
14	0xbf0895b5	-0.53353435
15	0xbf04ff77	-0.5195231
16	0xbdab2932	-0.08357467
17	0x3dc82467	0.09772568
18	0xbeec0ae4	-0.4610206
19	0xbf01e97f	-0.5074691
20	0xbee16000	-0.44018555
21	0xbe0913e0	-0.13386488
22	0xbf07010f	-0.5273599
23	0x3d852026	0.065002725
24	0x3e2a5da2	0.1663728
25	0xbec1c25d	-0.378436
26	0xbeb0773a	-0.34465963
27	0x3e18316b	0.14862601
28	0x3de20807	0.11036687
29	0x3e27a518	0.16371572
30	0xbf28784f	-0.65808576
31	0x3dde959d	0.1086838
32	0xbe33827d	-0.17530246
33	0xbdb76326	-0.08954458
34	0xbbee7e6d	-0.0072782547
35	0xbe182231	-0.14856793
36	0xbd24c40c	-0.040226027
37	0xbd50fa4e	-0.05101996
38	0x3bc61dc3	0.0060460283
39	0x3daacc39	0.08339734
40	0xbd1878de	-0.037224643
41	0xbdec2be2	-0.115318075
42	0xbdc5f630	-0.09666097
43	0xbe0ed820	-0.13949633
44	0x3e202b04	0.15641409
45	0xbe2abf95	-0.16674645
46	0xbdbfa60a	-0.09357841
47	0xbd247d34	-0.040158466
48	0x3db9c9a9	0.09071667
49	0xbda0c8ce	-0.078508005
50	0x3d736032	0.05941791
51	0x3dc5227c	0.09625718
52	0xbe1bb25f	-0.15204762
53	0x3d4632ab	0.048388164
54	0x3cec84e4	0.028871961
55	0xbd6333f9	-0.055469487
56	0x3ddda9e7	0.10823422
57	0x3d811475	0.0630273
58	0x3e040316	0.12891802
59	0x3c5f44ad	0.013627213
60	0x3dac974a	0.084272936
61	0x3d8874c7	0.066628985
62	0xbd8a05c0	-0.06739378
63	0xbde8be60	-0.11364436
64	0xbf0276c8	-0.50962496
65	0xbf13ea85	-0.57779723
66	0xbec8c0f5	-0.39209715
67	0xbe01a8e2	-0.1266208
68	0x3e247511	0.16060282
69	0xbf32929e	-0.6975497
70	0xbd0a5a8f	-0.03377777
71	0xbf366a66	-0.712561
72	0xbd78139a	-0.06056557
73	0xbde144bf	-0.109994404
74	0xbd911643	-0.07084324
75	0xbefbd2a5	-0.49184147
76	0xbe08b9cf	-0.1335213
77	0xbef0e263	-0.4704772
78	0xbeb39f03	-0.35082254
79	0xbec0646c	-0.37576616
80	0x3e2d3864	0.16916043
81	0xbd8ff09b	-0.07028314
82	0xbed8b119	-0.42322615
83	0xbe7a466b	-0.24440925
84	0xbefdf8f0	-0.49603987
85	0x3df9bda8	0.12194377
86	0xbee84ae1	-0.45369628
87	0xbf2cfff8	-0.6757808
88	0x3d890394	0.066901356
89	0xbef3ae0a	-0.4759372
90	0xbe9c8a03	-0.30574045
91	0xbdbbe67f	-0.09174823
92	0x3e23a878	0.15982234
93	0xbbcaa20f	-0.0061838697
94	0xbef96ebd	-0.487173
95	0x3c6cd832	0.014455842
96	0xbdc6769b	-0.09690591
97	0x3e2847a7	0.16433583
98	0x3d522b50	0.051310837
99	0x3dd4effa	0.103973344
100	0xbd5cec69	-0.053936396
101	0xbef22ae5	-0.4729835
102	0xbda26b42	-0.07930614
103	0xbf110772	-0.56651986
104	0xbee2c500	-0.44290924
105	0x3b8b3a9a	0.004248929
106	0x3e28aa15	0.16471131
107	0xbf019d0d	-0.50630265
108	0xbdafade7	-0.08578091
109	0xbee6f251	-0.45106748
110	0xbbdc3ca1	-0.0067210947
111	0x3d6ed7c4	0.05831124
112	0xbc49a589	-0.012307533
113	0xbdda248b	-0.10651501
114	0xbee14e7f	-0.440052
115	0xbd0021b6	-0.03128215
116	0xbeec4fb2	-0.46154553
117	0xbe3013c8	-0.17195046
118	0xbf290133	-0.66017455
119	0xbf3ac4e6	-0.72956693
120	0xbe040e3d	-0.12896056
121	0x3de26377	0.11054128
122	0xbde21f2d	-0.110411026
123	0x3e1f559d	0.15560003
124	0x3dd2b6a8	0.10288745
125	0xbdb17b03	-0.08666041
126	0xbec5d934	-0.38642275
127	0xbe2a8574	-0.16652471
128	0xbf207221	-0.62674147
129	0xbee82960	-0.45344067
130	0xbf0c6836	-0.54846513
131	0x3dd44e50	0.103664994
132	0x3e1a0699	0.1504158
133	0xbf125310	-0.57157993
134	0x3d5c9a41	0.053858045
135	0x3dd4f55b	0.1039836
136	0x3d2a3e65	0.04156341
137	0x3d83ca0d	0.064350225
138	0xbdc668b5	-0.0968794
139	0xbef7af13	-0.4837576
140	0xbd4958db	-0.049157005
141	0xbf009c55	-0.50238544
142	0xbf218e69	-0.63107926
143	0xbf3a2362	-0.7271024
144	0xbe30eed0	-0.172786
145	0x3df416f0	0.119184375
146	0xbeed7b4c	-0.4638313
147	0xbf072528	-0.5279107
148	0xbee22ada	-0.44173318
149	0xbd50e874	-0.051002935
150	0xbec44856	-0.38336438
151	0xbf25d673	-0.6478035
152	0x3d2f376e	0.04277747
153	0xbee4ff30	-0.44725943
154	0xbf299444	-0.6624186
155	0xbde7d7c8	-0.11320454
156	0x3d98179e	0.074263796
157	0x3e003250	0.12519193
158	0xbf37ae41	-0.71750265
159	0x3c57282c	0.013132136
160	0x3f176cda	0.5915047
161	0x3ec335e1	0.38127044
162	0x3ec26fab	0.3797582
163	0x3e1acfdf	0.15118359
164	0x3d3bbeee	0.04583638
165	0xbd3d21c9	-0.0461748
166	0x3e086e80	0.13323402
167	0x3f1c91b4	0.61159825
168	0x3f3110e7	0.69166416
169	0xbd88b462	-0.0667503
170	0xbe1fa3df	-0.15589856
171	0x3ee6e702	0.4509812
172	0xbd712aa4	-0.058878556
173	0xbdebbc37	-0.115105085
174	0x3efce45e	0.4939298
175	0xbd9d35de	-0.0767629
176	0x3e2041e7	0.1565014
177	0xbe20c807	-0.15701304
178	0x3f1209fa	0.57046473
179	0x3f1fbb2a	0.62394965
180	0x3d8a34db	0.06748363
181	0x3e1e8955	0.15482076
182	0xbd8279cb	-0.063708864
183	0xbdaf77d2	-0.08567776
184	0xbd5799fe	-0.052637093
185	0x3eba3247	0.36366484
186	0x3f03e7cd	0.51525575
187	0xbddc7d62	-0.107661024
188	0xbd399f3b	-0.04531787
189	0xbc25f0da	-0.010128224
190	0x3dd6cc8c	0.10488233
191	0x3d9b3498	0.07578391
192	0xbf208df5	-0.6271661
193	0xbdf621ad	-0.12018142
194	0xbf2f8bad	-0.68572503
195	0xbe32382a	-0.17404237
196	0x3e0013dd	0.12507577
197	0xbf1af967	-0.6053681
198	0xbe0cbb41	-0.13743307
199	0xbf1ab75a	-0.6043602
200	0x3d912794	0.07087627
201	0x3e0a3cbd	0.13499732
202	0xbd8c1499	-0.06839866
203	0xbecac692	-0.39604622
204	0xbc76cb76	-0.015063157
205	0xbf252843	-0.6451456
206	0xbf02488d	-0.50891954
207	0xbedb6fa0	-0.428586
208	0x3e256b28	0.16154158
209	0x3e052d84	0.13005644
210	0xbed4e9c7	-0.41584608
211	0xbf0af575	-0.5428079
212	0xbf298de4	-0.6623213
213	0x3e1d3178	0.15350902
214	0xbf100086	-0.562508
215	0xbdbfa0b4	-0.093568236
216	0x3dcbdc37	0.09954112
217	0xbf086ed5	-0.53294116
218	0xbf25f968	-0.6483369
219	0xbdac0ceb	-0.084009014
220	0xbb5df1cc	-0.0033866046
221	0xbd956538	-0.072946966
222	0xbf073207	-0.5281071
223	0x3d325cb6	0.043545447
224	0x3dcbbfd3	0.09948697
225	0xbd9c9136	-0.07644884
226	0x3eee4087	0.46533605
227	0xbc1820e1	-0.009285183
228	0xbe1829b2	-0.14859655
229	0xbe9efa51	-0.3105035
230	0x3d276054	0.04086335
231	0x3ee9adfc	0.45640552
232	0x3ec1b19d	0.3783082
233	0xbb478636	-0.0030444986
234	0xbd3118f8	-0.043236703
235	0x3f0b5be6	0.544371
236	0xbdf93fef	-0.121703975
237	0xbeea4e79	-0.45762995
238	0x3e960200	0.292984
239	0xbee4ae7c	-0.4466437
240	0x3dadafe7	0.08480816
241	0xbe017b6b	-0.12644736
242	0x3da7d2fc	0.08194539
243	0x3d25ff08	0.04052642
244	0xbda22d35	-0.07918779
245	0x3e0d3be9	0.13792385
246	0xbec08427	-0.37600824
247	0xbe94d1bd	-0.29066268
248	0x3e0c21ea	0.13684812
249	0xbf387925	-0.7205985
250	0x3e3b06c0	0.18264294
251	0xbbb49d5c	-0.0055119228
252	0x3e085cf5	0.1331671
253	0xbd18c329	-0.037295494
254	0xbe800abb	-0.25008187
255	0xbda918ca	-0.08256681

xy_to_r.input_to_hidden.2.bias f4 [32]
0	0xbf1d96be	-0.6155814
1	0xbde82d62	-0.11336781
2	0xbeba1937	-0.36347362
3	0xbf35f034	-0.71069646
4	0xbf2bfcce	-0.67182624
5	0xbe09a427	-0.13441525
6	0xbf00539f	-0.50127596
7	0xbe8e26c5	-0.27763954
8	0xbea72dd8	-0.32652164
9	0xbeeed3d9	-0.46646002
10	0xbf00f194	-0.5036862
11	0xbe323be0	-0.17405653
12	0xbeb6a1a1	-0.35670188
13	0xbe0c7542	-0.13716605
14	0xbdd3326f	-0.10312354
15	0xbf35e7e1	-0.71056944
16	0xbf25928a	-0.64676726
17	0xbf074042	-0.52832425
18	0xbef00b47	-0.46883604
19	0xbf261ed6	-0.648908
20	0xbf0205bc	-0.5079
21	0xbee43631	-0.44572595
22	0xbed92784	-0.4241296
23	0xbe5a4f9d	-0.21319433
24	0xbf0639ea	-0.5243212
25	0xbe8b2148	-0.2717383
26	0xbeec9f0c	-0.46215093
27	0xbf00a790	-0.5025568
28	0xbec19b75	-0.37813917
29	0xbe985cf7	-0.29758427
30	0xbed8fa8f	-0.4237866
31	0xbee457a2	-0.4459811

xy_to_r.input_to_hidden.4.weight f4 [64, 32]
0	0x3f2481e4	0.642607
1	0xbdbb2d94	-0.09139553
2	0x3ec56758	0.38555408
3	0xbef08078	-0.46973014
4	0xbf065c6b	-0.5248477
5	0xbb821140	-0.0039693415
6	0xbf069595	-0.52571994
7	0x3e89abc2	0.26888853
8	0x3e917c63	0.28415212
9	0x3e91e598	0.2849548
10	0xbf20f285	-0.62870055
11	0x3e31409b	0.17309801
12	0x3f29cc67	0.6632752
13	0x3d8d2b8b	0.06893071
14	0x3e1f1123	0.15533881
15	0x3ee94cee	0.45566505
16	0xbeef6328	-0.46755338
17	0x3e8b778a	0.2723964
18	0x3eca5602	0.39518744
19	0xbf2af37f	-0.66777796
20	0x3ef08b87	0.4698145
21	0xbee6a449	-0.45047215
22	0xbf1d6d5a	-0.6149498
23	0x3e6be512	0.23036602
24	0xbeef49de	-0.46736044
25	0x3f12b1f3	0.5730278
26	0xbf0b3442	-0.54376614
27	0xbf051495	-0.5198453
28	0x3e983bdb	0.29733166
29	0x3e9ff83c	0.31244075
30	0xbeda1ee9	-0.42601708
31	0x3f0fea2a	0.5621668
32	0xbf2090ad	-0.6272076
33	0x3dd77f7a	0.10522361
34	0xbf03f43e	-0.5154456
35	0xbee06603	-0.4382783
36	0x3f080003	0.5312502
37	0xbe9487db	-0.290099
38	0x3f078839	0.52942234
39	0xbe037359	-0.1283697
40	0xbe86cc57	-0.26327774
41	0xbeabe4e4	-0.33573067
42	0x3f369217	0.71316665
43	0xbd23ce3d	-0.039991606
44	0xbf2a8a61	-0.666174
45	0x3e0059ed	0.12534304
46	0x3e25000d	0.161133
47	0xbea3930a	-0.3194812
48	0x3ef34a42	0.47517592
49	0xbe17a3d6	-0.14808592
50	0xbedc226e	-0.42995018
51	0x3f3157f9	0.6927486
52	0xbec3b90e	-0.38227123
53	0x3ed02a28	0.40657163
54	0x3f1bf74d	0.60924226
55	0xbe7dc043	-0.24780373
56	0x3f0f9758	0.5609031
57	0xbeea35fc	-0.45744312
58	0x3f1271d0	0.57204914
59	0x3f189a6e	0.5961064
60	0xbe81a835	-0.25323644
61	0xbe15a4c5	-0.14613636
62	0x3f180de8	0.5939622
63	0xbe9e2405	-0.30886856
64	0x3f0e1376	0.55498445
65	0x3d03b57b	0.032155495
66	0x3f128c76	0.57245576
67	0x3f1f5891	0.62244517
68	0x3f2fc235	0.6865571
69	0x3ec39439	0.38199022
70	0xbf33ee5e	-0.70285594
71	0x3ef9dff1	0.48803666
72	0x3ef4f342	0.4784184
73	0x3f151407	0.58233684
74	0x3f31e795	0.6949399
75	0xbda29af5	-0.07939712
76	0x3e2e2fb6	0.17010388
77	0xbcaa8466	-0.020815086
78	0xbe1e40f8	-0.15454471
79	0x3edcae99	0.43101957
80	0xbf338c4b	-0.70135945
81	0x3ec55463	0.38540944
82	0xbf12593c	-0.5716741
83	0xbf1c3649	-0.6102033
84	0x3efd913e	0.49524873
85	0xbefb3996	-0.49067372
86	0x3eea5ab3	0.45772323
87	0x3ea48be6	0.32137984
88	0xbf16b95a	-0.58876574
89	0x3f1de238	0.6167331
90	0x3f136c00	0.5758667
91	0x3f174c14	0.5910046
92	0x3e8f6d0c	0.28012884
93	0x3d5ea399	0.054355238
94	0x3f2a7b18	0.66594076
95	0x3f3d7f72	0.7402259
96	0x3ee877f5	0.4540402
97	0x3e1e84a6	0.15480289
98	0x3f333b52	0.7001239
99	0xbecf8fb5	-0.40539327
100	0x3f33a413	0.7017223
101	0x3edb3713	0.42815456
102	0x3ecd0531	0.40043023
103	0x3edd803a	0.43261892
104	0x3f00c38f	0.502984
105	0x3f10ec8f	0.5661096
106	0x3f194e71	0.5988532
107	0xbdb766e8	-0.08955175
108	0xbe481694	-0.19539863
109	0x3d87d02d	0.06631503
110	0xbe157473	-0.14595203
111	0x3ef450db	0.47717938
112	0x3f28e97c	0.6598127
113	0x3ef54d13	0.47910365
114	0xbef88506	-0.4853899
115	0x3eff54c6	0.49869365
116	0x3f181f68	0.5942292
117	0x3ed38190	0.41309786
118	0x3f24cf9b	0.6437928
119	0x3ecd19c2	0.40058714
120	0xbf06972e	-0.5257443
121	0x3f47ec5d	0.78095037
122	0x3f19232e	0.59819305
123	0x3ec7ba01	0.39009097
124	0x3ee99d64	0.45627892
125	0x3ed709c9	0.41999653
126	0x3ec2f26a	0.38075572
127	0x3f1d97b5	0.6155961
128	0x3ee9e845	0.4568502
129	0xbd8658bc	-0.065598935
130	0x3ee35c62	0.4440642
131	0x3eefddef	0.4684901
132	0x3f3a9205	0.7287906
133	0x3eea5a83	0.4577218
134	0xbed031c1	-0.4066296
135	0x3f0d6a43	0.5524027
136	0x3f06f946	0.5272411
137	0x3ef3894f	0.47565696
138	0x3ef41359	0.4767101
139	0x3e2c110e	0.16803381
140	0x3e61fa6f	0.22068189
141	0x3d159dd5	0.036527473
142	0xbcdbbf8f	-0.02682474
143	0x3f067f35	0.5253785
144	0xbf2a13c6	-0.6643642
145	0x3e6087ba	0.21926776
146	0xbf12e2cf	-0.5737733
147	0xbedd6858	-0.4324367
148	0x3f08a18b	0.53371495
149	0xbecb8d51	-0.39756253
150	0x3efc2756	0.4924876
151	0x3f1524b8	0.58259153
152	0xbee017d0	-0.43768167
153	0x3f1d5848	0.6146283
154	0x3ed7f76a	0.4218095
155	0x3f32b6d6	0.69810236
156	0x3e9b8133	0.3037201
157	0x3e8a3576	0.26993912
158	0x3f096bd1	0.5368014
159	0x3f43f54b	0.7654616
160	0xbf01901f	-0.50610536
161	0xbc2b5822	-0.010458024
162	0xbf2b6fb4	-0.6696732
163	0x3f25adc1	0.6471825
164	0xbf1913b2	-0.5979568
165	0xbe37e8fa	-0.17959967
166	0xbf10793f	-0.56435007
167	0xbe25437b	-0.16139023
168	0xbf1ae62f	-0.6050748
169	0xbefcce73	-0.49376258
170	0xbec34a9a	-0.38142854
171	0x3d69a744	0.057044283
172	0xbe9458b6	-0.2897393
173	0xbd595975	-0.05306383
174	0xbd1d1a60	-0.03835523
175	0xbf29f40e	-0.6638802
176	0xbecb0f89	-0.3966029
177	0xbf02d94f	-0.51112837
178	0x3ec8cf1b	0.3922051
179	0xbf05dcbb	-0.5228993
180	0xbeec5572	-0.4615894
181	0xbef1f50d	-0.4725727
182	0xbf1f41fd	-0.62210065
183	0xbebf4565	-0.3735763
184	0x3f1c6713	0.6109478
185	0xbf290201	-0.6601868
186	0x3f155ee1	0.583479
187	0x3f052ea2	0.5202428
188	0xbea432e0	-0.32070065
189	0xbecc933d	-0.39956084
190	0x3ec49df9	0.38401774
191	0xbedffb73	-0.43746528
192	0x3f0a7030	0.54077435
193	0xbd4b6fbd	-0.04966711
194	0x3f05f22d	0.52322656
195	0x3f097808	0.5369878
196	0xbf1478c9	-0.57996804
197	0x3cc64480	0.024202585
198	0xbedc4ba7	-0.43026468
199	0x3e9c7e98	0.30565333
200	0x3f008a2f	0.5021085
201	0x3ef5c4ff	0.4800186
202	0x3f0ae722	0.5425893
203	0xbd4ee09e	-0.05050718
204	0xbeae2df8	-0.34019446
205	0x3db24cc2	0.08706047
206	0x3de6fd92	0.112788334
207	0x3ef84f1c	0.48497856
208	0xbf0627e6	-0.5240463
209	0x3d8c9bf9	0.06865687
210	0xbefb5353	-0.4908701
211	0xbec19fa2	-0.37817103
212	0x3ee50feb	0.44738707
213	0xbef8443c	-0.4848956
214	0x3ed96b08	0.4246447
215	0x3eea6157	0.4577739
216	0xbf1dd1b5	-0.6164811
217	0x3f4150b5	0.75513774
218	0x3efeffc6	0.49804515
219	0x3f0ce44d	0.5503586
220	0x3e4eaed5	0.2018388
221	0x3e97d864	0.2965728
222	0x3f0101da	0.5039345
223	0x3f147cde	0.5800303
224	0xbf013afd	-0.50480634
225	0x3e31f070	0.17376876
226	0xbe875591	-0.2643247
227	0x3edc61df	0.4304342
228	0x3eec0b1d	0.4610223
229	0x3b3cee72	0.0028828648
230	0x3f03fb67	0.51555485
231	0xbd96cbd0	-0.07363093
232	0xbe971be6	-0.29513472
233	0xbefc1b11	-0.492394
234	0x3eed0fc6	0.46301097
235	0xbe1a3f16	-0.15063128
236	0xbf088553	-0.53328437
237	0x3da1593f	0.078783505
238	0xbda65cda	-0.08123179
239	0xbea73f8d	-0.32665673
240	0x3f1a23f8	0.60211134
241	0xbe641adf	-0.22275876
242	0xbee269e4	-0.44221413
243	0x3eceb2d2	0.40370804
244	0xbedc862f	-0.43071124
245	0x3ec20389	0.37893322
246	0x3efef872	0.49798924
247	0xbe9fbcc4	-0.31198704
248	0x3f02e335	0.5112794
249	0xbea9bfae	-0.33154052
250	0x3f0b9e36	0.54538286
251	0x3ee281a8	0.44239545
252	0xbe95759d	-0.29191294
253	0xbe4a30ef	-0.19745229
254	0x3f1bdbf1	0.6088248
255	0xbee76d6c	-0.4520067

xy_to_r.input_to_hidden.4.bias f4 [64]
0	0xc01de28a	-2.4669518
1	0x403ccd68	2.950037
2	0xc0db7b5b	-6.858808
3	0xc1758f93	-15.347552
4	0x402fe33f	2.748245
5	0xc0ab44ff	-5.3521724
6	0x404bb18c	3.1827116
7	0x40acc712	5.3993006
8	0x4037738e	2.866428
9	0xc0ba5c43	-5.8237624
10	0x401cbbcc	2.4489622
11	0x40290016	2.6406302
12	0xbf9c6063	-1.2216915
13	0xc0291624	-2.6419764
14	0x40b01c2d	5.5034394
15	0x4007f2a1	2.124184
16	0x4064c799	3.5746825
17	0x3ff93aa3	1.947102
18	0xc019641f	-2.396736
19	0xc020729a	-2.5069947
20	0xc01be893	-2.4360702
21	0x40b2c619	5.586682
22	0x40dd8c8e	6.9234076
23	0x40111a1d	2.2672188
24	0x4081788b	4.0459647
25	0x4052930c	3.290225
26	0xbf3d493c	-0.7393987
27	0xbe96aca8	-0.294286
28	0xc00310b8	-2.0478954
29	0xc0bc6ad6	-5.8880415
30	0xc02822f7	-2.627134
31	0x40217938	2.5230236
32	0x401990c3	2.3994606
33	0x4035c453	2.8401077
34	0xc105cad8	-8.362022
35	0x4003b1af	2.05772
36	0x3fbaf6c3	1.4606556
37	0x41b171b3	22.180517
38	0x405d4d7a	3.4578538
39	0xc01c0543	-2.4378211
40	0xc163d8d1	-14.240434
41	0x40186298	2.3810177
42	0xc02d20cb	-2.7051265
43	0x4089917e	4.2990103
44	0x40c3348b	6.100164
45	0x40db53b3	6.853967
46	0xc0b8ff3f	-5.781158
47	0xc089293b	-4.286283
48	0x408351a2	4.103715
49	0xc20e8fb6	-35.640343
50	0x3fe5cf7c	1.7953944
51	0x400f94bd	2.2434533
52	0x42b81f5b	92.06124
53	0x401db6c9	2.4642813
54	0xc016dfa7	-2.3574007
55	0x3fc28288	1.5196085
56	0xc0b6563c	-5.6980267
57	0xc0218030	-2.523449
58	0xc0196e40	-2.3973541
59	0x409b4108	4.8516884
60	0xc03d3751	-2.9565012
61	0xc110a269	-9.039651
62	0xc01370ed	-2.3037674
63	0x41b0d8ac	22.105797

r_to_mu_sigma.r_to_hidden.weight f4 [64, 64]
0	0xbee9cb43	-0.4566289
1	0xbf1500ff	-0.58204645
2	0xbf0144fe	-0.504959
3	0xbef3e157	-0.47632858
4	0xbef90e1b	-0.48643574
5	0x3ec2b99b	0.3803223
6	0xbf07a86f	-0.52991384
7	0xbec079d2	-0.37592942
8	0x3f00384c	0.500859
9	0x3ed00a6a	0.40632945
10	0xbefd6296	-0.49489278
11	0xbf0d7363	-0.5525419
12	0xbebb698d	-0.36603966
13	0xbede7e0c	-0.4345554
14	0x3ee6d10d	0.45081368
15	0xbf038267	-0.51370853
16	0xbeeac12c	-0.45850503
17	0x3ee3c28d	0.44484368
18	0xbeef7139	-0.4676607
19	0x3f0f2ad6	0.5592474
20	0xbebd75e4	-0.37004006
21	0x3eeae290	0.45875978
22	0xbedf96e4	-0.43669808
23	0x3ee83732	0.4535461
24	0xbee75455	-0.45181528
25	0xbed01627	-0.406419
26	0x3f111ecb	0.5668761
27	0xbf0ebf36	-0.55760515
28	0xbebd9290	-0.3702588
29	0xbf1743cd	-0.5908783
30	0xbeb80f75	-0.35949293
31	0x3edde0d3	0.4333559
32	0x3ee6231a	0.44948655
33	0xbeeb2888	-0.4592936
34	0x3f0f437a	0.55962336
35	0x3ed4f18b	0.41590533
36	0xbf02e25c	-0.51126647
37	0x3eb92517	0.3616111
38	0xbeeb6a97	-0.4597976
39	0xbee32f20	-0.4437189
40	0xbf02c924	-0.51088166
41	0x3eeb7285	0.4598581
42	0x3f1357c8	0.5755582
43	0xbee08cd6	-0.4385745
44	0xbf0460b4	-0.5171006
45	0x3f0dd306	0.5540012
46	0xbef6bfc2	-0.48193175
47	0x3f01ea57	0.507482
48	0x3f0c7f12	0.54881394
49	0x3eedd189	0.46448925
50	0x3f168a88	0.5880513
51	0xbf0ad6d3	-0.54234046
52	0xbf11248b	-0.56696385
53	0xbf15e9f5	-0.58560115
54	0xbee4f637	-0.44719097
55	0x3f0d08f8	0.5509181
56	0x3f0cd5fc	0.55014014
57	0xbec532ed	-0.38515416
58	0xbedfe5fc	-0.43730152
59	0xbecc9578	-0.39957786
60	0xbef96bce	-0.4871506
61	0x3eeb4bfc	0.4595641
62	0xbefc0619	-0.49223402
63	0x3ec03427	0.3753979
64	0xbc3bbffa	-0.011459345
65	0x3ee2c4a1	0.4429064
66	0xc003ac55	-2.0573933
67	0xbfebb629	-1.8414966
68	0xbfa4d122	-1.2876322
69	0x3fab6273	1.3389419
70	0x3dbb2d59	0.09139509
71	0x3e8294b3	0.25504074
72	0xbf8edf97	-1.1161984
73	0x401069ac	2.2564497
74	0xbef38e84	-0.47569668
75	0xbf7c1771	-0.9847327
76	0xbfafa34e	-1.3721712
77	0xbe451080	-0.19244576
78	0x3e257085	0.16156204
79	0xbf39d459	-0.7258964
80	0xc00a8f4e	-2.1649966
81	0xbdb384d1	-0.08765567
82	0x3c428339	0.011872106
83	0x3df1fed4	0.11816183
84	0x3f8ddc53	1.1082863
85	0xc01cd1e1	-2.45031
86	0x40190fbf	2.391586
87	0xbddfe2a3	-0.109318994
88	0xc055ac4b	-3.338641
89	0xbfcce204	-1.6006474
90	0xbfa2c36f	-1.2715892
91	0x3fb69ff2	1.4267561
92	0x400aaab9	2.16667
93	0xbf0dc174	-0.5537331
94	0xbe8ae53a	-0.2712801
95	0xbf824ab0	-1.0179043
96	0xbe594abd	-0.21219917
97	0xbfa614ae	-1.2975061
98	0x3f7fe170	0.99953365
99	0x3e92e19a	0.28687745
100	0x3f79f233	0.9763519
101	0x4078d569	3.8880255
102	0xbfa3bfbe	-1.279289
103	0x3f8c5ed4	1.0966439
104	0x3fd982ab	1.6993002
105	0xbed6d572	-0.4195972
106	0x3f982ce8	1.1888704
107	0xbf983ab0	-1.189291
108	0xbfa6406e	-1.2988412
109	0x3e83daf3	0.25752982
110	0x3f97c657	1.1857404
111	0x3e641276	0.22272667
112	0x3f130bc0	0.57439804
113	0xbfa1edcb	-1.2650694
114	0x3f0b33b9	0.543758
115	0xbfea2c69	-1.8294803
116	0xbfdada04	-1.7097783
117	0xbf02988a	-0.51014006
118	0x3e827b7f	0.25484845
119	0x3e8c799b	0.27436528
120	0x3f735736	0.9505495
121	0x3f566403	0.83746356
122	0x3fc955c8	1.5729303
123	0xbf97001f	-1.1796912
124	0x3f1267bc	0.57189536
125	0x3f997219	1.1987945
126	0xbe651f6b	-0.22375266
127	0x4088d801	4.2763677
128	0x3ede71d1	0.4344621
129	0xbf43e4ac	-0.765208
130	0xbf15cbd1	-0.58514124
131	0xbf189c1b	-0.596132
132	0xbecf7ae5	-0.4052345
133	0x3f0b37d3	0.54382056
134	0xbf0bb156	-0.5456747
135	0xbef859e8	-0.48506093
136	0x3f1a972c	0.6038692
137	0x3f423532	0.7586242
138	0xbf10b940	-0.5653267
139	0xbf27f93e	-0.6561469
140	0x3f59aea8	0.8503213
141	0x3ef4d822	0.47821146
142	0xbf45e422	-0.7730123
143	0xbf37bd75	-0.71773463
144	0xbebb9098	-0.36633754
145	0xbf003ecf	-0.5009584
146	0x3edd8330	0.4326415
147	0x3ed5b55e	0.41739935
148	0x3f24f34d	0.6443375
149	0xbf19aaf1	-0.6002646
150	0xbf0429c3	-0.51626223
151	0xbeecb7d0	-0.46233988
152	0xbf456638	-0.771091
153	0xbf3267e6	-0.69689786
154	0xbf5c3481	-0.86017615
155	0x3f0bfbaf	0.54680914
156	0x3f20ac40	0.6276283
157	0xbed0f4ba	-0.40811712
158	0xbe8dca21	-0.27693275
159	0xbf416a46	-0.75552785
160	0xbf29f3e7	-0.6638779
161	0xbee96513	-0.45584926
162	0xbf2108e1	-0.62904173
163	0xbf1bf4fd	-0.609207
164	0xbf09985e	-0.5374812
165	0x3f9a1501	1.203766
166	0xbf29c16a	-0.6631075
167	0x3f1983f6	0.5996698
168	0xbed7bc52	-0.42135864
169	0xbf096911	-0.53675944
170	0x3ef25ad3	0.47334918
171	0xbf6da9bc	-0.9283712
172	0xbf06eb5a	-0.5270287
173	0x3e8c5957	0.2741191
174	0x3f4e862e	0.8067349
175	0x3f035c64	0.5131285
176	0x3f0e863f	0.55673593
177	0x3f3b8509	0.7324987
178	0x3f3c9e37	0.73678917
179	0xbf1188fd	-0.5684965
180	0xbf96018f	-1.1719226
181	0xbf16133a	-0.5862309
182	0x3f0726bd	0.52793485
183	0x3ef66dc6	0.48130625
184	0x3f343ae0	0.70402336
185	0x3ee22084	0.44165432
186	0x3ecec4cd	0.40384522
187	0xbf227ec4	-0.6347468
188	0x3f0e1123	0.554949
189	0xbf117e33	-0.5683319
190	0x3f0f264b	0.55917805
191	0x3ece1ae2	0.40254885
192	0xbf4ca0f8	-0.7993312
193	0xc0fd4e78	-7.9158287
194	0xbd09436a	-0.033511557
195	0xbf5b4278	-0.856483
196	0xc099d4e4	-4.8072376
197	0x40675e91	3.6151469
198	0xbf46d27a	-0.7766491
199	0xc0e10913	-7.0323577
200	0x3f62da22	0.88614094
201	0x41130432	9.188524
202	0xc06d6f4f	-3.7099187
203	0xbe844c11	-0.25839284
204	0x3fae7d92	1.3632071
205	0x3fbfa12e	1.4971063
206	0xc0d2b856	-6.585002
207	0xc02b1ada	-2.673514
208	0xc12633c6	-10.38764
209	0xc017eb3a	-2.373732
210	0x3ef08e6a	0.46983653
211	0x3f84028d	1.0313278
212	0x3edfe670	0.43730497
213	0xc06813ff	-3.6262205
214	0xc11abb0c	-9.670666
215	0xbfa2af7a	-1.2709801
216	0xc09add6b	-4.8395286
217	0xc015627f	-2.3341367
218	0xc085e9e3	-4.1848006
219	0x3fd9fe5f	1.7030753
220	0x3f1d3bf7	0.61419624
221	0xbf252940	-0.6451607
222	0xbf1fa25c	-0.62357116
223	0xc00a52de	-2.1613078
224	0xc021bf7b	-2.527312
225	0xbfab5838	-1.3386297
226	0x3ed7f74e	0.42180866
227	0xc0182d90	-2.377781
228	0xc08be996	-4.372264
229	0x40ae0449	5.438023
230	0xc10a39a8	-8.639076
231	0x3f9bfb7a	1.218612
232	0xc112aa01	-9.166505
233	0xbed2b06e	-0.4115023
234	0x40ffaecd	7.990088
235	0xc0ccbcbc	-6.398039
236	0xc05310fb	-3.2979114
237	0x409366a2	4.6062784
238	0x410bc9fc	8.736813
239	0x41047e8a	8.280893
240	0x40114fa5	2.270486
241	0xc009b782	-2.1518254
242	0x40486d39	3.1316664
243	0xc008922c	-2.1339216
244	0x3f8781ed	1.0586525
245	0xbf637924	-0.8885672
246	0xbf19300d	-0.59838945
247	0x3f39abc9	0.7252775
248	0x40892ee0	4.286972
249	0x3e2a2ad6	0.16617903
250	0x4019c92a	2.402903
251	0xc091891c	-4.547987
252	0x3f09f85d	0.538946
253	0xbf8664d0	-1.0499516
254	0x3fd20c81	1.6410066
255	0x40cd6609	6.4187055

r_to_mu_sigma.r_to_hidden.bias f4 [64]
0	0xbf0aeba6	-0.5426582
1	0xbf171580	-0.5901718
2	0xbf0cd8ec	-0.55018497
3	0xbf1814ca	-0.5940672
4	0xbec7b34e	-0.39003986
5	0xbedc57e7	-0.43035814
6	0xbf8359b6	-1.0261753
7	0xbea1bb64	-0.3158828
8	0xbd740458	-0.059574455
9	0xbeb8821a	-0.3603676
10	0xbee42eb4	-0.44566882
11	0xbf189274	-0.5959847
12	0x40c7e2b6	6.2464247
13	0xc0310047	-2.765642
14	0xbec66426	-0.38748282
15	0xbea19fb2	-0.3156715
16	0xbf1ad2ad	-0.60477716
17	0xbf0c15c9	-0.5472074
18	0xbec5972e	-0.38591903
19	0xbd7fe91c	-0.06247817
20	0xbe8a9fdd	-0.2707509
21	0xbec0fd31	-0.3769317
22	0xbe7f57aa	-0.24935785
23	0xbf0ad3e7	-0.5422959
24	0xbed19215	-0.40931764
25	0xc01660bb	-2.349654
26	0xbdf89bd4	-0.12139097
27	0xc042baa8	-3.0426426
28	0xbde0cc2a	-0.10976441
29	0xbdb99b9b	-0.090628825
30	0xc042b430	-3.0422478
31	0xbe9f6347	-0.3113043
32	0xbf0c6de4	-0.5485518
33	0xbedf3ae6	-0.43599623
34	0x3bc3f695	0.0059803226
35	0xbec08412	-0.37600762
36	0x3ebffdfe	0.37498468
37	0xbed6fc9a	-0.41989595
38	0xbe985b36	-0.29757088
39	0xbf0871fb	-0.5329892
40	0x3f03e198	0.51516104
41	0xbf0a4ea6	-0.5402626
42	0xbedd3100	-0.43201447
43	0xbefe8b56	-0.4971568
44	0xbefd48ba	-0.49469548
45	0xbda5dc20	-0.08098626
46	0xbef0caab	-0.47029623
47	0xc021b6ae	-2.526775
48	0xbf03fd8a	-0.51558745
49	0xbeb832de	-0.3597631
50	0x3ec60af6	0.38680238
51	0xc04e7ab0	-3.2262383
52	0xbf0e007f	-0.55469507
53	0xbf0a654a	-0.54060805
54	0xbf21b405	-0.63165313
55	0x40bbdeeb	5.8709617
56	0xbf04979d	-0.51793844
57	0xbec2115d	-0.37903872
58	0xbea01e98	-0.3127334
59	0xbd4adc24	-0.04952635
60	0x40bf4ae1	5.9778905
61	0xbedec33c	-0.43508327
62	0xc04c4257	-3.191549
63	0xbeb38811	-0.35064748

r_to_mu_sigma.hidden_to_mu.weight f4 [16, 64]
0	0xbee179d4	-0.4403826
1	0x3efca477	0.49344227
2	0x3f0974fd	0.53694135
3	0x4063461b	3.551154
4	0x3eb379fe	0.3505401
5	0x3ec5e4f5	0.38651243
6	0x3a8a5e66	0.0010556697
7	0x3ec4e350	0.38454676
8	0xbdd0096d	-0.10158048
9	0x3f032599	0.51229244
10	0x3e4ccf35	0.20000918
11	0xbf06b658	-0.52621984
12	0x3904b86b	0.00012657202
13	0x40341117	2.813543
14	0x3ed21757	0.41033432
15	0x3f874611	1.0568258
16	0x3ec9485e	0.39313024
17	0x3e701778	0.23446453
18	0x3f06c0dd	0.52638036
19	0xbd663634	-0.056204036
20	0xbc69f1be	-0.014278827
21	0x3e671534	0.22566682
22	0x3ea3d87e	0.32001108
23	0x3ed6fefd	0.41991416
24	0x3eab1f74	0.33422434
25	0x40438be5	3.0554135
26	0x3eaea4dd	0.34110156
27	0x4042056a	3.0315804
28	0x3dcf0016	0.10107438
29	0xbedaeb64	-0.42757714
30	0x400ed1cd	2.2315552
31	0x3f07dc63	0.5307066
32	0x3eb43e54	0.35203803
33	0x3ebddafb	0.3708113
34	0x3dcc84db	0.09986278
35	0x3ece724c	0.40321577
36	0x3ed03418	0.40664744
37	0x3ea71aad	0.3263754
38	0x3eb2f50b	0.34952578
39	0xbeff1215	-0.49818483
40	0x3ec7e497	0.39041588
41	0x3ee5d8b5	0.44891897
42	0x3ebe9834	0.37225497
43	0xbde86c8c	-0.11348829
44	0x3ec7c269	0.3901551
45	0xbdbd8b5f	-0.092550986
46	0xbec48bed	-0.38388005
47	0x4013ea89	2.31119
48	0x3e832464	0.256137
49	0x3e9b3e4f	0.30320975
50	0x3f1d48e0	0.61439323
51	0x3f09e568	0.5386567
52	0x3ea57e16	0.32322758
53	0x3ec2f8c7	0.38080427
54	0x3ed58dd3	0.41709766
55	0x40bb54ce	5.854102
56	0x3c75d774	0.015004981
57	0x3ea4ae9b	0.32164463
58	0x3f0226ee	0.5084065
59	0x3dfa7f70	0.12231338
60	0x40ad0cf5	5.4078317
61	0x3ea61c32	0.32443386
62	0x404017f7	3.0014627
63	0x3e29cc21	0.16581775
64	0x3eb80467	0.3594086
65	0xbf1d8fd9	-0.6154762
66	0xbf1e9284	-0.61942315
67	0xbc089729	-0.008336821
68	0xbeafe1b8	-0.34351897
69	0xbe8c3300	-0.2738266
70	0xb8497fc6	-4.8041133e-05
71	0xbef2ac9c	-0.47397316
72	0x3daf37cf	0.085555665
73	0xbebdecd2	-0.37094742
74	0xbe8c7d59	-0.27439383
75	0x3ee5fb09	0.44918087
76	0xb6873a44	-4.0300965e-06
77	0x403994d4	2.8997087
78	0xbeaf955f	-0.3429365
79	0xbee1d4ca	-0.44107658
80	0xbf068a54	-0.5255482
81	0xbec2440e	-0.37942547
82	0xbef991c3	-0.4874402
83	0xbdd13930	-0.10215986
84	0x3e86dc06	0.2633974
85	0xbf317864	-0.69324327
86	0xbece7564	-0.40323937
87	0xbeedfffc	-0.46484363
88	0xbe52baae	-0.20579025
89	0x4036729c	2.8507452
90	0x3904ea50	0.00012675789
91	0x40334da1	2.801613
92	0xbc598650	-0.0132766515
93	0x3dbebd19	0.09313411
94	0xc04ed44e	-3.231708
95	0xbec20696	-0.3789565
96	0xbef4493f	-0.47712132
97	0xbf344d64	-0.7043059
98	0xbe9c6711	-0.30547383
99	0xbf057799	-0.52135617
100	0xbf1c6dab	-0.6110484
101	0x3ce2ed56	0.027701061
102	0xbec17b33	-0.37789306
103	0xbf7a2792	-0.9771663
104	0xbf186fea	-0.5954577
105	0xbf1e79ae	-0.6190442
106	0xbf11e451	-0.5698901
107	0xbef368ee	-0.47540992
108	0xbe93bc5f	-0.28854653
109	0x3dd2b636	0.1028866
110	0x3eb2c739	0.3491762
111	0x402873bc	2.6320639
112	0xbe801fe4	-0.2502433
113	0xbf15636e	-0.5835484
114	0xbed29532	-0.41129452
115	0xbf1e0934	-0.6173279
116	0xbe7e0d9f	-0.24809884
117	0xbeb3e693	-0.35136852
118	0xbed8c36b	-0.42336592
119	0x3b3642a9	0.0027810729
120	0xb924b327	-0.00015706998
121	0xbe9b939d	-0.30386057
122	0xbf07b54d	-0.5301102
123	0xbd1d3f1f	-0.038390275
124	0x3b36f1ae	0.0027915048
125	0xbe9e315c	-0.30897033
126	0x40215e62	2.5213857
127	0xbe379aad	-0.17930098
128	0xbebca0ec	-0.36841524
129	0x3f136d8f	0.5758905
130	0x3f04d00e	0.51879966
131	0x3d83a51d	0.06427977
132	0xbf366842	-0.71252835
133	0xbf5cf768	-0.8631501
134	0x38fdb8cd	0.00012098402
135	0x3eddb24c	0.43300092
136	0x3c3b63dd	0.0114373835
137	0x3ec88ffc	0.3917235
138	0xbf633b4f	-0.8876237
139	0xbf128db2	-0.5724746
140	0xb6f2ec5f	-7.2396792e-06
141	0xc03d5c98	-2.9587765
142	0xbf57e881	-0.8433915
143	0x3ea28cbd	0.31748
144	0x3f06fda6	0.52730787
145	0xbf698afb	-0.9122769
146	0x3f0116e2	0.5042554
147	0xbd48b2b0	-0.048998535
148	0xbeaa6a80	-0.33284378
149	0xbf36f9c0	-0.7147484
150	0xbf1d71bd	-0.61501676
151	0x3f1b28a3	0.6060888
152	0xbf412379	-0.7544475
153	0xc037417a	-2.8633714
154	0x3b5757ec	0.0032858802
155	0xc03a14e9	-2.9075263
156	0xba2d0c00	-0.00066012144
157	0x3d13cd01	0.03608418
158	0x405d99d3	3.4625137
159	0x3f0a8063	0.5410215
160	0xbf426a83	-0.75943774
161	0xbf477703	-0.7791597
162	0x3e866a99	0.26253203
163	0xbf373103	-0.7155916
164	0x3f03ffe4	0.51562333
165	0xbf058612	-0.521577
166	0x3f072a27	0.52798694
167	0x3dddda6c	0.10832676
168	0x3ec8f9ec	0.39253175
169	0x3eb880d8	0.360358
170	0xbf354ec0	-0.7082329
171	0x3ee3917f	0.44446942
172	0xbf32793f	-0.69716257
173	0x3c730bb0	0.0148343295
174	0xbef4f36c	-0.47841966
175	0xc0293c33	-2.6442993
176	0xbf622b85	-0.88347656
177	0x3ee88d05	0.4542009
178	0x3f1779c9	0.59170204
179	0x3eea5760	0.45769787
180	0xbf5c711b	-0.86110085
181	0xbf493ca5	-0.7860816
182	0x3ef4e706	0.47832507
183	0x3e2734dd	0.1632876
184	0x392a0081	0.00016212651
185	0x3ede0c27	0.43368647
186	0x3ef6c6ca	0.4819854
187	0xbdb01137	-0.085970335
188	0x3dc91fad	0.09820495
189	0xbf434c1e	-0.7628802
190	0xc0190dc7	-2.391466
191	0xbf43b9ba	-0.7645527
192	0xbf0c79a3	-0.548731
193	0xbf27d600	-0.65560913
194	0x3f47e0ef	0.78077596
195	0x400a1d97	2.158056
196	0x3e167862	0.1469436
197	0x3e9e113f	0.30872533
198	0x3a978e24	0.0011562747
199	0x3eed12fc	0.46303546
200	0xbd470ef0	-0.04859823
201	0x3ebf5c4e	0.3737511
202	0x3e269409	0.16267408
203	0xbf037e83	-0.51364917
204	0x38db34d1	0.000104525716
205	0x4033a5bb	2.8069904
206	0x3e3d1830	0.18466258
207	0x3f25280a	0.6451422
208	0x3f171816	0.5902113
209	0x3ea62f0a	0.32457763
210	0x3f02c7ad	0.5108593
211	0x3cab11c0	0.020882487
212	0xbe9aa864	-0.30206597
213	0x3dee3243	0.116306804
214	0x3ebff305	0.37490097
215	0x3f412700	0.75450134
216	0x3eb40bb9	0.35165194
217	0x403b7ddb	2.9295566
218	0x3e54f8a1	0.2079797
219	0x40a51742	5.159089
220	0x3c8c1b38	0.017102823
221	0xbdfe0ee3	-0.12405183
222	0x40008601	2.008179
223	0x3efcf38d	0.49404564
224	0x3dfb0e05	0.122585334
225	0x3e88b7ef	0.2670283
226	0x3f38dd5b	0.7221276
227	0x3e9bc876	0.30426377
228	0x3f1511c5	0.5823024
229	0xbd131de0	-0.035917163
230	0x3eacf56a	0.33780986
231	0xbf02fc84	-0.5116656
232	0x3ed4e07d	0.4157752
233	0x3fc3e961	1.5305597
234	0x3e8bef23	0.27330884
235	0xbcc837da	-0.024440695
236	0x3e1cb91f	0.15304993
237	0xbfbccbb3	-1.4749664
238	0xbeddf340	-0.43349648
239	0xbe73b4ef	-0.2379949
240	0x3ea0db4c	0.3141731
241	0x3ebefc6d	0.3730196
242	0x3f1aa732	0.6041137
243	0x3edbce45	0.4293081
244	0x3df3d438	0.11905712
245	0x3e984595	0.29740587
246	0x3f3af819	0.73034817
247	0x4065e815	3.5922902
248	0x3c419653	0.011815625
249	0x3ecff1e1	0.40614226
250	0x3ed6d7e9	0.419616
251	0x3e1fa2fa	0.15589514
252	0x4056a559	3.353842
253	0x3e8cea75	0.27522627
254	0x40ba162c	5.8152065
255	0x3e7a259a	0.24428406

r_to_mu_sigma.hidden_to_mu.bias f4 [16]
0	0x40c6ace2	6.208604
1	0xbf5a527c	-0.8528211
2	0x3efca190	0.49342012
3	0x40c80fec	6.2519436
4	0x40c8b311	6.2718587
5	0xc0ccdc71	-6.4019094
6	0x40ca8d84	6.329775
7	0xc0ca336a	-6.318776
8	0xc0c9b777	-6.3036456
9	0x40cbc643	6.367952
10	0xc0ce5275	-6.4475656
11	0xc0c9c37c	-6.305113
12	0x3ed9c915	0.42536226
13	0xc0c689d1	-6.2043233
14	0x3f0fb189	0.5613027
15	0x40c9e740	6.3094788

r_to_mu_sigma.hidden_to_sigma.weight f4 [16, 64]
0	0x3efed090	0.49768496
1	0x3f1b1556	0.6057943
2	0x3f1afabe	0.6053885
3	0x3f10a77c	0.5650556
4	0x3ed30bfc	0.4122008
5	0x3ef9883d	0.48736754
6	0x3e395a52	0.1810086
7	0x3ec47e1f	0.38377473
8	0xbd4a7ed4	-0.04943736
9	0x3ea6f6bf	0.32610127
10	0x3ed3e959	0.41388968
11	0xbec63ed2	-0.38719803
12	0x3f3f7359	0.7478538
13	0x3f468cbd	0.775585
14	0x3edf6882	0.4363442
15	0x3ee0b768	0.43889928
16	0x3f1a52ce	0.602826
17	0x3f0cdef5	0.55027705
18	0x3eaa96d5	0.333182
19	0x3bca4800	0.006173134
20	0x3f349e54	0.7055409
21	0x3f099e0a	0.53756773
22	0x3ee7ae44	0.45250142
23	0x3ed14150	0.40870142
24	0x3f042f42	0.5163461
25	0x3f212d6a	0.6295992
26	0x3d083f56	0.033263527
27	0x3d9e4ef4	0.07729903
28	0xbbeca580	-0.0072218776
29	0x3d2f9bf2	0.04287333
30	0x3dfe14ca	0.12406309
31	0x3f07c713	0.5303814
32	0x3f0fef4b	0.5622451
33	0x3ed8bac4	0.4232999
34	0x3f32d2d4	0.6985295
35	0x3f1a742f	0.6033353
36	0x3ef5b78c	0.47991598
37	0x3f4d0e36	0.8009981
38	0x3ecad435	0.39615026
39	0x3f23a126	0.6391777
40	0x3f07ab9f	0.5299625
41	0x3eb0abf8	0.34506202
42	0x3ee2617d	0.44215003
43	0x3ec1dc27	0.37863275
44	0x3ec0f344	0.37685597
45	0xbdbc81f2	-0.092044726
46	0x3f1dc3e8	0.61627054
47	0x3ef011e4	0.4688865
48	0x3f00a1de	0.5024699
49	0x3f035fb6	0.5131792
50	0x3f028fa3	0.5100042
51	0x3ea7557c	0.32682407
52	0x3f034e7e	0.51291645
53	0x3f19b375	0.60039455
54	0x3f1f8d1d	0.62324697
55	0x3f295d4b	0.6615798
56	0x3f02eb67	0.51140445
57	0x3eb6031d	0.3554925
58	0x3eca7de6	0.39549178
59	0x3da831ec	0.08212647
60	0x3f00b3f3	0.5027458
61	0x3f05bec1	0.5224419
62	0x3dcab62d	0.098980285
63	0x3f0901c4	0.5351832
64	0x3f0c16a5	0.5472205
65	0xbec8f15a	-0.39246637
66	0xbf0b23b2	-0.5435134
67	0xbedcee1b	-0.4315041
68	0x3f21e3e6	0.6323837
69	0x3f411afa	0.7543179
70	0x3fa198ed	1.2624794
71	0xbe9ffb3f	-0.31246373
72	0xbb0fbd00	-0.002193272
73	0xbf083ce7	-0.5321793
74	0x3f24cc84	0.64374566
75	0xbec79017	-0.3897712
76	0x3f99a33d	1.2002941
77	0xbeaf5b43	-0.34249315
78	0x3f22240f	0.6333627
79	0x3e49a9c3	0.19693665
80	0xbf12dfee	-0.5737294
81	0x3efadbb0	0.48995733
82	0xbeea282a	-0.45733768
83	0xbc2ff3a0	-0.010739237
84	0x3effe072	0.49975926
85	0x3f322f88	0.69603777
86	0xbf02d2b5	-0.51102763
87	0xbf0dad75	-0.553428
88	0x3f5e508a	0.8684164
89	0xbcfad5fd	-0.030619616
90	0xbd95aa14	-0.073078305
91	0xbde5cdba	-0.1122088
92	0xbdc39db8	-0.09551567
93	0x3ff1eb36	1.8899906
94	0x3e920eda	0.28526956
95	0xbedfdb32	-0.4372192
96	0x3f4d2a6d	0.8014286
97	0x3f3d8de0	0.7404461
98	0xbd8e644f	-0.06952726
99	0x3ef2775c	0.4735669
100	0xbef30687	-0.47465917
101	0x3efe56db	0.4967564
102	0xbeb691f0	-0.35658216
103	0x3e16f591	0.14742114
104	0xbf1825c4	-0.59432626
105	0xbed7217b	-0.4201773
106	0x3f0d0530	0.5508604
107	0x3f514396	0.8174375
108	0x3efb421e	0.4907388
109	0xbdc19d86	-0.09453873
110	0x3ecbf5d1	0.3983598
111	0xbebf24e4	-0.37332833
112	0x3eda1bf0	0.4259944
113	0xbeeee660	-0.46660137
114	0xbed6c4fb	-0.4194716
115	0xbeadca75	-0.33943525
116	0x3f0ab981	0.54189306
117	0x3f5d4aaa	0.86442053
118	0xbf1448b6	-0.5792345
119	0x3ed427b4	0.4143654
120	0xbebbfdd7	-0.36717102
121	0xbe9b5231	-0.30336145
122	0xbea1a724	-0.3157283
123	0x3d1d2fb0	0.038375556
124	0x3f2a6d02	0.6657258
125	0x3ed1fdb5	0.41013876
126	0x3f408200	0.75198364
127	0x3f19c211	0.60061747
128	0x3eeca12d	0.46216717
129	0x3efdc6c5	0.49565712
130	0x3f0807d3	0.5313694
131	0x3ed116b2	0.40837628
132	0x3ebf15ab	0.3732122
133	0x3eae8c97	0.34091637
134	0xbe3cfc7a	-0.18455687
135	0x3f01aafb	0.5065152
136	0x3cf55f78	0.02995275
137	0x3f279329	0.65458924
138	0x3f1949cb	0.59878224
139	0x3c4e0e60	0.012576669
140	0x3ef49a1c	0.47773826
141	0x3f0a191e	0.53944576
142	0x3e35e21d	0.17762037
143	0x3f1254af	0.57160467
144	0x3eeb2f76	0.45934647
145	0x3f2f8961	0.68569
146	0x3f0262c9	0.50931984
147	0xba00c300	-0.000491187
148	0x3f2879f7	0.65811104
149	0x3e64d1bc	0.22345632
150	0xbdfab574	-0.12241641
151	0x3ec9697a	0.39338285
152	0x3f21f0b8	0.6325793
153	0x3efa7f52	0.48925263
154	0x3c71f240	0.01476723
155	0x3de91648	0.11381203
156	0xbd84f132	-0.06491317
157	0xbd9fad75	-0.07796756
158	0x3d9ff115	0.078096546
159	0x3f39bc4c	0.72552943
160	0x3f4f21ad	0.8091076
161	0x3f45796c	0.771384
162	0x3ee060f2	0.43823963
163	0x3eafb1a9	0.3431523
164	0x3f15a22f	0.584506
165	0x3f0663b4	0.52495885
166	0x3f35cc06	0.7101444
167	0xbf13e5ab	-0.5777232
168	0x3eff73aa	0.49892932
169	0x3f0950c3	0.5363886
170	0x3f2db1ee	0.67849624
171	0x3ee1c3b6	0.44094628
172	0x3f35bd62	0.709921
173	0xbd9b09dc	-0.0757024
174	0x3f055467	0.5208191
175	0x3f23c55c	0.6397302
176	0x3f360346	0.71098745
177	0x3f1fa1ad	0.6235607
178	0x3ee25c6c	0.44211137
179	0x3f30e36d	0.69097024
180	0x3f11ce7a	0.56955683
181	0x3f2b004f	0.66797346
182	0x3f0209b8	0.5079608
183	0x3efafeed	0.49022618
184	0x3f009117	0.5022139
185	0x3f26510e	0.6496743
186	0x3f16e2bb	0.58939713
187	0xbd432bf0	-0.047649324
188	0x3f0e84e6	0.55671537
189	0x3f1653b9	0.587215
190	0x3f017f48	0.5058484
191	0x3e68d16b	0.22736137
192	0x3ef3fd70	0.47654295
193	0xbecd3d8c	-0.4008602
194	0xbf02bc44	-0.5106852
195	0xbeb8294e	-0.35969013
196	0x3fa3d0ca	1.2798092
197	0x3f9b8bb2	1.2152007
198	0x3f9d64bf	1.229637
199	0xbecbbffb	-0.39794907
200	0xbd5cc67c	-0.053900227
201	0xbeb413c6	-0.35171336
202	0x3f93754f	1.1520175
203	0xbed2f841	-0.41205028
204	0x3f890d10	1.0707111
205	0xbf1097c8	-0.564816
206	0x3f9a46de	1.2052877
207	0xbe2d83b8	-0.16944778
208	0x3ec0df7a	0.376705
209	0x3f8463b7	1.034293
210	0xbf096fc7	-0.53686184
211	0xbc9445c8	-0.01809968
212	0x3f26938c	0.6506889
213	0x3f986a54	1.1907449
214	0xbf029cd7	-0.5102057
215	0xbefe9f56	-0.4973094
216	0x3f5171ad	0.8181408
217	0xbe14ad08	-0.14519131
218	0xbdbd704a	-0.09249933
219	0x3d9d1f5e	0.076719984
220	0xbd9bb2e2	-0.076024786
221	0x3fe8dc0f	1.8192157
222	0xbc8fc518	-0.017550036
223	0xbf05aff2	-0.52221596
224	0x3f3f7c2d	0.7479885
225	0x3f9c04a3	1.2188915
226	0xbe018e71	-0.12651993
227	0x3ed68312	0.41896874
228	0xbf01a626	-0.5064415
229	0x3f102254	0.5630238
230	0xbf0afeeb	-0.54295224
231	0x3f2936ad	0.66099054
232	0x3ee0b577	0.43888447
233	0xbea7c1e8	-0.32765126
234	0x3f80945e	1.0045278
235	0x3f936ae1	1.1516992
236	0x3f7e133e	0.9924811
237	0xbd18cd68	-0.037305266
238	0x3f061861	0.5238095
239	0xbeb511b4	-0.3536507
240	0x3f840d9d	1.0316654
241	0xbe9f7827	-0.31146356
242	0x3f1881cb	0.5957305
243	0xbee04d9a	-0.43809205
244	0x3f7d8ba8	0.99041224
245	0x3f50b57c	0.81526923
246	0xbf1df057	-0.61694854
247	0x3e8839dd	0.26606646
248	0xbebc2c2e	-0.36752456
249	0xbefe1479	-0.49624994
250	0xbf093144	-0.535908
251	0x3d1b2b8c	0.037883326
252	0x3ee0533c	0.43813503
253	0x3f7cf77c	0.9881513
254	0x3f7b7d50	0.98238087
255	0x3f935483	1.1510166

r_to_mu_sigma.hidden_to_sigma.bias f4 [16]
0	0x3edd4008	0.43212914
1	0xbec03a79	-0.3754461
2	0x3f303924	0.6883719
3	0xbeb0f7c0	-0.34564018
4	0x3f0b3075	0.54370815
5	0xbebe0d6c	-0.37119615
6	0xbf2cfbb7	-0.67571586
7	0x3eecb738	0.46233535
8	0xbf18711b	-0.59547585
9	0xbeea660f	-0.4578099
10	0xbe6b0b2e	-0.22953483
11	0xbe495c8e	-0.19664213
12	0x3f1bbca5	0.60834724
13	0x3f112af5	0.5670617
14	0x3eee128f	0.46498534
15	0x3f134e95	0.5754178

xz_to_y.xz_to_hidden.0.weight f4 [32, 17]
0	0x4034a29e	2.8224254
1	0x4056e352	3.3576245
2	0xc047f4f0	-3.1243248
3	0x40158350	2.3361397
4	0x401756cb	2.3646724
5	0x40549e98	3.3221798
6	0xc0151328	-2.3292942
7	0x40268ff7	2.602537
8	0xc023e323	-2.5607383
9	0xc0560255	-3.3438923
10	0x4031f9a8	2.7808628
11	0xc0232c5b	-2.5495822
12	0xc02147b7	-2.5200021
13	0x406ddf87	3.716768
14	0xc0717d36	-3.7732673
15	0xc0731ca4	-3.798623
16	0x4014adad	2.3231003
17	0x40095888	2.1460285
18	0x4044d524	3.075509
19	0x4063a036	3.5566535
20	0xc045f510	-3.0930824
21	0x4041671f	3.021919
22	0x401b2add	2.4244912
23	0x40446210	3.0684853
24	0xc03921cb	-2.8926876
25	0xc04823b1	-3.1271784
26	0xc02a629a	-2.6622682
27	0xc05c87be	-3.445785
28	0xc07501c3	-3.8282325
29	0xc0467c9a	-3.101355
30	0xc03aa36a	-2.916224
31	0xc057bf6c	-3.3710585
32	0x4047ffc4	3.1249857
33	0x4053ce4e	3.3094668
34	0xbf2b168b	-0.6683127
35	0x3e70316d	0.23456354
36	0x3f3be56f	0.7339696
37	0xbee6591e	-0.44989866
38	0x3e6950b0	0.22784686
39	0xbf17004c	-0.5898483
40	0xbf014ea0	-0.505106
41	0x3d995657	0.07487171
42	0xbe8c4706	-0.27397937
43	0x3f04b8c4	0.5184443
44	0x3f0b3faa	0.5439402
45	0xbec154ab	-0.3775991
46	0xbe1c65f1	-0.15273263
47	0x3f65b5b4	0.8973038
48	0xbf140175	-0.57814723
49	0x3e62769c	0.22115558
50	0x3d719924	0.058983937
51	0xbecd67c6	-0.40118235
52	0x3f0a9283	0.5412981
53	0x40a2d12f	5.088035
54	0xc0bbcd5d	-5.8688188
55	0x3f64c222	0.89358723
56	0xbeecb336	-0.46230477
57	0x40ad9d46	5.4254484
58	0xc0a9e54d	-5.309241
59	0x3e6fcf5b	0.23418944
60	0xbedc4d69	-0.4302781
61	0xc0ad30c0	-5.412201
62	0xbf50e717	-0.81602615
63	0xbf7e6da3	-0.9938604
64	0xc0a8384e	-5.256873
65	0xbf1d0080	-0.6132889
66	0x40ce5c20	6.4487457
67	0x3e838a36	0.25691384
68	0xc0ab1e2b	-5.3474326
69	0xc0acbb1f	-5.397842
70	0xbed9944a	-0.42495948
71	0x3f2cdbd7	0.6752295
72	0xc0b03370	-5.506279
73	0xc0bf4722	-5.977433
74	0x3f2d750a	0.6775671
75	0xbe56bf59	-0.20971431
76	0x40b56580	5.66864
77	0x40c0403f	6.0078425
78	0xbe0ce186	-0.13757905
79	0x40bae9e9	5.8410535
80	0x40b43055	5.6309
81	0x3ebfa62f	0.37431476
82	0x40a674d4	5.2017612
83	0x3eb5da7f	0.35518262
84	0xc0aa854f	-5.328773
85	0x401103f2	2.2658658
86	0x3fec7dce	1.8475893
87	0xc031b818	-2.7768612
88	0x4075f983	3.843354
89	0x404aefd7	3.1708887
90	0x4024715e	2.5694194
91	0xc00ecbcc	-2.2311888
92	0x40261de4	2.5955744
93	0xc0319634	-2.7747927
94	0xc02b5946	-2.6773238
95	0x400c0590	2.1878395
96	0xc067100d	-3.6103547
97	0xc03e3a5c	-2.972312
98	0x40332064	2.798852
99	0xc0366027	-2.8496187
100	0xc071b092	-3.776402
101	0x40425596	3.0364738
102	0xc0ced129	-6.4630322
103	0xc0bfe184	-5.996279
104	0x3f56911d	0.83815175
105	0x3f24fe1d	0.64450246
106	0xc0ad148b	-5.4087577
107	0xc0c6a92f	-6.2081523
108	0x3f11a9a4	0.56899476
109	0x3ee6527c	0.44984806
110	0x40af45af	5.4772563
111	0x40bf9f95	5.98823
112	0xbef3a273	-0.47584876
113	0x409eae63	4.9587874
114	0x40b1451f	5.5396876
115	0xbe8c324b	-0.2738212
116	0x40b10001	5.5312505
117	0x3d2ab8bf	0.041680094
118	0xc09ecce8	-4.962513
119	0xc077ee93	-3.8739364
120	0xc0618c57	-3.5241907
121	0xc00f2ed8	-2.237234
122	0x403e46b6	2.9730659
123	0xc03f17b2	-2.9858212
124	0xc058bb08	-3.3864155
125	0xc02f5875	-2.739774
126	0x403e0194	2.9688463
127	0x40300b97	2.7507074
128	0x4052a3db	3.291251
129	0x403018fd	2.7515252
130	0x40139b79	2.3063643
131	0x401ed37e	2.4816585
132	0x40443c61	3.0661852
133	0x4039940c	2.899661
134	0xc03360fc	-2.8027945
135	0xc0251368	-2.5793095
136	0x40b751aa	5.7287188
137	0x40c0af6b	6.0214133
138	0x3e2ce875	0.1688555
139	0x3f81a889	1.0129558
140	0x40d189c6	6.548068
141	0x40b1eada	5.5599184
142	0xbeb7ef66	-0.35924834
143	0x3f8caa0a	1.0989392
144	0xc0e3b004	-7.1152363
145	0xc0b5ce0c	-5.681402
146	0x3e096a7e	0.1341953
147	0xc0d6008b	-6.6875663
148	0xc0da22ad	-6.816733
149	0xbe284888	-0.16433918
150	0xc0d58ac4	-6.673189
151	0x3eff8967	0.49909517
152	0x40dcbbb6	6.897914
153	0xc0b0e6e0	-5.528183
154	0xc0b1c962	-5.555833
155	0xbe123f59	-0.14281978
156	0x3f8271b6	1.0190952
157	0xc0b12ba3	-5.5365767
158	0xc0b77af5	-5.7337594
159	0x3f15c10b	0.58497685
160	0xbf189bea	-0.59612906
161	0x40a05dbf	5.0114436
162	0x40a91ac8	5.284519
163	0x3e39a9a2	0.18131116
164	0x40b5cec1	5.6814885
165	0x40b81783	5.75287
166	0x3ef7b45c	0.4837979
167	0x40ab3759	5.3505063
168	0x3dddf93b	0.108385526
169	0xc0c27f82	-6.078065
170	0x40bc0d9b	5.876661
171	0x40c04e9e	6.009597
172	0xbcd362c9	-0.02580394
173	0x3f3aa804	0.7291262
174	0x40d7dc0d	6.7456117
175	0x40b63aad	5.6946626
176	0xbf5e7f48	-0.86912966
177	0x3f61d532	0.88215935
178	0xc0d2d341	-6.588288
179	0xc0b6fb48	-5.718174
180	0x3ed622e9	0.4182351
181	0xc0df2512	-6.973275
182	0xc0d9df9b	-6.8085456
183	0xbf319e42	-0.6938211
184	0xc0c2e447	-6.090366
185	0x3f7e19ae	0.99257934
186	0x40c97c9a	6.29646
187	0x402395c6	2.5560164
188	0x404eab7f	3.2292173
189	0xc03494c9	-2.8215811
190	0x405a63c6	3.4123397
191	0x405b1656	3.4232383
192	0x404c78a2	3.1948628
193	0xc0528b09	-3.289736
194	0x404e37d9	3.2221587
195	0xc04c10ea	-3.1885324
196	0xc0408f21	-3.008736
197	0x4042267e	3.0335994
198	0xc063ec79	-3.5613081
199	0xc04d353f	-3.206375
200	0x403c48dc	2.941947
201	0xc04e0952	-3.2193189
202	0xc015b839	-2.339369
203	0x406e119d	3.719825
204	0x40b66ea2	5.701005
205	0x40c2cd0d	6.0875306
206	0xbeb4e767	-0.35332796
207	0x3fad501b	1.3540071
208	0x40d890b8	6.767666
209	0x40c15177	6.0411944
210	0xbf4fbc91	-0.81147105
211	0x3e943bee	0.28951973
212	0xc0d26141	-6.574372
213	0xc0d854f3	-6.76037
214	0x3ed3c039	0.41357592
215	0xc0d865be	-6.7624197
216	0xc0d0d38f	-6.525825
217	0xbea247c7	-0.31695387
218	0xc0c6c593	-6.211618
219	0x3f56c6fd	0.8389738
220	0x40ca3fc6	6.320285
221	0x40219579	2.524748
222	0x405165e7	3.2718446
223	0x405df691	3.4681742
224	0xc05f2d7a	-3.4871507
225	0x404eff66	3.2343383
226	0x400da774	2.2133455
227	0x401f69b3	2.4908264
228	0xc00c75ae	-2.1946826
229	0xc052c0e0	-3.2930222
230	0xc022fe62	-2.5467763
231	0xc0273247	-2.6124437
232	0xc0673b0e	-3.6129794
233	0xc049ca1d	-3.152961
234	0xc0255943	-2.583573
235	0xc05571d7	-3.3350732
236	0x404b050a	3.1721826
237	0x40677ee7	3.6171205
238	0x402e97ee	2.728023
239	0x405bf75a	3.4369721
240	0x40717a05	3.7730725
241	0xc0652f8f	-3.5810277
242	0x405a4cad	3.41093
243	0x4007e830	2.1235466
244	0x40208eb6	2.5087104
245	0xc01ee84a	-2.4829278
246	0xc04a2e83	-3.1590889
247	0xc01976c4	-2.3978739
248	0xc0292610	-2.6429482
249	0xc04f3380	-3.2375183
250	0xc05cb77f	-3.4486997
251	0xc02716ce	-2.610767
252	0xc03e62ce	-2.9747806
253	0x405fd7f0	3.4975548
254	0x4063912b	3.5557353
255	0x40231b41	2.5485384

xz_to_y.xz_to_hidden.0.bias f4 [32]
0	0x4043b971	3.0581934
1	0x401b7507	2.4290178
2	0xbf244c2d	-0.64178735
3	0xbf01ee13	-0.507539
4	0xc0a8a316	-5.269908
5	0x4004f4e1	2.0774462
6	0xc0dcaa73	-6.895807
7	0xc07a1cad	-3.9080002
8	0x40a3c094	5.117258
9	0xc0b1b1e7	-5.5529666
10	0x40b5a49a	5.676343
11	0x401e8fd1	2.4775279
12	0x40b4a843	5.6455398
13	0x4016e2c5	2.357591
14	0x401f4af2	2.4889493
15	0x40087d60	2.1326523
16	0x402d7080	2.7099915
17	0x40107305	2.2570202
18	0xbe4cb070	-0.1998918
19	0x3fff7434	1.9957337
20	0x401c290e	2.4400058
21	0xc0c94e3f	-6.2908015
22	0x4011da73	2.278958
23	0x401300e4	2.2969294
24	0x402061fc	2.5059805
25	0xbf1d99fa	-0.61563075
26	0xbf1491af	-0.58034796
27	0x4016b189	2.354586
28	0xbf22767d	-0.6346205
29	0xc05824f2	-3.377255
30	0x40234644	2.5511637
31	0xc0c2e465	-6.09038
