seed-AuNP-phasemaps/pretraining/tune/32_2_128_1.50E-03_16/model.pt (torch, 230880 bytes, 20 tensors)

xy_to_r.input_to_hidden.0.weight f4 [128, 2]
-0.17076993 -0.35317802 -1.2400789 0.16070682 -2.0375624 0.5484259 -0.52783155 -0.4555544
-1.0189646 -0.046735648 0.16962774 -0.510562 0.33048955 -0.7552131 -0.99236566 0.3435786
0.45507908 0.55425495 -0.33130428 -0.37988022 -0.43811613 -0.7835839 1.0003425 -0.12804759
0.5936323 -0.02202515 1.2693022 -0.107098915 0.33063525 -3.5433562 -0.3539091 -0.016754974
-0.30916303 -0.79453576 -0.7822641 -2.0562975 0.49162188 -2.216591 0.19794376 -0.72141963
0.6466315 0.41043687 0.11919087 0.0761083 0.63716674 0.4974565 0.10745736 -0.5162165
0.81402683 0.5670787 -0.37418655 -0.532817 0.4432414 0.40197304 -1.8521074 0.4445206
0.23347162 -1.534813 -1.3573499 0.36506823 0.27818596 -0.42249483 -2.1530116 -0.4908946
-0.2678008 -0.0038520296 0.33191428 -0.899115 0.7699924 0.21585158 -1.0688963 -0.07259279
-0.7555075 0.72372144 -0.75845253 -0.5906493 -0.020276727 0.0218105 0.13745363 0.124105275
-1.4985363 -0.72954273 -1.5520213 0.21819016 0.96788746 -1.7715557 0.0633162 0.05440444
-0.16154677 -0.50884414 -0.8847293 0.2561408 0.13409205 -0.0052241115 -0.5163684 -0.50866544
0.4656226 -0.3982212 -0.36568427 -0.3448054 -1.3865173 -0.6886242 0.009970332 0.025144983
0.48994827 -3.0258071 1.257666 -0.30067167 0.13117333 -0.12585413 -0.9031487 -0.72045565
-0.18561186 -0.1730848 -0.4107425 0.07181399 0.44193304 -0.55276984 0.6844909 0.15487446
0.71913165 0.5572075 -0.43708372 -0.8214254 -1.9210038 0.4095817 -0.33884236 -0.19301032
-0.0190057 -0.2994505 -0.7009793 0.095832385 0.14660208 -0.4717523 -0.69543004 0.4289467
0.1392108 -0.046228424 -0.2735013 0.0051743854 0.6943097 0.2765104 -1.0761582 -0.15359987
-0.8391231 0.32147676 -1.2103748 -0.5114878 -0.070594706 -0.2673667 -1.1385868 0.61506426
-0.35483432 0.91614777 -0.72103316 -0.38055778 -1.4062841 0.5245799 -1.0164772 -0.08329176
-1.2326643 0.6539672 0.9530329 0.20201284 0.112847514 -0.027348915 -1.0822612 -0.33958098
0.02575223 0.013175442 -0.9843824 0.08847663 -0.30242732 0.05361881 0.43652898 -0.3431366
0.397758 0.2848703 0.62777054 -0.2797874 -0.69635284 -0.21829319 -1.8737265 -0.67680603
0.71008897 0.15509926 0.19428761 -0.45478532 -0.64622444 -0.4708728 -1.522224 -0.76549107
-1.3279252 0.17669612 -0.5223413 -0.5363401 0.14535272 -0.6007095 -1.6380589 0.563852
-0.75899774 0.062093113 -0.48619205 -0.64262426 0.6069728 -1.0079896 0.5001354 -1.0102385
-0.098986425 -0.20955893 0.982427 0.44484928 0.0057524545 -0.083190374 -0.064717926 0.088983916
-3.3240516 0.1792678 -0.7559197 -0.7223017 0.39771867 0.026025439 0.43822405 -0.6617505
0.19648507 0.030526403 -1.7054256 0.34519988 -1.5210235 0.5554905 -0.064118005 0.0038005305
-0.47764525 -0.29457504 0.12648262 0.026658662 0.12844709 -1.45925 -2.4271708 0.3328437
-0.73459375 0.21095946 0.5314792 0.049807917 -0.50113666 -2.6430197 -0.70357674 -1.8934695
-0.8921072 0.19663855 -0.21406159 -0.018635634 -0.15631063 -0.015296878 1.0483265 0.43090695
00000000: 50de 2ebe c0d3 b4be e8ba 9ebf 5490 243e
00000010: 6c67 02c0 a465 0c3f f81f 07bf 6d3e e9be
00000020: 6f6d 82bf e16d 3fbd e5b2 2d3e 31b4 02bf
00000030: ed35 a93e a555 41bf ad0b 7ebf 89e9 af3e
00000040: 2000 e93e a7e3 0d3f b7a0 a9be a97f c2be
00000050: c250 e0be f498 48bf 390b 803f e81e 03be
00000060: 49f8 173f 166e b4bc 7f78 a23f ad56 dbbd
00000070: 0649 a93e 59c6 62c0 9333 b5be ba41 89bc
00000080: 9e4a 9ebe b266 4bbf 7642 48bf 619a 03c0
00000090: ddb5 fb3e a0dc 0dc0 c5b1 4a3e f5ae 38bf
000000a0: a489 253f c824 d23e 581a f43d abde 9b3d
000000b0: 5c1d 233f 9eb2 fe3e 9b12 dc3d c426 04bf
000000c0: 1064 503f 122c 113f 6195 bfbe b266 08bf
000000d0: 89f0 e23e 69cf cd3e db11 edbf 3498 e33e
000000e0: 2f13 6f3e c174 c4bf a4bd adbf 39ea ba3e
000000f0: 646e 8e3e 3e51 d8be f1ca 09c0 8956 fbbe
00000100: 301d 89be 5572 7cbb abf0 a93e 672c 66bf
00000110: 391e 453f 3208 5d3e 98d1 88bf 87ab 94bd
00000120: f168 41bf cf45 393f f229 42bf cb34 17bf
00000130: 611b a6bc efab b23c a5c0 0c3e e82a fe3d
00000140: 0ad0 bfbf 50c3 3abf a2a8 c6bf 3e6d 5f3e
00000150: 79c7 773f 56c2 e2bf edab 813d 31d7 5e3d
00000160: 846c 25be 9c43 02bf 9f7d 62bf e324 833e
00000170: 6d4f 093e 062f abbb b830 04bf e637 02bf
00000180: 1666 ee3e a6e3 cbbe f83a bbbe 558a b0be
00000190: 6679 b1bf ad49 30bf 9a5a 233c dafc cd3c
000001a0: 80da fa3e d3a6 41c0 33fb a03f a3f1 99be
000001b0: 4d52 063e e8df 00be c134 67bf c86f 38bf
000001c0: 0911 3ebe 243d 31be d74c d2be 3713 933d
000001d0: 0c45 e23e 5382 0dbf cc3a 2f3f 6997 1e3e
000001e0: 0319 383f 27a5 0e3f 70c9 dfbe ef48 52bf
000001f0: 74e3 f5bf b1b4 d13e bf7c adbe 7fa4 45be
00000200: d7b1 9bbc 9351 99be 6173 33bf c543 c43d
00000210: db1e 163e 8489 f1be b407 32bf e79e db3e
00000220: 478d 0e3e 045a 3dbd 5d08 8cbe e48d a93b
00000230: 48be 313f c592 8d3e 8dbf 89bf 4949 1dbe
00000240: c5d0 56bf 9a98 a43e 90ed 9abf ddf0 02bf
00000250: f593 90bd 4ae4 88be 36bd 91bf da74 1d3f
00000260: d8ac b5be a988 6a3f a195 38bf 78d8 c2be
00000270: 1e01 b4bf de4a 063f ed1b 82bf df94 aabd
00000280: f2c7 9dbf 656a 273f f7f9 733f 74dc 4e3e
00000290: 991c e73d d50a e0bc 8987 8abf 8fdd adbe
000002a0: 57f6 d23c cfdd 573c 7c00 7cbf 3c33 b53d
000002b0: c1d7 9abe 669f 5b3d ba80 df3e 9aaf afbe
000002c0: f0a6 cb3e 85da 913e 92b5 203f 4b40 8fbe
000002d0: 2e44 32bf 4088 5fbe 45d6 efbf 2943 2dbf
000002e0: 64c8 353f 57d2 1e3e 55f3 463e 9fd9 e8be
000002f0: f76e 25bf 3d16 f1be 3cd8 c2bf 39f7 43bf
00000300: 74f9 a9bf d4ef 343e 29b8 05bf 964d 09bf
00000310: 58d7 143e 19c8 19bf eaab d1bf 9b58 103f
00000320: ad4d 42bf 5955 7e3d 2aee f8be 0683 24bf
00000330: 9262 1b3f ce05 81bf e008 003f 7f4f 81bf
00000340: 65b9 cabd 9e96 56be 5680 7b3f 49c3 e33e
00000350: 167f bc3b b75f aabd d58a 84bd 333d b63d
00000360: 43bd 54c0 fa91 373e f483 41bf c4e8 38bf
00000370: c8a1 cb3e 4d33 d53c e75e e03e 7b68 29bf
00000380: 6233 493e 8212 fa3c 634b dabf 0abe b03e
00000390: e6b0 c2bf a034 0e3f 4d50 83bd 5212 793b
000003a0: eb8d f4be 8ad2 96be a984 013e 4463 da3c
000003b0: a287 033e b4c8 babf c456 1bc0 7d6a aa3e
000003c0: 560e 3cbf c205 583e 050f 083f 6303 4c3d
000003d0: 7e4a 00bf 3c27 29c0 9b1d 34bf 355d f2bf
000003e0: 2361 64bf 9e5b 493e f632 5bbe c2a9 98bc
000003f0: e50f 20be c29f 7abc 902f 863f d69f dc3e

xy_to_r.input_to_hidden.0.bias f4 [128]
-0.10287219 0.22464809 -0.22661124 -0.18108502 0.46323332 -0.42549914 0.23123316 -0.1345562
-1.0652642 0.015141823 0.40946397 -0.45854548 -0.09416184 -0.7964758 0.10855542 -0.605062
0.44267634 0.43546796 0.050885286 0.1989967 -0.691125 -0.42913067 -0.8635818 -0.092165574
-0.5918908 0.0125273075 -0.7941754 -0.049910646 0.3341025 0.2693636 -0.49541834 0.3064582
0.00011900499 0.29537597 -0.7647948 0.3453424 0.024180753 0.71948993 -0.08356024 -0.5675888
0.2805475 -0.73101866 -0.29407355 -0.31464788 -0.5345555 0.5704551 -0.13387518 0.71220994
-0.55611855 -0.081388175 0.4297843 -0.110523365 0.057742115 -0.7627525 -0.12597468 0.5148568
-0.51487696 -0.2747378 -0.52205175 -0.6943099 -0.76807857 0.62550324 -0.40619946 -0.3503471
-0.41798538 0.40217018 -0.12697333 -0.75571024 -0.13722408 -0.016313937 -0.8411709 0.5591238
0.36816335 0.15221113 -0.6000944 0.20602612 -0.24907835 0.4508005 -0.5027734 0.4097418
0.011877075 -0.744982 -0.111680195 0.7487407 -0.69844633 0.36190575 -0.1658035 -0.4485668
-0.94513154 -0.7006783 0.12130096 0.48379388 -0.6593988 -0.35690364 0.5947537 0.30326286
-0.61338824 -0.3064682 -0.12146136 -0.056478783 -0.19129267 -0.16541213 -0.2866859 0.1086165
-0.6483772 -0.92716485 -0.28000215 -0.35142356 0.1751496 0.41487724 -0.46000358 -0.4117184
-0.2744589 0.21321489 -0.1395914 -0.011708663 -0.41575497 -0.20511064 0.27287295 -0.06587574
0.43158212 -0.6528436 0.40627998 0.4975037 0.52259153 0.00059919496 0.00060843583 -0.83478165
00000000: a8ae d2bd 260a 663e c70c 68be 5a6e 39be
00000010: eb2c ed3e 06db d9be 63c8 6c3e 1ac9 09be
00000020: 945a 88bf 6915 783c 43a5 d13e 79c6 eabe
00000030: ecd7 c0bd d7e5 4bbf 4e52 de3d 58e5 1abf
00000040: 79a6 e23e a8f5 de3e 176d 503d cac5 4b3e
00000050: 91ed 30bf 04b7 dbbe b213 5dbf 4ec1 bcbd
00000060: 2886 17bf 563f 4d3c 144f 4bbf 1b6f 4cbd
00000070: 7c0f ab3e 07ea 893e 79a7 fdbe 17e8 9c3e
00000080: 5192 f938 853b 973e 98c9 43bf b8d0 b03e
00000090: b716 c63c 7e30 383f a221 abbd 804d 11bf
000000a0: eca3 8f3e 0a24 3bbf cf90 96be 8719 a1be
000000b0: a1d8 08bf 5809 123f 9316 09be 6453 363f
000000c0: c95d 0ebf d8ae a6bd b00c dc3e 135a e2bd
000000d0: ff82 6c3d bf43 43bf 82ff 00be a8cd 033f
000000e0: face 03bf 6faa 8cbe 2fa5 05bf 4bbe 31bf
000000f0: cca0 44bf fb20 203f 60f9 cfbe b260 b3be
00000100: 2e02 d6be 40e9 cd3e 4c05 02be 3a76 41bf
00000110: 7884 0cbe cea4 85bc fa56 57bf bd22 0f3f
00000120: e87f bc3e 3cdd 1b3e c99f 19bf 83f8 523e
00000130: 650e 7fbe 53cf e63e c2b5 00bf adc9 d13e
00000140: 1098 423c 24b7 3ebf 96b8 e4bd 78ad 3f3f
00000150: 61cd 32bf b64b b93e 65c8 29be 8caa e5be
00000160: 24f4 71bf a75f 33bf a36c f83d d5b3 f73e
00000170: 5cce 28bf 13bc b6be c741 183f 4545 9b3e
00000180: 0307 1dbf 66e9 9cbe bcc0 f8bd 4c56 67bd
00000190: 3ae2 43be cc61 29be 7fc8 92be 5472 de3d
000001a0: 0cfc 25bf ad5a 6dbf 715c 8fbe caed b3be
000001b0: 6b5a 333e ca6a d43e 9785 ebbe c1cc d2be
000001c0: e085 8cbe 0155 5a3e 0cf1 0ebe b1d5 3fbc
000001d0: d6dd d4be 8608 52be 01b6 8b3e dce9 86bd
000001e0: 55f8 dc3e c220 27bf ee03 d03e ceb8 fe3e
000001f0: 8fc8 053f 4b13 1d3a 707f 1f3a 40b4 55bf

xy_to_r.input_to_hidden.2.weight f4 [128, 128]
0.064435884 -0.0867038 0.030302783 -0.014319729 0.0498267 -0.06993474 -0.02834426 -0.03767278
0.080755144 0.03705225 0.031321175 -0.07625919 0.067941405 -0.08249627 0.07703301 -0.050209202
0.031487804 0.044168748 0.028107416 0.03416352 0.029897561 0.076885335 0.07602369 0.0047838567
-0.06876821 0.008319819 0.05034772 -0.016237378 0.08158176 0.014041201 0.028767362 0.046442054
-0.03266499 0.013969267 0.04296713 0.059796598 -0.059331983 -0.07799471 -0.07340178 -1.6226536e-06
0.057417862 -0.064570144 -0.057105187 0.0751146 -0.036231346 -0.07367447 -0.028112506 -0.013064005
0.070150845 0.016138406 0.087106384 -0.036388546 -0.08233563 0.0012195191 -0.0014665838 -0.08738607
0.057905152 0.05208537 0.05453483 -0.072407685 0.04107948 -0.08821566 0.047754653 0.06849774
0.0159869 -0.06588741 -0.04266908 -0.005475107 -0.03467227 -0.045185994 -0.03062923 -0.060143698
-0.07380723 0.06183618 0.07945581 0.027229888 -0.08488347 0.038002696 0.032930333 0.04531879
-0.025456222 0.07258721 -0.02303909 0.023099413 0.069050804 0.024528084 0.06408553 -0.007405844
-0.013583708 0.051990446 -0.076375216 0.022435514 -0.040777802 -0.045938566 -0.06545344 0.023412637
-0.034058634 -0.018365826 -0.0582139 0.0070163226 0.03963304 0.06639179 -0.050682154 0.052877847
0.07011348 0.064138494 -0.05040136 -0.01976566 0.06936777 0.031003505 -0.063503064 0.079617284
-0.07050198 -0.083941 -0.03831507 -0.036204174 0.036360666 -0.01659392 -0.027304234 0.019641811
-0.058997486 0.0052275686 0.023372578 -0.034929328 0.03824993 -0.019276777 -0.052560166 -0.04726772
0.08587063 -0.06366499 0.038044177 0.0076227845 0.07302106 0.0052368194 0.0017634593 0.0029405751
-0.048950117 0.0031694935 0.02575546 -0.052434575 -0.0033436874 -0.13528156 -0.038564075 -0.08108537
-0.13290393 -0.07476323 -0.1288118 0.0020424905 -0.06360255 -0.0061465437 -0.039049074 -0.018143289
-0.04509429 -0.016113678 -0.080050044 -0.06516308 0.0034755648 -0.07048759 -0.06744814 -0.035977047
0.04538366 -0.09556979 0.048876308 -0.045678344 0.046888847 -0.10734252 -0.038971957 -0.036641527
-0.072475486 -0.06893183 -0.0133666005 -0.08926279 0.017645368 -0.021635765 -0.090019196 -0.07013393
0.032810457 -0.058033343 -0.040952288 -0.023805505 0.012982329 -0.122427285 -0.051304635 0.06325026
-0.040450837 -0.04865375 -0.07237287 -0.065488935 0.06385153 0.0033313835 -0.06315161 -0.04444872
0.010476663 -0.077328265 -0.07042414 -0.0063835825 -0.094754405 0.07677863 -0.084785335 -0.075824864
-0.08440508 -0.08899964 -0.009933264 -0.08510678 -0.0649705 0.016346797 0.07948413 -0.00083730253
-0.023390858 -0.09394336 -0.03757525 -0.1306112 -0.032683954 0.06566687 0.0052702148 0.004487449
0.024998054 0.06648779 -0.023049098 -0.036961533 0.045191206 0.07275283 -0.12538187 -0.046742763
-0.026582228 0.060207732 -0.1229016 0.062251423 -0.0955482 -0.032402214 -0.079143755 0.013350612
-0.051878177 -0.032619856 -0.004861386 -0.022636967 0.03209768 -0.047532912 -0.14050055 -0.031769462
0.009679212 -0.025420113 -0.022805734 -0.060289577 0.06848998 0.018593512 -0.085847996 -0.005381668
-0.1248421 0.021528283 0.05438495 -0.02503853 -0.07953784 0.071527556 0.0053614345 0.026862254
00000000: f6f6 833d c391 b1bd 8b3d f83c 4c9d 6abc
00000010: 1517 4c3d f239 8fbd 3932 e8bc c64e 1abd
00000020: f462 a53d 1ac4 173d a24a 003d c72d 9cbd
00000030: dd24 8b3d cef3 a8bd 7cc3 9d3d 2aa8 4dbd
00000040: 5bf9 003d 4aea 343d 8641 e63c 0cef 0b3d
00000050: bbeb f43c 0f76 9d3d 4fb2 9b3d e6c1 9c3b
00000060: 59d6 8cbd da4f 083c 6939 4e3d 4004 85bc
00000070: 5614 a73d 110d 663c 88a9 eb3c 063a 3e3d
00000080: b9cb 05bd 5adf 643c 4dfe 2f3d 47ed 743d
00000090: 1806 73bd b1bb 9fbd ac53 96bd f4c9 d9b5
000000a0: fe2e 6b3d 5a3d 84bd 21e7 69bd afd5 993d
000000b0: 5267 14bd a4e2 96bd 334c e6bc 690a 56bc
000000c0: 3fab 8f3d b134 843c d564 b23d 280c 15bd
000000d0: 959f a8bd 45d8 9f3a 633a c0ba 78f7 b2bd
000000e0: f42d 6d3d 7857 553d ea5f 5f3d 7b4a 94bd
000000f0: f542 283d 69aa b4bd 629a 433d 8b48 8c3d
00000100: f6f6 823c faef 86bd c6c5 2ebd 8768 b3bb
00000110: 8304 0ebd f314 39bd 27ea fabc 3d59 76bd
00000120: 3f28 97bd ef47 7d3d bab9 a23d 3711 df3c
00000130: 62d7 adbd b7a8 1b3d f5e1 063d 32a0 393d
00000140: 9189 d0bc 9aa8 943d 79bc bcbc fb3a bd3c
00000150: 826a 8d3d 1fef c83c 463f 833d b9ac f2bb
00000160: 338e 5ebc eff3 543d 9c6a 9cbd afca b73c
00000170: a006 27bd 142a 3cbd 740c 86bd dccb bf3c
00000180: 1181 0bbd ee73 96bc b371 6ebd 2ee9 e53b
00000190: 4156 223d 6bf8 873d 1798 4fbd 7196 583d
000001a0: a897 8f3d 0b5b 833d a871 4ebd 98eb a1bc
000001b0: b010 8e3d 10fb fd3c e50d 82bd 630e a33d
000001c0: 5863 90bd 42e9 abbd 43f0 1cbd d44a 14bd
000001d0: ecee 143d f9ef 87bc 21ad dfbc dde7 a03c
000001e0: 59a7 71bd 064c ab3b d977 bf3c 0e12 0fbd
000001f0: f5ab 1c3d 55ea 9dbc 5449 57bd cc9b 41bd
00000200: f1dc af3d ca62 82bd 36d4 1b3d 8dc8 f93b
00000210: 118c 953d a099 ab3b e023 e73a aab6 403b
00000220: eb7f 48bd 47b7 4f3b 1dfd d23c a3c5 56bd
00000230: c421 5bbb 4087 0abe 5df5 1dbd 1610 a6bd
00000240: f817 08be 771d 99bd 3ee7 03be 4edb 053b
00000250: 0e42 82bd f268 c9bb ecf1 1fbd 3ca1 94bc
00000260: cab4 38bd d500 84bc 47f1 a3bd 3974 85bd
00000270: 4dc6 633b cc5b 90bd 4022 8abd ab5c 13bd
00000280: 37e4 393d 18ba c3bd 8632 483d 3719 3bbd
00000290: 850e 403d 65d6 dbbd 0fa1 1fbd 6d15 16bd
000002a0: 076e 94bd 222c 8dbd 96ff 5abc 69cf b6bd
000002b0: 058d 903c 7d3d b1bc fc5b b8bd 61a2 8fbd
000002c0: 4264 063d 5fb4 6dbd 96bd 27bd c303 c3bc
000002d0: d6b3 543c 28bb fabd cf24 52bd 5a89 813d
000002e0: c7af 25bd 2849 47bd 3a38 94bd 101f 86bd
000002f0: 97c4 823d 5753 5a3b a255 81bd dc0f 36bd
00000300: 4fa6 2b3c 485e 9ebd 883a 90bd 5f2d d1bb
00000310: 990e c2bd 1d3e 9d3d efa3 adbd 114a 9bbd
00000320: 92dc acbd 7145 b6bd 21bf 22bc 774c aebd
00000330: 410f 85bd b8e9 853c 93c8 a23d 6c7e 5bba
00000340: 2f9e bfbc 6065 c0bd 81e8 19bd f1be 05be
00000350: 9cdf 05bd 5a7c 863d c4b1 ac3b 730b 933b
00000360: b8c8 cc3c c02a 883d 76d1 bcbc fa64 17bd
00000370: 6a1a 393d 70ff 943d 1b64 00be 5775 3fbd
00000380: f9c2 d9bc 629c 763d d6b3 fbbd 59fb 7e3d
00000390: c6ae c3bd 2fb8 04bd 1f16 a2bd 86bc 5a3c
000003a0: 367e 54bd 669c 05bd 434c 9fbb 2971 b9bc
000003b0: db78 033d dfb1 42bd 60df 0fbe b220 02bd
000003c0: 8f95 1e3c d73d d0bc 17d3 babc 34f2 76bd
000003d0: 7a44 8c3d 6c51 983c 13d1 afbd b458 b0bb
000003e0: 37ad ffbd 155c b03c c1c2 5e3d 9a1d cdbc
000003f0: bce4 a2bd 0a7d 923d f9ae af3b 3b0e dc3c

xy_to_r.input_to_hidden.2.bias f4 [128]
-0.046439074 -0.056644317 0.36761016 0.3198651 -0.05570023 0.28376603 0.009983925 0.33635208
-0.20633107 -0.044119496 -0.4888859 -0.07241621 0.5991733 0.32190198 -0.066778295 0.49731374
0.02154802 -0.7894233 0.0074389665 0.16166432 -1.0889676 -0.08455485 0.4393871 -0.10189657
-0.22870411 0.2941741 -0.035619363 0.05421243 -0.07910889 0.073648 -0.050573453 -0.47154367
-0.21123862 0.42710894 0.26059407 -0.051715147 -0.1507452 -0.04861993 0.3522155 -0.079027385
-0.083687246 0.11087508 0.41357544 -0.03609681 -0.24009562 -0.088222854 0.4290241 0.011185695
-0.09972091 0.020737048 -0.08548679 -0.010192658 0.000622008 0.08648568 -0.073672056 -0.15306593
-0.03698382 -0.017362336 0.1050483 0.14449036 -0.036624078 0.016287921 -0.030498954 -0.10825503
-0.037312597 -0.04237359 0.12769143 -0.14613052 -0.029928004 0.065729 -0.85633296 -0.1458189
-0.027467916 -0.0048539005 -0.083136246 -0.9436391 -0.10135438 0.1069167 -0.30933788 -0.04787318
-0.15067527 0.19927375 -0.04738226 -0.81377286 -0.12007675 -0.06568383 -0.010118847 -0.0564222
-0.08179213 -0.53978145 0.32522354 0.20436716 -0.24584284 -0.11548511 0.29270998 -0.12685132
-0.06973247 -0.9533258 0.004544538 0.0903507 0.30749765 -0.11874884 -0.031871736 0.53775513
-0.38690293 0.017761247 -0.011513571 0.3353754 0.3770933 -0.81071424 -0.6665762 0.43561253
-0.38386282 0.05010023 -0.09312965 -0.6622075 -0.07860827 0.42494732 0.36773682 0.52967644
-0.14878094 -0.5584597 -0.25065753 -0.0002897581 0.0118892435 -0.0057362136 0.3995838 -0.0068149404
00000000: e636 3ebd df03 68bd 6637 bc3e 5cc5 a33e
00000010: ed25 64bd c849 913e 9e93 233c 5736 ac3e
00000020: 7448 53be a5b6 34bd 414f fabe f34e 94bd
00000030: 6c63 193f 56d0 a43e 0fc3 88bd e89f fe3e
00000040: 7985 b03c a517 4abf 93c2 f33b 558b 253e
00000050: 4a63 8bbf 182b adbd 59f7 e03e 26af d0bd
00000060: 6931 6abe fd9d 963e 9ce5 11bd da0d 5e3d
00000070: d703 a2bd c3d4 963d 1c26 4fbd 2c6e f1be
00000080: f04e 58be 06ae da3e 966c 853e 43d3 53bd
00000090: f35c 1abe b125 47bd 9755 b43e 1cd9 a1bd
000000a0: 3864 abbd 7912 e33d 29c0 d33e 40da 13bd
000000b0: a0db 75be 2fae b4bd 0ca9 db3e 3544 373c
000000c0: 7a3a ccbd bee0 a93c b313 afbd 1bff 26bc
000000d0: 400e 233a 671f b13d 60e1 96bd 51bd 1cbe
000000e0: 597c 17bd 753b 8ebc 9023 d73d 48f5 133e
000000f0: 2103 16bd 3f6e 853c f1d8 f9bc d0b4 ddbd
00000100: 18d5 18bd ee8f 2dbd 8bc1 023e 3da3 15be
00000110: 932b f5bc ed9c 863d a338 5bbf 8d51 15be
00000120: 6504 e1bc 780d 9fbb 5643 aabd 5592 71bf
00000130: e392 cfbd 25f7 da3d 8961 9ebe ab16 44bd
00000140: 9e4a 1abe 6b0e 4c3e e713 42bd 6b53 50bf
00000150: cdea f5bd 3e85 86bd 85c9 25bc f71a 67bd
00000160: a282 a7bd 1e2f 0abf b383 a63e a045 513e
00000170: 3abe 7bbe 7583 ecbd 15de 953e 50e5 01be
00000180: e6cf 8ebd 290d 74bf 59ea 943b ca09 b93d
00000190: 5570 9d3e 9832 f3bd f08b 02bd 52aa 093f
000001a0: 2418 c6be 0980 913c 6ba3 3cbc 53b6 ab3e
000001b0: 5f12 c13e f88a 4fbf bda4 2abf 9b08 df3e
000001c0: ab89 c4be e635 4d3d c2ba bebd 6e86 29bf
000001d0: 5ffd a0bd b292 d93e 0048 bc3e e098 073f
000001e0: 085a 18be 37f7 0ebf 2f56 80be adea 97b9
000001f0: 1acb 423c d9f6 bbbb 3f96 cc3e dd4f dfbb

xy_to_r.input_to_hidden.4.weight f4 [32, 128]
-0.080215134 0.03961195 -0.003917967 0.09733225 0.03644322 0.23739782 0.037275728 0.20133111
0.05509251 0.015148381 0.22257476 0.04196995 -0.12631227 0.28243223 -0.08645384 -0.13579415
-0.10995798 -0.12383118 0.029728286 0.4411384 0.4500682 0.046156835 0.49500903 0.15447749
-0.0242339 -0.27477065 0.016368667 -0.048111312 -0.20659657 -0.16562812 -0.15064698 0.3920798
-0.67276853 -0.10823628 0.23079722 -0.016802525 0.025025547 0.04741321 -0.17645764 0.06780286
0.00037218697 -0.0007772156 -1.1342086 -0.03782829 0.16019689 -0.07049386 -0.15907705 -0.013136402
0.021836555 -0.08642151 -0.080314666 0.14350972 -0.03661909 -0.096180566 -0.01572317 0.0147281885
-0.38884285 -0.008152129 0.16656913 -0.011869422 -0.032537904 -0.09920618 -0.09466355 0.07647225
0.081275195 0.116869405 -0.285194 0.012069758 -0.07128464 -0.25376615 0.2726265 0.038358726
-0.09333958 -0.09219326 -0.02714821 1.0585176 0.0032793372 -0.3272519 -0.11664044 -0.030695539
0.015993802 -0.101637304 -0.071854204 -0.12015435 -0.09853411 -0.05587373 -0.02154151 0.035878975
-0.083561696 0.3294395 0.4142179 -0.07731235 -0.16230184 -0.059337653 0.19367644 -0.2929404
-0.040640004 0.54877716 0.12098913 -0.2165579 -0.36408803 -0.08287992 -0.8128139 0.16879854
-0.21441267 -0.024276817 -0.041546356 0.08468025 0.37277094 1.0903118 0.17339906 0.30426356
0.13541397 0.05490833 0.01193062 -0.78293484 -0.0693584 0.17217606 0.021297447 0.4615198
-0.15618731 -0.19875397 0.33633333 0.11099407 -0.110506654 -0.20718682 0.119750716 -0.09629363
-0.026506206 -0.02196326 -1.4781296 -0.45173836 0.051397108 -0.37259653 0.029181067 -0.7658995
-0.08263846 -0.10589562 0.49600062 -0.01807044 -0.3379655 -1.6107492 -0.08878258 -0.09684271
-1.0182825 0.2670394 -0.056701317 0.55201405 1.1409649 -0.06864846 -0.3045686 -0.05036801
-0.12424061 0.118530475 -0.010209015 -0.34329554 -0.18762307 0.80397165 0.12674537 0.05350083
0.03539487 -1.2099802 -0.8787628 0.022981701 -0.44952062 0.00996695 0.52170473 -0.03505699
0.0677628 -0.42033452 0.06484205 0.34999993 0.050175857 -1.595633 -0.56631947 0.06706017
0.022259463 -0.604239 0.036446165 0.0014567478 0.1244001 -0.04098919 0.047630426 0.016830342
0.24729945 0.7144035 -0.06443401 -0.5179075 0.07037458 -0.128379 0.0020724665 0.0095550055
-0.101229064 -0.0028555153 0.27167088 -0.07619562 -0.05532508 0.2902526 0.6747116 -0.011170702
0.0050799428 -0.0022172162 -0.23753884 0.6586145 0.03811777 0.25155696 0.024946654 -0.0045327027
-0.15186198 -0.39653733 0.028682005 0.8798812 0.02508859 0.067821994 0.06217899 -0.12860453
0.00442326 0.13957381 -0.4270495 0.46800238 0.40865883 0.055694807 -0.7766555 0.286338
0.006220654 0.43725783 -0.06331346 -0.24935983 -0.31638563 -0.005600858 0.0014593158 -0.1788892
0.137308 -0.25935066 -0.20281695 0.019053806 -0.5559898 -0.37492442 0.8680827 0.3450162
0.2954233 -0.71635854 0.028915187 0.58793014 0.02328742 -0.28255695 -0.575074 0.024353283
-0.0643559 0.502429 0.124097385 0.10193154 -0.044613324 -0.42996103 0.37151524 0.055716865
00000000: d547 a4bd 2440 223d 4a62 80bb 2156 c73d
00000010: 7c45 153d 6a18 733e 6fae 183d be29 4e3e
00000020: afa8 613d ea30 783c a3ea 633e afe8 2b3d
00000030: 0158 01be f59a 903e b60e b1bd 9f0d 0bbe
00000040: a631 e1bd 349b fdbd bc88 f33c e4dc e13e
00000050: 576f e63e f30e 3d3d d371 fd3e 592f 1e3e
00000060: 2c86 c6bc bdae 8cbe 9517 863c 5e10 45bd
00000070: 0d8e 53be 6b9a 29be 3443 1abe afbe c83e
00000080: 8f3a 2cbf fcaa ddbd 1b56 6c3e 73a5 89bc
00000090: 6002 cd3c 5b34 423d 50b1 34be 3adc 8a3d
000000a0: 1722 c339 0ebe 4bba bf2d 91bf d6f1 1abd
000000b0: a70a 243e 165f 90bd 18e5 22be 103a 57bc
000000c0: 93e2 b23c c3fd b0bd 047c a4bd 36f4 123e
000000d0: e6fd 15bd 51fa c4bd e1cd 80bc 804e 713c
000000e0: 6916 c7be 8290 05bc 1991 2a3e f777 42bc
000000f0: 7746 05bd 9c2c cbbd f7de c1bd 7c9d 9c3d
00000100: 9c73 a63d 3a59 ef3d f304 92be 3cc0 453c
00000110: aefd 91bd a3ed 81be b395 8b3e 0a1e 1d3d
00000120: d228 bfbd d2cf bcbd ec65 debc 817d 873f
00000130: 26ea 563b 908d a7be 2fe1 eebd 3675 fbbc
00000140: 6f05 833c 3827 d0bd 4c28 93bd 7c13 f6bd
00000150: 40cc c9bd dadb 64bd d277 b0bc d5f5 123d
00000160: 6522 abbd 4bac a83e 5e14 d43e f055 9ebd
00000170: 7432 26be 0a0c 73bd 1e53 463e 49fc 95be
00000180: 2276 26bd a97c 0c3f 26c9 f73d 5bc1 5dbe
00000190: bf69 babe f3bc a9bd 9214 50bf 86d9 2c3e
000001a0: ff8e 5bbe 2de0 c6bc 832c 2abd d76c ad3d
000001b0: d5db be3e 568f 8b3f 868f 313e 6fc8 9b3e
000001c0: f6a9 0a3e 8fe7 603d a678 433c 6b6e 48bf
000001d0: c70b 8ebd ec4e 303e fc77 ae3c 534c ec3e
000001e0: 91ef 1fbe 2986 4bbe e233 ac3e dc50 e33d
000001f0: 5051 e2bd c828 54be dd3f f53d 9835 c5bd
00000200: 8b23 d9bc 4bec b3bc 5a33 bdbf 404a e7be
00000210: c685 523d f9c4 bebe 220d ef3c fd11 44bf
00000220: 5a3e a9bd cedf d8bd cbf3 fd3e 7608 94bc
00000230: d009 adbe 082d cebf a4d3 b5bd 7955 c6bd
00000240: 1557 82bf 63b9 883e a43f 68bd cb50 0d3f
00000250: 230b 923f 9097 8cbd 6af0 9bbe b04e 4ebd
00000260: dc71 febd 1bc0 f23d b643 27bc 6fc4 afbe
00000270: 4320 40be 16d1 4d3f 8ac9 013e b023 5b3d
00000280: 36fa 103d a2e0 9abf 99f6 60bf 1f44 bc3c
00000290: 9127 e6be 6b4c 233c 718e 053f eb97 0fbd
000002a0: 39c7 8a3d 1636 d7be e9cb 843d 3133 b33e
000002b0: 3385 4d3d b43d ccbf 50fa 10bf d856 893d
000002c0: 7a59 b63c 68af 1abf 9348 153d 58f0 be3a
000002d0: 7bc5 fe3d 48e4 27bd 1f18 433d c9df 893c
000002e0: 113c 7d3e 26e3 363f faf5 83bd 9695 04bf
000002f0: 8c20 903d c975 03be 38d2 073b 998c 1c3c
00000300: 2f51 cfbd 9923 3bbb 7218 8b3e 730c 9cbd
00000310: 8d9c 62bd fd9b 943e e6b9 2c3f 5205 37bc
00000320: a675 a63b b74e 11bb 623d 73be f69a 283f
00000330: 6121 1c3d 13cc 803e ed5c cc3c 1187 94bb
00000340: b581 1bbe f106 cbbe 86f6 ea3c e53f 613f
00000350: 9686 cd3c 42e6 8a3d 66af 7e3d e8b0 03be
00000360: fff0 903b 70ec 0e3e 3ba6 dabe 029e ef3e
00000370: bb3b d13e 3d20 643d e5d2 46bf e59a 923e
00000380: a1d6 cb3b 42e0 df3e 7daa 81bd 2f58 7fbe
00000390: 4cfd a1be 6787 b7bb 8346 bf3a bb2e 37be
000003a0: 789a 0c3e 9cc9 84be 3faf 4fbe ba16 9c3c
000003b0: 5955 0ebf 18f6 bfbe ab3a 5e3f f7a5 b03e
000003c0: b941 973e 4663 37bf 8bdf ec3c 9782 163f
000003d0: 42c5 be3c 4eab 90be 0d38 13bf 8980 c73c
000003e0: 07cd 83bd 309f 003f c526 fe3d 7cc1 d03d
000003f0: 76bc 36bd da23 dcbe 3f37 be3e 5e37 643d

xy_to_r.input_to_hidden.4.bias f4 [32]
0.3102948 0.06779067 -0.2292853 -0.28421915 -0.16889633 -0.10780571 -0.3602648 0.4457849
-0.10289363 0.085695826 -0.15086168 0.03216471 0.004957541 0.0066665383 0.13248877 -0.30817243
0.026436321 -0.39131647 0.23573239 0.19553703 0.18538848 -0.31089187 -0.12492751 0.28521982
-0.2859601 0.05439438 0.19515492 0.13883124 0.2539787 0.10623475 -0.2624443 -0.2506853
00000000: f6de 9e3e d6d5 8a3d c4c9 6abe 2c85 91be
00000010: 29f3 2cbe 3dc9 dcbd a174 b8be eb3d e43e
00000020: e5b9 d2bd 4b81 af3d 7c7b 1abe 25bf 033d
00000030: de72 a23b fa72 da3b 23ab 073e c7c8 9dbe
00000040: fc90 d83c a25a c8be d563 713e dc3a 483e
00000050: 7ad6 3d3e 382d 9fbe ffd9 ffbd 5508 923e
00000060: 5d69 92be a4cc 5e3d b1d6 473e c729 0e3e
00000070: 7f09 823e 9b91 d93d 195f 86be d359 80be

r_to_mu_sigma.r_to_hidden.weight f4 [32, 32]
-0.115771085 0.4090356 0.46589154 -0.48882654 -0.6874097 0.91083926 0.5979948 0.30856547
-0.21456116 0.62891626 0.2502381 -0.91971564 0.104808725 0.3193769 0.19822146 0.3121519
0.10144244 0.25356025 -0.13912918 -0.11911849 0.65562224 -0.32640567 -0.0634574 0.49823946
0.8347487 -0.7867898 -0.3370328 1.618051 -0.5129753 -0.09900784 0.27535763 0.8122438
-0.48553923 0.09087974 0.067992635 0.72497106 -0.20429784 0.28701204 -0.4343105 0.3271263
0.81044626 -0.54136205 -1.0375925 -0.04391316 0.31941584 0.37446415 0.083136365 1.0334481
-0.73342806 0.1765195 0.085686535 -0.19538781 1.0023192 0.20859951 -0.045260087 -0.46225023
-0.66435754 -0.22269045 -0.04857173 -0.08152705 0.023666918 -1.0739069 0.16226648 -0.37842017
0.054488175 1.1834477 0.37965068 0.01922121 0.028977636 0.23997769 -0.04784724 -0.74040276
0.66491103 0.41917774 0.9515531 0.12689699 0.09047416 -1.1865063 -0.20586027 -0.45304003
1.5234739 -0.6923767 -0.08801908 -0.104908876 -0.06620044 -0.07124905 0.036616508 -0.45747626
-0.5085389 -0.27138466 -0.077738136 -0.8690967 -0.28625074 0.8007115 0.16069815 0.46376804
0.08878823 -0.038442507 0.29890338 -0.6325778 0.17753568 -0.30438438 -0.0060405773 -0.9265965
-0.13264084 0.744183 0.14222313 -0.15370929 0.08084828 0.25457394 0.15849443 0.8687494
0.77423567 -0.04228241 0.027296975 0.49591506 -0.036562406 0.5404889 0.16605192 0.030691033
-0.3605306 0.32674456 0.012339163 0.9249552 -0.085703075 -0.23840687 0.48543993 0.3406211
-0.39351654 0.3216747 0.43950307 0.37571087 -0.29422465 0.6227296 0.83608484 -0.39604446
0.17508376 0.25129467 0.05416621 0.06529376 -0.4479971 0.19984722 -0.3790951 -0.5501217
-0.059196774 -0.24154724 -0.29677573 0.11215055 0.26283878 0.101689614 0.10985207 -0.6147935
0.7698564 -0.2939569 -0.38367102 0.29487714 -0.65362394 0.2847605 0.1200132 -0.0006033095
0.14161035 -0.03818828 0.12000623 -0.59137243 0.29713306 -0.2779377 -0.22642785 0.11226203
-0.0056410804 0.25599462 0.1278049 -0.09069383 -0.09639587 -0.015935354 -0.41548485 0.501863
0.6351281 -0.39746755 0.051012777 -0.39199638 -0.50928754 -0.055300336 0.40869364 0.19945511
-0.33991998 -0.25654775 -0.065051444 -0.293589 0.2379878 -0.06951101 -0.7609037 0.12546727
0.02789668 -0.11192494 -0.058807906 0.25180185 0.25473478 0.04882668 0.16134538 -0.29833582
-0.38134208 0.18162793 -0.3838528 0.059483655 -0.32896212 0.32085186 -0.52117866 -0.81371564
-0.39743614 -0.80122125 -0.012096866 0.23257045 0.033145893 -0.43582034 0.45639047 0.7473543
0.08009366 -0.2107472 -0.33043665 0.22826368 -0.34294596 -0.6216352 0.124985084 -0.047152195
-0.06875795 0.13778365 -0.22564434 -0.24789071 -2.0657732 0.6589413 -0.19651477 0.24375452
-0.1723505 -1.0388112 -0.47780937 -0.16574201 0.02068463 -0.09230927 -0.01935003 -0.023800828
-0.17388386 0.05746433 -0.005355255 0.053543594 0.27108264 -0.108459115 -0.21380094 0.7527365
0.47132912 -0.15160617 0.4187846 -0.36521974 0.36726832 0.033725195 -0.89991105 0.06621772
00000000: 6419 edbd 1d6d d13e 5689 ee3e 7947 fabe
00000010: 15fa 2fbf c32c 693f 3016 193f 4bfc 9d3e
00000020: ecb5 5bbe a800 213f 351f 803e 7c72 6bbf
00000030: f5a5 d63d 5e85 a33e 91fa 4a3e 60d2 9f3e
00000040: 0ec1 cf3d a6d2 813e e177 0ebe 65f4 f3bd
00000050: dcd6 273f a51e a7be f4f5 81bd 3e19 ff3e
00000060: 17b2 553f 0e6b 49bf 908f acbe 4c1c cf3f
00000070: 5952 03bf 9fc4 cabd adfb 8c3e 36ef 4f3f
00000080: 9998 f8be 281f ba3d b93f 8b3d b497 393f
00000090: 7433 51be 3ef3 923e f25d debe 197d a73e
000000a0: 6879 4f3f b496 0abf d5cf 84bf 49de 33bd
000000b0: 798a a33e c4b9 bf3e 6643 aa3d 0748 843f
000000c0: f1c1 3bbf 87c1 343e 6c7c af3d be13 48be
000000d0: ff4b 803f 1c9b 553e a462 39bd 10ac ecbe
000000e0: 5613 2abf f708 64be 26f3 46bd a7f7 a6bd
000000f0: 20e1 c13c c875 89bf 2f29 263e 4ac0 c1be
00000100: fe2e 5f3d 377b 973f 9361 c23e cd75 9d3c
00000110: 8262 ed3c b6bc 753e 78fb 43bd 098b 3dbf
00000120: 9c37 2a3f 779e d63e fc98 733f 49f1 013e
00000130: 844a b93d 70df 97bf 09cd 52be ddf4 e7be
00000140: 3101 c33f 993f 31bf 5943 b4bd 77da d6bd
00000150: 1994 87bd 06eb 91bd 31fb 153d 543a eabe
00000160: 9b2f 02bf eef2 8abe 2c35 9fbd 1f7d 5ebf
00000170: 758f 92be 6efb 4c3f 0e8e 243e 0173 ed3e
00000180: 9bd6 b53d e475 1dbd dd09 993e 9ef0 21bf
00000190: eacb 353e 45d8 9bbe 09f0 c5bb 6e35 6dbf
000001a0: 00d3 07be c782 3e3f f1a2 113e f865 1dbe
000001b0: c893 a53d 8457 823e 5d4c 223e 5c66 5e3f
000001c0: 4f34 463f 5230 2dbd e89d df3c 94e8 fd3e
000001d0: 76c2 15bd 7b5d 0a3f 8409 2a3e c36b fb3c
000001e0: 7897 b8be 104b a73e 332a 4a3c ddc9 6c3f
000001f0: 1885 afbd ee20 74be 958b f83e e465 ae3e
00000200: 007b c9be 8cb2 a43e 8c06 e13e 2d5d c03e
00000210: 9da4 96be 356b 1f3f a809 563f 57c6 cabe
00000220: 2849 333e b2a9 803e 63dd 5d3d bcb8 853d
00000230: e05f e5be c0a4 4c3e c118 c2be c7d4 0cbf
00000240: 5178 72bd 2958 77be fdf2 97be 30af e53d
00000250: ce92 863e a542 d03d 1ffa e03d 1b63 1dbf
00000260: 4f15 453f 8581 96be 8770 c4be 23fa 963e
00000270: e653 27bf 21cc 913e 7bc9 f53d 6a27 1eba
00000280: 4e02 113e 506b 1cbd d4c5 f53d 2f64 17bf
00000290: d321 983e da4d 8ebe b4dc 67be a3e9 e53d
000002a0: d0d8 b8bb ba11 833e 4adf 023e b0bd b9bd
000002b0: 336b c5bd dc8a 82bc 6eba d4be 187a 003f
000002c0: c197 223f de80 cbbe c6f2 503d c0b3 c8be
000002d0: ab60 02bf 9b82 62bd 4b40 d13e f63d 4c3e
000002e0: fe09 aebe 3a5a 83be b139 85bd 4c51 96be
000002f0: 13b3 733e ca5b 8ebd 96ca 42bf 7e7a 003e
00000300: 9487 e43c e738 e5bd 8fe0 70bd 2cec 803e
00000310: 996c 823e 7cfe 473d b937 253e 79bf 98be
00000320: 453f c3be acfc 393e 5b88 c4be 22a5 733d
00000330: b96d a8be b246 a43e f76b 05bf ab4f 50bf
00000340: c07c cbbe d61c 4dbf ef31 46bc f326 6e3e
00000350: fdc3 073d d823 dfbe 03ac e93e 9d52 3f3f
00000360: 2508 a43d 1dce 57be fe2e a9be f4bd 693e
00000370: 9d96 afbe 7c23 1fbf 2ef8 ff3d a922 41bd
00000380: f8d0 8cbd 2817 0d3e 4f0f 67be 10d7 7dbe
00000390: a135 04c0 61b0 283f 2b3b 49be c99a 793e
000003a0: a67c 30be c4f7 84bf 6ea3 f4be 46b8 29be
000003b0: d072 a93c a40c bdbd f483 9ebc f4f9 c2bc
000003c0: 9c0e 32be b85f 6b3d 237b afbb 8750 5b3d
000003d0: 58cb 8a3e d01f debd a2ee 5abe 57b3 403f
000003e0: 0d52 f13e a63e 1bbe ef6a d63e 15fe babe
000003f0: 980a bc3e 6e23 0a3d 9260 66bf 289d 873d

r_to_mu_sigma.r_to_hidden.bias f4 [32]
-0.2432368 -0.79909796 -0.7983766 0.41293767 -1.0797641 0.44197994 0.5691258 0.46130452
-1.4437629 0.36699158 0.0865076 -0.2847894 0.60276514 0.30209458 0.12574755 -0.7685219
-1.4157345 -0.10952214 -1.4038961 0.3413408 -0.96204746 -0.22004366 0.05078156 0.14106116
-0.9371276 0.68313986 -1.4509534 0.0015099118 0.09481286 -0.22444949 0.49519745 0.74126333
00000000: 1113 79be af91 4cbf 6962 4cbf 916c d33e
00000010: b635 8abf 324b e23e 3ab2 113f 1b30 ec3e
00000020: 39cd b8bf 52e6 bb3e e62a b13d ebcf 91be
00000030: d14e 1a3f 24ac 9a3e f7c3 003e dabd 44bf
00000040: ca36 b5bf 254d e0bd deb2 b3bf 39c4 ae3e
00000050: be48 76bf 2053 61be 5300 503d 5672 103e
00000060: 98e7 6fbf 41e2 2e3f d7b8 b9bf 3ce8 c53a
00000070: 3f2d c23d 16d6 65be 858a fd3e 6fc3 3d3f

r_to_mu_sigma.hidden_to_mu.weight f4 [2, 32]
-0.20351718 0.16618223 0.06670072 0.01378449 -0.21045399 0.28074777 0.3526223 -0.48845586
-0.28082323 -0.12788403 0.3277823 0.29683027 -0.20343769 -0.30794254 0.12535562 0.0030864628
-0.16126262 -0.43873584 0.6212673 -0.12063188 0.6211983 -0.023484455 -6.96311e-06 -0.4744499
-0.34999007 0.008600658 0.06935084 0.49502257 -0.36724994 -0.12146421 -0.3452646 -0.23182814
-0.12507044 0.1198002 0.13120198 -0.31044587 0.22984418 0.086131535 -0.22906135 -0.38611868
-0.17445263 -0.42731124 0.1243228 0.064232774 0.03651425 0.21834074 -0.3011823 -0.031926643
-0.3203679 -0.40656713 -0.2649923 -0.44028658 0.30226126 0.0023363829 0.03234596 -0.046609547
0.53856605 0.50371987 0.62431467 -0.035288718 0.12477815 -0.24734838 0.3002055 -0.4008538
00000000: cf66 50be ad2b 2a3e 639a 883d 57d8 613c
00000010: 4081 57be 2cbe 8f3e e98a b43e e316 fabe
00000020: 10c8 8fbe 08f4 02be 15d3 a73e 23fa 973e
00000030: f851 50be a5aa 9dbe 395d 003e 4146 4a3b
00000040: 0722 25be fca1 e0be 600b 1f3f d90d f7bd
00000050: da06 1f3f 7962 c0bc a9a4 e9b6 19eb f2be
00000060: e631 b3be c6e9 0c3c d007 8e3d 9973 fd3e
00000070: 2f08 bcbe 3ac2 f8bd 86c6 b0be 5b64 6dbe
00000080: 7712 00be cf59 f53d d059 063e c3f2 9ebe
00000090: 465c 6b3e bb65 b03d 0f8f 6abe 59b1 c5be
000000a0: b6a3 32be 8ac8 dabe f49c fe3d 798c 833d
000000b0: f78f 153d b794 5f3e 9134 9abe 83c5 02bd
000000c0: 4307 a4be 9129 d0be 12ad 87be 3e6d e1be
000000d0: fdc1 9a3e 001e 193b 337d 043d a7e9 3ebd
000000e0: 77df 093f c9f3 003f 16d3 1f3f e78a 10bd
000000f0: b08b ff3d e548 7dbe 89b4 993e b63c cdbe

r_to_mu_sigma.hidden_to_mu.bias f4 [2]
0.009704417 0.3260309
00000000: 46ff 1e3c 86ed a63e

r_to_mu_sigma.hidden_to_sigma.weight f4 [2, 32]
0.9555336 -0.61400014 1.0310698 0.023028564 0.7178326 -0.28821096 -0.26945502 0.178339
-0.04489815 -0.0896053 0.5186409 0.48133424 -1.0767505 0.17872874 -0.005252957 1.0969961
0.40523094 -0.029111627 -0.42385912 0.019115943 0.39062184 1.290191 1.1705229 -0.26519006
0.16239513 -0.5666638 0.7128835 -0.009294487 0.2839104 0.17942324 -0.30672413 -0.19937126
1.133145 -1.1218798 1.4586465 -0.33330014 0.61125207 -0.1665268 -0.18356021 0.23350085
0.50241536 0.1262712 0.22407782 0.36782527 -1.264171 0.017153567 0.12822837 1.243231
0.056787208 0.24939853 -0.20719802 0.0620156 0.37744132 1.2490097 1.3156368 -0.14438488
-0.44059545 -0.5005676 0.14690137 0.18041076 0.41331512 -0.058899265 -0.21416357 -0.22989377
00000000: da9d 743f 1d2f 1dbf 18fa 833f 66a6 bc3c
00000010: e1c3 373f 6390 93be 02f6 89be 809e 363e
00000020: 1fe7 37bd fc82 b7bd a6c5 043f 7171 f63e
00000030: f6d2 89bf ab04 373e ff20 acbb 5e6a 8c3f
00000040: 6e7a cf3e 827b eebc 1004 d9be 0a99 9c3c
00000050: 96ff c73e fb24 a53f b2d3 953f fec6 87be
00000060: e94a 263e e110 11bf 887f 363f e747 18bc
00000070: b45c 913e baba 373e f20a 9dbe fb27 4cbe
00000080: e50a 913f c299 8fbf eeb4 ba3f 51a6 aabe
00000090: 047b 1c3f 0086 2abe 35f7 3bbe d91a 6f3e
000000a0: 4b9e 003f 3d4d 013e a874 653e 9853 bc3e
000000b0: 5bd0 a1bf a385 8c3c 4c4e 033e 3222 9f3f
000000c0: b499 683d 5462 7f3e b82b 54be 1204 7e3d
000000d0: fd3f c13e 8ddf 9f3f c966 a83f a1d9 13be
000000e0: ba95 e1be 3325 00bf 506d 163e 99bd 383e
000000f0: 0a9e d33e 5b40 71bd b24d 5bbe 4669 6bbe

r_to_mu_sigma.hidden_to_sigma.bias f4 [2]
-2.1756437 -2.7110264
00000000: bf3d 0bc0 7581 2dc0

xz_to_y.xz_to_hidden.0.weight f4 [128, 3]
0.77535105 -0.23774707 0.05190239 1.3766316 0.07011998 -0.1014134 -2.612806 -0.21785936
0.30140513 1.1866789 0.0021386878 -0.389725 -0.99666214 0.0025551585 0.0025411288 -2.207111
0.38745597 0.025222244 0.83235 -0.12490339 -0.11264945 -0.2589602 -0.011136709 -0.0010864611
-2.0323262 0.028662378 0.19287522 -0.017816575 -0.023960602 0.05158539 0.34892932 0.001693818
-0.004044816 -2.8883219 0.12970385 -0.11811051 -0.14051324 -0.009477831 0.03444033 -0.14405929
0.027856605 0.020361273 -2.1141207 -0.027496463 0.06353384 -2.639813 -0.047850605 0.13186626
-0.67966324 -0.012095025 0.06703301 -0.8762826 0.0068256184 0.01628999 -1.5072559 0.05287529
-0.31358907 -1.1477797 0.15361597 0.08843806 0.79771394 -0.09278896 0.25024644 -0.27168953
-0.20064814 0.21292992 -1.571038 0.13158005 -0.12552576 -0.27743676 -0.027335526 0.039416067
-0.1863222 -0.005182242 0.021702575 -0.22067569 0.00600201 0.022449527 1.187096 0.060756344
-0.22060512 -1.2717631 -0.13938206 0.07943843 -0.08253855 -0.0006514152 0.00055290776 0.10403325
0.040334042 0.32342926 0.3994568 -0.003099746 0.0022448169 -3.0605247 -0.13785617 0.18417768
-1.140108 -0.010641881 0.013924851 0.6402374 0.13274626 0.40888655 -2.1462362 0.08124296
-0.46107388 -1.2343807 0.12354257 -0.3057392 -0.12719221 -0.00094982906 0.003231075 -5.3880997
0.03207801 -0.026947236 0.6433759 -0.30050343 -0.020423466 0.4245938 0.2965613 -0.07494895
0.97554296 0.07679489 -0.006427981 0.31072798 0.011137685 0.02088638 -2.2733433 -0.26404482
0.2812703 -0.037627604 -0.0068457215 0.017086677 -1.3316064 -0.006323817 0.06392518 1.4360186
-0.05553182 -0.17582066 -0.7409025 -0.0014508968 -0.002247231 -1.6129689 0.08736347 -0.38785467
-1.0198087 -0.3284977 0.19691412 0.0058450666 -0.0072247754 0.0028237547 -0.22722192 -0.045744423
0.061074976 -0.33811 0.060610145 -0.08397009 -6.5996895 -0.09370145 0.11565992 -0.95218855
0.05619109 0.050025303 -0.95253855 -0.11599794 0.23831628 -1.7280184 -0.055120017 0.08662534
-3.1366205 -0.3464958 -0.027839601 -6.086979 0.11525632 -0.037340872 0.27310848 -0.17784925
0.23303078 1.2018899 -0.026275085 -0.054774486 0.11024289 -0.09047484 -0.30610234 1.3244543
0.06760834 -0.103268914 -1.5497341 0.042371206 0.17818585 0.25397277 -0.00077582686 -0.007101566
-2.3210416 -0.061729405 0.14764866 -1.1381097 0.057481464 0.060146883 0.38492814 -0.18624559
0.2473143 -0.3585658 -0.3319456 0.008290252 0.023463896 0.0076801307 0.09668604 -2.5643914
-0.13757738 -0.14475845 -1.134627 0.1218489 0.06585311 -1.3041184 -0.15247358 0.25983506
0.37597585 -0.19946976 0.20396571 -0.33644104 -0.007490307 0.034761403 0.11501371 -0.28978062
0.16386768 -0.455904 -0.018086702 0.01890779 -1.2263666 -0.31150723 0.27447054 -2.5849514
-0.10162629 0.27103582 -0.516766 0.252735 -0.060411587 -0.78127515 -0.3132839 0.21901418
1.5811919 -0.060161 -0.024766767 -1.0703813 0.022225095 0.043963496 -0.9704858 0.043071903
0.060019128 0.658423 -0.12380354 -0.3057664 -2.7523534 0.29880455 -0.14222787 -0.16479494
00000000: 687d 463f f873 73be 9a97 543d 7735 b03f
00000010: 109b 8f3d d4b1 cfbd 3738 27c0 8616 5fbe
00000020: c651 9a3e 18e5 973f 3a29 0c3b 098a c7be
00000030: 4025 7fbf 7274 273b 1189 263b 4e41 0dc0
00000040: a160 c63e e19e ce3c e414 553f 59cd ffbd
00000050: c1b4 e6bd 6e96 84be be76 36bc 9667 8eba
00000060: a211 02c0 5dcd ea3c 1581 453e 11f4 91bc
00000070: 0649 c4bc 344b 533d dda6 b23e 1a03 de3a
00000080: 608a 84bb 44da 38c0 16d1 043e ece3 f1bd
00000090: b4e2 0fbe e848 1bbc 4e11 0d3d 4784 13be
000000a0: 8933 e43c afcc a63c c14d 07c0 4340 e1bc
000000b0: 081e 823d b2f2 28c0 fffe 43bd f307 073e
000000c0: 69fe 2dbf 362a 46bc 9a48 893d 0e54 60bf
000000d0: 70a9 df3b 9672 853c c3ed c0bf c393 583d
000000e0: bf8e a0be 72ea 92bf 814d 1d3e 031f b53d
000000f0: fb36 4c3f 2308 bebd 4d20 803e e41a 8bbe
00000100: b576 4dbe 4d0a 5a3e c617 c9bf ecbc 063e
00000110: d389 00be 310c 8ebe c1ee dfbc be72 213d
00000120: 3fcb 3ebe cccf a9bb 99c9 b13c cff8 61be
00000130: 82ac c43b 12e8 b73c c3f2 973f a5db 783d
00000140: 4fe6 61be 22c9 a2bf 2cba 0ebe 9eb0 a23d
00000150: f909 a9bd bcc3 2aba 03f1 103a 620f d53d
00000160: 4f35 253d 8598 a53e 9a85 cc3e 1c25 4bbb
00000170: c71d 133b a3df 43c0 2b2a 0dbe 1399 3c3e
00000180: 0fef 91bf 495b 2ebc 0f25 643c 99e6 233f
00000190: a3ee 073e 9459 d13e ef5b 09c0 b662 a63d
000001a0: e011 ecbe 3000 9ebf e303 fd3d d989 9cbe
000001b0: ad3e 02be f3fd 78ba 71c0 533b 506b acc0
000001c0: 3b64 033d 73c0 dcbc 48b4 243f 96db 99be
000001d0: 1d4f a7bc 5c64 d93e e2d6 973e d67e 99bd
000001e0: 2fbd 793f a446 9d3d d0a1 d2bb bd17 9f3e
000001f0: d67a 363c ea19 ab3c 757e 11c0 e230 87be
00000200: a902 903e 671f 1abd 1352 e0bb 5cf9 8b3c
00000210: 1472 aabf 0638 cfbb 34eb 823d 75cf b73f
00000220: 5575 63bd 550a 34be c9ab 3dbf 052c beba
00000230: 4846 13bb c475 cebf 9eeb b23d e394 c6be
00000240: 1789 82bf da30 a8be dba3 493e f987 bf3b
00000250: cfbd ecbb be0e 393b ddac 68be 815e 3bbd
00000260: c129 7a3d c11c adbe 5842 783d 83f8 abbd
00000270: a830 d3c0 8ce6 bfbd 1cdf ec3d a1c2 73bf
00000280: a128 663d 55e7 4c3d 91d9 73bf 5490 edbd
00000290: 2f09 743e b52f ddbf 87c5 61bd a068 b13d
000002a0: 64be 48c0 e667 b1be e00f e4bc 88c8 c2c0
000002b0: 810b ec3d bef2 18bd e0d4 8b3e 1d1e 36be
000002c0: 9f9f 6e3e 87d7 993f d93e d7bc 365b 60bd
000002d0: 06c7 e13d df4a b9bd 72b9 9cbe b887 a93f
000002e0: 3e76 8a3d a77e d3bd b05d c6bf 6e8d 2d3d
000002f0: 5a76 363e b808 823e dc60 4bba 41b4 e8bb
00000300: f28b 14c0 f9d7 7cbd 3631 173e 94ad 91bf
00000310: af71 6b3d 945c 763d 4d15 c53e 2ab7 3ebe
00000320: f63f 7d3e f095 b7be c6f4 a9be d6d3 073c
00000330: 5b37 c03c 9ba9 fb3b 5503 c63d fd1e 24c0
00000340: 16e1 0cbe 8f3b 14be 753b 91bf eb8b f93d
00000350: ffdd 863d 5aed a6bf 0922 1cbe 1a09 853e
00000360: e87f c03e cd41 4cbe 63dc 503e 0042 acbe
00000370: 4071 f5bb f961 0e3d 4f8c eb3d 205e 94be
00000380: eecc 273e 406c e9be 902a 94bc 82e4 9a3c
00000390: 95f9 9cbf e07d 9fbe 6787 8c3e d86f 25c0
000003a0: 7221 d0bd 35c5 8a3e c74a 04bf 7b66 813e
000003b0: 2472 77bd a601 48bf bf66 a0be 4145 603e
000003c0: 7f64 ca3f 616b 76bd ade3 cabc 4102 89bf
000003d0: 6711 b63c 1113 343d c271 78bf 2a6c 303d
000003e0: 9ed6 753d 698e 283f b68c fdbd 6a8d 9cbe
000003f0: 8f26 30c0 e9fc 983e 2fa4 11be 01c0 28be

xz_to_y.xz_to_hidden.0.bias f4 [128]
-1.7953271 -0.25091353 -0.7197592 -0.87816715 -0.103284925 -1.270699 -0.29506403 -0.17630714
0.4176747 -0.5195715 -0.42578942 0.3090245 -0.2845956 -0.6125703 -0.6167145 0.5066707
-0.8351407 -0.24659409 0.0976375 0.42280003 -0.97940195 -1.1444241 0.48969504 -0.49971437
-0.19278382 -0.35187683 -1.28395 0.36663207 -0.019332528 -1.1283315 -0.55510545 0.24642347
-0.23340909 -0.49775514 -1.1356105 0.3591127 -0.13741076 0.5747948 -0.5438033 -1.103719
-0.8395725 -0.5813719 -0.31989837 -0.23967327 0.7334577 -1.008063 -0.033570617 -0.38920736
-2.0251262 -0.1562553 -0.6949838 0.27451232 0.33425128 -1.0326473 0.5926103 -0.9803843
-1.4795867 0.18096842 -0.7473425 -0.7208177 -1.3968832 -0.56831986 0.11567361 -0.35547668
-0.034547724 0.8265667 -1.571435 -1.1038009 0.13903975 -1.4306567 0.7560043 0.31211495
-0.2824239 -0.39398506 -1.8892506 -0.24747847 -0.4227897 -0.59069437 0.43146092 -1.378262
-0.5052957 0.8914789 0.76726264 -0.5151697 -0.13740261 -0.42790636 -0.37297428 -1.5921271
-0.41491744 -0.6461414 0.22081831 -0.094309404 -0.38121712 0.3601753 -0.46065134 -0.7993662
-0.13614446 -0.3091052 -0.48281777 -1.0651954 -0.26338953 -1.1051294 -0.65330863 -1.5180063
-0.7471475 -1.6060908 0.19147635 0.12468697 -0.6390447 -0.006805633 -0.23858586 -1.193055
-0.11682853 -0.07381679 -0.42727706 -0.115067676 -0.07083173 -0.26175788 0.18872543 -0.94018996
-0.25365984 0.07647188 -1.5039355 -0.4440767 0.07162888 -0.4068926 0.8906784 -0.5059063
00000000: 47cd e5bf bd77 80be 2442 38bf 90cf 60bf
00000010: 0c87 d3bd 44a6 a2bf a212 97be dc89 34be
00000020: 75d9 d53e a302 05bf 1201 dabe 7638 9e3e
00000030: 84b6 91be 68d1 1cbf 00e1 1dbf 2cb5 013f
00000040: c8cb 55bf 2983 7cbe 2bf6 c73d 3f79 d83e
00000050: 16ba 7abf 7d7c 92bf 4fb9 fa3e 90da ffbe
00000060: 1f69 45be 3329 b4be 7958 a4bf 33b7 bb3e
00000070: 405f 9ebc 2b6d 90bf 641b 0ebf 6f56 7c3e
00000080: cb02 6fbe c3d9 febe af5b 91bf 9fdd b73e
00000090: 68b5 0cbe c125 133f b136 0bbf aa46 8dbf
000000a0: 39ee 56bf cad4 14bf b8c9 a3be e96c 75be
000000b0: e2c3 3b3f 3508 81bf 5881 09bd 3046 c7be
000000c0: ab9b 01c0 6401 20be 75ea 31bf e18c 8c3e
000000d0: fc22 ab3e c92d 84bf 4fb5 173f 77fa 7abf
000000e0: 1963 bdbf c94f 393e d751 3fbf 8287 38bf
000000f0: 12cd b2bf 697d 11bf 49e6 ec3d 0a01 b6be
00000100: ea81 0dbd e099 533f c824 c9bf 5949 8dbf
00000110: 7060 0e3e c21f b7bf 7f89 413f 88cd 9f3e
00000120: de99 90be 69b8 c9be f7d2 f1bf ff6a 7dbe
00000130: e477 d8be bf37 17bf 72e8 dc3e e46a b0bf
00000140: 0f5b 01bf f637 643f 536b 443f 29e2 03bf
00000150: 45b3 0cbe 8b16 dbbe 7cf6 bebe d2ca cbbf
00000160: 0f70 d4be 8669 25bf 321e 623e 4a25 c1bd
00000170: e42e c3be e668 b83e 7eda ebbe 43a3 4cbf
00000180: 7469 0bbe 0943 9ebe e433 f7be 5358 88bf
00000190: feda 86be e174 8dbf 3c3f 27bf 084e c2bf
000001a0: 0f45 3fbf 6294 cdbf 6012 443e e25b ff3d
000001b0: 6f98 23bf ca01 dfbb da4f 74be 07b6 98bf
000001c0: cc43 efbd 422d 97bd 0fc4 dabe 9aa8 ebbd
000001d0: 3a10 91bd 2105 86be 3d41 413e 4ab0 70bf
000001e0: b4df 81be 4a9d 9c3d f580 c0bf 055e e3be
000001f0: 2ab2 923d 3a54 d0be 8003 643f 1383 01bf
