seed-AuNP-phasemaps/pretraining/tune/16_2_128_1.11E-02_8/model.pt (torch, 219232 bytes, 20 tensors)

xy_to_r.input_to_hidden.0.weight f4 [128, 2]
0	0x3f1dede2	0.61691105
1	0xbdbaeac7	-0.091268115
2	0xbece94fa	-0.40348035
3	0x3cb33c7b	0.021879425
4	0xc03a3d65	-2.9099972
5	0xbdb2f919	-0.08738918
6	0x3e5ab297	0.21357189
7	0x3ccbff74	0.024902083
8	0xbf283c36	-0.65716875
9	0xbf1e2b0e	-0.61784446
10	0xbf209826	-0.6273216
11	0x3c9c670b	0.019092103
12	0xbea92e20	-0.33043003
13	0xbedef1a9	-0.43543747
14	0x3f711b49	0.9418226
15	0x3df8f768	0.12156564
16	0x3f25e493	0.648019
17	0xbe412fbb	-0.18865864
18	0xbfafe6fb	-1.3742365
19	0x3d9237f8	0.071395814
20	0x40c63a97	6.194652
21	0xc099f46b	-4.811086
22	0x3d9af22c	0.07565722
23	0xbf0dfd29	-0.55464417
24	0xc08dfe13	-4.437265
25	0xc16177a3	-14.091708
26	0xbebed846	-0.3727438
27	0xbf0768a8	-0.5289407
28	0xc0017a85	-2.023103
29	0xbfd625a3	-1.6730236
30	0xbf0b77dd	-0.5447977
31	0x3d3e11b5	0.046403605
32	0xbf35eaf7	-0.7106165
33	0xbdc639d2	-0.09678997
34	0xbf419be7	-0.75628513
35	0xbe7d3003	-0.24725346
36	0x3ffdba83	1.9822544
37	0x3e41f37c	0.18940538
38	0xbf03018b	-0.5117423
39	0x3d650fe8	0.055923373
40	0xbea95183	-0.3307
41	0xbf3174fb	-0.69319123
42	0x3e933c5c	0.28756988
43	0x3dfe254e	0.12409459
44	0xc0953791	-4.663033
45	0xc15187f0	-13.095688
46	0xbe6a7b74	-0.22898656
47	0xbd48edb5	-0.04905482
48	0xbf1e39da	-0.61807024
49	0xbd722681	-0.05911875
50	0xbe3ea274	-0.18616658
51	0xbf0f065f	-0.55869097
52	0xbf897183	-1.0737766
53	0xc03c8bf1	-2.9460413
54	0xbeefac05	-0.46810928
55	0xbe9c122f	-0.30482623
56	0x3eba4541	0.36380962
57	0x3e0711e4	0.13190418
58	0xbf84e0db	-1.038112
59	0x3e6e623d	0.23279662
60	0xc009dcdc	-2.1541052
61	0xc00a378b	-2.15964
62	0xbf3c4900	-0.7354889
63	0x3dc70e43	0.09719517
64	0xbec4e503	-0.38455972
65	0x3da51300	0.080602646
66	0xbef105a9	-0.4707463
67	0xbdfba660	-0.12287593
68	0xbece87c1	-0.40337947
69	0xbcb288cb	-0.021793744
70	0x3e95dd3c	0.2927035
71	0x3e050e5c	0.12993759
72	0xc000272a	-2.0023904
73	0xc0bd550e	-5.9166327
74	0x3e3c18dc	0.18368858
75	0x3e40b6c2	0.18819717
76	0xbf1b29c4	-0.60610604
77	0xc0364b9e	-2.8483653
78	0x3dc68db8	0.096949995
79	0x3e06f14e	0.13177988
80	0x3e062e8b	0.13103692
81	0xbe207fba	-0.15673724
82	0xbf82f816	-1.023196
83	0x3e47948b	0.19490258
84	0xbf52082d	-0.82043725
85	0xbd54a168	-0.05191174
86	0x3eae11d0	0.33997965
87	0xc02dd154	-2.7159014
88	0xbf00c8af	-0.5030622
89	0x3d0b2395	0.03396948
90	0xbe1e60c1	-0.15466596
91	0xbcfaf613	-0.030634915
92	0x3eb7b458	0.3587978
93	0x3de9ccef	0.11416041
94	0xbeb5ec54	-0.35531867
95	0xbf117f23	-0.5683462
96	0xbee40895	-0.44537798
97	0xbe873a4a	-0.2641166
98	0xc0583f47	-3.3788621
99	0xc19e7bc5	-19.810434
100	0xc064ece9	-3.5769598
101	0xbfc14893	-1.5100273
102	0x3f4c1710	0.7972269
103	0x3fe6bf7a	1.8027184
104	0xbf83bb5f	-1.0291556
105	0xbff615f9	-1.9225456
106	0xbf9e222f	-1.2354182
107	0xc030f202	-2.764771
108	0xc0954223	-4.6643233
109	0xc197c6be	-18.972042
110	0xc09eef00	-4.966675
111	0x3d589716	0.05287846
112	0xbe39980d	-0.18124409
113	0xbf48c249	-0.78421456
114	0xbfffe530	-1.9991817
115	0xc0a86965	-5.2628655
116	0xbef884c9	-0.48538807
117	0xbafc9b4c	-0.0019272356
118	0x3ea94246	0.33058375
119	0xbe9a5ef0	-0.30150557
120	0x3ee106a4	0.4395038
121	0xbdd2ae2c	-0.10287127
122	0x3fdbc94a	1.7170804
123	0x3ddd4e44	0.108059436
124	0xbf23ea3b	-0.6402928
125	0x3d3c8aad	0.04603069
126	0xbf243ffe	-0.64160144
127	0xbf27fd52	-0.6562091
128	0xbffad745	-1.9596945
129	0x3db87ef7	0.090085916
130	0xbfc89c42	-1.5672686
131	0x3d9541e5	0.07287959
132	0x3f252491	0.6450892
133	0xbeba4cd7	-0.3638675
134	0x3e0c0a23	0.13675742
135	0xbf01b275	-0.5066293
136	0xbf2d76a6	-0.6775917
137	0xbf28460b	-0.6573188
138	0xbf0cfdc4	-0.55074716
139	0xbc8448f4	-0.016148068
140	0x3c8a6c15	0.01689724
141	0x3e223ab1	0.15842701
142	0xbf7efdac	-0.9960582
143	0x3dc21b7b	0.09477898
144	0xbee2890e	-0.4424519
145	0xc01e51d3	-2.4737442
146	0x3eac794e	0.33686298
147	0xbe4190d9	-0.18902911
148	0x3d7555ee	0.059896402
149	0xbefade28	-0.48997617
150	0xbeb3639a	-0.35036927
151	0xbeaa40b7	-0.33252499
152	0x3ef97c49	0.48727635
153	0xc0413b3c	-3.0192404
154	0xbedbea9e	-0.42952436
155	0xbbbd3960	-0.005774662
156	0x3da33fb0	0.07971132
157	0xbe9aba8d	-0.30220452
158	0xc08775aa	-4.2331133
159	0xc0478bbc	-3.1179037
160	0xbef91705	-0.48650375
161	0x3e31d262	0.17365411
162	0xbd557dc9	-0.05212191
163	0x3d6e0227	0.05810752
164	0x3d626149	0.05526856
165	0xbfc70a6f	-1.5550059
166	0x3da01520	0.07816529
167	0xbeb0a8c8	-0.3450377
168	0x3f3b4dbe	0.731655
169	0xc081a5fb	-4.0515113
170	0xbeecb38f	-0.46230742
171	0x3d688151	0.05676395
172	0xbea256f6	-0.3170697
173	0x3d6684d0	0.056279004
174	0xbefa2a25	-0.4886028
175	0x3fb8c476	1.4434955
176	0xc088723c	-4.2639446
177	0x3df03fbd	0.11730907
178	0xbf052388	-0.5200734
179	0xc0346321	-2.8185503
180	0xbe8059e8	-0.25068593
181	0xbdb1b88d	-0.086777784
182	0xc00dffa0	-2.218727
183	0x3dc32492	0.095284596
184	0xbe89beee	-0.2690348
185	0xbf4f2519	-0.8091598
186	0xbe96d6dd	-0.29460803
187	0xbc68c004	-0.014205936
188	0xbf2b1a7c	-0.66837287
189	0xbedc03bd	-0.42971602
190	0xbf1f175e	-0.6214503
191	0x3dcf6480	0.10126591
192	0x3e5c5281	0.21515848
193	0xbe696caa	-0.22795358
194	0xc198a8d6	-19.08244
195	0x401f0ffd	2.4853508
196	0xbf39349a	-0.7234589
197	0x3cacaf02	0.021079544
198	0xbf995ba4	-1.1981091
199	0x3dbddfaf	0.0927118
200	0xbf2ada81	-0.6673966
201	0x3d6bf480	0.05760622
202	0xbfba0c9f	-1.4535102
203	0xbf4d44b5	-0.80182964
204	0xbd402982	-0.046914585
205	0xbd81387d	-0.063096024
206	0xc0876ca9	-4.232014
207	0x3d9e3a3b	0.0772595
208	0x3cbd1e3d	0.023085708
209	0x3df53423	0.11972835
210	0xbf953919	-1.165805
211	0xc02b3b87	-2.6755083
212	0xbe914f02	-0.2838059
213	0x3c8ef82c	0.017452322
214	0x3acde0e9	0.0015707287
215	0x3d11928f	0.03554016
216	0x3de9382b	0.11387666
217	0xbf467602	-0.77523816
218	0xbea28d9c	-0.31748664
219	0x3edbd00c	0.42932165
220	0x3ed2494b	0.41071543
221	0xbebaadcb	-0.3646072
222	0xbe78e1d6	-0.243049
223	0x3df856c5	0.12125925
224	0xbeb04925	-0.34430805
225	0xbf0ff7ba	-0.56237376
226	0xbdde2526	-0.10846929
227	0xbd565875	-0.052330453
228	0x408502cc	4.1565914
229	0x3fb11a9e	1.3836248
230	0xc137f983	-11.498416
231	0x3f899d8b	1.0751203
232	0xc0753133	-3.831128
233	0x3f4c7fcf	0.7988252
234	0x3dc7ba26	0.09752302
235	0xbfa74dec	-1.3070655
236	0xc0826104	-4.0743427
237	0xc03ae3cb	-2.9201534
238	0x3ec04b40	0.3755741
239	0x3ddc5937	0.10759204
240	0xc08a8506	-4.328738
241	0x3dc76dc2	0.097377315
242	0x3e37660c	0.17910022
243	0x3e07aa33	0.1324852
244	0xc0d4e4e7	-6.652942
245	0xc0412a8a	-3.0182214
246	0xbf18a717	-0.5962996
247	0x3be93206	0.007116559
248	0xc121a657	-10.10311
249	0xc0e86406	-7.26221
250	0xbf77b818	-0.9676528
251	0xbf293b0a	-0.6610571
252	0xbeba4832	-0.36383206
253	0x3e33ea2a	0.17569795
254	0xbfa260dd	-1.268581
255	0xc08879e4	-4.264879

xy_to_r.input_to_hidden.0.bias f4 [128]
0	0xbf2558bb	-0.64588517
1	0xbdb6b5b3	-0.08921375
2	0xbedc0510	-0.42972612
3	0xbe9e7482	-0.30948263
4	0xbf09befa	-0.5380703
5	0xbda75af6	-0.08171646
6	0xbc758001	-0.014984132
7	0xbfa19fbb	-1.2626871
8	0xbf2ace93	-0.6672146
9	0xbe7d05ab	-0.24709193
10	0xc05b5c2a	-3.4275002
11	0xbd926990	-0.07149041
12	0x40619a18	3.5250301
13	0xbf2ff69a	-0.6873566
14	0x3d8293bc	0.06375834
15	0xbf292dac	-0.66085315
16	0x3b7d1f0a	0.0038623237
17	0xbc3b7510	-0.011441484
18	0xc01ec0c3	-2.4805152
19	0xbe7079db	-0.23483984
20	0xbedeed7e	-0.43540567
21	0xbf39bc6b	-0.7255313
22	0x403e763f	2.9759672
23	0xbc55c3db	-0.013047184
24	0xbd330af0	-0.043711603
25	0xbe9e929d	-0.30971232
26	0x3defcb58	0.117087066
27	0xbe293e8e	-0.16527769
28	0xbf4bcf55	-0.7961324
29	0xbf6a39d3	-0.9149448
30	0x3da76bb4	0.081748396
31	0xbec90234	-0.39259493
32	0xbf326197	-0.6968016
33	0xbdeda15e	-0.11603044
34	0x3a629f99	0.0008644998
35	0xbf3ac614	-0.72958493
36	0x3e1a3b24	0.15061623
37	0xbf83dbdf	-1.0301474
38	0x3db34b7f	0.08754634
39	0xbf1296c9	-0.5726133
40	0xbe860d1b	-0.26181874
41	0xbf598de0	-0.8498211
42	0xbe427973	-0.18991642
43	0xbe6969ea	-0.2279431
44	0xbe9f7f79	-0.3115194
45	0xbb39a811	-0.0028328935
46	0xbf3e37dd	-0.7430399
47	0xbe135743	-0.14388756
48	0xbe58804a	-0.21142688
49	0x40064f33	2.098584
50	0x403c0d9d	2.938331
51	0xc06b7150	-3.678791
52	0x3d9c99ac	0.07646498
53	0x3ddb6e4b	0.10714396
54	0x3fbe1aa8	1.4851885
55	0xbebbf0d4	-0.36707175
56	0x3ca7ed8a	0.02049901
57	0x3e5735e5	0.21016653
58	0xbd0d2909	-0.034462962
59	0xbee82232	-0.4533859
60	0xbef3ae3c	-0.47593868
61	0xc01ea15c	-2.4785986
62	0xbeaab925	-0.3334438
63	0xbf1d1641	-0.6136208
64	0xbe982961	-0.2971907
65	0xbe6ed8d9	-0.23324908
66	0xbf23d5d8	-0.63998175
67	0xbe7c1022	-0.24615529
68	0xbecc5bf8	-0.39913917
69	0x394270bd	0.0001854328
70	0xbf4c309d	-0.7976168
71	0xbeb59d7d	-0.35471717
72	0x3d9fab7b	0.07796379
73	0xbf0c305c	-0.5476129
74	0xbe171964	-0.1475578
75	0xbedd4bb4	-0.4322182
76	0xbeb8069c	-0.35942543
77	0xbe09d92c	-0.13461751
78	0xbef31f79	-0.4748495
79	0x3dfe2c41	0.124107845
80	0xbf0e2023	-0.55517787
81	0xbf0460e5	-0.5171035
82	0xbb323aea	-0.002719576
83	0xbe5522c4	-0.20814043
84	0x3f80a0f7	1.0049123
85	0xbe8f9c0a	-0.28048736
86	0xbe9a5079	-0.3013952
87	0xbeb6ec94	-0.3572737
88	0xbec59c04	-0.38595593
89	0x3ccd301e	0.025047358
90	0xbd1eb211	-0.038744036
91	0xbeba2279	-0.36354426
92	0x3b3b77b3	0.0028605282
93	0x39a72ec8	0.00031887577
94	0xbea66bec	-0.32504213
95	0xbea96d24	-0.3309108
96	0xbf2af1b7	-0.6677508
97	0xbf9c60b8	-1.2217016
98	0xbd99868d	-0.07496367
99	0xbe994631	-0.29936364
100	0xbe6c7a4c	-0.23093528
101	0x3c9ed3c0	0.01938808
102	0xbe895184	-0.26820004
103	0xbe8e7d45	-0.27829948
104	0xbefd58cc	-0.4948181
105	0x3d8c8831	0.06861914
106	0xbe02f6da	-0.12789479
107	0xbea9dee9	-0.3317788
108	0xbe8df267	-0.27724
109	0xc015b540	-2.3391876
110	0xbf066929	-0.5250421
111	0xbec492c3	-0.3839322
112	0xbe792b5a	-0.24332944
113	0xbeb6cc53	-0.35702762
114	0xc0300dee	-2.7508502
115	0x3fd5928f	1.6685351
116	0x401ef2ff	2.4835813
117	0xbd32c83b	-0.043647986
118	0x3db28e09	0.08718497
119	0xbf26426b	-0.64945096
120	0xbeb29126	-0.34876364
121	0xbf243aa4	-0.6415198
122	0x40408862	3.0083241
123	0xbec799b9	-0.3898447
124	0x40308898	2.758337
125	0x3cb2b70e	0.021815803
126	0xbf54ba8b	-0.8309714
127	0x3e1fd566	0.15608749

xy_to_r.input_to_hidden.2.weight f4 [128, 128]
0	0xbdce7f37	-0.10082858
1	0xbe0778c5	-0.13229664
2	0xbe12467c	-0.142847
3	0xbd7e6e94	-0.062117174
4	0xbd17e4f0	-0.037083566
5	0xbd7ec8d5	-0.062203247
6	0x3d7fa45e	0.062412612
7	0xbd3a6fa3	-0.04551662
8	0xbdb8080c	-0.0898591
9	0xbdeb0fa9	-0.11477596
10	0xbdbac979	-0.09120459
11	0xbc377fb6	-0.011199882
12	0xbe1bf9c9	-0.15232004
13	0xbaec84d8	-0.0018044962
14	0xbca4f00e	-0.020133998
15	0xbdb1ebad	-0.0868753
16	0xbd3d2795	-0.046180326
17	0xbd2bb365	-0.04191913
18	0xbddc35aa	-0.10752423
19	0xbe02f1f1	-0.12787606
20	0x3d8fb004	0.07015994
21	0xbc938838	-0.01800929
22	0xbba86eec	-0.005140176
23	0x3be8a925	0.0071002417
24	0xbb6d205c	-0.0036182618
25	0x3da8be8e	0.082394704
26	0xbc84a65c	-0.016192608
27	0x3d69b45f	0.05705678
28	0xbdef468c	-0.116833776
29	0x3c9a5e19	0.018843697
30	0xbdde3150	-0.10849249
31	0xbd07db58	-0.033168167
32	0xbd621b73	-0.05520196
33	0x3d976af1	0.07393444
34	0xbd04f329	-0.032458458
35	0x3c586d1e	0.013209609
36	0xbd1a6ae2	-0.037699588
37	0xbc742e9d	-0.014903692
38	0xbd92c862	-0.07167126
39	0x3cef0e53	0.029181635
40	0xbde90ffa	-0.113800004
41	0x3da3c5f4	0.07996741
42	0xbd6444b5	-0.055729587
43	0xbc88cce6	-0.016699266
44	0x3d87888f	0.06617843
45	0xbdc41bde	-0.09575628
46	0x3d1fa868	0.038978964
47	0x3b691370	0.0035564564
48	0xbd016720	-0.03159249
49	0xbdda14fd	-0.106485344
50	0xbe2c5dc9	-0.16832651
51	0xbdc205c0	-0.09473753
52	0xbdc943c0	-0.098273754
53	0xbd13141c	-0.03590785
54	0xbcddfb32	-0.027097318
55	0xbdef2726	-0.11677389
56	0xbd315b97	-0.043300238
57	0xbe011c50	-0.12608457
58	0xbde0277d	-0.10945032
59	0xbdf2bc41	-0.11852313
60	0xbdcd4b14	-0.10024086
61	0xbd8a60db	-0.06756755
62	0xbd0dc693	-0.034613203
63	0xbd8968c0	-0.067094326
64	0xbd83931e	-0.06424545
65	0xbd92d3d6	-0.07169311
66	0xbd8c0225	-0.068363465
67	0xbd8756a8	-0.06608325
68	0x3c89aae3	0.016805118
69	0xbe20a4da	-0.15687886
70	0xbcfcb573	-0.03084824
71	0xbd38cc3d	-0.04511665
72	0xbd8c25c5	-0.068431415
73	0xbc841fb9	-0.016128408
74	0xbd418c7f	-0.04725313
75	0x3cada6cf	0.021197705
76	0xbda3a347	-0.07990127
77	0xbdd79865	-0.10527114
78	0xbcc6871a	-0.024234343
79	0xbdeec9ff	-0.116596214
80	0xbda6da6a	-0.08147128
81	0x3d8ea863	0.06965711
82	0x3b8bfc45	0.004272016
83	0x3d9533fb	0.07285305
84	0xbe151a91	-0.14560916
85	0xbdb26edd	-0.08712552
86	0xbddb5662	-0.107098356
87	0x3af29814	0.0018508458
88	0xbd85015d	-0.06494401
89	0xbde986e9	-0.11402685
90	0xbdf64deb	-0.120265804
91	0xbd76363d	-0.06011032
92	0xbe0adc1d	-0.13560529
93	0x3a59d3d3	0.00083094573
94	0xbda28027	-0.07934599
95	0xbdba6f2e	-0.09103237
96	0x3cf2c6d7	0.02963583
97	0xbe0aa5f5	-0.1353987
98	0xbc7b45e4	-0.015336487
99	0xbdd4ef24	-0.10397175
100	0xbd6440bb	-0.055725794
101	0xbdc3ab97	-0.095542125
102	0x3d1479ce	0.036248975
103	0x3ce6e615	0.028185884
104	0xbc40f17e	-0.011776326
105	0xbd4788be	-0.048714392
106	0xbd88773c	-0.06663367
107	0xbccefc32	-0.02526674
108	0xbe26cf26	-0.16289958
109	0xbda613fc	-0.081092805
110	0xbdf42971	-0.11921967
111	0xbd6a19f8	-0.057153672
112	0x3d6fd4e3	0.058552634
113	0xbd1ee506	-0.038792633
114	0xbde89328	-0.11356193
115	0xbcd05bef	-0.025434462
116	0xbe216712	-0.15761974
117	0xbcf77192	-0.030205522
118	0xbd6a345a	-0.057178833
119	0x3d6af916	0.057366453
120	0xbe04be38	-0.12963188
121	0x3d8e50b3	0.06948986
122	0xbe277b9e	-0.1635575
123	0x3d9326e2	0.07185151
124	0xbd44f7f0	-0.048088014
125	0xbdbadac2	-0.09123756
126	0x3d8db4a0	0.06919217
127	0xbde5b527	-0.11216193
128	0xbd75a5a0	-0.059972405
129	0xbc7bb038	-0.015361838
130	0xbd31c580	-0.04340124
131	0xbde040bc	-0.10949847
132	0xbb7186d5	-0.0036854048
133	0xbd01a025	-0.031646866
134	0xbc06ff45	-0.008239572
135	0xbbf00b3f	-0.0073255594
136	0xbd79fc53	-0.06103165
137	0xbd834981	-0.06410504
138	0xbb3e3864	-0.002902531
139	0x3da5b869	0.08091814
140	0xbdf667e2	-0.12031533
141	0x3d0feef5	0.035139997
142	0xbd931a85	-0.071827926
143	0x3d58fd15	0.052975733
144	0x3b466e94	0.0030278312
145	0x3c742497	0.014901302
146	0xbe1adcd6	-0.15123305
147	0xbc9a3faa	-0.018829186
148	0xbc1fdec4	-0.009757701
149	0xbd8f0ace	-0.06984483
150	0xbd26098a	-0.04053644
151	0xbdc2ef82	-0.09518339
152	0xbe1a5ad5	-0.15073712
153	0xbca7b74d	-0.020473147
154	0xbe083d38	-0.13304603
155	0xbd840ea6	-0.064481065
156	0x3d073dd9	0.033017967
157	0xbc36c5b2	-0.011155533
158	0xbb757f73	-0.003746
159	0xbc8d698c	-0.017262243
160	0xbcf7a0a7	-0.030227972
161	0x3c053187	0.008129484
162	0xbdc5961f	-0.09647774
163	0xbddced24	-0.107874185
164	0xbdaa7fac	-0.08325133
165	0xbd0cffe1	-0.034423713
166	0xbcac1d19	-0.021009969
167	0xbcdcb2ac	-0.026940666
168	0xbdf7fcbf	-0.12108754
169	0x3d6320d1	0.055451218
170	0xbd1e30d8	-0.0386208
171	0xbddb6fcd	-0.10714684
172	0xbccd791f	-0.02508217
173	0xbd8763f8	-0.066108644
174	0x3d568b97	0.052379217
175	0x3ce51852	0.027965698
176	0x3d544ef5	0.05183311
177	0xbd22361e	-0.03960239
178	0x3c865a12	0.01640037
179	0x3c059736	0.008153727
180	0xbddff636	-0.10935633
181	0xbc8c1452	-0.017099533
182	0xbd574181	-0.052552704
183	0xbe03ba2d	-0.12863989
184	0xbdde0650	-0.10841048
185	0xbde9958a	-0.114054754
186	0x3c29e19f	0.010368734
187	0x3d0c5c5f	0.03426778
188	0x3cae272c	0.021258913
189	0xbd03164c	-0.032003686
190	0xbbc1e0b5	-0.0059166797
191	0x3c54f25a	0.012997234
192	0xbdc80e3c	-0.0976834
193	0xbe048421	-0.12941028
194	0xbd9f0982	-0.07765485
195	0xbd320a64	-0.04346694
196	0x3bacc801	0.0052728658
197	0xbcc312b8	-0.023812637
198	0xbbb1de95	-0.005428145
199	0xbdb77ac4	-0.089589626
200	0xbdbd895b	-0.09254714
201	0xbdabbbec	-0.08385453
202	0x3db13835	0.08653299
203	0x3da1de8a	0.07903774
204	0xbd05e314	-0.03268726
205	0xbca80ca1	-0.020513834
206	0xbb9adb25	-0.004725831
207	0xbb563cce	-0.003269005
208	0xbd61598a	-0.05501703
209	0x3c769d03	0.015052083
210	0x3bd893c1	0.0066094105
211	0x3c8d2e43	0.017233973
212	0xbd200ef2	-0.039076753
213	0xbe0b1bf2	-0.13584879
214	0xbe05e6da	-0.13076344
215	0xbd88db64	-0.066824704
216	0xbcec9cf4	-0.028883435
217	0xbbfe2174	-0.0077554528
218	0xbe1a63d3	-0.15077142
219	0x3d816d71	0.063197024
220	0xbd1eb068	-0.038742453
221	0xbd892680	-0.066967964
222	0xbd8c9714	-0.06864753
223	0x3cacdad8	0.021100447
224	0xbc4bfe93	-0.012450832
225	0xbd20d2bf	-0.039263483
226	0xbdd95ad4	-0.10613027
227	0xbdeafc18	-0.11473864
228	0xbdc86b23	-0.0978606
229	0x3c82f43d	0.015985603
230	0x3d15c3d9	0.036563728
231	0xbda24eea	-0.07925208
232	0xbd37f31b	-0.044909578
233	0xbdadf75c	-0.08494446
234	0xbe0870e9	-0.13324322
235	0xbcdb0c5a	-0.026739288
236	0xbd9134c4	-0.07090142
237	0xbd93589f	-0.071946375
238	0x3d91811d	0.071047045
239	0xbdce277e	-0.10066126
240	0x3c0b90f5	0.008518447
241	0xbc9ce109	-0.019150274
242	0xbdcf67ca	-0.10127218
243	0xbdb2559d	-0.08707736
244	0xbe185452	-0.14875916
245	0xbe17f7c9	-0.14840616
246	0xbd810f08	-0.06301695
247	0xbd5b916b	-0.05360548
248	0xbdaec97c	-0.08534524
249	0xbd3208ec	-0.04346554
250	0xbd913824	-0.07090786
251	0xbd8607ed	-0.065444805
252	0xbe0a4796	-0.1350387
253	0xbde09801	-0.109664924
254	0x3d1ccd53	0.03828175
255	0xbdd8f6ae	-0.105939254

xy_to_r.input_to_hidden.2.bias f4 [128]
0	0xbc5c499b	-0.013445283
1	0xbd89c60f	-0.0672723
2	0xbda543f4	-0.08069602
3	0xbebd9737	-0.3702943
4	0xbdb9476d	-0.090468265
5	0xbdd33d23	-0.10314395
6	0xbd431e15	-0.04763611
7	0xbef95ea8	-0.4870503
8	0xbe1b8949	-0.15189089
9	0xbdb42e1b	-0.087978564
10	0x4039d707	2.9037492
11	0xbd142c08	-0.036174804
12	0xbcbaa620	-0.022784293
13	0xbed51cf0	-0.4162364
14	0xbea3710d	-0.31922188
15	0xbef57a72	-0.4794498
16	0xbed376da	-0.41301614
17	0xbeb28259	-0.34865072
18	0xbef2c6cc	-0.47417295
19	0xbdebd5f2	-0.11515416
20	0xbe720025	-0.23632868
21	0xbd61cf06	-0.055129074
22	0xbdd78f25	-0.105253495
23	0xbe9e61fa	-0.30934125
24	0xbea1c06d	-0.31592122
25	0xbdd8063b	-0.10548063
26	0xbce72f84	-0.0282209
27	0xbe04fde2	-0.12987474
28	0xbddc1dd0	-0.10747874
29	0x3e1594cb	0.14607541
30	0xbe06426c	-0.13111275
31	0xbeb52bc2	-0.35384947
32	0xbdc7ee8f	-0.09762298
33	0xbde7f6a6	-0.11326341
34	0xbe8133a5	-0.25234714
35	0xbe3ff610	-0.18746209
36	0x402794cb	2.6184566
37	0xbecc9521	-0.39957526
38	0xbd9b1c9f	-0.075738184
39	0xbd5281e5	-0.05139341
40	0xbf0b2e5f	-0.5436763
41	0xbd299a3c	-0.041406855
42	0xbf3bb1b8	-0.7331805
43	0x3e758f42	0.2398043
44	0xbd2e66b4	-0.042578414
45	0xbd009d5b	-0.031400066
46	0xbe62d68c	-0.22152156
47	0xbd2558f8	-0.04036805
48	0xbdf36221	-0.11883951
49	0xbe11aa83	-0.14225201
50	0xbd2cd75c	-0.04219757
51	0xbe05e389	-0.13075079
52	0xbe819758	-0.2531078
53	0xbd77f034	-0.06053181
54	0xbe3d8255	-0.18506749
55	0xbda37f59	-0.07983274
56	0xbf213cd6	-0.62983453
57	0xbe9dbfd7	-0.30810425
58	0xbdc36f38	-0.09542698
59	0xbd96ea4e	-0.07368909
60	0xbd4707f2	-0.04859156
61	0xbe95e16a	-0.2927354
62	0xbdf40a44	-0.119160205
63	0xbde78875	-0.11305324
64	0xbbb6badf	-0.005576476
65	0xbdce474e	-0.10072194
66	0xbd82a6be	-0.0637946
67	0xbc4244a8	-0.011857189
68	0xbeba27b9	-0.3635843
69	0xbde08edb	-0.109647475
70	0xbd973d72	-0.07384767
71	0xbe84730a	-0.25869018
72	0xbe697d6c	-0.22801751
73	0xbd9832f4	-0.074315935
74	0xbe067f87	-0.13134585
75	0xbf35c59b	-0.71004647
76	0xbe8e859c	-0.2783631
77	0xbdc45bf9	-0.09587855
78	0xbd04a4b5	-0.03238364
79	0xbc25788f	-0.010099544
80	0xbe9ee525	-0.31034198
81	0xbeafaf54	-0.34313452
82	0xbd971c35	-0.07378427
83	0xbf568870	-0.8380194
84	0xbe9b7212	-0.30360466
85	0xbc8ee4b8	-0.017443046
86	0xbcd01774	-0.025401808
87	0x3d9b5332	0.075842276
88	0xbebd104d	-0.369265
89	0xbe7aabd7	-0.24479614
90	0xbd4753db	-0.048663955
91	0xbdd44fe4	-0.103668004
92	0xbd32c272	-0.04364247
93	0xbd638695	-0.05554827
94	0xbec68a6f	-0.3877749
95	0xbeb10632	-0.3457504
96	0xbe62bb8a	-0.22141853
97	0xbecec542	-0.4038487
98	0xbeee69bf	-0.46565053
99	0xbdb870c9	-0.09005887
100	0xbe000c3f	-0.12504672
101	0xbeb6b009	-0.3568118
102	0xbeea9913	-0.4581991
103	0xbcccae08	-0.024985328
104	0xbe121233	-0.14264755
105	0xbebad247	-0.36488554
106	0xbe108784	-0.14114195
107	0xbe2459af	-0.16049837
108	0xbcbd6f0b	-0.023124238
109	0xbd96c0e9	-0.073610134
110	0xbeb434f9	-0.35196665
111	0xbf0e1105	-0.5549472
112	0xbe8be1bd	-0.27320662
113	0xbea95e9a	-0.33079988
114	0xbd7c8c4d	-0.06165724
115	0xbca21339	-0.019784557
116	0xbe4c1190	-0.19928575
117	0xbed574fc	-0.41690814
118	0x3f968f55	1.1762491
119	0xbe998377	-0.29983112
120	0xbebf260d	-0.37333718
121	0xbd5f5ecf	-0.054533776
122	0xbdaf5bcf	-0.08562433
123	0xbc817168	-0.015801147
124	0xbe95ec7e	-0.29281992
125	0xbe946991	-0.2898679
126	0xbdef8e1a	-0.116970256
127	0xbb9dce35	-0.0048158416

xy_to_r.input_to_hidden.4.weight f4 [16, 128]
0	0xbdeb4bca	-0.11489065
1	0xba6ae239	-0.00089601014
2	0x3df275be	0.11838864
3	0xbd9edfa7	-0.07757502
4	0xbda284ba	-0.07935472
5	0xbd77180f	-0.06032568
6	0x3bbd85e7	0.0057837847
7	0xbda1cc4e	-0.07900296
8	0xbd5626fa	-0.052283265
9	0xbb38877d	-0.002815693
10	0x3d605843	0.054771673
11	0x3c785e30	0.015159175
12	0xbdba8f8f	-0.09109413
13	0xbdbd6b56	-0.09248988
14	0x3de807dc	0.11329624
15	0x3f0485d7	0.51766723
16	0xbe0f0090	-0.13965058
17	0xbeea7bf4	-0.45797694
18	0x3edd27f9	0.4319456
19	0x3d0352cb	0.03206138
20	0xbdabc150	-0.08386481
21	0xbdde2f26	-0.108488366
22	0x3d999b6e	0.07500349
23	0x3db2b200	0.08725357
24	0x3ec24d72	0.3794971
25	0xbb9da53c	-0.0048109572
26	0x3d29f0f3	0.041489553
27	0x3d9a2111	0.07525838
28	0x3c26bcea	0.010176877
29	0x3cfa9427	0.030588223
30	0xbde7e882	-0.11323644
31	0xbec42ee8	-0.38317037
32	0xbda5ac33	-0.08089485
33	0xbc1cb770	-0.009565219
34	0xbe1fae91	-0.15593936
35	0x3c4dafd9	0.012554132
36	0xbd9a8b73	-0.07546129
37	0xbe22694b	-0.15860479
38	0x3d0201fd	0.031740177
39	0xbd4c65f5	-0.04990192
40	0x3f8f5207	1.1196908
41	0x3d12543b	0.03572486
42	0xbc442adb	-0.011973108
43	0x3d9d0ed9	0.076688476
44	0xbdb08101	-0.086183555
45	0xb9be6187	-0.00036312288
46	0x3e924dc3	0.28574952
47	0x3d725bac	0.059169456
48	0x3d61fe28	0.055174023
49	0xbbec753e	-0.007216125
50	0x3c6c2579	0.014413231
51	0xbd6b843f	-0.057499167
52	0x3df3117f	0.118685715
53	0x3d9a4808	0.0753327
54	0x3e0a99ee	0.13535282
55	0xbd2f9a9f	-0.042872068
56	0xbcab159e	-0.020884331
57	0xbeee78ac	-0.4657644
58	0xbe814504	-0.25247967
59	0x3e142f84	0.14471251
60	0x3cb50424	0.022096701
61	0xbe7b62bd	-0.24549384
62	0x3b383ee2	0.0028113653
63	0x3d122576	0.035680257
64	0xbe133686	-0.14376268
65	0x3ca4d559	0.020121263
66	0x3c1c927c	0.009556409
67	0xbd78dc79	-0.060757134
68	0xbe418fb7	-0.18902479
69	0x3b2ae67b	0.0026077318
70	0xbd2f9f05	-0.042876262
71	0xbe81436c	-0.2524675
72	0xbe0d30ae	-0.13788101
73	0x3d72eaec	0.05930607
74	0xbdb783e8	-0.08960706
75	0x3e0dc097	0.13842998
76	0xbda84724	-0.08216694
77	0xbc1704ee	-0.009217484
78	0x3d520162	0.05127085
79	0xbc0f5054	-0.008747179
80	0x3e03cb3e	0.128705
81	0x3d9e029e	0.07715343
82	0xbce8d21c	-0.0284205
83	0x3eca1477	0.39468738
84	0xbd3b154b	-0.045674603
85	0xbda1a0ef	-0.07892024
86	0x3dd17907	0.10228162
87	0xbd1f9398	-0.038959116
88	0xbeb0a59b	-0.34501347
89	0x3ecbafa4	0.3978244
90	0xbe163f6e	-0.14672634
91	0x3e1bca8a	0.15213981
92	0x3d11092f	0.03540915
93	0xbcddbdbc	-0.027068011
94	0xbed90e4f	-0.4239373
95	0xbdd4012c	-0.10351786
96	0x3c936041	0.017990233
97	0xbe84d1b2	-0.25941235
98	0x3e9eb333	0.30996093
99	0xbd921cf8	-0.071344316
100	0x3e0ddb78	0.13853252
101	0x3eb89404	0.36050427
102	0xbe376a14	-0.1791156
103	0xbc976b4f	-0.018483786
104	0x3d0e2be7	0.034709837
105	0xbdf31f35	-0.11871187
106	0xbcf75a13	-0.030194318
107	0x3da47f39	0.08032078
108	0xbd5d789f	-0.05407011
109	0x3da7a4cf	0.081857316
110	0xbe348266	-0.17627868
111	0xbf7682e9	-0.96293503
112	0x3ea1e46a	0.3161958
113	0x3e6816b9	0.22664918
114	0x3ced74e9	0.028986411
115	0xbdf3a4da	-0.11896677
116	0x3e0ebbf6	0.13938889
117	0x3e2cb48b	0.16865747
118	0xbdb0546e	-0.08609854
119	0x3d35fb99	0.044429395
120	0xbd9b4285	-0.07581047
121	0x3cb3ddd8	0.02195637
122	0x3e9448f1	0.289619
123	0xbc925454	-0.017862476
124	0xbe974957	-0.2954814
125	0x3d07fd17	0.03320035
126	0xbd810a83	-0.06300833
127	0xbe021188	-0.12702
128	0xbd065d70	-0.032803953
129	0xbd8d32b1	-0.06894434
130	0xbdff5d20	-0.12468934
131	0xbd1f8c38	-0.038952082
132	0x3c18f9ec	0.00933693
133	0x3dd2ee49	0.102993555
134	0xb9bdb343	-0.0003618245
135	0xbe141e55	-0.14464696
136	0xbc1fcb0f	-0.009753003
137	0x3dc6818d	0.096926786
138	0xc04d2597	-3.2054193
139	0x3db56ab3	0.08858242
140	0xbd00b89b	-0.031426053
141	0xbeae8d6a	-0.34092265
142	0xbcafef32	-0.021476362
143	0xbcb3830f	-0.02191308
144	0x3d525aff	0.051356312
145	0xbf055758	-0.520864
146	0x3eca4b79	0.39510706
147	0x3db88861	0.09010387
148	0x3dc19aef	0.09453379
149	0x3cc0840b	0.023500463
150	0xbbe586d6	-0.007004599
151	0x3e7eae1e	0.24871108
152	0x3e95bc20	0.2924509
153	0x3dc01154	0.09378305
154	0xbdd59f75	-0.10430805
155	0xbdeeb61b	-0.116558276
156	0xbd23fd2e	-0.040036373
157	0x3f91ab7a	1.1380455
158	0xbc26681f	-0.01015666
159	0x3ec5b5ee	0.38615364
160	0xbdebc93a	-0.1151299
161	0xbcb11b92	-0.021619592
162	0x3e03519d	0.12824102
163	0x3da9ac3c	0.08284804
164	0xbf9f052a	-1.2423451
165	0x3e69d30c	0.22834414
166	0x3df91ae4	0.12163332
167	0xbd663334	-0.056201175
168	0xbfa2c401	-1.2716066
169	0x3e053e7c	0.13012117
170	0xbda0967c	-0.078412026
171	0xbf1376e5	-0.57603294
172	0xbc3aa5cb	-0.011392067
173	0x3b4f9eef	0.0031680425
174	0xbe463f8a	-0.19360176
175	0x3c8eb969	0.017422395
176	0xbde3bf13	-0.11120429
177	0xbd1031c4	-0.03520371
178	0x3ca06095	0.019577304
179	0xbcb3768b	-0.021907112
180	0x3e780743	0.2422152
181	0x3e4c0c2b	0.19926517
182	0xbeda6482	-0.42654806
183	0xbb6db13d	-0.0036268972
184	0xbead09ca	-0.3379653
185	0xbed13063	-0.4085723
186	0xbed4e1f4	-0.4157864
187	0xbd501eb4	-0.05081053
188	0x3d80e26c	0.062931865
189	0xbd6b8257	-0.05749735
190	0xbd43cd64	-0.047803298
191	0xbc91c46e	-0.01779386
192	0xbd23d84c	-0.0400012
193	0xbc419e8e	-0.011817588
194	0xbd3e68f0	-0.046486795
195	0xbd8043c2	-0.06262924
196	0xbd99ee46	-0.0751615
197	0x3c2fe39d	0.01073542
198	0xbd0365db	-0.03207956
199	0xbe80dc86	-0.25168246
200	0x3e399390	0.18122697
201	0xbdf1c0dc	-0.11804363
202	0x3d9122f0	0.07086742
203	0xbeac83a9	-0.336942
204	0xbe331009	-0.17486586
205	0xbd04ecf6	-0.032452546
206	0xbe165f7b	-0.1468486
207	0xbdddcd2d	-0.1083015
208	0xbdde1fbf	-0.10845899
209	0xbe8feab0	-0.2810874
210	0xbbcd89fc	-0.0062725525
211	0xbe97282b	-0.29522833
212	0x3e8c5e57	0.27415726
213	0x3cd85d54	0.02641169
214	0xbd87189a	-0.06596489
215	0xbe5faaf0	-0.21842551
216	0x3e7aac25	0.2447973
217	0x3ea2e801	0.3181763
218	0x3daf505e	0.08560251
219	0xbdca6cb4	-0.09884015
220	0xbcf5beb4	-0.02999816
221	0xbdb17ea4	-0.08666733
222	0x3eae291f	0.34015748
223	0x3e9efe5e	0.31053442
224	0x3dabfbca	0.08397634
225	0x3e91a9c1	0.28449824
226	0xbee57490	-0.44815493
227	0x3d8317c6	0.06401019
228	0xbd157b0d	-0.036494303
229	0xbe93a66f	-0.28837916
230	0x3e3cb191	0.18427111
231	0xbdfa68c8	-0.12227017
232	0xbd6a36e4	-0.057181254
233	0x3dbd1d78	0.09234136
234	0xbc882a5f	-0.016621767
235	0xbd23de5c	-0.04000698
236	0x3d4ebd7c	0.050473675
237	0xbc212949	-0.009836503
238	0xbe8e6178	-0.27808738
239	0xbdeff62c	-0.117168754
240	0x3e95bb69	0.29244545
241	0xbe2416b1	-0.16024281
242	0xbd80504e	-0.06265317
243	0xbe139554	-0.14412433
244	0xbe2a7204	-0.16645056
245	0x3eb6127e	0.35560983
246	0x4001137b	2.016814
247	0xbf095685	-0.53647643
248	0xbe0e7230	-0.13910747
249	0x3df75260	0.12076259
250	0xbd85399c	-0.06505129
251	0x3c28097f	0.01025617
252	0x3f3489cc	0.7052276
253	0x3ddcb1ad	0.107760765
254	0xbdc49ef9	-0.09600634
255	0xbe0c9d49	-0.13731875

xy_to_r.input_to_hidden.4.bias f4 [16]
0	0x3dec2da5	0.115321435
1	0xbeb38841	-0.3506489
2	0xc00a30d2	-2.1592298
3	0xc0514587	-3.2698686
4	0x3d733e35	0.059385497
5	0x3f4a6ebb	0.7907521
6	0x3c9ffa5f	0.019528566
7	0x3d3bb458	0.045826286
8	0xbd3206e6	-0.04346361
9	0xbd36a851	-0.044594113
10	0xbf1b4929	-0.6065851
11	0xbdcdf6ff	-0.100568764
12	0x3d8f02fd	0.06982992
13	0x3d4e547c	0.05037354
14	0xbd13e518	-0.036107153
15	0x3c2a42db	0.010391916

r_to_mu_sigma.r_to_hidden.weight f4 [16, 16]
0	0x3b794d19	0.0038040339
1	0xbecaf5ed	-0.3964075
2	0x3de7209a	0.11285515
3	0x3c3c96cf	0.011510565
4	0xbc80071d	-0.015628392
5	0xbea253fe	-0.31704706
6	0xbcd1644e	-0.025560524
7	0x3cd7d1e5	0.026345203
8	0xbbb01117	-0.005373131
9	0x3c10467c	0.008805867
10	0x3f828736	1.0197513
11	0x3c3299fd	0.0109009715
12	0xbc772275	-0.015083899
13	0x3b991e9c	0.0046728384
14	0x3c4e8ecd	0.012607289
15	0x391b8463	0.0001483127
16	0x3c70db33	0.014700699
17	0xbe2c4791	-0.16824175
18	0x3f6c4723	0.92296046
19	0x3ee7f589	0.45304516
20	0x3cca1bf0	0.024671525
21	0x3ef041aa	0.46925098
22	0x3b70e9b5	0.0036760394
23	0xbc63b309	-0.013897666
24	0x3cbdb765	0.023158738
25	0x3c08b6d9	0.0083443755
26	0xc026f79a	-2.6088624
27	0xbd863a50	-0.06554091
28	0x3cfd231f	0.030900536
29	0x3c46442d	0.012101215
30	0xbd4f668f	-0.050634917
31	0x3d93f1d4	0.072238594
32	0x3e446619	0.19179572
33	0xc09cdd44	-4.90201
34	0xbf934349	-1.1504909
35	0xc01821a7	-2.377054
36	0xbe909a84	-0.28242886
37	0x3ff79b02	1.934418
38	0xbe9556d9	-0.29167822
39	0x3e630901	0.22171403
40	0xbe6ef00a	-0.23333755
41	0x3f40832c	0.7520015
42	0x3f687067	0.9079651
43	0xbd1eabc7	-0.03873804
44	0xbe69e9f5	-0.22843154
45	0xbe79b734	-0.24386293
46	0xbe1ec337	-0.15504156
47	0xbf274f71	-0.6535559
48	0x3c982059	0.018570112
49	0x3efa571a	0.48894578
50	0xbe7f2328	-0.24915755
51	0x3ea65cef	0.32492778
52	0xbba096af	-0.0049007754
53	0x3f80e1a9	1.0068866
54	0xbc970251	-0.018433722
55	0xbc25b881	-0.01011479
56	0x3bb63ee7	0.0055616978
57	0x3c2c9940	0.0105345845
58	0x3f02a07b	0.51026124
59	0xbc52a01a	-0.012855554
60	0xbba5b46e	-0.0050569093
61	0x3ba2b813	0.004965791
62	0xbba0d97b	-0.004908738
63	0xbc52ce0a	-0.012866506
64	0xbd8271ed	-0.06369386
65	0xbfa0832a	-1.2540028
66	0xbf2f7533	-0.68538207
67	0xbee0bdfd	-0.4389495
68	0x3ac91a2b	0.0015342882
69	0x3f987f33	1.1913818
70	0xbd9d5510	-0.0768224
71	0x3bc4ad19	0.00600208
72	0xbddb77a4	-0.10716179
73	0x3e6da9d0	0.2320931
74	0xc0a89182	-5.267762
75	0x3ac8689e	0.0015289967
76	0x3acacdad	0.0015472673
77	0xbd40dcd3	-0.047085594
78	0xbe0a1263	-0.13483576
79	0xbe251276	-0.16120324
80	0xbc94d105	-0.018166075
81	0x3e5c8df7	0.2153853
82	0x3ef9872e	0.48735946
83	0xbebc0030	-0.36718893
84	0xb635c5fb	-2.7086342e-06
85	0x3f562e3d	0.83664304
86	0x3c71e0b0	0.014763042
87	0xbbf665e9	-0.007519473
88	0x3a4eb0ea	0.00078846386
89	0x3b5e6c4c	0.0033939062
90	0xc00ef403	-2.2336433
91	0x3c67e25c	0.014153089
92	0xbadfd0f3	-0.0017075822
93	0xbc6f4631	-0.014604137
94	0xb808cf05	-3.261773e-05
95	0xbc9d8330	-0.019227594
96	0x3c7f7510	0.015591875
97	0xbf086eed	-0.5329426
98	0xbea0e388	-0.31423593
99	0x3fef6baa	1.8704731
100	0x392e2954	0.00016609329
101	0xbe584ce0	-0.21123075
102	0x3b1852ae	0.002324264
103	0xbdbe0cea	-0.09279807
104	0x3bb7653c	0.005596785
105	0xbd1246db	-0.035712104
106	0xbca05b52	-0.019574795
107	0xbd4da895	-0.0502096
108	0x3b89d5ed	0.00420641
109	0x3d183640	0.03716111
110	0xbda62e83	-0.0811434
111	0xbd7fcdf2	-0.062452264
112	0xbb3108be	-0.0027013267
113	0x3f0757dc	0.5286844
114	0xbdcdc2b5	-0.10046903
115	0xbe08b36c	-0.13349694
116	0x3d076794	0.033057764
117	0xc001b0b5	-2.0264103
118	0x3d1adebd	0.037810076
119	0xbc2aab7b	-0.010416861
120	0xbbcc2efc	-0.006231187
121	0xbc55d19f	-0.013050466
122	0xbf864962	-1.0491145
123	0xbd136603	-0.035985958
124	0x3d0f0920	0.03492081
125	0x3c01986c	0.007909875
126	0xbd3eaa15	-0.04654892
127	0x3d0e8b6c	0.03480093
128	0x39aa49cf	0.00032479918
129	0xbf345abf	-0.7045097
130	0xbfad0a0e	-1.3518693
131	0x3e86fd48	0.26365113
132	0x3d252f93	0.040328573
133	0xbd98a114	-0.07452598
134	0x3d41bd8b	0.047299903
135	0xbd1d8b79	-0.03846309
136	0xbcea0443	-0.028566485
137	0x396d7233	0.00022644624
138	0xc05968fa	-3.3970323
139	0x3cf3bda2	0.02975351
140	0x3d3937ae	0.045219116
141	0xbd78852a	-0.06067387
142	0x3d218d18	0.039441198
143	0xbd8b36c5	-0.06797556
144	0xbd0bea04	-0.03415872
145	0xbeed59c8	-0.4635756
146	0x3e798b83	0.24369626
147	0x3d70a13c	0.058747515
148	0xbcb10503	-0.021608835
149	0x3eb43cf7	0.35202762
150	0xbc89379a	-0.016750146
151	0x3c17112b	0.009220402
152	0x3c872d84	0.016501196
153	0xbbf89a24	-0.0075867344
154	0xbfa64a24	-1.2991376
155	0x3cdf64b3	0.027269697
156	0xbcc717d4	-0.024303354
157	0x3c4d000b	0.012512217
158	0x3cdd91bd	0.027047032
159	0x3d3aa77f	0.045569893
160	0x3e3a8163	0.1821342
161	0x3f140e6c	0.57834506
162	0xbf287875	-0.658088
163	0xbed90a14	-0.42390501
164	0x3de74cec	0.112939686
165	0x3f451e99	0.76999813
166	0x3f0be53b	0.5464665
167	0xbe20f39a	-0.15717927
168	0x3da131be	0.07870816
169	0x3eba6c70	0.36410856
170	0xbd935d22	-0.07195498
171	0x3e68834f	0.2270634
172	0x3e5f9907	0.21835719
173	0xbef0bf51	-0.47020963
174	0x3e2b9801	0.16757204
175	0xbf0f1938	-0.55897856
176	0xbc24c719	-0.010057234
177	0x3f8f5882	1.1198885
178	0x3e9afce4	0.30271065
179	0xc019b72d	-2.4018052
180	0x3d855007	0.06509405
181	0x3fdc2f8a	1.7202008
182	0x3d063140	0.032761812
183	0x3d2e83bd	0.042606104
184	0xbce21036	-0.02759562
185	0x3c4c96e9	0.012487152
186	0x3f7aa52e	0.97908294
187	0xbd761bd8	-0.060085148
188	0x3d964bec	0.073387
189	0x3cf3e7ef	0.02977368
190	0xbda97076	-0.08273403
191	0x3dd46509	0.103708334
192	0x3daecae4	0.08534792
193	0x3ec6891a	0.38776475
194	0xbf290c8b	-0.66034764
195	0xc075678a	-3.8344445
196	0xbebeaa39	-0.37239245
197	0x3fec30cc	1.8452392
198	0xbcd39141	-0.025826098
199	0x3d44bef3	0.048033666
200	0x3d3623b9	0.04446766
201	0xbeac9c37	-0.33712932
202	0x3fa2487e	1.2678373
203	0xbd230a15	-0.039804537
204	0xbed35d23	-0.41281995
205	0x3ea6de8e	0.3259167
206	0x3e710c6a	0.23539892
207	0x3e9f02a2	0.31056696
208	0x39b1c85b	0.00033909347
209	0x3e9b87ef	0.30377147
210	0xbf604227	-0.8760094
211	0x3fa7d1e8	1.3110933
212	0x3dc56a27	0.096393876
213	0x3fb99583	1.4498752
214	0x3e4233ee	0.18965122
215	0xbd1c91ca	-0.038224973
216	0xbd2aaf53	-0.04167111
217	0xbcd1c68e	-0.025607374
218	0xc0328112	-2.7891278
219	0xbe182010	-0.14855981
220	0x3da5a672	0.080883875
221	0x3cae5b3b	0.021283736
222	0xbe46c94e	-0.19412729
223	0xba42faaa	-0.00074378646
224	0x3e219bcb	0.15782087
225	0x3f48bf81	0.7841721
226	0xc09ea2fb	-4.957395
227	0xbd5bf121	-0.053696755
228	0x3e06c9a5	0.13162859
229	0xbe846bf6	-0.25863618
230	0xbdc091cf	-0.09402811
231	0x3d020681	0.031744484
232	0xbd2330df	-0.03984153
233	0xbdb2a4e1	-0.087228544
234	0x3e40d442	0.1883097
235	0xbdf21df5	-0.1182212
236	0x3dcf21f1	0.10113896
237	0x3df8d867	0.121506505
238	0xbdab5a0d	-0.08366785
239	0x3cb15bb9	0.021650182
240	0x3d8b7068	0.06808549
241	0x3ec22fa0	0.3792696
242	0xbc00a101	-0.007850886
243	0xbfec0d3d	-1.844154
244	0x3e117856	0.14206061
245	0xbd54dc74	-0.051968053
246	0x3e0d4f4d	0.13799782
247	0xbde5b23b	-0.112156354
248	0x3d0fa65b	0.03507076
249	0xbe5d3313	-0.21601515
250	0x3b385c98	0.0028131362
251	0xbddf6d69	-0.1090954
252	0x3e02e470	0.12782454
253	0x3d85debd	0.065366246
254	0xbd08f01d	-0.033432115
255	0x3d3d3f65	0.046203036

r_to_mu_sigma.r_to_hidden.bias f4 [16]
0	0x3f35f731	0.7108031
1	0xc04a96ca	-3.1654534
2	0xc0a87482	-5.264222
3	0x3fae69d9	1.3626052
4	0xc1220386	-10.12586
5	0xbf9fc5fa	-1.2482293
6	0xbfddeea5	-1.7338454
7	0xbf84e6ee	-1.0382974
8	0xc06e6f17	-3.7255304
9	0x3f2c5783	0.6732103
10	0xc0b711d5	-5.720927
11	0xc0ac5c9e	-5.386306
12	0xc1229360	-10.16098
13	0xc058e7ff	-3.38916
14	0xc0620b0a	-3.5319238
15	0xbf7ace93	-0.9797146

r_to_mu_sigma.hidden_to_mu.weight f4 [2, 16]
0	0x3dc62d1a	0.09676571
1	0x3e48e101	0.19617082
2	0x3d0deb72	0.034648366
3	0x3f362dfe	0.7116393
4	0x3d73e683	0.059546005
5	0x3e8518f9	0.25995615
6	0xbd671c2e	-0.05642336
7	0xbf31f29f	-0.69510835
8	0xbdf6ebdd	-0.12056706
9	0xbe42eec0	-0.19036388
10	0xbd09acd9	-0.033612106
11	0x3ee7e44f	0.45291373
12	0xbeaa9a7e	-0.33320993
13	0xbe8b89a7	-0.27253458
14	0xbddccaae	-0.107808456
15	0x3df02622	0.11726023
16	0x3f4cb2af	0.7996015
17	0xbf093a84	-0.5360491
18	0xbb2e806d	-0.002662684
19	0x3c980d59	0.018561052
20	0x3f368bbe	0.7130698
21	0xbeeb57a7	-0.4596531
22	0x3d6dd5e2	0.058065303
23	0x3eab1a72	0.33418614
24	0xbf0e297d	-0.55532056
25	0xbef06c64	-0.46957695
26	0xbe3562b4	-0.17713434
27	0xbc4fd7e5	-0.012685751
28	0xbd11c05e	-0.035583846
29	0xbcdc6177	-0.026901944
30	0xbd05d037	-0.032669272
31	0x3d8478f6	0.06468384

r_to_mu_sigma.hidden_to_mu.bias f4 [2]
0	0xbeda7679	-0.42668512
1	0xbf7fb4c4	-0.998852

r_to_mu_sigma.hidden_to_sigma.weight f4 [2, 16]
0	0x3deedc62	0.116631284
1	0x3ea63b09	0.32466915
2	0x3f4af141	0.79274374
3	0x3da07f37	0.07836764
4	0xbe8fb778	-0.28069663
5	0xbdc5fa20	-0.09666848
6	0x3f5a8770	0.8536291
7	0x3ea4187a	0.32049924
8	0x3e522b0e	0.20524237
9	0x3f29afde	0.6628398
10	0x3ee68e40	0.45030403
11	0x3f0820ae	0.53174865
12	0x3f8604cb	1.0470213
13	0x3e7cda4d	0.2469265
14	0x3f84c06d	1.0371224
15	0x3f704562	0.9385587
16	0x3f002c87	0.50067943
17	0x3ee22e9a	0.4417618
18	0x3f37fb7c	0.7186811
19	0xbcfed757	-0.031108541
20	0xbeed3172	-0.46326786
21	0x3c14c7c3	0.00908083
22	0x3f7e7aa2	0.9940587
23	0x3f0099c5	0.50234634
24	0xbe841629	-0.25798157
25	0x3f831f80	1.0243988
26	0x3fa0c33b	1.255958
27	0x3e915345	0.28383842
28	0xbd6b6ce9	-0.05747691
29	0x3f35601a	0.70849764
30	0x3f5f270a	0.87168944
31	0x3f40935d	0.7522486

r_to_mu_sigma.hidden_to_sigma.bias f4 [2]
0	0xc0826f9e	-4.076125
1	0xc0a48695	-5.1414285

xz_to_y.xz_to_hidden.0.weight f4 [128, 3]
0	0xbfe478e6	-1.7849395
1	0xbd22a81a	-0.039711095
2	0xbd644003	-0.05572511
3	0xbf459968	-0.77187204
4	0xbd2b3af3	-0.041804265
5	0x3d7c7b46	0.061641
6	0xc028f2ef	-2.6398275
7	0x3e25cc2f	0.16191171
8	0xbbc4ab44	-0.0060018618
9	0xc002da74	-2.0445833
10	0x3d9d63a3	0.0768502
11	0xbd92afa1	-0.07162405
12	0xbf5e8efa	-0.86936915
13	0xbc389cf0	-0.011267886
14	0xbd8c46b3	-0.06849422
15	0xbfc4098e	-1.5315416
16	0xbcea1ceb	-0.028578242
17	0xbd087c16	-0.033321463
18	0xbfa78fcb	-1.3090757
19	0x3cdb7935	0.026791194
20	0x3d752ee9	0.05985919
21	0xbed2e214	-0.4118811
22	0x3e898c4a	0.26864845
23	0xbe1c886f	-0.1528642
24	0x403e176e	2.97018
25	0xbe20b513	-0.15694074
26	0xbe37ddec	-0.1795575
27	0xc0212d88	-2.518404
28	0x3dc39473	0.09549799
29	0xbdc42ba7	-0.095786385
30	0xbf328e61	-0.697485
31	0x3da73d97	0.08166044
32	0xbdc8a379	-0.09796805
33	0xbfa4640b	-1.2843031
34	0xba2fb1c2	-0.0006702208
35	0xb92409f4	-0.00015643967
36	0x3f3d6a06	0.73989904
37	0x3dc2a666	0.09504394
38	0xbd97e733	-0.074171446
39	0xbfb529a1	-1.4153329
40	0xbd33b484	-0.043873325
41	0xbd0a72c8	-0.03380087
42	0x3e8105dd	0.25199786
43	0xbeb06b54	-0.34456885
44	0x3e596dc1	0.21233274
45	0xbf9d6cd0	-1.2298832
46	0x3d182143	0.037141096
47	0xbd1bb77a	-0.038016774
48	0xc15aff93	-13.687396
49	0xbe2a61c2	-0.16638854
50	0xbf2588b9	-0.6466175
51	0xc02b74ad	-2.6789963
52	0xbda6c40e	-0.08142863
53	0xbd07d274	-0.033159688
54	0xbf3fdf5a	-0.7495018
55	0x3bc707c5	0.0060739242
56	0xbd8934fd	-0.0669956
57	0x3dd732a3	0.10507705
58	0x3d1e2567	0.03860989
59	0xbc0637e5	-0.008192037
60	0xc0170789	-2.359835
61	0x3cdcac43	0.02693761
62	0xbc04cdd3	-0.008105713
63	0xc02c2ac1	-2.6901095
64	0x3d181064	0.037125006
65	0xbe4db25e	-0.20087573
66	0xc0c29ef7	-6.081905
67	0x3e58449f	0.21119927
68	0xbcf50c17	-0.029912991
69	0x3f69a47b	0.912666
70	0x3e020f99	0.12701263
71	0x3f97c887	1.1858071
72	0x40b8978b	5.768499
73	0xbf37d8d6	-0.7181524
74	0x3e2461aa	0.16052881
75	0xc0031926	-2.04841
76	0xbde571dd	-0.11203358
77	0x3caf8f38	0.021430597
78	0xc152233b	-13.133601
79	0xbf84f060	-1.0385857
80	0xbfcb9e76	-1.5907733
81	0xbfe4db74	-1.7879472
82	0x3d842992	0.064532414
83	0xbd1206ba	-0.035650946
84	0xbf40c914	-0.7530682
85	0x3dad0b62	0.08449437
86	0xbd7a1a56	-0.061060272
87	0xbfe6f10e	-1.8042314
88	0xbba9d2c0	-0.005182594
89	0x3cb26280	0.021775484
90	0xbf8c93da	-1.0982621
91	0x3ab4b0e7	0.0013785631
92	0xbcd95c51	-0.026533278
93	0xbfad8797	-1.3557004
94	0x3d29d9ad	0.041467357
95	0xbe060a9f	-0.13089989
96	0xc095020c	-4.6565
97	0xbd58b2c7	-0.05290487
98	0xbdf54079	-0.11975188
99	0x4112a53f	9.165343
100	0xbf06c927	-0.52650684
101	0xbf1a587d	-0.6029127
102	0xbf5a9080	-0.8537674
103	0xbb11b5c3	-0.0022233583
104	0xbc0f9f9b	-0.00876608
105	0xbffa9ddc	-1.9579425
106	0xbdda5856	-0.1066138
107	0x3dbd8ed1	0.09255756
108	0x3f9c9b6e	1.2234933
109	0xbc680f05	-0.014163737
110	0x3c0c9980	0.008581519
111	0xbf92430d	-1.1426712
112	0x3e3ba92d	0.18326254
113	0xbe008393	-0.12550192
114	0xc00043aa	-2.00413
115	0x3d0e6464	0.03476371
116	0x3b978307	0.004623774
117	0xc0849738	-4.1434593
118	0xbcff79f3	-0.03118608
119	0x3d68ae33	0.056806754
120	0xc02010f4	-2.5010347
121	0x3dadc76c	0.08485302
122	0xbe66a058	-0.22522104
123	0x40bc4856	5.88383
124	0x3f261633	0.64877623
125	0xbd8cd294	-0.06876102
126	0xc13485ba	-11.282648
127	0x3f13b1d5	0.57693225
128	0xbce9ad67	-0.028525067
129	0xbf5ad1af	-0.854762
130	0x3b9b5d2f	0.004741333
131	0xbc551d0a	-0.013007412
132	0xbf478445	-0.779362
133	0xbc9738ba	-0.018459667
134	0xbd229381	-0.039691452
135	0xbf74be87	-0.9560322
136	0x3c3b55c8	0.011434026
137	0x3c2f5a3e	0.010702668
138	0xc0614ed8	-3.5204372
139	0xbce3ed4e	-0.027823117
140	0xbda702d4	-0.08154836
141	0x4111512a	9.082315
142	0x3cbbbda1	0.02291757
143	0x3e9b6ea5	0.30357853
144	0xc11a5a3e	-9.647032
145	0x3f0b1554	0.5432942
146	0xbf3b9188	-0.7326894
147	0xc016c640	-2.3558502
148	0xbcfdbd92	-0.030974183
149	0x3d33f8fc	0.043938622
150	0xbfddeade	-1.7337301
151	0xbf8cf589	-1.1012431
152	0xbee68e7d	-0.45030585
153	0xbd5c4e66	-0.053785704
154	0xbb16ef92	-0.0023030979
155	0xbd2e7da8	-0.042600304
156	0xc09036e6	-4.5067015
157	0x3d8a068d	0.06739531
158	0x3d87aefd	0.06625173
159	0xc00edf13	-2.2323654
160	0x3d0ccc17	0.034374323
161	0xbe0dd972	-0.1385248
162	0xc0244f60	-2.5673447
163	0x3e01397d	0.12619586
164	0xbd913fa9	-0.0709222
165	0x410380be	8.218931
166	0xbdd9cbc6	-0.1063457
167	0xbe8ab104	-0.27088177
168	0xbfe22b98	-1.7669554
169	0xbe0adef1	-0.13561608
170	0x3df42f4c	0.11923084
171	0xbf66a6ca	-0.9009825
172	0xbc29a9a4	-0.010355387
173	0xbcce4fe1	-0.025184574
174	0xbfb3a3c6	-1.4034355
175	0x3d0874d2	0.033314534
176	0xbd84b467	-0.064797215
177	0xc20232cd	-32.54961
178	0x3f56c686	0.8389667
179	0x3f5f7cab	0.87299603
180	0x4088d317	4.275768
181	0xbd7abbc6	-0.06121423
182	0x3c86a940	0.016438127
183	0xbf857fe2	-1.0429652
184	0x3c2a1962	0.010382028
185	0x3b220284	0.0024720738
186	0x3f5fd20c	0.8742988
187	0xbf539918	-0.8265548
188	0x3f9de26c	1.2334723
189	0xc220236a	-40.034584
190	0x3e7f5eb5	0.24938472
191	0xbed67429	-0.41885498
192	0xc11737a8	-9.451088
193	0x3e661055	0.22467168
194	0xbf5a8f9d	-0.85375386
195	0xc0a4e970	-5.153496
196	0x3e0869f2	0.13321665
197	0xbd6c2eec	-0.057661936
198	0xbf6b759c	-0.9197633
199	0x3df0c009	0.11755378
200	0x3d33b201	0.04387093
201	0xc0d2df64	-6.5897694
202	0x3e8b3496	0.27188557
203	0xbe4c2bde	-0.19938609
204	0x3e2a0352	0.16602829
205	0x39c1e945	0.00036985628
206	0x3cb1ddd5	0.021712223
207	0xbeca059c	-0.39457405
208	0x3c25d3ec	0.010121327
209	0x3d8162b7	0.063176565
210	0x3d8d01e8	0.06885129
211	0x3ba77ba5	0.005111175
212	0x3b941a63	0.004519747
213	0xc16c9dac	-14.788494
214	0xbfae3dcc	-1.3612609
215	0x3f15f2e0	0.5857372
216	0x3f1e30f3	0.6179344
217	0xbd500739	-0.050788138
218	0x3ccec753	0.02524153
219	0xbf7e1aa5	-0.99259406
220	0x3d577694	0.05260332
221	0xbdaea148	-0.08526856
222	0xbfb5a955	-1.4192301
223	0xbc6f3f40	-0.014602482
224	0x3d028987	0.031869438
225	0xc02ec5f9	-2.7308333
226	0x3d29cc77	0.04145476
227	0x3d857276	0.06515972
228	0x410afef8	8.687248
229	0xbd6b03c4	-0.057376638
230	0xbea65406	-0.3248598
231	0xbf19b8a6	-0.60047376
232	0x3d768689	0.060186896
233	0xbdcaf2f2	-0.099096194
234	0xc17fdbdf	-15.991179
235	0x3ea28a77	0.31746265
236	0xbe173c10	-0.14769006
237	0xbf400e29	-0.75021607
238	0xbc8e6826	-0.017383646
239	0x3c8f7ee7	0.017516566
240	0x411f4812	9.955095
241	0xbf4ae847	-0.7926068
242	0x3ee8319f	0.45350358
243	0xbf774b7a	-0.96599543
244	0x3cb57c7a	0.022154082
245	0xbc11470c	-0.008867037
246	0xbfa327d8	-1.2746534
247	0x3d2a905c	0.041641578
248	0xbdbb2cdb	-0.09139415
249	0x4122895d	10.158536
250	0xbf4fdbd6	-0.8119482
251	0x3e80bf1a	0.251458
252	0xbf74b1ee	-0.95584
253	0x3dd97600	0.1061821
254	0xbd4e248e	-0.05032783
255	0xc0106c58	-2.2566128

xz_to_y.xz_to_hidden.0.bias f4 [128]
0	0xc0048ea1	-2.0712054
1	0xc0074ef6	-2.1141944
2	0xc0390771	-2.8910792
3	0xc0af3178	-5.4747887
4	0xbf9cce81	-1.225052
5	0xbf8bba6d	-1.0916268
6	0xbfa6fe33	-1.3046325
7	0xc07be297	-3.935705
8	0xc109b44b	-8.606517
9	0xc058f024	-3.389657
10	0xbfa9e00b	-1.3271497
11	0xbcc94128	-0.024567202
12	0xc00dade1	-2.2137377
13	0xbfe08135	-1.7539431
14	0xc09e7cf0	-4.952751
15	0xbf019bf7	-0.5062861
16	0x40857aea	4.171254
17	0xc0168d87	-2.3523881
18	0xbf916390	-1.1358509
19	0xbf28a007	-0.6586918
20	0xc02995e9	-2.6497748
21	0xc028c5ea	-2.6370797
22	0xc0787168	-3.8819218
23	0xc08e7d85	-4.452822
24	0xc1100730	-9.001755
25	0xc0277e47	-2.6170824
26	0xc145d920	-12.365509
27	0xbfd187f3	-1.6369613
28	0xbfb2cac0	-1.3968124
29	0xbfaffd5c	-1.3749194
30	0xbf41bd01	-0.7567902
31	0xbfade9de	-1.3586996
32	0xc04e1376	-3.2199378
33	0xc120c79e	-10.048735
34	0xbe72d987	-0.23715793
35	0xc0132dad	-2.2996628
36	0xbff933e3	-1.946896
37	0xc032f6f3	-2.7963226
38	0xbfc41b68	-1.5320864
39	0xc06f15cc	-3.7357054
40	0xc01f1c6e	-2.4861102
41	0xc06dbdfc	-3.7147207
42	0x408afebe	4.3435965
43	0xbef5c185	-0.47999206
44	0xbfe90e9d	-1.8207585
45	0xbeea22f0	-0.4572978
46	0xc02a5146	-2.6612105
47	0xc0d6a1e7	-6.7072635
48	0xbdcfba47	-0.101429515
49	0xbf9f7f18	-1.2460661
50	0xbfab7970	-1.3396435
51	0xbfaf16d8	-1.3678846
52	0xc07761a9	-3.8653357
53	0xc0311628	-2.7669773
54	0xc02f57b7	-2.7397287
55	0xc0ad789c	-5.420973
56	0xbfe7612b	-1.8076528
57	0xbf24480b	-0.6417243
58	0xbf86db7a	-1.0535729
59	0xbf3286ac	-0.6973674
60	0xc10e5eb8	-8.898125
61	0xbe461b04	-0.19346243
62	0xc043eced	-3.0613358
63	0x4001bb93	2.0270736
64	0x40a8867e	5.2664175
65	0xc0296c3d	-2.6472313
66	0xbff50542	-1.914223
67	0xc0e20aea	-7.0638323
68	0xbf8f4f02	-1.1195986
69	0xbf8a7ad0	-1.0818729
70	0xbf11d41d	-0.56964284
71	0xc0a2a35b	-5.082441
72	0xc0369f9c	-2.8534918
73	0xbf8991c9	-1.0747615
74	0xbf8b7d9c	-1.0897708
75	0xc03ec201	-2.980591
76	0xc03f6e4e	-2.9911075
77	0xbfbc417c	-1.4707484
78	0x406f4a5e	3.738914
79	0xbf8ae1e6	-1.0850189
80	0xc0b4ef74	-5.65423
81	0xbf847bd6	-1.0350292
82	0xbf98c6d6	-1.193568
83	0xc0a2d06d	-5.0879426
84	0xbfc296b3	-1.520224
85	0xc02f9d70	-2.7439842
86	0xbfb37a6b	-1.4021734
87	0xbfd116fb	-1.6335138
88	0xc0ac5b4d	-5.386145
89	0x402cdbc5	2.7009137
90	0xbfd11bd4	-1.6336617
91	0xc02e116a	-2.7198129
92	0xc01d2bcf	-2.4557989
93	0xc1274b63	-10.455905
94	0xc037d81d	-2.8725655
95	0xc06e4ab0	-3.7233086
96	0xc00094b3	-2.0090759
97	0xc005e7d8	-2.0922756
98	0xc0181a5e	-2.3766093
99	0xc018282b	-2.3774517
100	0xc016a7f2	-2.3540006
101	0xc04cccdc	-3.2000036
102	0xc03f4570	-2.9886131
103	0xbf1b7208	-0.6072087
104	0xbfebf364	-1.8433652
105	0xbfe44953	-1.7834877
106	0xc0444b75	-3.0671055
107	0xbfdb6004	-1.7138677
108	0xbfb12986	-1.3840797
109	0xbff098e1	-1.8796655
110	0xc03c9ac3	-2.946946
111	0xbfe51f66	-1.7900207
112	0xc09a0bb6	-4.8139296
113	0xbfd18ada	-1.6370499
114	0xc0019aa7	-2.0250642
115	0xbfc4ecc1	-1.5384752
116	0xc08787da	-4.2353334
117	0xbf53cc60	-0.82733727
118	0xbe7af63e	-0.24507996
119	0xc022b09d	-2.5420296
120	0xbfc52344	-1.5401387
121	0xc00d039c	-2.2033453
122	0xbf566307	-0.83744854
123	0xc0339fc4	-2.8066263
124	0xbd60032a	-0.054690517
125	0xbfb99fd0	-1.4501896
126	0xbff37da2	-1.9022715
127	0x405a9c84	3.415803
