seed-AuNP-phasemaps/pretraining/tune/32_4_128_1.46E-04_4/model.pt (torch, 232416 bytes, 20 tensors)

xy_to_r.input_to_hidden.0.weight f4 [128, 2]
00000000: 2f07 0ebf 6a73 e13c 2c80 1cbf 495f c1be
00000010: 94bf e53e 1f1b 563e acc7 8cbe 8b3e 223f
00000020: 0438 683f e96a c2be 2af6 2e3f f73e f2be
00000030: f614 293f e789 11bf b1ae 9dbe 5b2d 2cbf
00000040: d82d 0a3e 0a21 1ebf 1c99 30bf f774 a73d
00000050: 8dc7 1dbe f005 1ebf e333 c03d ccd9 083e
00000060: dd94 90be 1012 fb3d d1f6 4ebf ab50 283f
00000070: 9f9e 9fbe d7e1 773e 11e4 173d 36f3 ffbe
00000080: ee21 0e3f f7e6 fc3d ab2f fe3e f2fe ea3d
00000090: 4e03 483e daef 94be 80fe 253f 12b2 1d3f
000000a0: be08 afbe 24d8 e2be 315b 14bf 25ec 8cbd
000000b0: a0a0 f13e 66d7 1abf 70be 77bf 2145 003f
000000c0: e5c6 893e 597d d23e 0f9a adbd 20e7 0dbe
000000d0: df56 be3e 68b1 6d3e 826e 343e 8e5b c33e
000000e0: b65e b83e 3352 76bd cee1 103f d696 cf3d
000000f0: 110b 6abf b8cc 573c 301c 65be 42fd 41be
00000100: 8951 d9be a4c1 16bf 6daa 00be 8550 203e
00000110: 07b2 debe 3b29 e4bc 1deb 99bf a512 5dbe
00000120: 1f27 ffbe a6ae 69bb 52df 4abf db70 b93e
00000130: 47d3 0d3f 9db5 823e de24 4bbf 560d b93d
00000140: c535 02bf 1a49 553e ac90 00bf af97 bb3e
00000150: 70d0 25be 206f 313c 9621 2d3e c636 103c
00000160: cddf 41be 46dc c03d 093b 2fbf f076 65be
00000170: 53a6 06bf 2b58 8bbd f5fb a63d ec1e ed3e
00000180: 8f14 94be fc87 f4be 0c68 46bf f3c6 193f
00000190: 9058 453c 2d31 da3e efd5 b3be 356e a53e
000001a0: 9ab1 28bf b7aa af3e c240 a6bd 213e c73d
000001b0: 8ec5 09bf e599 e23e fa9f ee3e 4713 8dbe
000001c0: dd5d 383f db57 803e c55c 593f 18d3 1e3e
000001d0: e680 443e 67f8 fc3e 131f e7bd 92f6 bc3b
000001e0: 84a9 a6be 7cef 65bc 5328 cabe b749 6abd
000001f0: ee3d e4be 5f59 35bd d851 4d3f 6d5c 023d
00000200: 1b22 38bf 9dad ec3e 3644 c63d c03e 003f
00000210: 90d3 0bbd aec6 02bf d21a 33bf 9d2b 0bbf
00000220: 382e d53e 6ccd 1b3d a2b4 e13e e1fa 4fbf
00000230: 7d90 3dbf 26e7 853e 571b 0c3f 5e57 f8bd
00000240: ff85 87be 02a4 063e 1b10 e63e 0b22 f7be
00000250: ac8a cabe 31ac 10bc 038d 1a3e 9232 ccbe
00000260: 3859 69be db60 38be 2eee d93e 6b71 3f3c
00000270: f582 5d3e a68b 34bf fa38 42bf 42fe a23e
00000280: 4af5 f8be 477d 563e f136 5d3f b887 32be
00000290: b31b 00bf f945 69be 8da1 1dbd 93eb a5be
000002a0: e3b7 8ebe 579e 47bd aed7 c6be f38d 8cbd
000002b0: b672 2dbd 82db ac3d 9075 cd3e c377 033f
000002c0: abdb ecbc dbd4 c03e dc19 c4be 94c7 43bc
000002d0: 5c9b acbe 9341 dc3e c729 0cbf 07fe 653e
000002e0: 589d 37be cc73 4abe 7c91 40bf f887 fa3e
000002f0: e86d 09bf 33d7 e7be ae8c 2d3f 6a88 463e
00000300: 78bb 613e ab53 9dbe db9e 11bf 8a94 5a3c
00000310: d9c6 3a3e 82ec 82be 8f2e c5be 6d06 3e3f
00000320: e968 c63e 54d0 f7be 9e2e 233f 66ed 183e
00000330: 6265 ba3e fb6b b93e 5b9d fcbe 330e a43e
00000340: 86aa d0be 7d92 23be 4bf7 1abf a4f0 5abe
00000350: 24e3 dabe 56b7 273f 54d8 24bd 422d 9abf
00000360: b2d9 a8be fd5f 9abe 3a0f 29bf 77c0 70be
00000370: ea24 e93e becb 9d3e 9cec 813d 0265 7d3e
00000380: 5e4c dd3e 9381 2dbf 2b6a 56bf ab0c 103f
00000390: 147f 0cbd beb6 16bf 8de3 133e b7ce 403f
000003a0: 6981 273f 9bf4 b33e 8e2e 92be 079e f63b
000003b0: e769 dd3d 183d 8b3d 22f9 af3e dd7a 463c
000003c0: 68aa 003f 0861 71bf 80ee 57be 3a70 81bf
000003d0: c8e9 9ebe a4d4 0e3f 4c94 373e e784 2bbb
000003e0: 4397 a8be 15ac 073e 215b 6cbf 6b8d c13e
000003f0: 649e 1d3f aefc 37bf 2752 25bf f72d 2abf
-0.5547971 0.027520854 -0.61133075 -0.3776801 0.44872725 0.20908783 -0.27496088 0.63376683
0.90710473 -0.3797219 0.68344367 -0.47313663 0.6604761 -0.5685105 -0.3079734 -0.67256707
0.1349405 -0.61769164 -0.68983626 0.08176606 -0.15408154 -0.6172781 0.093848966 0.13364333
-0.28238574 0.122593045 -0.8084536 0.6574809 -0.31175706 0.24207245 0.037082735 -0.49990243
0.5552052 0.123487405 0.49645743 0.11474408 0.1953251 -0.29089242 0.6484146 0.6159984
-0.34186357 -0.44305527 -0.5795165 -0.068809785 0.4719286 -0.6048492 -0.9677496 0.5010548
0.26909557 0.41111258 -0.0847665 -0.13857698 0.37175652 0.23212206 0.1762028 0.38155788
0.3600976 -0.060136985 0.5659455 0.101361915 -0.91423136 0.013171367 -0.22374034 -0.18944266
-0.4244502 -0.5888922 -0.12565012 0.15655716 -0.434952 -0.027851691 -1.2024876 -0.21589144
-0.49834535 -0.0035657077 -0.7924701 0.36218914 0.5540051 0.25529185 -0.7935313 0.09035747
-0.50863296 0.20828667 -0.5022075 0.36639163 -0.16192794 0.010829717 0.16907343 0.0088021215
-0.1893303 0.09417014 -0.68449455 -0.22408652 -0.5259754 -0.06803926 0.08153526 0.46312654
-0.28921935 -0.47759998 -0.7750251 0.600692 0.012045041 0.42615643 -0.35124156 0.32310644
-0.65896 0.34309933 -0.0811782 0.09728647 -0.5381707 0.44258037 0.46606427 -0.2755377
0.72018224 0.25067028 0.8490718 0.15510213 0.19189796 0.49408266 -0.11285224 0.005766698
-0.32551205 -0.014034148 -0.3948389 -0.057199206 -0.445785 -0.044274684 0.8020301 0.031826425
-0.7192704 0.46226206 0.09680979 0.5009575 -0.03413731 -0.5108441 -0.699628 -0.54363424
0.41636825 0.038037702 0.44083124 -0.81242186 -0.74048597 0.26152915 0.5472922 -0.12126039
-0.26469418 0.13148502 0.44934162 -0.4826816 -0.39558923 -0.008830116 0.15092854 -0.39882332
-0.2278794 -0.18005697 0.4256453 0.011684756 0.21631987 -0.70525587 -0.7586819 0.31834608
-0.4862464 0.20946227 0.8641196 -0.17434585 -0.50042266 -0.22780599 -0.038484145 -0.3240629
-0.2787467 -0.04873499 -0.38836426 -0.06863012 -0.042345725 0.08440305 0.40128756 0.51354617
-0.02891334 0.37662396 -0.3830098 -0.011949439 -0.3371228 0.4301878 -0.5475125 0.22460185
-0.17931116 -0.19770736 -0.7522199 0.4893186 -0.5368333 -0.4528137 0.67792785 0.19387975
0.2204417 -0.30727896 -0.5688302 0.013341079 0.18239917 -0.25571066 -0.38512084 0.74228555
0.38751915 -0.4840113 0.6374301 0.1493431 0.36405474 0.36215195 -0.49338803 0.32042083
-0.407551 -0.1597385 -0.6053359 -0.2138086 -0.4275142 0.65514123 -0.04024537 -1.2045062
-0.32978588 -0.30151358 -0.6603886 -0.2351092 0.45535976 0.30819505 0.06343958 0.24745563
0.43222326 -0.6777584 -0.8375575 0.5626933 -0.03430088 -0.5887259 0.14442272 0.7531542
0.6543184 0.35147557 -0.28551143 0.0075261625 0.10811215 0.06798762 0.3436976 0.012114254
0.5026002 -0.9428868 -0.21087074 -1.0112374 -0.31037736 0.55793214 0.17927665 -0.0026171745
-0.32927904 0.13249238 -0.9232655 0.37803206 0.6156981 -0.71869934 -0.6457848 -0.66476387

xy_to_r.input_to_hidden.0.bias f4 [128]
00000000: 7ecd 003f dd65 173f 059b 0ebf 1f17 6fbe
00000010: da3c e3be ca6b 92be e030 2abf 9f9d 17bd
00000020: 1e50 ef3e 8995 2bbf 348d 78be 1aa9 71be
00000030: 58b8 10bf 1a33 c4be f60a 0c3d a74e 8dbe
00000040: 148d acbe 2ee8 3abe 929a 8e3e bf17 95be
00000050: e5d0 993e f36d 2b3f 6245 9c3d f56b 08bd
00000060: 481d 19bf 901b 77be 917a 0dbf 471e 05be
00000070: 6ca1 f83b d6c0 20be 8eea e43e 716a 11bf
00000080: 897a 27bf 0be9 29bf 2f4e d13e ce97 3d3f
00000090: 0ba2 bcbd 940f 62bd 9fb9 56be 3be4 e73d
000000a0: 0d7a 873e 5937 a73c b7a2 bfbe 797a 40bd
000000b0: af75 0dbf 2f2a 1fbf 172b c8be f9ff 963e
000000c0: 3a20 2dbf f0eb 453d 738c cabd ccaf e53d
000000d0: 042a 553d 7ea2 f2be 16c2 a23e 2735 723e
000000e0: 354f 0abf f9e3 b8be ae0f 18be 6c1a 9bbc
000000f0: 705e 9c3e 1af3 a03e ec2d 003f 42b9 46be
00000100: 6a24 bdbe ade1 febd b283 a23e 435e 0dbf
00000110: 6cf8 f8bd c187 d63d 6d92 093f ca38 9e3d
00000120: e3cb 05bf d0b0 043e 77b7 b13e de21 acbe
00000130: cb7d 60be e763 c2bd d0d7 c1be 7925 c83e
00000140: f1ff 813e 19f2 e3be 8fb1 dbbe dabd 613e
00000150: 75a9 8ebe f5c9 f13e 1471 35bc 0713 ddbe
00000160: 843b 44bf 949f ae3e 354a f6bc 1655 913e
00000170: b2fd de3e 94aa 993d 70a2 163f db6c c4be
00000180: 177f 933e 326d fcbe 7d99 933d 8b13 39bf
00000190: 40bb 233e 9363 5ebe ad9d 22be 9c59 1d3e
000001a0: 8023 00bf 0963 e43e 0801 c7be 78e5 943e
000001b0: 574e ed3e 413b 54bd f33c 96bc 2778 80bd
000001c0: 4df3 14bf e960 19bf f77f ba3e 550a 01bf
000001d0: 5f1f 2ebf 710b e6be 92cf 0d3e 96ed a3bd
000001e0: e54d cdbd 3724 673e 62e7 3fbe 4c36 0abd
000001f0: 4998 2e3e e1e6 84be 649a 083f bd03 7cbe
0.50313556 0.59139806 -0.5570529 -0.23348664 -0.44382364 -0.28597862 -0.6648083 -0.037015554
0.46740812 -0.6702505 -0.24272615 -0.23599663 -0.56531286 -0.38320237 0.03419014 -0.2759907
-0.33701384 -0.18252632 0.27852303 -0.2911968 0.30042186 0.66964644 0.07630421 -0.03330608
-0.59810305 -0.24131608 -0.55265146 -0.12999831 0.0075876024 -0.15698561 0.447102 -0.5680304
-0.6542135 -0.6637122 0.40879962 0.7405976 -0.09210595 -0.055190638 -0.20969246 0.113228284
0.26460305 0.020412134 -0.3742883 -0.0469918 -0.55257696 -0.6217374 -0.39095375 0.29492167
-0.676273 0.04832071 -0.0989007 0.11215171 0.052042022 -0.47389597 0.317887 0.23653089
-0.5402711 -0.3611143 -0.14849731 -0.018933497 0.305408 0.31435472 0.5007007 -0.19406608
-0.36941844 -0.12445388 0.317411 -0.55221957 -0.12156758 0.10475112 0.53739053 0.077256754
-0.5226423 0.12958074 0.34710285 -0.3361959 -0.21922986 -0.09491711 -0.37859964 0.3909109
0.2539058 -0.44520643 -0.42908904 0.22045079 -0.2786366 0.47224393 -0.011074323 -0.4317858
-0.76653314 0.34106123 -0.030064682 0.28385228 0.4355293 0.07503238 0.5884161 -0.383643
0.288079 -0.4930206 0.0720701 -0.72295445 0.15989399 -0.21717672 -0.15880461 0.15366215
-0.5005417 0.44606808 -0.38867974 0.2908132 0.4634883 -0.05181432 -0.01833961 -0.06272917
-0.5818375 -0.599135 0.36425754 -0.5040639 -0.6801662 -0.44930604 0.13848713 -0.080043
-0.10024623 0.22572409 -0.1874061 -0.033743188 0.1705028 -0.25957397 0.5336058 -0.24610801

xy_to_r.input_to_hidden.2.weight f4 [128, 128]
00000000: ae8e bcbd ab7e 64bd f002 4a3f a18e 92be
00000010: d970 0cbf 4626 42bf f27c 81bc 93ee 95bd
00000020: 33ee ce3b 8bc9 adbc 3459 a83d e3a9 433e
00000030: 82bf 6b3d ef25 9abe 7afc d23c f346 823d
00000040: 3172 003f aeed 323e 79b6 df3c 6980 8d3d
00000050: 1714 abbe bb84 edbc b673 fabd 50c6 12bf
00000060: 04c7 723e 3241 9c3d e01a 253f cbf3 ea3d
00000070: 1274 e23d 2620 0d3e 19f8 83be 02b7 8f3d
00000080: 854c 983d 2235 cc3c 707a bcbd 1bc5 a0be
00000090: 80d2 80bd b630 6fbf 7994 fb3d 9617 38bf
000000a0: 3c7a efbd a967 d9bc 0563 863d 3c84 443d
000000b0: 06af 9e3d 73d3 acbc 062e 4dbd 6895 163e
000000c0: 3b7f 983d 4b6c a9be 9ec4 003e 1ec7 063e
000000d0: 00fd 22bf c909 a9bd 5567 893d 4c79 cb3d
000000e0: d64b d83e 98bc 823e 0782 073e 143d 4b3d
000000f0: 106f 8a3c 6cba 8dbd 6683 723b 952e 9f3d
00000100: b671 66bf 4d10 3b3e d434 9a3d bcc7 b13c
00000110: d972 543e e870 a0bd ef12 66bc f6dc ab3d
00000120: d934 b23d a818 c13d 3052 bdbd 3b74 92bd
00000130: e99d 9b3d e0b8 3b3e 74db 213d b4f5 c0be
00000140: 204e 893d 02bd e1be 183f 383d a711 9d3c
00000150: 0a37 8d3d 6e56 9d3d 236e ea3d f7df 213e
00000160: dfd1 853e ec78 0dbe 60bc ef3d 5cbe f6bd
00000170: 6bbd 883d c39e 09bf 852a 40be 4bb0 0b3e
00000180: d7fc 993d c8a9 aabd 41bc 6d3d 37f2 253e
00000190: 71cf 10be d684 d93d 0dc2 a13d e63f 19bc
000001a0: 3677 9b3d 99f5 4fbe d71d b4be 09cc 8fbf
000001b0: 6145 2bbd f117 70bd 0210 2a3e c86d 0e3e
000001c0: e137 e8ba 1f78 1dbf 3123 47bd 998b 31be
000001d0: 5259 2c3e 9c5e b73b bc3f 093d 0d13 2e3e
000001e0: a3ae f3be 503b a9bf daba 8abe 1b23 193e
000001f0: 287d afbe ec74 72bf 966e f13d df7f 3ebc
00000200: e494 083d e5dc 82bc b216 ebbf 2ea5 a1bd
00000210: 1b8d 4cbf 1b6a 3dbf 4a7a b03d 5e56 92bd
00000220: 9e42 cc3d f49e 85bc 3bfc 5abd 4958 d53e
00000230: f7ec adbc 2f33 28bf 9a2a d83b 8b0d 833d
00000240: a6e4 9bbe f2a7 dc3d 4eb3 1c3c 6625 e23b
00000250: 9006 883c 5d09 b33d 8a68 b1bc f212 bfbe
00000260: f49a 6a3e 632d 1c3d a208 96bf 43d7 d73d
00000270: 0b97 a53d 0540 0f3e eaaf a2be 9558 68bc
00000280: 94b9 253d 4e97 b2bd a7ea 9f3d 9370 b2bd
00000290: 9302 c83b 627c 3dbe b561 df3d ffef b6be
000002a0: 0a74 f8bd 1b2f 91bd b374 6d3d 1833 a73d
000002b0: 97e8 a63d f7dd 783b 3074 b43d 958c b73d
000002c0: debe 71bc 48db aebe 624f 003e 1e2c 98bc
000002d0: f3b4 25bf f0f4 65bb fcd2 ef3d 4c9e 363d
000002e0: d8e3 0ebf 65d4 06be 57f8 323e 154c d33d
000002f0: 2add 713d 7f77 d8bd 98c2 c53d 07c1 133e
00000300: 0051 b2bd 9908 363e ee10 30bc 395a 7cbd
00000310: 0c9a 993d c646 413d 4908 063e f525 463b
00000320: f3dd 8ebd beea 823d 13f7 8d3d 5bb1 afbd
00000330: 8c91 323d 55c0 173e 6fc6 43bd b8fe a3be
00000340: 6281 24bd 0e6e 56bf d255 a6bd d502 1b3c
00000350: d279 ad3d 6749 f33a 1fe0 033e cd48 54be
00000360: 14af e7bc 6303 a33b f515 d23d ccc3 5bbe
00000370: c307 e93d ca3d f8be 673b b03d bcb9 1bbe
00000380: 46c0 843d 956b b13d fa85 c73d a7c5 0abd
00000390: 3620 acbd 4f01 393d c6b9 aa3d d6f4 82bd
000003a0: fcf0 0abd 6889 163b 09d3 bebe 45a4 c6bd
000003b0: cda4 e3ba 9cc5 14bc 42e8 153e d111 523d
000003c0: 678f 0a3d 7836 b53d 68b9 873d e34e 95be
000003d0: f3cc 9bbf 53cb eebb 0548 423d 2701 f93d
000003e0: d732 06bf debb 1b3f 5f20 553c 6eca 523d
000003f0: 4f7b 9dbe 83dc 88be c1fa e43d 3db3 31bd
-0.092069015 -0.055784862 0.7891073 -0.28624442 -0.5485969 -0.7583965 -0.015806649 -0.07320895
0.0063150167 -0.021214267 0.08220139 0.19107775 0.057555683 -0.30107066 0.025755156 0.06361189
0.5017424 0.1747348 0.02730869 0.06909258 -0.33413765 -0.028993955 -0.12229101 -0.5733385
0.23708731 0.076296225 0.64494133 0.11472281 0.11057295 0.13781795 -0.2577522 0.07017328
0.0743647 0.02492768 -0.092030406 -0.3140038 -0.0629015 -0.934337 0.12284178 -0.7191099
-0.11693236 -0.026538687 0.06561855 0.04797767 0.07748227 -0.02109692 -0.05009272 0.14705431
0.07446142 -0.33090433 0.12575004 0.13161895 -0.636673 -0.082538195 0.06709162 0.09935245
0.42245358 0.2553451 0.13233195 0.049618796 0.016898662 -0.06920323 0.003700459 0.07772557
-0.9001726 0.18267937 0.075296074 0.021701686 0.20746936 -0.07834035 -0.0140426 0.08391754
0.08701486 0.09428531 -0.09244192 -0.071510755 0.07598478 0.18332243 0.039515927 -0.37687457
0.06704354 -0.44089514 0.044982046 0.019173456 0.068952635 0.07682501 0.11446788 0.15808092
0.2613668 -0.1381566 0.117058516 -0.12048027 0.066767536 -0.53757876 -0.1876622 0.13641469
0.075189285 -0.083331645 0.05804086 0.16205679 -0.14141633 0.106210396 0.078983404 -0.0093536135
0.07591097 -0.20308532 -0.35179016 -1.1234142 -0.04181421 -0.058616582 0.16607669 0.13909066
-0.0017716849 -0.61511415 -0.048617546 -0.17338409 0.16830948 0.005595995 0.033508047 0.16999455
-0.47594175 -1.3221226 -0.2709568 0.14954798 -0.34275174 -0.9470966 0.11788671 -0.0116271665
0.03334512 -0.015974471 -1.8366301 -0.07892834 -0.7990281 -0.7399003 0.08617075 -0.071453795
0.09973644 -0.016311146 -0.053463202 0.4166892 -0.021231158 -0.657031 0.0065968754 0.063990675
-0.30447882 0.107742205 0.009564234 0.006901431 0.016604692 0.0874202 -0.021656293 -0.37319142
0.22910672 0.03812922 -1.1721385 0.10539105 0.0808545 0.13989265 -0.31774837 -0.014181276
0.040460184 -0.08720265 0.07808428 -0.08712878 0.0061038225 -0.1850448 0.10907308 -0.35729977
-0.12131508 -0.07089063 0.05797262 0.08164042 0.08149832 0.0037974098 0.088112235 0.08962361
-0.014754979 -0.34151673 0.12530282 -0.018575724 -0.6472923 -0.003508862 0.11710164 0.044584557
-0.5581641 -0.1316696 0.17477547 0.10317246 0.05904881 -0.10569667 0.096562564 0.14429103
-0.08706856 0.17776717 -0.010746224 -0.06160948 0.07500085 0.047186635 0.13089098 0.0030235026
-0.06975927 0.0639243 0.06931891 -0.0857875 0.043595836 0.14819463 -0.047796663 -0.32030272
-0.04016245 -0.8376168 -0.08121838 0.009461124 0.08470501 0.0018561304 0.12878464 -0.20730896
-0.028281726 0.004974769 0.10258094 -0.2146141 0.113784336 -0.4848464 0.0860508 -0.15207571
0.06481986 0.08663098 0.09742351 -0.033879902 -0.08404581 0.045167264 0.08336215 -0.06394355
-0.033921227 0.0022970084 -0.37270382 -0.09699301 -0.001736784 -0.009080317 0.1463938 0.051286522
0.033828165 0.0884828 0.0662716 -0.29161748 -1.217192 -0.0072874217 0.047431964 0.12158423
-0.52421325 0.6083354 0.013008206 0.051462583 -0.3075814 -0.26730737 0.1118064 -0.043383826

xy_to_r.input_to_hidden.2.bias f4 [128]
00000000: 062e e53c 491a 8f3d 3b37 a23d 66f0 f3bd
00000010: 52a1 50bd 7fc5 9f3c 4679 1d3d 9636 8d3d
00000020: dd86 b23c 9d36 3f3d 2647 04bd 7f3a bb3c
00000030: 5b1f acbd 217c 08bc 689b 0abd 5ceb bbbd
00000040: 7021 433d 5bc4 41bd 319d 6f3c eae6 d73b
00000050: bacd 033e ff58 5ebd 488d 193d c11f 33bd
00000060: ab73 413d 7d9b 213e 64e9 83bd 66ec 103c
00000070: df13 973d fe73 06be 55d5 ba3b d8e9 833b
00000080: 93bb d4bd 3cbf 343c f934 433c 3a09 4ebd
00000090: 47e4 023d 271c 86bd 9334 02bd f551 923d
000000a0: f34c 3fbd 311a 42bd 712b fe39 2758 953c
000000b0: 29db f83c 0579 c5bd 5010 b4bc e75f a33c
000000c0: 81f8 b9bd d560 003d b671 f0bc 7284 be3a
000000d0: 29c3 203c a4d3 e7bc 6c71 75bd 82bf d53c
000000e0: b230 9a3d 93e9 3fbd 0711 36bd d582 46bc
000000f0: ddb9 8abd f7e2 94bc e5e0 b0bd 4272 653d
00000100: a47a 9fbd 0907 48bc 5d4d 94bd 6b65 3e3d
00000110: bfa1 713d 2132 45bd 34be 5bbd 32f1 6b3d
00000120: e9ae 10ba 2110 643d 3d1d b03c 9609 04be
00000130: bf24 e43c 1076 b1bd 4e79 2abe b889 273d
00000140: df7a 803d f6b6 903d c289 9b3d 8800 cbbc
00000150: 877f 65be 129e cb3d f9fa 3f3d c487 ee3c
00000160: 8e8c 9a3d 5181 853d c72f 28bc 41ca ea3d
00000170: 3c98 8a3d 9e32 963d 2f6f 46bd d00f 023e
00000180: 3c7d 46bd f3c9 f73d bc39 213e 0865 943d
00000190: e3aa 2e3d 3e9d cf3d ba41 9a3c 5776 883d
000001a0: 71b7 7e3d 4ed7 453d 1faa 43bc d1f5 d2ba
000001b0: 7ee2 00be e62c 8abd 53cc 1b3d e3a7 de3c
000001c0: 33af 2b3e 8499 90bd b627 603c d2f8 173e
000001d0: 519b 2a3d 5a19 03bd d2f8 ee3b c18d 16be
000001e0: b7a3 e4bc 8f18 873d 26fb e03d fceb e03d
000001f0: 5c37 eeba ac63 773d 1345 4e3a 269b dbbd
0.027976047 0.06987435 0.079206906 -0.11911087 -0.050935097 0.019503353 0.038445733 0.06895177
0.021792823 0.046682943 -0.032294415 0.022855042 -0.08404418 -0.008330376 -0.033839613 -0.091757506
0.04763931 -0.0473064 0.01462488 0.0065888064 0.12871447 -0.054284092 0.037488252 -0.043731455
0.04722945 0.1578197 -0.06441 0.008845424 0.07376837 -0.13130185 0.0057017007 0.004025679
-0.103873394 0.011031922 0.011914485 -0.050301768 0.031955983 -0.065483384 -0.03178842 0.07144538
-0.046704244 -0.04738826 0.00048479022 0.01823051 0.030377941 -0.09642223 -0.021980435 0.01994319
-0.090806015 0.031342346 -0.029351097 0.0014535321 0.009812155 -0.02829916 -0.05992262 0.026092295
0.07528819 -0.046853613 -0.044449832 -0.012116154 -0.06773732 -0.018174632 -0.08636645 0.056017168
-0.07787064 -0.012208709 -0.072413184 0.04648344 0.058992144 -0.04814351 -0.05364819 0.05760307
-0.00055192277 0.055679444 0.021498317 -0.12894282 0.027849553 -0.08665097 -0.16647837 0.040902823
0.06273436 0.07066147 0.075946346 -0.024780527 -0.22411929 0.09942259 0.046870206 0.029117472
0.0754634 0.06518806 -0.010265297 0.11464358 0.06767318 0.07333873 -0.048445877 0.12701344
-0.048459277 0.12099066 0.1574468 0.07245833 0.04264344 0.101374134 0.018830169 0.066631965
0.062186662 0.048301034 -0.0119424155 -0.0016094988 -0.125864 -0.06746845 0.038036656 0.027179664
0.16766052 -0.07060531 0.013681343 0.14841011 0.041652028 -0.0320066 0.0072928453 -0.14702512
-0.027910097 0.06596481 0.10985403 0.109825104 -0.0018174457 0.06039779 0.0007868569 -0.107229516

xy_to_r.input_to_hidden.4.weight f4 [32, 128]
00000000: 5f09 a7bd 7a7d 753e 0194 66bd 9eb0 ffbb
00000010: ef00 8a3c e11e 133e 7cbd 253e 1bcd 393d
00000020: 893c eebc a7c9 5c3e b90e e53c 2a2c 6abe
00000030: ea15 a2be 06ac 993d e330 723d 5959 1c3e
00000040: 40e5 a53d 9a1c 063d 35c8 02bf 39bd 9b3c
00000050: a6a8 8e3e 966b f03d 73e0 cc3e 09d2 2e3e
00000060: 5475 a73e a4d4 3b3e b0a7 ed3c fa1d 9dbe
00000070: b8bd b0bd 882f 40be bb06 24bd ce4f 583e
00000080: 7ea7 3cbe 26dc 3c3e dbcc 673d 983a 88bd
00000090: 16a5 6d3e 19f6 3d3c 14fd 093d d788 3abc
000000a0: 9184 c1bd 0999 97bc 70e1 303e 2dd4 9d3e
000000b0: 3531 073d dcbd 09bf 4a8d a03a 650a 203e
000000c0: b378 913d e502 393e 333c 21bd 1f31 bb3e
000000d0: edbc b4be 7c67 083e 6bd6 7f3d ecbd c7bc
000000e0: 0f1c ae3d ab13 453d f8ab 433b 1925 2f3e
000000f0: bd3b 33bd 7449 4c3d 0fb8 d73c eec0 9c3e
00000100: 208c 333e 54aa 30bc 01b7 8f3d 1d5f 3fbd
00000110: 7c22 0c3c 38ae 353e 2f7e 8bbe d4ef 8e3d
00000120: 5371 003f be5d 9dbe 9f18 eb3d 23f5 323e
00000130: 8eb8 1a3d 531d bd3d 6805 233c 572c e4bc
00000140: 6529 80bc 15a8 5ebe 3601 543e ebee b13d
00000150: cacf 4f3e 16d0 493e 186f bcbe d206 4abe
00000160: f96b b33e 8f7c abbe 90f0 ed3b 40f4 ac3e
00000170: 78da a7bc 1b34 28bd a8b0 05be 68a1 653e
00000180: 4754 a03d ef56 833e 7c53 063f 0415 063c
00000190: fa41 793c 3522 2dbd 468b 8f3d b191 593e
000001a0: d384 923d cc2e af3d 28d7 c7be 5cdc 853d
000001b0: d5c2 00bf a625 3c3d 74d4 103e 3144 eabe
000001c0: 40d6 d03e 4f64 90be d134 1e3d cd14 c73e
000001d0: 6eca 893e cbfe 0abd 409a 683b 6512 d03d
000001e0: 5772 153d 6867 f23c 4581 153e 0779 903e
000001f0: 890e de3d d710 83be 2b6b 193c 3491 1a3e
00000200: e600 623e 4beb 6c3d 7b8e f4bc 5071 3a3e
00000210: c9f4 8abd de68 df3d ece6 ed3d ad44 00bd
00000220: ad7f fabc b690 3b3e 8408 973e e912 a33e
00000230: f417 0e3e d250 d63c 5f69 1cbd 985c 343d
00000240: e50f 083d 0e3e 6e3e 782b 76bd b79f 2dbc
00000250: cbc4 de3d d9b8 5a3e cf23 613e 93af 6d3e
00000260: 3694 063d c2a3 8f3c deb9 203d aba3 183e
00000270: 2d9d 7e3d 4ea7 2a3d 1d76 f6bd 2f32 08bc
00000280: 9f17 713e f776 a53d cff8 7ebd 0d8c 893d
00000290: 7aa4 0f3e 07ca 9e3d 596b 31bd 2be2 76bd
000002a0: ff00 223e ae00 0e3d f4c6 893e 1f02 db3d
000002b0: 18ce 713d 1ec7 813e eb23 0dbc 011b d33c
000002c0: 5953 27bc 7423 c03d 8da0 84bc 13d9 f83c
000002d0: bd90 183e ac86 533d 6176 133e ce6b 333d
000002e0: 4945 1c3e 6c56 bbbc 9bc9 cc3c 365a fd3d
000002f0: a364 2d3d fae1 17b7 b69b be39 ca45 19bc
00000300: d78c eb3d d5d9 1a3d d342 f6bb 9c89 263d
00000310: cc3d 923d dda6 81bd bdd3 1dbc 57ab 543e
00000320: 53f1 703b 0246 a43d d925 55be 175f a03d
00000330: 4d87 34bd a46f 3a3d c1a6 7b3e 8dbe c6bc
00000340: 4237 a1bc 962f 233e 8cc1 cb3c 8c64 eb3b
00000350: 1219 bb3e 4cdd 013e 20d6 193d 0bbf fa3d
00000360: 12fe 0ebe ed25 083e 0752 313d 3beb 17be
00000370: 869b acbd 7276 863d e88c fa3e 6669 4b3d
00000380: f2dd 583e 585c cabd bafe c03d 76b2 08bd
00000390: 6273 223e fcd3 1a3e 1892 0a3d 745f 393e
000003a0: 3830 003e ac2d 673d 84ff f7bb f9f0 0fbd
000003b0: 8015 303d caf0 8ebc a13d 313e 3d2e d2bd
000003c0: 59d7 c4bd f2d5 af3e b7cc 98bd 517b 293e
000003d0: aa8c 23be 39a1 69bd 3266 733d 1d42 8e3e
000003e0: c69e 683d 9ade 653e 0be4 dabd 41d3 7fbd
000003f0: ccd6 923d cb92 92bd 2db8 4cbc 14ae 393e
-0.08156084 0.23973647 -0.05629349 -0.007803037 0.016846148 0.14367248 0.16185564 0.04536162
-0.0290816 0.215613 0.027961122 -0.2286841 -0.31657344 0.07503514 0.059128653 0.15268458
0.081003666 0.03274212 -0.5108674 0.019011127 0.27863044 0.117392704 0.4001499 0.1707231
0.32706702 0.18342835 0.029010624 -0.30686933 -0.08629936 -0.18768132 -0.04004548 0.21124193
-0.18423268 0.18443355 0.05659185 -0.06651801 0.23207507 0.011594319 0.03368862 -0.011385164
-0.09449113 -0.01850559 0.17273498 0.3082594 0.03300591 -0.5380533 0.0012249139 0.15628965
0.071031 0.1806751 -0.03936405 0.36560914 -0.3530039 0.13320726 0.062460344 -0.024382554
0.085014455 0.04811446 0.002985714 0.17103995 -0.043758143 0.049874738 0.026332883 0.30615944
0.17533922 -0.010782797 0.07017327 -0.046721566 0.008553144 0.1774224 -0.27244708 0.06979337
0.5017292 -0.30735582 0.114793055 0.17476325 0.03777366 0.09234109 0.009950019 -0.027853174
-0.015644738 -0.21743806 0.20703587 0.08688148 0.20294109 0.19708285 -0.36803508 -0.19729164
0.35043314 -0.33493468 0.0072613433 0.33780098 -0.020489916 -0.041065317 -0.1305567 0.22424853
0.07828575 0.25652263 0.5247114 0.008183721 0.015213484 -0.04226895 0.07008986 0.21246983
0.071542405 0.08553848 -0.3903134 0.06536171 -0.5029729 0.04593434 0.14143544 -0.4575515
0.4078846 -0.2820153 0.03862459 0.38883057 0.26912254 -0.033934396 0.003549233 0.101597585
0.036485996 0.029590324 0.14600094 0.28217337 0.10842616 -0.25598785 0.00936393 0.15094453
0.22070655 0.05784158 -0.029853096 0.18207288 -0.0678497 0.10908674 0.116163105 -0.031315494
-0.030578459 0.18316922 0.29498684 0.31850365 0.13876325 0.026161585 -0.038186427 0.044033617
0.033218283 0.2326586 -0.06010005 -0.010597161 0.10877379 0.21359576 0.21986316 0.23211507
0.03285619 0.01753414 0.039239757 0.14906184 0.062161613 0.04166346 -0.12034247 -0.008312746
0.23544167 0.08079331 -0.062249 0.06716166 0.14027587 0.077533774 -0.043315265 -0.060274284
0.15820692 0.034668617 0.26909602 0.10693764 0.059034437 0.25347227 -0.008614521 0.025769712
-0.010212743 0.09381762 -0.016189838 0.030376947 0.14898963 0.051642105 0.14400627 0.043803982
0.15260805 -0.022868358 0.024998477 0.12370722 0.042332303 -9.052916e-06 0.00036355638 -0.009355018
0.115014724 0.037805397 -0.0075152903 0.04065858 0.07140693 -0.06330655 -0.009633002 0.20768486
0.0036764934 0.080211654 -0.20815219 0.07830637 -0.044074345 0.045516625 0.2457533 -0.024260784
-0.01967967 0.15936121 0.024872564 0.007183617 0.36542565 0.12682074 0.03755772 0.1224347
-0.13964108 0.13295718 0.043291118 -0.14835827 -0.08428101 0.065655604 0.48935628 0.049661063
0.21178415 -0.098808944 0.09423585 -0.03337332 0.15864328 0.15119928 0.033830732 0.18102819
0.12518394 0.05644004 -0.0075683016 -0.03514192 0.042989254 -0.017448802 0.17308666 -0.102627255
-0.09611387 0.34342915 -0.07460921 0.16550948 -0.15971628 -0.05703852 0.059423633 0.27784815
0.056792043 0.22448197 -0.10688027 -0.062457327 0.071698755 -0.07156905 -0.012495083 0.18132812

xy_to_r.input_to_hidden.4.bias f4 [32]
00000000: c3bd afbc 2df1 aa3d 4093 8dbd b982 d13c
00000010: 6b5d bfbb 188c 0d3e 12ea ae3d e79b 033d
00000020: e815 6e3c db67 e43c 43dd 49bd 78e9 68bd
00000030: 0ad9 383d ef39 9f3a 9e41 a3bd 3028 afbc
00000040: 58c5 82bd 423f 0e3e 6080 123d be7a 33be
00000050: c8c2 2d3d 77e1 d63c 668b 06bd a52c 913c
00000060: d9a9 433c 36d5 c33d d833 3b3a ae8c 41bc
00000070: b6cd babd ba07 5dbd 0c0f ee3c d4f2 543c
-0.02145279 0.08346782 -0.06912851 0.025575029 -0.0058399937 0.13822973 0.08540739 0.032131102
0.01453159 0.027881553 -0.049283277 -0.05686328 0.04512886 0.0012148003 -0.079715 -0.021381468
-0.063852966 0.13891318 0.03576696 -0.17527291 0.042422086 0.026230557 -0.032847784 0.017721483
0.01194235 0.09562151 0.0007141209 -0.011813326 -0.091212675 -0.053962447 0.02905991 0.012997348

r_to_mu_sigma.r_to_hidden.weight f4 [32, 32]
00000000: 4936 d43d e2ed 30be 13ea 2abe ffaf 293d
00000010: 4d3e d5bd 7240 153f 8b07 a23e ec74 81bc
00000020: 9ec7 353e 08c5 343e 7967 bfbd 0a76 133e
00000030: 2e46 c2bd a20b 9bbe d4a3 2bbe f75b 933e
00000040: d190 50be 40ad eb3d ac5e 78bd 3908 a4be
00000050: cfbc 8c3d ea3f 0b3e ac60 29be 70c1 f6bc
00000060: fdb0 083e 0250 933e af68 67bd 52b9 69bd
00000070: 74ea 38be 79e3 a13d 396d e9be 279c 91be
00000080: f14d 883d 76f0 583e 8e16 a6bd cb00 983e
00000090: ac4d c7bb bd87 5a3d 078e 273d d303 b3bd
000000a0: 7f57 51be bddd eabd 653e ff3d 7dff 343e
000000b0: 9788 663d 01d5 4cbd 3c00 4c3e cd55 0d3c
000000c0: bc28 f33d 10eb 79bd 8113 f7bd 4966 bd3d
000000d0: 8752 b1be 918a e2bd f2bb 7fbc 64f9 70bc
000000e0: 3af3 853e d785 5dbe e6c0 87bd 4b6b 583e
000000f0: 712f 0b3e 0da3 3e3d 9ca3 ab3d bc68 27bd
00000100: 1dba cabd 1ae8 cd3d 6fa6 eb3e 826c d43d
00000110: 6fd2 883e 659c 1e3d 31c6 99bb 4175 fbbc
00000120: 8c06 513e ffda 4a3e c8f6 6dbc d6ce b5bd
00000130: 22c1 0fbe 90a7 313e 6f8d 783e b9b9 523e
00000140: 49c2 a43e 4b7a 313c a8d5 92be d4f1 f1bd
00000150: 3810 93bc c58c 6f3e 6864 a03d 8b3c 5a3e
00000160: 4d32 d13e 42ba e43e a445 9a3f 40b9 143d
00000170: b3a3 b8be 78db 98be eeb2 bebe 5134 debe
00000180: 096a 31bd dcee 04be cb31 a43e 5870 323c
00000190: 43d9 4b3f 21dd 843d 1291 debe c9dd 62be
000001a0: 5ed6 b53d eff0 843e 1c47 bebd aa94 22be
000001b0: 26f1 3bbf 75e9 d4bd 067a ebbe 0ce5 a33d
000001c0: 5fad 543e 6911 41be e439 bb3d 1db3 0f3d
000001d0: 2c28 833d 530f 253e c457 d23c 8bed 61bd
000001e0: 9ba0 0d3f 64e9 0abe cd2d 0d3f 51a2 4f3e
000001f0: 5ccd 3f3c ed5a 023f 5202 223d 9971 213d
00000200: 17fd acbd 9b76 c0be dd98 aa3b ace9 f1bd
00000210: 276e 2b3e fb5e 50bd e29f 6dbe 6ef0 e4be
00000220: bd34 443d f974 003e 30d2 af3d 37d6 473d
00000230: 9284 41bb 9694 8bbe f924 9ebc d8d5 323e
00000240: ebd2 4bbe 22a7 8dbe 7874 93bd 057b 6bbe
00000250: 3001 b83c f483 083e 738b 36be f619 75be
00000260: b0c8 c53e 0965 2d3d bac6 723e 5882 083e
00000270: 1165 9e3e 9c29 fc3e cb8b 41be 768c 7dbe
00000280: 8f2a 843d b76f 773e 8afc 99be ba19 673d
00000290: b846 683e 9501 3cbd 0014 a9bb 83e6 913e
000002a0: 1f1a b23d b926 a93d b136 06be 97c9 00be
000002b0: f1eb e03c f1d0 ff3d 8fbc 493e 9d9c 26be
000002c0: 8bc4 8e3e 613c d73e 669a 6fbc 9f8f 2fbe
000002d0: 8020 4fbe 5638 40bd 1b60 1fbd 2b83 fc3e
000002e0: 005c e43d 7b69 7f3e f371 93bc 41ff a83c
000002f0: 47b8 69bb 5bac a3be 8260 4b3e 4c8b 36be
00000300: fed1 9dbe e0e9 88bd bba2 c03c e9c6 923c
00000310: 2d2e 483f e254 46bf 2d5c f6bb f447 113e
00000320: fb35 0c3e 7d49 50be 5926 2ebd bc84 873e
00000330: 31d8 d8bd b81e f3bd 9c53 b13d 375e 07bf
00000340: 016a 0e3e 3b78 e0bd 0577 0e3f 12cb df3d
00000350: ff1c 513d 3330 5b3e 47f1 3abe f540 893d
00000360: 4f97 bdbe e315 003d db30 91be 94a1 aebe
00000370: 079b 36be ddbc 16be ba3d 903e 8ee5 a03d
00000380: 2030 4d3e 15b5 813e f382 01be 3139 a33e
00000390: 05cf 88bd 1026 573e d6f3 383e 93ae d43d
000003a0: b11d 2dbe 6ee6 443e 1c27 c1ba 9039 553e
000003b0: bc2d 70be 6d44 88b9 b7ca c7be 82be c8bd
000003c0: f728 ef3d 4498 4b3e 4568 0d3e eb2c 67bd
000003d0: a182 0dbe 8f34 233d 9dbb 0a3e c566 423e
000003e0: ebaf 553e 5681 6f3d a36c 05be e2dc 033e
000003f0: f88f 78ba c391 263e e888 24bd 0ba1 3a3c
0.103619166 -0.17278245 -0.16690855 0.04142761 -0.104122736 0.5830146 0.3164638 -0.015802823
0.17751929 0.17653286 -0.09345908 0.14400497 -0.09486042 -0.30282313 -0.16761714 0.287811
-0.20367743 0.11507654 -0.06063716 -0.32037523 0.0687195 0.135986 -0.16540784 -0.030121535
0.13348766 0.2877198 -0.05649632 -0.0570615 -0.18058187 0.07904715 -0.45591143 -0.28439447
0.06655491 0.21185479 -0.08109771 0.29688105 -0.0060822573 0.053352106 0.040906932 -0.08740964
-0.20443533 -0.114680745 0.12463073 0.17675586 0.056282606 -0.050007824 0.19921964 0.0086264135
0.11873004 -0.06101519 -0.12064267 0.09248025 -0.34633276 -0.11061586 -0.0156087745 -0.014707897
0.2616213 -0.21633087 -0.06628589 0.21134679 0.13592316 0.046542216 0.083808154 -0.040871367
-0.098987795 0.100540355 0.46025416 0.10372259 0.26723048 0.03872337 -0.0046928157 -0.03069556
0.20412654 0.19810103 -0.014524169 -0.088773414 -0.14038518 0.17349076 0.24272703 0.2057866
0.32179478 0.01083238 -0.28678632 -0.11813703 -0.01795207 0.23393543 0.07831651 0.21312158
0.4085869 0.44673353 1.2052503 0.03630948 -0.36062393 -0.2985494 -0.37245888 -0.4339929
-0.043314014 -0.12981743 0.3206924 0.010891043 0.7962839 0.064874895 -0.43470055 -0.22154917
0.08878778 0.25965068 -0.09290907 -0.15877023 -0.7341484 -0.10396091 -0.45991534 0.080026716
0.20769261 -0.18854298 0.09141901 0.035082925 0.064041466 0.16119127 0.025676616 -0.05515818
0.5532319 -0.13565594 0.5514801 0.20276763 0.011706676 0.5091999 0.039552994 0.039414976
-0.084467106 -0.3759049 0.005206211 -0.118121475 0.16741239 -0.05087183 -0.23205522 -0.44714683
0.047901858 0.12544622 0.08585012 0.048788276 -0.002952848 -0.272618 -0.01930474 0.17464387
-0.19904678 -0.27666575 -0.07199949 -0.22996147 0.022461504 0.13331586 -0.17826633 -0.23935685
0.38629675 0.042332683 0.2370862 0.13330972 0.30936483 0.49250495 -0.18900983 -0.24760613
0.0645343 0.2416371 -0.30075485 0.05642102 0.22683227 -0.045899946 -0.005159855 0.2849618
0.086963885 0.08259339 -0.131068 -0.125769 0.027456256 0.12491024 0.19700836 -0.1627068
0.27884325 0.42038253 -0.014624214 -0.17144631 -0.20227242 -0.046928726 -0.038910013 0.49318823
0.1115036 0.24942581 -0.017998671 0.020629527 -0.0035662816 -0.31967434 0.19861034 -0.17826575
-0.30824274 -0.06685233 0.023515096 0.017917113 0.7819546 -0.7747327 -0.0075183124 0.14187604
0.13692467 -0.20340534 -0.04251704 0.26468456 -0.1058811 -0.118710935 0.08658525 -0.52878135
0.13907625 -0.10960432 0.5565036 0.109274045 0.051053043 0.21405105 -0.18256103 0.06701843
-0.37029502 0.031270873 -0.28357586 -0.3410765 -0.17832576 -0.14720483 0.28172094 0.07856284
0.2003789 0.25333467 -0.1264761 0.3187957 -0.06680111 0.21010613 0.18061766 0.1038486
-0.16905858 0.19228527 -0.0014736387 0.2082274 -0.23454946 -0.00025990923 -0.39021847 -0.098019615
0.11677735 0.19882303 0.13809307 -0.05643932 -0.13819362 0.039845046 0.13548131 0.18984516
0.20867889 0.058472954 -0.13029723 0.12877229 -0.0009481902 0.16266541 -0.040169626 0.011390935

r_to_mu_sigma.r_to_hidden.bias f4 [32]
00000000: e140 fd3c db84 963c d978 603d 4cc8 69be
00000010: af58 74be edfe f53d 59e0 0c3e 57df a23e
00000020: f934 013e 6ce6 4e3e 1d22 3f3d 7ac3 943d
00000030: 9d79 f8bd 2657 833d 958e 243e 7f39 75bd
00000040: 6ef2 cc3d ed1f f33d d26f 313c f751 903d
00000050: 588f 17bd ec74 823c 51e5 7bbd 37aa 64be
00000060: 35c4 c8bd 9995 043e 3794 90bd 572a a13d
00000070: 6665 51be f0f7 79bd 4b1a a53d fe70 9f3d
0.030914726 0.018373897 0.05480275 -0.22830313 -0.23861955 0.12011514 0.13757457 0.3181102
0.12617864 0.20205086 0.046663392 0.07263847 -0.12132571 0.064131066 0.16070016 -0.059869286
0.10007177 0.11871324 0.010829883 0.070468836 -0.037001938 0.015924893 -0.06149799 -0.22330557
-0.098030485 0.12947692 -0.0705952 0.07869404 -0.20448837 -0.061027467 0.080616556 0.077852234

r_to_mu_sigma.hidden_to_mu.weight f4 [4, 32]
00000000: 782a 44bc c40c 82be b4c5 77bc 7aea 303c
00000010: b6da 3e3d 0443 99bc 1ece 6a3e 6310 aabc
00000020: ce5a 993e 1fa8 0fbe afc7 14bc 05ec 8e3c
00000030: f7e2 5cbd 81d8 39bd 0ab0 2abc 2f76 e6bb
00000040: 7628 71bd a2b5 1f3e 7255 a73d cca3 67be
00000050: cad6 a43d cbc0 803d 5aa3 c73d 3d25 cd3c
00000060: 7df4 bfbd e344 cabd 4600 0d3d 81ce 1dbe
00000070: 9be3 693e 2b30 d3bd de3b a8bc e80e 303e
00000080: 4c1c 823e b7e9 ee3d 7f30 2ebe 5121 aabc
00000090: d8e0 cdbe b9fa bcbe 3c3d d63c 4be3 153e
000000a0: 6424 73be b532 5a3e 5a5f 50bd a619 ddbe
000000b0: e22c 24bf 9591 7c3e 4294 9f3e 86bf 82be
000000c0: 20c9 c5bd 3d57 353e b0ad b03e f80c b3be
000000d0: b891 f0be 8751 833e a4fb 7e3d 091a 8dbd
000000e0: 1fdd 253d e27e 1cbe 1690 383d a6b3 ec3d
000000f0: 5cd6 98be 95ec 5bbe f259 c3bd bff8 95be
00000100: 6a12 9bbe 088a 103e bfe8 373d 1319 5ebc
00000110: ce54 533e dd1a e43d 5a55 1dbf 9939 2b3e
00000120: 71dd 7cbe e791 653e a25a 3e3d 6a6b debe
00000130: 8513 28be 4e10 a33b 5e43 63be c21f 7b3e
00000140: 36ef 75bd 24ab ffbe ec84 8bbe a82f 07bf
00000150: 7b02 ce3c 1fff adbe cb9a 06bf 971e 01bc
00000160: 6772 a03e 8851 263d b08f babd a895 733e
00000170: 669a 88be 0421 dd3d 0925 533e 3866 ab3d
00000180: 2bb0 d0be 8c41 5d3c 835f c2be 7814 773d
00000190: 1954 b33e 6392 80bd b0d9 8d3e 8ecd 9c3e
000001a0: 72fd 783e 3d0e d53c 175f 2b3c 9d1f b6be
000001b0: e324 c8bd 50b2 b83d b16a d2be 8c99 363e
000001c0: 5003 c13e 5b54 ebbe 2493 a5be baff 2fbc
000001d0: 21b4 1abe 4212 11be 5fa1 2dbf e10e d63e
000001e0: 39c1 2dbd 7cb2 26bf 69c3 df3d 8048 2bbe
000001f0: 5361 ef3c 86da b4be ae28 833e 5ad2 afbd
-0.011973016 -0.25400364 -0.01512282 0.010798091 0.046595298 -0.018708713 0.2293019 -0.020759767
0.2995209 -0.14028977 -0.009080811 0.017446527 -0.053927388 -0.04537249 -0.010417948 -0.0070331316
-0.058876477 0.15596631 0.08170594 -0.22621077 0.0804878 0.06286772 0.09747954 0.02504217
-0.09372804 -0.0987642 0.03442409 -0.15410806 0.22840731 -0.10311922 -0.02053636 0.17193186
0.25412214 0.11665671 -0.17010687 -0.02076784 -0.40210605 -0.36910036 0.026152246 0.14637487
-0.2374435 0.21308406 -0.050872184 -0.4318363 -0.64130986 0.2466491 0.311678 -0.25536746
-0.09657502 0.1770906 0.34507513 -0.34970832 -0.46986175 0.25648138 0.062251702 -0.068897314
0.04049408 -0.15282777 0.045059286 0.11557703 -0.29851043 -0.21476968 -0.0953864 -0.2929134
-0.30287486 0.14115155 0.0448997 -0.013555783 0.20637819 0.11137936 -0.6145836 0.1672119
-0.24693848 0.22418939 0.046473153 -0.43441325 -0.16413696 0.004976309 -0.22193667 0.24523833
-0.060042582 -0.49935257 -0.2724985 -0.5280709 0.025147667 -0.33983704 -0.52579945 -0.007880828
0.31337282 0.040605098 -0.091094375 0.23787558 -0.26680297 0.10797313 0.20619597 0.08369106
-0.40759405 0.013504397 -0.37963495 0.060322255 0.350251 -0.06277921 0.27705145 0.30625576
0.24315432 0.026007766 0.010459683 -0.35570994 -0.097726606 0.090183854 -0.41097024 0.17832011
0.3769784 -0.45962796 -0.32338822 -0.010742122 -0.15107776 -0.14167121 -0.6782436 0.41808227
-0.0424206 -0.65116096 0.109259434 -0.16726875 0.029221212 -0.3532297 0.25616974 -0.08585043

r_to_mu_sigma.hidden_to_mu.bias f4 [4]
00000000: 7aba 433e 6f2a 393e f32a 583e 10da 6d3e
0.19114104 0.18082593 0.21110134 0.23227715

r_to_mu_sigma.hidden_to_sigma.weight f4 [4, 32]
00000000: cded 7abe 5f5e 0a3f 3e88 1c3e ed34 833f
00000010: cd40 6f3f 0575 193d b6fc c1be e610 c7be
00000020: 6ee1 a93e 4f12 1c3d 0ef8 ce3f 15d6 95be
00000030: b6db eabe 19bd 203e 4d0f 1abd 15f2 0dbf
00000040: cd2c 87bf 75d4 97be 9619 13be b831 00be
00000050: 22ee 12be 87b8 fbbe b6e5 bebe 1ef5 b63e
00000060: c029 bfbc e29c 443f 3c4d 58be 7bc8 48bd
00000070: 366b c43c 655e 293e 7474 7ebf bae5 5ebe
00000080: 295c 123e 2794 ee3d 07df 9e3d dd11 fb3f
00000090: 5280 af3f c227 cd3d 024a 9bbe 1678 e7be
000000a0: 7055 a9be 9c9b d83e 5ad6 2040 efb2 aebe
000000b0: 727c 28bd 8f24 a23f d380 c93d 5587 acbe
000000c0: a8e4 e9bf f271 00be da3d dc3e 3857 b13e
000000d0: 0981 863d 945c 11bf fdb5 16be aa59 c1be
000000e0: 1de6 13be 77e3 593f ea70 c7bd c6d6 70be
000000f0: d3f7 0bbf 3c3e 323e f5da 7ebf 3986 563e
00000100: fd9c d1bd 7852 933e b419 873e 1405 dc3f
00000110: a5f2 a93f f8a1 6abc b872 83be 23aa f0be
00000120: b07d 90be ba76 863e 4581 2440 f9ef f13f
00000130: cd3f 7f3c 54ce 543f bbcf 39be 4e0b 4cbf
00000140: 3695 56bf a14a b7be d461 83be 5a2f 573f
00000150: 0da2 e23d 4a20 63bf fb20 5c3e 2f33 563f
00000160: d002 adbd 810f 163f 046c dbbc 5a2a a6bd
00000170: 6923 f83e 157b 943d 2534 93bf 7864 75bd
00000180: 51e5 3ebe 98ca d33e 4089 053e 0518 e23f
00000190: 6331 a43f 5e9f 78be 92a6 a83d ad3d 62be
000001a0: ea73 0abe 2829 2f3e 99f7 2840 c60d 053f
000001b0: 1dd1 cabc d613 293f 6654 2cbe b5f6 bcbf
000001c0: 0d4c 3dbd c2f0 b5be 0b6d 9abe b3f6 83be
000001d0: ad3e 1bbe 3781 05bf 9a89 7b3d 734d 033f
000001e0: 6734 c4bd 8ae3 173f 8664 bd3c c8c8 753e
000001f0: a327 dd3e a068 003f 36f1 d0bf 0e42 29be
-0.24504776 0.5405025 0.15286347 1.0250527 0.93458253 0.037465114 -0.37888116 -0.3888008
0.33179802 0.038103398 1.616945 -0.29264894 -0.4587075 0.15697135 -0.03761225 -0.5544751
-1.0560547 -0.2965428 -0.14365229 -0.12518966 -0.14348653 -0.4916422 -0.3728463 0.35733885
-0.023335338 0.76801884 -0.21123213 -0.049019318 0.023976903 0.16539915 -0.99396443 -0.21767321
0.14292969 0.116493516 0.07757383 1.9614826 1.3711035 0.10017349 -0.303299 -0.45208806
-0.33072996 0.4230622 2.513083 -0.3412089 -0.041134305 1.2667407 0.098390244 -0.33697
-1.8272905 -0.12543467 0.4301594 0.34636855 0.0656758 -0.5678189 -0.1471786 -0.3776372
-0.1444325 0.8511271 -0.097383335 -0.2351943 -0.54675025 0.17406553 -0.9955285 0.2094964
-0.10235021 0.28773856 0.26386797 1.718905 1.3277174 -0.014320843 -0.2567346 -0.47004804
-0.28220892 0.26262456 2.57039 1.8901359 0.015579176 0.8312733 -0.18145649 -0.7970475
-0.8382143 -0.35799125 -0.25660574 0.8405663 0.11066065 -0.88721144 0.21496956 0.8367185
-0.08447802 0.5861741 -0.026784904 -0.08113547 0.48464516 0.072500385 -1.1500288 -0.059910268
-0.18642165 0.41365504 0.13040638 1.766358 1.2827572 -0.24279544 0.08234896 -0.2209384
-0.1352078 0.17105544 2.6401122 0.5197414 -0.024757916 0.6604589 -0.1682907 -1.4762789
-0.046215106 -0.35535246 -0.30161318 -0.25774154 -0.15160628 -0.5215029 0.061410524 0.51290053
-0.095803075 0.5933157 0.023119222 0.24002373 0.43194303 0.50159645 -1.6323612 -0.16529104

r_to_mu_sigma.hidden_to_sigma.bias f4 [4]
00000000: 7e84 0fbf 8b5e 26bf 14e9 2abf 5262 93be
-0.5606154 -0.6498801 -0.667619 -0.2878595

xz_to_y.xz_to_hidden.0.weight f4 [128, 5]
00000000: e258 07bf 84c4 95bd 28ab 1abd 1b3b 5b3e
00000010: 0e9c abbe e90b 1bbe de27 c6bd 34d3 9cbd
00000020: f952 8cbe a60a 4d3e cb7f 1a3f 25e9 493e
00000030: 30ce 1f3e e19f b23d 9207 033e b528 16bf
00000040: 5d75 a73e 452d 333c 7de1 a23e d4f7 783e
00000050: 520c 16bf 0caa d0be 6467 bcbd 4093 25be
00000060: 7d3a 0e3e d00c 2fc0 e78a 693d dbad a63c
00000070: 67e3 06be 8d43 3bbd 1248 abbe 173f 853e
00000080: b5af 8fbd d892 9ebe de62 163d efac 50bf
00000090: 8c54 4a3d 9f6b 86bd 21aa 6b3e 8dbb 7c3e
000000a0: c693 193f 0bae 083e 4c0e efbb b5f1 a2be
000000b0: 8218 d73d 3c10 0d3f c4c0 e3bb 7761 803d
000000c0: f796 adbd cc5b 143e c844 e73d 93ac 3c3e
000000d0: 4ff9 bdbd 40ce 65be 8fb9 2fbe 09f7 133f
000000e0: a87f 8ebe d4ee 57bd 964e 993d c162 cebc
000000f0: 3457 a23d a1e7 a1be 40e1 14be 909a aabd
00000100: 9e68 643d bbfd 503e 4ea6 1f3e fe8e 26be
00000110: b9ea efbd ef99 b6bc bf2d e63e 10ec 61be
00000120: 454c 46be 2b96 bfbe 2b7d 1a3e b095 24bf
00000130: 9bf2 c7bd 8e2b a3bd 4ff6 83be 222b 883d
00000140: 3a46 50bf ad72 a63e f7ca 483d d0c8 783e
00000150: c951 39bd f72b 90be 1776 423d 17d9 c0be
00000160: 5602 98be 1937 72bb d02a 6fbf 515f c73c
00000170: 44d5 09be 1f4e c3bc 3a4f ab3e acdd 0d3e
00000180: 1341 8bbc 180f 99be ebbd 34bd 3051 553e
00000190: 4979 263f 5a39 483e 2d10 ab3e 8b80 0fbd
000001a0: 829f 1c3c 9301 c5be a449 533e df66 fd3d
000001b0: 8a62 a73d aa12 b33d 3097 8abe cc49 a73e
000001c0: c470 61be db96 a93d a4fc 5bbe 2622 543f
000001d0: 7aae 7d3e 3338 673b b3f8 7a3e 0b71 4d3e
000001e0: 5cc2 ee3e aec9 383d 5ee5 62bd 866a cfbd
000001f0: 65c3 87bd cf35 d33e e3d2 0e3f 5964 393e
00000200: 2bdd 423e 1404 e739 b846 133f 325a b1bd
00000210: 4e7a a93d fa39 243e 6a8c 0b3e 675e d4be
00000220: 4006 083d 8561 48be b301 47be 8f10 753e
00000230: da32 e7be fd3d 613e 4744 bc3e cf8c 38be
00000240: 63de 873e 40b4 13bf 691d b6bd 05a4 cfbd
00000250: b7fd 30bd 9884 7c3e fbf8 dd3e 6f09 94be
00000260: 829b 37be 838b 443e d329 c7be 4e66 f3bc
00000270: c5dd 7d3e b73d 173c dd5e a13d ba32 973c
00000280: cbe0 3fbf e79c 2fbe 8819 9fbc b83d ca3b
00000290: ea6d e13d 39ab 143d 5841 033e dde8 a5be
000002a0: a131 d5bb 5e75 c33d edca 21bf 0b96 c3bd
000002b0: 34f4 f3bd 3e98 1b3e 55b9 3a3e 433c 20bf
000002c0: 78a3 febd 05be 913e 2223 873e a4fe 19be
000002d0: d022 9cbf e525 2e3e 8b30 243e b3a7 9bbe
000002e0: 9fa4 debd c629 cf3d e159 87bc 449c 923d
000002f0: 8be1 09be 01df 003e 78a0 773d ead5 11be
00000300: 1ea4 08be 35dc 99be 8646 95bc 7ecf 29bf
00000310: bd26 87be 1e9f aabd 5226 1d3e 530c 17bd
00000320: a2a4 203f 0d18 c93e 9fa3 5a3e e4a5 803e
00000330: 1629 02be 77c3 c0be 8844 4a3e 5ca9 873e
00000340: c4db 3dbd 4ffc 69bb 7ca1 893e 81f3 cabd
00000350: f30f 1dbe d0f6 1abe 3583 d33c 2218 16be
00000360: 55ac e73d e246 8ebe 9588 13be f8a9 713d
00000370: c981 32bf cb41 7a3d cfe5 4abc efd3 b73e
00000380: 9822 1fbe 811e abbe a517 e13e de98 a23e
00000390: b487 523d f168 b23e f24a 1fbf ce82 9cbd
000003a0: b2ae 983e 2aec c7bd d12d a63c 7176 1f3f
000003b0: 7062 093c f9ac c9bc 72d5 883e 5123 74be
000003c0: 73a1 013f 4e28 733e 63a2 a3be 5d60 81bd
000003d0: 1055 b83c 1086 7abf f0d9 ecbd ef77 01bc
000003e0: ac7b 733e ada3 0f3e 911e 93be d055 3f3e
000003f0: a74b 1e3d d051 67be 6be3 ae3e 9a8e 983e
-0.5287 -0.07312873 -0.037760884 0.21409266 -0.33517498 -0.15141262 -0.09675573 -0.07657471
-0.27407053 0.20023593 0.60351247 0.19717844 0.15605998 0.08721901 0.12795857 -0.58655864
0.3270673 0.010936086 0.3181266 0.24313289 -0.5861255 -0.40754735 -0.09199408 -0.16169453
0.13889499 -2.735157 0.057017233 0.020346573 -0.13172685 -0.04571872 -0.33453423 0.26024696
-0.07015935 -0.30971408 0.03671538 -0.81513876 0.049397036 -0.06563496 0.23014118 0.2468092
0.5999111 0.13347642 -0.0072954055 -0.31825033 0.10502721 0.55102897 -0.0069504697 0.0626859
-0.0847606 0.14488143 0.11292416 0.18425207 -0.092760675 -0.2244196 -0.17160629 0.5779882
-0.2783177 -0.052718 0.07485692 -0.025193574 0.07926789 -0.3162203 -0.14539051 -0.08330262
0.055763833 0.2040929 0.15590784 -0.16265485 -0.11714692 -0.022290198 0.44956776 -0.22062707
-0.19365032 -0.37419257 0.1508681 -0.64290905 -0.0976307 -0.07967292 -0.25773856 0.06648852
-0.8135716 0.32509366 0.049021687 0.24295354 -0.045244012 -0.28158543 0.0474759 -0.37665626
-0.29689282 -0.003695911 -0.934247 0.024337443 -0.1346026 -0.023840962 0.33458883 0.13854092
-0.016998803 -0.29894328 -0.044126432 0.20831752 0.65028816 0.19553128 0.3341078 -0.035034698
0.009559514 -0.38477764 0.2063356 0.12373137 0.08173092 0.08743794 -0.27068472 0.3267349
-0.22015673 0.082807265 -0.21483094 0.82864606 0.24773589 0.00352813 0.24508934 0.20062654
0.4663266 0.04511421 -0.055394523 -0.101277396 -0.066290654 0.4125199 0.5579054 0.18104686
0.19029681 0.00044062792 0.57529783 -0.086597815 0.08275281 0.16037741 0.13627782 -0.41478273
0.033209085 -0.19568451 -0.19434242 0.23932098 -0.45155984 0.21996303 0.3677084 -0.18022464
0.26536855 -0.57696915 -0.08892328 -0.10138706 -0.04321071 0.24659956 0.4335402 -0.28913447
-0.17930415 0.19193844 -0.38899097 -0.029711869 0.2479163 0.009231023 0.07879422 0.018456805
-0.7495238 -0.17149697 -0.019421354 0.006171908 0.110072926 0.036296103 0.12817895 -0.32404223
-0.0065061604 0.095438704 -0.63200265 -0.09550103 -0.119118124 0.15194795 0.18234761 -0.6259195
-0.12433523 0.28465286 0.26393992 -0.15038544 -1.2198124 0.17006643 0.16034143 -0.30401382
-0.10871243 0.101153895 -0.01652235 0.071587116 -0.13464944 0.12585069 0.06045577 -0.14241758
-0.13343856 -0.30050817 -0.018222105 -0.6633223 -0.26396742 -0.083311304 0.1534665 -0.036876988
0.6275121 0.39276162 0.21351479 0.25126565 -0.12710986 -0.37649128 0.19752705 0.26496398
-0.046352163 -0.0035703366 0.26881015 -0.09909726 -0.15338115 -0.15133214 0.0258194 -0.14657643
0.113121666 -0.27788454 -0.1440757 0.058999985 -0.69729286 0.0610979 -0.012383892 0.3590388
-0.1554054 -0.3342171 0.43963352 0.31757253 0.051398948 0.3484569 -0.6222373 -0.076421365
0.29820782 -0.097618416 0.020285519 0.622901 0.008385286 -0.024618613 0.26725346 -0.23841597
0.50636977 0.23745844 -0.3195983 -0.06317208 0.022501498 -0.97860813 -0.11565006 -0.00790213
0.23777646 0.14027281 -0.28734258 0.18685079 0.038646366 -0.22589803 0.3415788 0.29796296

xz_to_y.xz_to_hidden.0.bias f4 [128]
00000000: ac89 0cbd 1948 2d3e 33ed 85be 04b6 b93e
00000010: 4cf2 343f 3c9e 97be 1cc5 e7be 28ed 21be
00000020: f73f 2bbf fd81 5fbc 534a f83d e2fd 423e
00000030: 2f97 80bd 5a5c e7be 24e5 3cbf 8f67 fbbe
00000040: 30aa 0b3f 9c03 643e 767c 3abe b500 90be
00000050: d2cb 6c3d d3c8 b93e ff31 f23d 47e3 acbe
00000060: 2bec aebd 6c71 1cbe 05ec 94be 7831 06bf
00000070: 95b4 cfbe a61a d13e 44bc 90bc 51f9 2d3e
00000080: 8b7e 1d3f 7da9 0abd 3782 303e 076a 343e
00000090: 92c3 0bbf 4403 233e c955 f8be 9ab1 6dbe
000000a0: 8f4f d7be 0705 f83e 4938 ed3c 33d7 c0be
000000b0: f36c ea3d 1ac5 233f cfa5 e83d be80 86be
000000c0: b152 a7be b08c 72be 5f87 8ebe 02a3 4f3e
000000d0: f047 43be 895e ad3e 689e 873e 10a4 8cbe
000000e0: 875a e3be 9110 7dbe 39de be3d b9c2 54be
000000f0: ad9e 503e 23b5 24be 3a0f e53d 0175 863e
00000100: d07a b83d 7923 a0be 1b73 0d3e 03fc b7be
00000110: f14e 03bf d1c0 07bf d3e2 babe 624a f3be
00000120: c65f 06bf ff52 ac3e 79eb 94bd c474 e1be
00000130: c790 adbe 4ef1 01bf 6850 e33d f2d8 403e
00000140: 553b 3ebf 1bd3 383e 21ea 163d 2d47 ebbe
00000150: 56eb 03be 3ca0 a3bd 84e2 903d 359c 093f
00000160: e2b6 ab3e 43ef d4be e51c a0bd 9849 08bf
00000170: 080f ac3e be86 95be 7884 f93c b98f 603e
00000180: f43e bebe 0e48 f03d 1cb8 33bf c895 ee3e
00000190: b41e b03e a1c8 093e 4f8b 19be f031 08bd
000001a0: 4c53 dfbe 4b35 4ebe 8d0a 8b3e 136b 29bf
000001b0: 1935 f93e 48cc 9c3e 509b b73e 4c5f 36bf
000001c0: b41a e3be 3de4 18bf c05b 49be f6e3 f43e
000001d0: d679 29bf 891d 1bbf c2bc 26bf 499e d13b
000001e0: cff2 04be 210d 0ebc 92aa 903d ebdb efbd
000001f0: 6123 39be b672 83be 3c31 c0bd 69b0 2abf
-0.03431098 0.16922034 -0.2615753 0.3627168 0.70682216 -0.2961291 -0.4526757 -0.15813124
-0.6689448 -0.013641831 0.12123551 0.19042161 -0.06278836 -0.45187646 -0.7378714 -0.49102446
0.5455656 0.22267002 -0.1821154 -0.2812554 0.057811566 0.3628603 0.11825942 -0.3376715
-0.08541139 -0.15277642 -0.2908632 -0.52419233 -0.4056746 0.40840644 -0.017667897 0.16989638
0.61521214 -0.033853043 0.17237173 0.17618571 -0.5459529 0.15919214 -0.4850295 -0.23212281
-0.42052886 0.48441336 0.028957503 -0.37664184 0.11446562 0.6397263 0.113597505 -0.26270097
-0.32680276 -0.2368648 -0.27837655 0.20277026 -0.1907041 0.33861187 0.26488042 -0.2746892
-0.44405004 -0.24713351 0.09319729 -0.20777406 0.2037303 -0.16084723 0.11184545 0.26261142
0.090077996 -0.31277063 0.1381344 -0.35934457 -0.5129233 -0.5302859 -0.36501178 -0.47517687
-0.5248989 0.3365707 -0.07271475 -0.44034398 -0.3389952 -0.50758827 0.11099321 0.18832758
-0.74309283 0.1804928 0.036844376 -0.4595274 -0.12882742 -0.07989547 0.070744544 0.5375398
0.33537966 -0.41588792 -0.07818011 -0.53237295 0.33605218 -0.29204363 0.030458674 0.21929826
-0.37157404 0.11732493 -0.70202804 0.4659865 0.34398425 0.1345544 -0.14994548 -0.03325075
-0.43618238 -0.20137517 0.27156487 -0.6617901 0.48673323 0.30624604 0.35860682 -0.7123916
-0.4435631 -0.59723264 -0.19663906 0.4783017 -0.6620153 -0.6059194 -0.6513177 0.006397043
-0.12983249 -0.008670122 0.07063784 -0.11711868 -0.18079902 -0.25673455 -0.09384391 -0.6667543
