seed-AuNP-phasemaps/pretraining/tune/16_4_16_5.64E-03_4/model.pt (torch, 13536 bytes, 20 tensors)

xy_to_r.input_to_hidden.0.weight f4 [16, 2]
0	0xbf2213f6	-0.6331171
1	0xbf0c13e0	-0.54717827
2	0xbf51f016	-0.8200697
3	0x3fedd826	1.8581588
4	0xc0316d33	-2.77229
5	0xc15406b7	-13.251639
6	0x3fa34fee	1.2758768
7	0xc09ce517	-4.902965
8	0x40949c68	4.6440926
9	0x3f1eae6a	0.61984885
10	0xbda2e4ea	-0.07953818
11	0xbf1a2a9d	-0.6022127
12	0x3cd348b8	0.025791511
13	0x3a250563	0.0006295053
14	0x40969578	4.7057457
15	0xc011f041	-2.280289
16	0xc0c7b008	-6.240238
17	0x3fceacf9	1.6146537
18	0xc0810594	-4.031931
19	0xbf3ae2fd	-0.73002607
20	0x407e28ef	3.9712484
21	0x3f185469	0.595038
22	0x3db66588	0.08906084
23	0x3cb1dce7	0.02171178
24	0x3dee3a57	0.11632221
25	0xbeb09484	-0.34488308
26	0xbf20275f	-0.62560076
27	0x3da3450d	0.07972155
28	0xbe91a919	-0.28449324
29	0xbe9096be	-0.28240007
30	0x407cd909	3.9507468
31	0x3f864d0a	1.049226

xy_to_r.input_to_hidden.0.bias f4 [16]
0	0xbf30bfca	-0.69042647
1	0xbe3dffe7	-0.1855465
2	0x4012cf49	2.2939017
3	0x3f199b14	0.60002255
4	0xc099abf1	-4.802239
5	0xbc680e29	-0.014163532
6	0xbf29f4d8	-0.66389227
7	0xc03aa3b2	-2.9162412
8	0x3f1b53ed	0.60674936
9	0x4021c5ad	2.5276902
10	0xc0495539	-3.1458266
11	0xbe8330c4	-0.25623143
12	0xbe03516d	-0.1282403
13	0xbe8ed384	-0.2789575
14	0xbf260882	-0.6485673
15	0xc0254a4f	-2.5826604

xy_to_r.input_to_hidden.2.weight f4 [16, 16]
0	0x3d9dee88	0.07711512
1	0xbf33907b	-0.70142335
2	0xbf16af6e	-0.58861434
3	0xbe12d1dc	-0.14337867
4	0xbd0b1114	-0.033951834
5	0x3e19f6ec	0.150356
6	0xbe0b0158	-0.13574731
7	0xbbdd948a	-0.006762092
8	0x3e5df452	0.21675232
9	0xbe862c1d	-0.2620553
10	0xbe0e4909	-0.13895048
11	0x3e7885b4	0.24269754
12	0x3de9a656	0.11408679
13	0xbeca2d4e	-0.3948769
14	0xbcc3a2d0	-0.023881346
15	0xbe1b25f6	-0.151512
16	0xbe6613e2	-0.22468522
17	0x3faa67a6	1.3312881
18	0xc193a5e9	-18.45601
19	0xbf1e9b55	-0.6195577
20	0xc02a0f49	-2.657183
21	0xbe72bc9a	-0.23704758
22	0xbe6025d2	-0.21889427
23	0xbe6ed485	-0.23323257
24	0x3f9d5f6e	1.2294748
25	0xbe01dcb8	-0.12681854
26	0x40078d52	2.1180005
27	0xbe2f24a4	-0.17103821
28	0x3e55fdfc	0.20897669
29	0x3e63c56d	0.2224328
30	0x3dca9938	0.098925054
31	0xc0854fb6	-4.1659803
32	0xbda3682c	-0.079788536
33	0xbdd5ad21	-0.10433412
34	0xbc24c756	-0.010057291
35	0xbdbecbaf	-0.09316193
36	0x3e2f4af4	0.17118436
37	0x3df50ee0	0.11965728
38	0xbe399dda	-0.18126622
39	0xbce8f2e4	-0.028436132
40	0xbe19240f	-0.14955162
41	0x3e19dabb	0.15024845
42	0xbe7d87b5	-0.247588
43	0xbe034b5e	-0.12821719
44	0x3e088aa3	0.13334136
45	0xbcd121f6	-0.02552889
46	0x3cf163a0	0.02946645
47	0xbdf3ce64	-0.119046
48	0xbd7ea7d0	-0.062171757
49	0x3fc46a35	1.5344912
50	0xc0984f55	-4.759684
51	0xbf501119	-0.8127609
52	0xc006bc64	-2.1052485
53	0xbe1f5824	-0.15560967
54	0xbe003554	-0.12520343
55	0xc08961e8	-4.2932014
56	0xbfaed83a	-1.3659737
57	0xbfa52c16	-1.2904079
58	0xc158123d	-13.504453
59	0xbe2756ca	-0.16341701
60	0xbe23082f	-0.1592109
61	0x3e273771	0.16329743
62	0x3e69ca48	0.2283107
63	0xc00c569d	-2.1927865
64	0xbac81200	-0.0015264153
65	0xbd5316cf	-0.051535424
66	0xbefdb5cf	-0.4955277
67	0xbe3db9e1	-0.18527938
68	0x3b32660b	0.0027221467
69	0xbd4d8ff8	-0.050186127
70	0xbd267378	-0.040637463
71	0xbe51874d	-0.2046177
72	0xbf06f8f6	-0.52723634
73	0xbeab50fb	-0.3346022
74	0xbdb1c5b5	-0.08680288
75	0x3e5db248	0.2165004
76	0x3e16203c	0.14660734
77	0xbece07cb	-0.4024032
78	0x3e2d74a2	0.16939023
79	0x3deec8bc	0.11659381
80	0xbdecbe38	-0.11559719
81	0xbd468b78	-0.04847285
82	0xbcc5f0cf	-0.024162678
83	0xbcb8b97f	-0.022549389
84	0x3d802e8f	0.0625888
85	0xbe6a82ba	-0.2290143
86	0x3dd78c6c	0.1052483
87	0xbea0652c	-0.31327188
88	0x3d1923bb	0.03738759
89	0xbde2c2d6	-0.11072318
90	0xbc822fcc	-0.015891932
91	0x3e34a932	0.17642668
92	0x3d8318d7	0.06401222
93	0x3cc5d25c	0.024148159
94	0xbcc113d0	-0.023569018
95	0xbe203571	-0.15645386
96	0x3c4c67c0	0.012475908
97	0xbf126a16	-0.57193124
98	0xc157383f	-13.451232
99	0xbf049544	-0.5179026
100	0x3f62b418	0.8855605
101	0x3e01fc06	0.12693796
102	0x3d6c78b0	0.057732284
103	0xc01bd570	-2.4349022
104	0xbec0eabe	-0.37679094
105	0xc13ee7e6	-11.931616
106	0xbe86be0f	-0.26316878
107	0x3e2e1624	0.17000633
108	0x3d947099	0.07248039
109	0x3daa7b6d	0.08324323
110	0x3e356428	0.17713988
111	0x3fdbdaaa	1.7176106
112	0xbdbdf3a4	-0.092749864
113	0xbffaed06	-1.9603584
114	0x406f45c7	3.7386339
115	0x3eee389e	0.4652757
116	0xc08677ae	-4.2021093
117	0xbcf9ebb0	-0.030507892
118	0xbd0a7e78	-0.033812016
119	0xc184144a	-16.509907
120	0xbfe33de1	-1.7753259
121	0x3fb3d941	1.4050676
122	0xc04a50d1	-3.1611826
123	0xbdd203dc	-0.10254642
124	0x3e2a0802	0.16604617
125	0xbe9a0e37	-0.3008897
126	0x3cf73310	0.030175716
127	0xc165abd9	-14.354455
128	0x3e75ffdc	0.24023384
129	0xbe95bc22	-0.29245096
130	0x40ab864b	5.360143
131	0xc0ad546d	-5.416556
132	0x40af5328	5.478901
133	0xbd2ca528	-0.042149693
134	0x3e705b2c	0.2347228
135	0xc0025c78	-2.0368938
136	0xc026e821	-2.607918
137	0x400da8fa	2.2134385
138	0x3e9fa19a	0.3117798
139	0xbe7e584a	-0.24838367
140	0x3e178024	0.14794976
141	0xbecade4f	-0.39622733
142	0x3d7cf668	0.06175843
143	0x4028cc57	2.637472
144	0xbde85664	-0.11344603
145	0x3fa15aa3	1.2605785
146	0x3e3947fe	0.18093869
147	0xc15fc57f	-13.985717
148	0xbf45b141	-0.77223593
149	0x3e5be96a	0.21475759
150	0xbd94d244	-0.072666675
151	0xc11a28a1	-9.634919
152	0xbf5e0389	-0.86724144
153	0xc0511718	-3.2670345
154	0xbf9ce25f	-1.2256583
155	0xbe32f762	-0.17477182
156	0xbe1d9122	-0.15387395
157	0xbd5cac80	-0.053875446
158	0x3d09fef0	0.033690393
159	0xbe2e083c	-0.16995329
160	0x3e0dfacc	0.13865203
161	0xbff6db41	-1.9285661
162	0x409df5a2	4.9362345
163	0x3f73788a	0.95105803
164	0xbe7e99eb	-0.24863403
165	0x3c5198a0	0.012792736
166	0x3e45c928	0.19315016
167	0xbf101bbf	-0.5629234
168	0x3c44f4d2	0.01202126
169	0xc1a950c5	-21.164438
170	0xbe0d1cb3	-0.13780479
171	0xbcaec480	-0.021333933
172	0x3dabffc8	0.08398396
173	0xbfbf9483	-1.4967197
174	0xbdad59f8	-0.08464426
175	0x3f89302b	1.0717825
176	0xbdc0e0cc	-0.094178766
177	0xbdfae518	-0.122507274
178	0x3be2bb47	0.006919298
179	0xbcc38b48	-0.023870125
180	0xbe5bec50	-0.21476865
181	0x3c819e80	0.015822649
182	0x3e6ddbea	0.23228422
183	0xbc54dfa8	-0.012992777
184	0xbb8560ff	-0.0040704007
185	0xbdf84545	-0.12122587
186	0xbe45ae3c	-0.19304746
187	0xbdd84620	-0.1056025
188	0xbba1168f	-0.0049160193
189	0xbdea4a16	-0.11439912
190	0x3ca566f0	0.020190686
191	0xbec3c16b	-0.38233504
192	0xbcb59cb0	-0.022169441
193	0xbfaa6738	-1.331275
194	0x3f7befda	0.9841286
195	0x3f88d2b6	1.0689304
196	0x3f842791	1.0324575
197	0x3e5d96f4	0.21639615
198	0xbe475728	-0.19466841
199	0xc0873796	-4.2255354
200	0xc1253cb3	-10.327319
201	0xc061c1f3	-3.5274627
202	0xbfcc1244	-1.5943074
203	0x3e41e786	0.18935975
204	0x3db41cae	0.08794533
205	0xbdd745b1	-0.105113395
206	0x3e104220	0.14087725
207	0xbcca2445	-0.024675498
208	0x3d3b59c8	0.04573992
209	0x3e21a448	0.15785325
210	0xbe7a8ed2	-0.24468544
211	0xbf82698a	-1.0188458
212	0xc08d9ac6	-4.4251432
213	0x3e690dd4	0.22759181
214	0xbdef3c98	-0.11681479
215	0xbec29b6c	-0.38009202
216	0x401171e5	2.2725766
217	0x3ed3eb88	0.41390634
218	0xc0d38078	-6.609432
219	0xbe0ce03a	-0.1375741
220	0x3e1eca18	0.1550678
221	0xbc79ff36	-0.015258601
222	0x3d6944c0	0.05695033
223	0xbfc6f347	-1.5542992
224	0x3e47a44c	0.19496268
225	0x3bda7cb5	0.0066676983
226	0xbdc5292c	-0.096269935
227	0x3c915f13	0.01774553
228	0xbec83d46	-0.39109248
229	0x3db98dac	0.09060225
230	0x3e500322	0.20313695
231	0x3dfd4996	0.12367551
232	0xbe9865d1	-0.2976518
233	0xbe2d88f1	-0.1694677
234	0xbeb080ce	-0.3447327
235	0xbda0aa8c	-0.07845029
236	0x3cc2da10	0.02378562
237	0x3d1e5cd6	0.038662754
238	0x3e357490	0.17720246
239	0xbe9ef75a	-0.3104809
240	0x3c5575e0	0.013028592
241	0xbe8a567c	-0.27019107
242	0xbe1b30d8	-0.15155351
243	0xbf0046d1	-0.5010806
244	0xbec8842f	-0.39163348
245	0x3df357cc	0.1188198
246	0xbddac964	-0.106829435
247	0xbe96f088	-0.29480386
248	0x3e15a12f	0.14612268
249	0xbf449793	-0.76793784
250	0xbe25fe18	-0.1621021
251	0x3e45dae6	0.19321784
252	0x3e49500a	0.19659439
253	0xbd4f0f63	-0.050551783
254	0x3e230894	0.15921241
255	0xbe82cc9a	-0.25546724

xy_to_r.input_to_hidden.2.bias f4 [16]
0	0xbe7ff363	-0.24995188
1	0xbf968c8d	-1.1761643
2	0xbf07a4db	-0.52985924
3	0x3f0b7a72	0.5448371
4	0xbe9209ac	-0.28523004
5	0xbe242005	-0.1602784
6	0x3f26f449	0.652165
7	0xbf17cd76	-0.59297884
8	0xc02c6251	-2.6935008
9	0x3f2bf205	0.6716617
10	0x3ec9d06c	0.39416826
11	0xbe59fe42	-0.21288398
12	0x3f9780ed	1.183622
13	0xc0956245	-4.668246
14	0xbe00e8e7	-0.12588845
15	0xbefc7b93	-0.4931303

xy_to_r.input_to_hidden.4.weight f4 [16, 16]
0	0x3de86dca	0.113490656
1	0x3f48858a	0.78328764
2	0xbd66315e	-0.056199424
3	0x3dc921a5	0.0982087
4	0xbe3e3dff	-0.18578337
5	0xbe188ea3	-0.14898162
6	0xbfbc4ee8	-1.471158
7	0x3f46a4e8	0.77595377
8	0xc01bf38e	-2.4367404
9	0xbf5f559d	-0.8724001
10	0x3ef55254	0.47914374
11	0x3d901696	0.07035558
12	0x3f9d3f69	1.2284976
13	0x3f568d5e	0.8380946
14	0xbdfa52e3	-0.12222841
15	0x3dcf8f96	0.10134809
16	0x3a62b367	0.0008647949
17	0xbbbfd875	-0.005854661
18	0x3e10e293	0.14148931
19	0xbcc24720	-0.023715556
20	0xbe81753f	-0.25284764
21	0x3d83fabc	0.06444308
22	0xbcd11ccd	-0.025526429
23	0x3c92f9fa	0.017941464
24	0x3d173703	0.036917698
25	0x3dbe8623	0.09302928
26	0x3d8e44ea	0.06946738
27	0xbdf78354	-0.12085596
28	0xbc15d82f	-0.0091457805
29	0xbe8a803d	-0.27050963
30	0xbe49aae8	-0.19694102
31	0x3ed25cb1	0.41086343
32	0x3ed26216	0.4109046
33	0xbadbba21	-0.0016763845
34	0x3e939cbc	0.28830516
35	0x3e1185f0	0.1421125
36	0x3e81480a	0.25250274
37	0xbe6b5f80	-0.22985649
38	0x390af148	0.0001325059
39	0x3d80c7fd	0.06288145
40	0xbd448733	-0.0479805
41	0xbd684804	-0.056709304
42	0xbd1a405a	-0.037659027
43	0xbed30279	-0.41212824
44	0xbde8f448	-0.11374718
45	0xbd8ee15a	-0.06976576
46	0xbd093080	-0.03349352
47	0x3e6f5f8d	0.23376293
48	0xbe995fec	-0.29955995
49	0x3cfdc2bd	0.030976648
50	0xbdf0d0bf	-0.11758565
51	0xbe2662a2	-0.16248563
52	0xbe69d76a	-0.2283608
53	0xbd8b588e	-0.06804
54	0xbc9d484f	-0.019199518
55	0xbd8ffd1a	-0.07030697
56	0x3cc8b9af	0.024502603
57	0x3c1648c9	0.009172627
58	0xbd18fc22	-0.037349828
59	0x3e1f536d	0.15559168
60	0x3dbb126e	0.091343746
61	0x3c327055	0.01089104
62	0xbdde8456	-0.10865085
63	0xbe3bc373	-0.18336277
64	0xbe71c385	-0.23609741
65	0x3f6fb0eb	0.9362933
66	0xbe932872	-0.28741795
67	0x3ff890fe	1.9419248
68	0xbe33e41f	-0.1756749
69	0x3e2d9daf	0.16954683
70	0xbe67dccd	-0.22642823
71	0xbf3ebd67	-0.74507755
72	0x3e00ed87	0.1259061
73	0x3fe93c93	1.8221611
74	0x3f191a1f	0.5980548
75	0xbcca13b7	-0.024667604
76	0xbf38e32b	-0.7222163
77	0x4022f7e1	2.5463793
78	0xbc98a71a	-0.018634368
79	0x3e40ba86	0.18821153
80	0x3ec3a471	0.38211396
81	0x3d038176	0.032105885
82	0x3d033748	0.032035142
83	0xbe2f4040	-0.17114353
84	0xbd58f07e	-0.052963726
85	0xbe878efd	-0.2647628
86	0xbcf18ba4	-0.029485531
87	0xbd6b5587	-0.057454612
88	0x3d188aad	0.037241627
89	0x3b95afa2	0.004568056
90	0xbd297b60	-0.041377425
91	0xbe43a120	-0.19104433
92	0x3dddc378	0.10828298
93	0x3d95e742	0.073194996
94	0x3da2d4c1	0.07950736
95	0xbe8d16f2	-0.27556568
96	0xbdba378f	-0.09092628
97	0x3ff519cb	1.9148496
98	0xbe6e5e61	-0.2327819
99	0xbf7cd832	-0.9876739
100	0xbe388d93	-0.18022756
101	0xbdb5e462	-0.08881451
102	0x3f9cd903	1.2253727
103	0xbed57ae9	-0.41695336
104	0xbf88a770	-1.0676098
105	0xc017ca8d	-2.3717377
106	0xbe87cea0	-0.2652483
107	0xbd2c3be7	-0.042049315
108	0xc020dee9	-2.5136054
109	0x3e79b6db	0.2438616
110	0x3e850ccd	0.2598633
111	0x3d3869a0	0.045022607
112	0x3ef71a66	0.48262328
113	0xbd9017ad	-0.07035766
114	0x3d169e5c	0.036772117
115	0x3d9776d6	0.07395713
116	0x3d61f80c	0.055168197
117	0xbe140e1d	-0.14458509
118	0x3dcd4bc3	0.10024216
119	0xbdc5c6ae	-0.09657036
120	0xbbc05cfb	-0.005870459
121	0xbddee72d	-0.10883937
122	0x3dbd7551	0.09250892
123	0x3e967b0f	0.2939076
124	0xbd533f46	-0.051574014
125	0xbdcab301	-0.098974235
126	0x3e57ca98	0.21073377
127	0xbe26bdb2	-0.162833
128	0xbcee37f6	-0.029079419
129	0xbe6d55e9	-0.23177303
130	0x3e7cff59	0.24706782
131	0x3f7c744d	0.9861496
132	0xbee6588b	-0.44989428
133	0xbe4bcee8	-0.19903147
134	0x3e578c31	0.21049573
135	0x4032d773	2.7944
136	0xbef863f4	-0.48513758
137	0xbe73140b	-0.23738115
138	0x3cbb64b3	0.022875166
139	0xbc201872	-0.009771453
140	0xbf849dda	-1.0360672
141	0x3edcdfbf	0.43139455
142	0x3ddf9fff	0.10919189
143	0x3c67f3fa	0.01415729
144	0x3e2b2e60	0.1671691
145	0x3f03e30a	0.5151831
146	0xbc80318f	-0.015648631
147	0xbffc0926	-1.9690292
148	0xbe5e84dd	-0.21730371
149	0xbe28c759	-0.16482295
150	0xbffcbedb	-1.9745744
151	0x3eff644b	0.49881205
152	0x3e63abc7	0.22233497
153	0x3f784038	0.9697299
154	0xc056ca2b	-3.3560894
155	0x3eaa6abb	0.33284554
156	0x3f9455cc	1.1588683
157	0xbefb2852	-0.490542
158	0xbd3980cd	-0.04528885
159	0xbe246e9d	-0.1605782
160	0x3d5b5f11	0.05355746
161	0x3dad5d73	0.0846509
162	0xbe67ef29	-0.22649826
163	0xbd41b298	-0.04728946
164	0x3e0c2866	0.13687286
165	0xbe720ffa	-0.23638907
166	0xbd8cebb9	-0.06880898
167	0x3e1ba109	0.15198149
168	0x3c9f135b	0.01941841
169	0x3d83958f	0.064250104
170	0xbd7c2890	-0.06156212
171	0xbbfd66f6	-0.007733221
172	0xbc01ff27	-0.007934368
173	0x3e4c07e5	0.19924887
174	0xbc28b137	-0.010296158
175	0xbf0873bb	-0.5330159
176	0xbd55cde3	-0.052198302
177	0xbf9b9421	-1.215458
178	0x3d1fc083	0.039001953
179	0xbf0a982b	-0.5413844
180	0xbe96a2c3	-0.29421052
181	0xbe4b0b4d	-0.1982853
182	0x3f4c603c	0.7983434
183	0x3f1a2da9	0.6022592
184	0xbf97a03e	-1.1845777
185	0x3fab240d	1.3370377
186	0x3fa575b6	1.2926548
187	0x3ece4118	0.40284038
188	0xbf0cdb01	-0.55021673
189	0x3ea65a4a	0.3249076
190	0x3e65824a	0.22412983
191	0xbba9995a	-0.0051757516
192	0xbebe191b	-0.3712853
193	0xbc8d3685	-0.017237911
194	0xbe05e1f1	-0.13074471
195	0xbd752dee	-0.059858255
196	0xbd3f6e8f	-0.046736296
197	0x3da865a1	0.08222509
198	0xbd81d5d6	-0.06339614
199	0xbda1efdf	-0.0790708
200	0x3d31a4d3	0.04337008
201	0xbc607b9a	-0.013701344
202	0xbdb7bdd7	-0.08971756
203	0x3eac0d08	0.33603692
204	0x3d4d8713	0.050177645
205	0x3ef0360b	0.46916232
206	0x3ea97998	0.3310058
207	0x3ec2a02e	0.38012832
208	0x3e4f9279	0.20270719
209	0x3f073be5	0.52825767
210	0x3de714f9	0.11283297
211	0xbf2f400a	-0.6845709
212	0xbe098618	-0.13430059
213	0x3da5b558	0.08091229
214	0xbfa47dca	-1.2850888
215	0x3e391857	0.18075691
216	0x3fcb540c	1.5885024
217	0xbefe7fb3	-0.49706802
218	0x4046a358	3.1037197
219	0xbce963aa	-0.028489906
220	0xc0aaa0c3	-5.332124
221	0xbf0971a3	-0.5368902
222	0xbde8f44b	-0.1137472
223	0x3f80fee6	1.0077789
224	0x3d0585eb	0.032598417
225	0x3f6b420b	0.9189765
226	0x3ebbcef3	0.36681327
227	0xc016d458	-2.3567104
228	0xbedf3a2e	-0.43599075
229	0xbdf9e35c	-0.122015685
230	0x40016312	2.0216718
231	0x3f5a4012	0.85254014
232	0xbf05aafe	-0.5221404
233	0x3f1ce726	0.61290205
234	0x401c47c8	2.4418812
235	0x3ead7a82	0.3388253
236	0x3fe192ab	1.7622885
237	0x3e4283bc	0.18995565
238	0x3d079b54	0.033107117
239	0x3db14bdd	0.08657048
240	0xbd7e911e	-0.062150113
241	0xbca2bb01	-0.019864561
242	0x3d005a04	0.031335846
243	0x3e48ea85	0.19620712
244	0xbe2bc486	-0.16774186
245	0xbcf2c740	-0.029636025
246	0x3c3dc431	0.01158242
247	0x3da9603c	0.082703084
248	0xbd57d093	-0.052689146
249	0xbca8b01b	-0.020591786
250	0xbbcce1fb	-0.006252525
251	0x3e976780	0.29571152
252	0xbdfe51bf	-0.124179356
253	0xbd8d0dc3	-0.068873905
254	0xbcf7ebf8	-0.030263886
255	0x3dbc29c1	0.091876514

xy_to_r.input_to_hidden.4.bias f4 [16]
0	0xbccd6bd1	-0.025075825
1	0xbc9eb9da	-0.01937573
2	0x3bfdaeab	0.0077417693
3	0x3d8bd73b	0.06828161
4	0xbf86bdb6	-1.0526645
5	0x3d7ca0b2	0.06167669
6	0x3f7f3ad9	0.9969917
7	0xbcc97ba6	-0.024595093
8	0xbde13aeb	-0.10997566
9	0x400ed431	2.2317011
10	0xbca67fd9	-0.020324634
11	0xbf1a8123	-0.60353297
12	0x3d4c4d51	0.049878422
13	0x3ec6c11e	0.38819212
14	0xc027a357	-2.6193445
15	0xbcadd4b1	-0.021219583

r_to_mu_sigma.r_to_hidden.weight f4 [16, 16]
0	0x3ff83986	1.9392555
1	0x3e165710	0.14681649
2	0xbe3e48a7	-0.18582402
3	0x3d8b26b6	0.06794493
4	0xbe305e75	-0.17223532
5	0x3e2cf780	0.16891289
6	0x3ec36ff0	0.3817134
7	0xbe69bf29	-0.22826828
8	0x3f84ba1a	1.0369294
9	0x3f491769	0.78551346
10	0x3e9e060b	0.30863985
11	0xbf0016b2	-0.5003463
12	0x3e50c6a4	0.20388275
13	0x3eabf035	0.335817
14	0x3f576564	0.84139085
15	0xbe57efcb	-0.21087568
16	0x3fdd15ee	1.7272317
17	0x3ca0e628	0.019640997
18	0x3cdc20b6	0.026871067
19	0x3d07d1bf	0.033159014
20	0xbf3c04cd	-0.73444825
21	0xbc08e7b7	-0.008356026
22	0xbf0776e2	-0.52915776
23	0xbc6812a1	-0.014164598
24	0xbe1e4209	-0.15454878
25	0x400553ba	2.0832353
26	0xbc96fbdc	-0.018430643
27	0x3daed1c1	0.08536101
28	0xbd174d21	-0.03693879
29	0x3fcf545e	1.6197622
30	0x3f96dd23	1.1786236
31	0x3ca2ee3d	0.019888991
32	0x3fb6580d	1.4245621
33	0xbe2f7544	-0.17134577
34	0xbe0c4a72	-0.13700274
35	0x3e60f5c6	0.21968755
36	0xbef6166e	-0.48063987
37	0x3e67569d	0.22591634
38	0x3fabc838	1.3420477
39	0x3e4deb3d	0.20109268
40	0xbe9ddfb5	-0.30834737
41	0xbf66dd12	-0.90181077
42	0xbe3e62d2	-0.18592384
43	0xbf0caeab	-0.5495402
44	0x3e2fe2ff	0.17176436
45	0xbf01ab35	-0.50651866
46	0xbe2b1d58	-0.16710413
47	0xbe81ee57	-0.2537715
48	0xbf21cfec	-0.6320789
49	0x3d15ef39	0.036605094
50	0xbc80e67f	-0.01573491
51	0x3c1f5c13	0.009726542
52	0xc016291c	-2.346259
53	0x3d3e7fee	0.046508722
54	0x3ea7fe98	0.32811427
55	0x3c69d6b1	0.014272378
56	0xbf63c880	-0.88977814
57	0x3ebd63aa	0.369901
58	0x3a7eb7bb	0.0009716709
59	0xbe485f7e	-0.19567677
60	0x3d404cb1	0.04694814
61	0xbf13afe8	-0.57690287
62	0x3e09a94c	0.13443488
63	0xbd657426	-0.05601897
64	0x3e58e379	0.21180524
65	0x3bcd62fc	0.0062679034
66	0x3bf52d26	0.0074821888
67	0xbcc3c58e	-0.023897912
68	0x3f8ed5bf	1.115898
69	0xbd13a50d	-0.036046077
70	0x3e7f587a	0.24936095
71	0xbca4eece	-0.020133402
72	0x3da9099b	0.08253785
73	0x3e4f0e06	0.20220193
74	0x3cf5c887	0.030002845
75	0xbd5eedbf	-0.05442595
76	0xbc8acb88	-0.016942754
77	0xbcd40e6a	-0.02588578
78	0x3f5f0f5e	0.87132823
79	0x3d0c691a	0.03427992
80	0x3d2201ec	0.039552614
81	0x3dac1337	0.084021024
82	0xb84ec01b	-4.929314e-05
83	0xbd7fafc0	-0.062423468
84	0xc069f14e	-3.655353
85	0xbd43bffb	-0.04779051
86	0x3ef8f1c9	0.48621967
87	0x3df36e82	0.11886312
88	0xbeed85b0	-0.46391058
89	0xbf88b3f7	-1.0679921
90	0xbd3e2652	-0.046423264
91	0xbea6f7f4	-0.32611048
92	0xbdb8c7b1	-0.09022463
93	0x3f0a777b	0.5408856
94	0xbea2e8b9	-0.31818178
95	0x3cb6d2ae	0.022317257
96	0x4057ab98	3.3698483
97	0x3d2e2116	0.042512022
98	0xbcd327fe	-0.025775906
99	0xbe19d120	-0.15021181
100	0xbfd59ee4	-1.6689115
101	0xbdc195b5	-0.094523825
102	0x4003cfe8	2.0595646
103	0xbd8487e6	-0.06471233
104	0xbe97edb5	-0.29673544
105	0xbd97b71d	-0.07407973
106	0x3d931669	0.07182009
107	0xbf09e392	-0.5386287
108	0x3d0c3618	0.034231275
109	0x3c8a981b	0.016918233
110	0xbe0d03ad	-0.13770933
111	0x3dcfdae4	0.10149172
112	0xbc8d1091	-0.017219814
113	0x3d6d0789	0.057868514
114	0x3e3914f0	0.18074393
115	0xbe320cd8	-0.17387712
116	0x3e1a83cc	0.15089339
117	0xbde89b75	-0.11357776
118	0x3f57513a	0.84108317
119	0x3c37200f	0.011177077
120	0xbd50bad9	-0.05095944
121	0x3f4be6aa	0.7964884
122	0xbc5c980d	-0.013463986
123	0x3f39c7e8	0.7257066
124	0xbd3f1a25	-0.046655793
125	0x3fa9f622	1.3278239
126	0xbfd28b5d	-1.644878
127	0x3dd003ab	0.101569496
128	0x3d948eeb	0.07253822
129	0x3bb39e35	0.005481506
130	0x3dc40c45	0.09572653
131	0xbe0cc27b	-0.13746063
132	0xbc8d858a	-0.01727559
133	0xbe48415e	-0.19556186
134	0xbf279000	-0.654541
135	0x3db859dd	0.09001515
136	0xbee626ef	-0.4495158
137	0xbfbf7167	-1.4956483
138	0xbe0eef25	-0.13958414
139	0x3f189bdb	0.59612817
140	0xbe369e0d	-0.17833729
141	0x3d717f5e	0.058959357
142	0x3f311de0	0.6918621
143	0x3e270587	0.16310702
144	0xbfa591e6	-1.293515
145	0x3c32b7bf	0.010908066
146	0xbd9449e0	-0.07240653
147	0x3d839782	0.06425382
148	0xbe9c44a6	-0.30521125
149	0x3d09c9ac	0.033639595
150	0x3f62c145	0.88576156
151	0x3e0c3816	0.1369327
152	0x3eec6ffa	0.4617918
153	0xbe792a80	-0.24332619
154	0xbded0be0	-0.115745306
155	0x3ec1a195	0.3781859
156	0x3d6024e1	0.05472267
157	0x3ee6a3ad	0.4504675
158	0x3e985a1f	0.29756257
159	0xbd331728	-0.043723255
160	0x3fb59bbc	1.4188151
161	0xbd1c5153	-0.038163494
162	0x3be41d92	0.006961533
163	0xbca9e11f	-0.020737229
164	0xbd0477b0	-0.032340705
165	0xbd10bbd3	-0.035335373
166	0xbf271a67	-0.6527466
167	0xbc9e9467	-0.019357873
168	0x3cd3e003	0.025863653
169	0x3e96da59	0.2946346
170	0x3cee8154	0.029114403
171	0xbefd5a55	-0.4948298
172	0x3d6dfd32	0.058102794
173	0x3e3a2ef7	0.18181978
174	0xbe328662	-0.17434075
175	0x3cdd6c50	0.027029186
176	0xbf8df0a7	-1.1089066
177	0x3c70524b	0.014668058
178	0x3cb3a93d	0.021931285
179	0xbbe028c1	-0.0068407957
180	0x3d788c12	0.060680456
181	0xbc9fc43e	-0.019502755
182	0x3e7fb464	0.24971157
183	0xbc70509b	-0.014667655
184	0x3de291d2	0.11062969
185	0x3e8122dc	0.25221908
186	0x3c0540ab	0.008133094
187	0xbf17d08e	-0.59302604
188	0xbc08b5ae	-0.008344097
189	0x3eb481e9	0.35255364
190	0xbe63695c	-0.2220816
191	0x3ce237d2	0.027614508
192	0xbe90a0ba	-0.28247625
193	0xbcb6e49b	-0.022325804
194	0x3d4a4ec4	0.049391523
195	0xbd283e67	-0.041075137
196	0xbf7e3db0	-0.9931288
197	0xbd261d17	-0.040555086
198	0x3d1399b7	0.036035266
199	0xbd4354a6	-0.04768815
200	0x3f078640	0.52939224
201	0x3ee0b437	0.43887493
202	0x3d221b07	0.039576557
203	0x3d8b3c47	0.06798606
204	0x3b5805d4	0.0032962458
205	0xbda1033f	-0.07861947
206	0x3f4113f6	0.7542108
207	0x3d5a65d6	0.053319775
208	0x3ce9739a	0.028497506
209	0xbc879254	-0.016549267
210	0x3f4c1b36	0.7972902
211	0xbebcb341	-0.3685551
212	0xbec860ff	-0.39136502
213	0x3f1f7456	0.6228689
214	0x3ee69c9f	0.45041367
215	0x3e9837ac	0.29729974
216	0x3d09731a	0.033557035
217	0x3c398cb9	0.011325055
218	0x3c77ccbe	0.015124498
219	0x3e4b027c	0.19825166
220	0xbd5b68b0	-0.053566635
221	0xbeb8529c	-0.36000526
222	0xbec0c9c9	-0.3765395
223	0x3ea8287f	0.32843396
224	0xbe35c03a	-0.1774911
225	0xbe0accdd	-0.13554712
226	0xbd50565c	-0.05086361
227	0x3d583fe8	0.05279532
228	0xbda582b0	-0.08081567
229	0xbc8220db	-0.015884807
230	0xbf0b0521	-0.543047
231	0x3d200845	0.039070386
232	0x3c4dd7a3	0.012563619
233	0x3f59c9e5	0.8507369
234	0x3d179a89	0.03701261
235	0x3dc6c737	0.09705966
236	0x3e04d69e	0.12972495
237	0xbff6e4d7	-1.9288586
238	0xbef6a759	-0.4817455
239	0xbc8065e1	-0.01567358
240	0x40695da0	3.6463394
241	0xbe21857a	-0.15773574
242	0x3db915b2	0.09037341
243	0xbe525efe	-0.20544049
244	0xbf7823d6	-0.9692968
245	0xbe13f8c4	-0.14450365
246	0x3f86a241	1.0518266
247	0xbd75bd79	-0.05999515
248	0xbfb9039d	-1.4454228
249	0xbf04d614	-0.5188916
250	0x3dd992e7	0.106237225
251	0xbfa75abf	-1.3074569
252	0x3e6d5740	0.23177814
253	0x3e23fd5e	0.1601462
254	0xbf2eecc7	-0.68330044
255	0x3e281602	0.16414645

r_to_mu_sigma.r_to_hidden.bias f4 [16]
0	0xc0ed3327	-7.412494
1	0xc05e8e06	-3.4774184
2	0xbe75c49a	-0.24000779
3	0xc00a0ba5	-2.1569607
4	0x3f0f3563	0.55940837
5	0xc0112f1f	-2.268501
6	0xc040c5bd	-3.012069
7	0xbf891537	-1.0709599
8	0xbf0d1b5b	-0.55119866
9	0xc070a8bd	-3.760299
10	0x3fa550a9	1.291524
11	0x3ebffb2f	0.37496325
12	0x3f896011	1.0732442
13	0xc024ba54	-2.5738726
14	0xbf5736a4	-0.8406775
15	0xc09c9397	-4.8930163

r_to_mu_sigma.hidden_to_mu.weight f4 [4, 16]
0	0x3d66c896	0.056343637
1	0xbd3696fd	-0.044577587
2	0x3ba29830	0.00496199
3	0x3d0d4c74	0.03449674
4	0xbbe58dcf	-0.0070054303
5	0x3c5e652a	0.013573924
6	0x3c3b93f7	0.011448852
7	0xbc950d60	-0.018194854
8	0xbc8e602a	-0.017379839
9	0x3d0686be	0.032843344
10	0xbbea8472	-0.007156902
11	0x3c12dd5c	0.008963909
12	0x3c481d01	0.012213946
13	0x3e23a592	0.15981129
14	0x3c4b028e	0.012390746
15	0x3bb1a922	0.0054217735
16	0xbf5232c8	-0.82108736
17	0x3f4d4c7f	0.8019485
18	0x3e90a627	0.28251764
19	0xbdfb5565	-0.12272147
20	0xbdfa76ec	-0.12229714
21	0x3e9566cd	0.29179993
22	0x3f116ee7	0.5680985
23	0x3d315898	0.04329738
24	0xbdbab9a8	-0.09117442
25	0x3ea92f59	0.33043936
26	0x3f24cc5b	0.6437432
27	0xbf3ed20c	-0.74539256
28	0x3e8eb99d	0.27875987
29	0x3e90bf8c	0.2827114
30	0xbdd44bd5	-0.10366026
31	0xbf268d39	-0.6505924
32	0xbc34ae3d	-0.01102787
33	0x3d23c238	0.039980143
34	0xbcacb87e	-0.021084066
35	0xbb081ecb	-0.0020770307
36	0xbd0a3d0d	-0.03374963
37	0x3c286787	0.010278589
38	0xbc8dbd90	-0.017302305
39	0xbc2b8cf9	-0.010470622
40	0x3bb8524b	0.0056250445
41	0x3b77175b	0.003770313
42	0x3bbbde0d	0.0057332576
43	0x3bec846b	0.007217934
44	0xbcbc36b8	-0.02297531
45	0x3db86c17	0.090049915
46	0xbb0677cf	-0.0020518189
47	0xbcc62263	-0.024186319
48	0xbe04b93a	-0.12961283
49	0x3e81cfd6	0.2535388
50	0x3e6517d5	0.22372372
51	0xbedaac22	-0.42709452
52	0x3f53ebca	0.8278166
53	0xbebb099a	-0.36530763
54	0x3f29ef3e	0.6638068
55	0xbc8507f9	-0.016239153
56	0xbd302e4f	-0.043012913
57	0x3e0e31d0	0.1388619
58	0x3cc4a600	0.024004936
59	0x3d46585b	0.048424106
60	0xbf1e65af	-0.61873907
61	0x3de51935	0.111864485
62	0xbcbda119	-0.023148106
63	0xbf3394a0	-0.7014866

r_to_mu_sigma.hidden_to_mu.bias f4 [4]
0	0xbce52158	-0.027970001
1	0x3e954151	0.29151395
2	0x3c217581	0.009854675
3	0xbedef14e	-0.43543476

r_to_mu_sigma.hidden_to_sigma.weight f4 [4, 16]
0	0xbdc44502	-0.09583475
1	0x3e943a00	0.289505
2	0x3e060f31	0.13091733
3	0x3dc117b1	0.09428347
4	0x3e8a1bf7	0.2697446
5	0x3cb0cad5	0.021581093
6	0x3e528b9f	0.20561074
7	0x3d99be9c	0.07507059
8	0xbcedd70b	-0.029033205
9	0x3ce432b3	0.027856207
10	0x3ce2db4d	0.027692461
11	0x3c82cdd0	0.01596728
12	0xbb97d554	-0.004633585
13	0xba3235a6	-0.00067981554
14	0xbc2a1c3b	-0.010382707
15	0x3d943556	0.072367355
16	0xbee4533a	-0.44594747
17	0x3f0b2e8e	0.5436791
18	0x3f67bd87	0.9052357
19	0xbf11b8ce	-0.56922615
20	0x3e2f1788	0.1709882
21	0x3ed32a13	0.41243038
22	0x3e4d3610	0.20040154
23	0x3f90fce3	1.1327175
24	0x3f8adca5	1.0848585
25	0x3f1ab8cf	0.60438246
26	0xbcf74253	-0.030182993
27	0x3daeeecb	0.0854164
28	0x3ef45ee0	0.47728634
29	0x3c97c534	0.018526651
30	0x3f9d91d7	1.2310132
31	0xbe54a939	-0.20767678
32	0xbd8a2560	-0.0674541
33	0x3dc1e82c	0.094681114
34	0x3cf52e0f	0.029929189
35	0xbbd704f7	-0.006561871
36	0xbc01b761	-0.007917256
37	0x3c477faa	0.012176434
38	0xbc181e18	-0.009284519
39	0xbb7adab6	-0.0038277335
40	0xbd135806	-0.035972618
41	0x3d99ffd4	0.075194985
42	0x3d38fe03	0.04516412
43	0xbd4c9f44	-0.049956575
44	0xb9d5b9fb	-0.00040765092
45	0x3ccdbd20	0.025114596
46	0x3bf1ef25	0.0073832446
47	0x3cb58dd4	0.022162355
48	0x3e00b59b	0.12569277
49	0x3e6e42d4	0.2326768
50	0x3f3bc57c	0.7334821
51	0xbeb3e21d	-0.35133448
52	0x3f004afe	0.5011443
53	0x3ebf9a2b	0.37422308
54	0x3dd02421	0.10163141
55	0x3f7b2e5c	0.98117614
56	0x3f987dc7	1.1913384
57	0x3f373283	0.7156145
58	0xbdad141e	-0.08451103
59	0xbdf94111	-0.121706136
60	0x3f071d76	0.5277933
61	0xbee0b37b	-0.43886933
62	0x3f8ba39f	1.0909308
63	0xbea91f90	-0.33031893

r_to_mu_sigma.hidden_to_sigma.bias f4 [4]
0	0xc0098b52	-2.1491284
1	0xc09cb80f	-4.897468
2	0xc012dc68	-2.2947025
3	0xc09c0002	-4.875001

xz_to_y.xz_to_hidden.0.weight f4 [16, 5]
0	0xc2028b47	-32.636013
1	0x3e33d45a	0.17561474
2	0x3f850fb8	1.0395422
3	0xbdbeb978	-0.09312719
4	0x3e07610b	0.13220613
5	0xbe28925b	-0.1646208
6	0x3e677eb4	0.22606927
7	0xbd8357f4	-0.0641326
8	0xbdbcb409	-0.092140265
9	0x3d531b23	0.05153955
10	0x40daef33	6.841699
11	0xbd170fac	-0.03688018
12	0xbe497735	-0.1967438
13	0x3c3d09ff	0.011538028
14	0x3d1ffaf8	0.0390577
15	0xc0b88947	-5.7667575
16	0x3d3ca2ff	0.046053883
17	0xbf24b58d	-0.64339525
18	0xbcf4e78e	-0.02989557
19	0xbdec2158	-0.11529797
20	0xbe9c3498	-0.30508876
21	0xbd6b025d	-0.0573753
22	0x3c310fb9	0.010806971
23	0x3e9416c6	0.28923625
24	0xbcd94349	-0.026521342
25	0x3f1856a9	0.5950723
26	0xbe3c34dd	-0.1837954
27	0xbc920ad6	-0.017827433
28	0xbd16ab09	-0.036784206
29	0xbf64ff18	-0.8945174
30	0xc13f0578	-11.938835
31	0xbe41b020	-0.18914843
32	0xbf2d4f5a	-0.67699206
33	0x3e9e62d1	0.30934766
34	0xc00f1daa	-2.2361856
35	0x3d6ee34a	0.05832223
36	0xbe10846b	-0.14113013
37	0x3c0eecfd	0.008723495
38	0xbe44e9a5	-0.19229753
39	0xbdc960c0	-0.09832907
40	0x409b4053	4.851602
41	0x3d3fcdcc	0.046827123
42	0x3f534724	0.82530427
43	0x3c87fe83	0.016600853
44	0x3d5dd139	0.05415461
45	0xbfef6617	-1.870303
46	0xbea9757a	-0.3309744
47	0x3da83a68	0.08214265
48	0x3db52f77	0.08846944
49	0x3dc46b35	0.095907606
50	0xc1722358	-15.133629
51	0xbd26a0d5	-0.040680725
52	0x3cdbc105	0.026825437
53	0x3d58a3a6	0.052890442
54	0xbd02984f	-0.031883534
55	0xc11373b1	-9.215745
56	0xbc979cb0	-0.018507332
57	0xbedda06a	-0.4328645
58	0x3d2ec672	0.04266972
59	0xbef9e025	-0.4880382
60	0x40ab1737	5.346584
61	0xbd96382f	-0.07334935
62	0x3e2c6a3d	0.16837402
63	0x3d11c061	0.035583857
64	0x3eb8719f	0.36024186
65	0xc0b1e708	-5.559452
66	0x3da2001f	0.07910179
67	0xbdb03cd8	-0.08605355
68	0x3cf7a975	0.03023217
69	0xbfa34ce7	-1.2757844
70	0x40556bae	3.3346972
71	0xbd95dbab	-0.07317289
72	0x3f020aca	0.5079771
73	0x3d26abd1	0.0406912
74	0x3ed8afbe	0.4232158
75	0xc0e30c5d	-7.095259
76	0x3db085cd	0.086192705
77	0xbde2d898	-0.11076468
78	0xbcaad2f0	-0.020852536
79	0x3ed37950	0.41303492

xz_to_y.xz_to_hidden.0.bias f4 [16]
0	0xc0e57ea0	-7.171707
1	0xbfd24fc2	-1.643059
2	0xc068b436	-3.6359992
3	0x408ec291	4.461251
4	0xbfefa01c	-1.8720737
5	0xbf87ff84	-1.0624852
6	0xc04f0a18	-3.234991
7	0xbfe0c5c7	-1.7560357
8	0xc051a7ce	-3.275867
9	0xc00c86c2	-2.195725
10	0x40657cda	3.5857453
11	0x409bb301	4.865601
12	0xc0442e10	-3.0653114
13	0x3e989cc9	0.29807118
14	0xbfb55da4	-1.4169202
15	0x4081c02b	4.054708

xz_to_y.xz_to_hidden.2.weight f4 [16, 16]
0	0x3e39106e	0.18072674
1	0xbdae7ff0	-0.08520496
2	0xbe4b11e4	-0.19831043
3	0xbeea2aa7	-0.45735666
4	0x3d70a24f	0.05874854
5	0xbe7958eb	-0.24350326
6	0x3c196e60	0.009364694
7	0x3de909b0	0.11378801
8	0xbdac5a74	-0.0841569
9	0xbd4b7250	-0.049669564
10	0xbe3a36ae	-0.18184921
11	0xbe9869c6	-0.297682
12	0xbdd67432	-0.10471381
13	0xbd920628	-0.071300805
14	0xbe83fed5	-0.2578036
15	0xbed8c997	-0.423413
16	0xbf329d8d	-0.69771653
17	0xbdadf8b5	-0.08494703
18	0x3f2981d9	0.66213757
19	0xbdc961ca	-0.09833105
20	0xbe565dc5	-0.20934208
21	0xc16bef6a	-14.745951
22	0xbe0b78f2	-0.13620356
23	0x3e298df5	0.16558059
24	0xbf228ecf	-0.6349916
25	0x3ee98288	0.456074
26	0x3f5297c8	0.8226285
27	0xbf0c618f	-0.5483636
28	0xbf635fc4	-0.88818
29	0xc0349f45	-2.822221
30	0xbed4de93	-0.4157606
31	0x3f8fdcb2	1.1239226
32	0x3fcf28df	1.6184348
33	0x3ee96246	0.4558279
34	0x3fbadfb6	1.4599521
35	0xbf376141	-0.7163277
36	0x3d9583d8	0.07300538
37	0xbf266545	-0.64998275
38	0x40282df3	2.6278045
39	0xbe5f20dd	-0.2178988
40	0x3f1def40	0.6169319
41	0x3d05f970	0.032708585
42	0xc002fb61	-2.046593
43	0xbf8746ec	-1.0568519
44	0xbf9fc121	-1.2480813
45	0xbebf7af8	-0.37398505
46	0x3fa774d1	1.3082525
47	0x3f1c5d27	0.6107964
48	0xbd983507	-0.07431989
49	0xbe84b7b9	-0.2592142
50	0xbe3061ab	-0.17224757
51	0xbdf341d3	-0.11877789
52	0x3dd7ec1e	0.10543083
53	0xbed49f7a	-0.4152792
54	0xbe49bf56	-0.19701895
55	0xbdb98adc	-0.090596884
56	0xbe8bfead	-0.2734274
57	0x3db520ac	0.08844122
58	0x3e0b144f	0.13581966
59	0xbebbf9ff	-0.3671417
60	0xbf178ec0	-0.59202194
61	0xbea355a4	-0.31901276
62	0xbe519eec	-0.2047078
63	0xbd1e0eb9	-0.03858826
64	0x3fb15855	1.3855082
65	0x3ec38422	0.38186747
66	0x3fbe89ea	1.4885838
67	0x3f84b56c	1.0367866
68	0xbea1e329	-0.31618622
69	0xc0359342	-2.837113
70	0x3e1ee0a1	0.15515377
71	0xbe20b80f	-0.15695213
72	0x3d5aebf6	0.053447686
73	0xbe062926	-0.13101634
74	0xbef5eefd	-0.48033896
75	0x3efe6a13	0.49690303
76	0xbf776888	-0.9664388
77	0xbf5c831a	-0.86137545
78	0x3f2fcb98	0.68670034
79	0x3ecdff0a	0.40233642
80	0x3e8919e6	0.2677757
81	0xbe9a8b37	-0.30184337
82	0xbc8f11f1	-0.01746461
83	0xbdf196d5	-0.11796347
84	0x3e903b31	0.2817016
85	0xbec44af3	-0.38338432
86	0x3ca3dc4c	0.020002507
87	0xbd7bb1fc	-0.061449036
88	0xbeb7aa77	-0.35872242
89	0xbe27860e	-0.16359732
90	0xbed3241f	-0.41238496
91	0xbcd9b6fb	-0.02657651
92	0xbf0946ef	-0.5362386
93	0xbe90152e	-0.2814116
94	0xbebb1274	-0.36537516
95	0xbe1d6e9f	-0.1537423
96	0xc143d390	-12.239151
97	0xbf9a3295	-1.2046686
98	0xbc95c75a	-0.018283535
99	0x40061127	2.094797
100	0xbe889967	-0.26679537
101	0xbf38aa67	-0.72135013
102	0x3e1dd51c	0.15413326
103	0x3eabd114	0.3355795
104	0xbf7e9819	-0.9945083
105	0xbe3519fe	-0.17685696
106	0x3ead4b46	0.33846492
107	0xc05d78f5	-3.4605076
108	0x3f31fbb3	0.6952469
109	0x3fd518ec	1.664823
110	0x3f7952f1	0.97392184
111	0x3f045584	0.51692986
112	0xbf19ae3e	-0.600315
113	0x3c7b2e96	0.015330931
114	0x409fbeef	4.9920573
115	0xbe0f968f	-0.14022277
116	0x3ef6f162	0.48231035
117	0xc0d74fc6	-6.728488
118	0xc053b4b8	-3.3079052
119	0xbedfff24	-0.43749344
120	0xbde852f8	-0.1134395
121	0xbe85cfb3	-0.26135024
122	0x400972b8	2.1476269
123	0x3eb78a52	0.35847718
124	0xc02466d8	-2.568777
125	0xc0a3be9b	-5.1170173
126	0x3ecbe443	0.39822587
127	0x3fa9e2a4	1.327229
128	0xbf8447f3	-1.0334457
129	0xbebed419	-0.37271193
130	0xbff52fbb	-1.9155191
131	0x3f1428ec	0.5787494
132	0xbe3a4b50	-0.18192792
133	0x3e8d617a	0.2761343
134	0xbf1a893f	-0.6036567
135	0x3e377c83	0.17918591
136	0x3f6ebef6	0.93260133
137	0xbdc78cd8	-0.09743661
138	0x3fa533db	1.290645
139	0xbf8bc20e	-1.0918596
140	0xbf87ef5c	-1.0619922
141	0x3f643afd	0.8915251
142	0xbf3885fe	-0.72079456
143	0xbfc0b0bf	-1.5053939
144	0xc1b0d115	-22.10209
145	0x3e96dc2f	0.29464862
146	0x3f06c8fb	0.5265042
147	0xbf9ae27f	-1.2100371
148	0x3dc7b0b5	0.09750501
149	0xbebcb3f0	-0.3685603
150	0xc101620a	-8.086435
151	0x3d5c713a	0.05381892
152	0xbedddb99	-0.43331602
153	0xbe7f0e61	-0.24907829
154	0xbfbd14e3	-1.4771999
155	0xbfee9324	-1.8638654
156	0xbe28df87	-0.16491519
157	0xbed0298d	-0.406567
158	0x3f831afb	1.0242609
159	0xbecdd192	-0.40198952
160	0xbe7895fb	-0.24275963
161	0x3c188270	0.0093084425
162	0xbdd63e8d	-0.10461149
163	0x3d4104aa	0.04712359
164	0xbdfbd050	-0.12295592
165	0xbea34fc5	-0.31896797
166	0x3c654e00	0.013995647
167	0xbeb6741a	-0.35635453
168	0xbdb1048f	-0.086434476
169	0x3ce00470	0.027345866
170	0xbe0aba68	-0.13547671
171	0xbe4572cc	-0.19282073
172	0xbdce055e	-0.100596175
173	0xbc352fb0	-0.011058733
174	0xbe76f78e	-0.24117872
175	0xbe80d2df	-0.25160882
176	0x3f2e66fd	0.681259
177	0x3e452b63	0.19254832
178	0x3fb3b433	1.4039367
179	0x3f586f71	0.84545046
180	0xbe54578e	-0.20736524
181	0xbe7c9bbb	-0.24668781
182	0xbf0da24c	-0.5532577
183	0xbf091e13	-0.53561515
184	0xbe876b55	-0.26449075
185	0x3f103fb7	0.5634722
186	0xbed1c5be	-0.40971178
187	0xbffa2020	-1.9541054
188	0xc01d5fa6	-2.458963
189	0xbd97ac3b	-0.07405897
190	0x3eaf849b	0.34280857
191	0x3fb36dc7	1.4017876
192	0x3ddcdb0b	0.10783967
193	0xbe652036	-0.22375569
194	0xbe395b52	-0.18101242
195	0xbee10f21	-0.43956855
196	0xbde7f758	-0.11326474
197	0xbd37e0af	-0.04489201
198	0xbe718672	-0.23586443
199	0xbe785d8e	-0.24254438
200	0xbf097501	-0.5369416
201	0x3e39801a	0.18115273
202	0x3df669c2	0.120318905
203	0xbebae94e	-0.36506122
204	0xbd06ba8f	-0.03289276
205	0xbd90eb16	-0.07076089
206	0xbf14b056	-0.5808157
207	0xbef6ec34	-0.48227084
208	0xc004498d	-2.0669892
209	0xbf3cc5e9	-0.73739487
210	0x3fae2da9	1.3607684
211	0xbfd0a8bc	-1.6301494
212	0xbf10cd60	-0.5656338
213	0xbf82293d	-1.0168835
214	0xbdd66d4e	-0.10470067
215	0xbe69ee41	-0.22844793
216	0xbebde514	-0.37088835
217	0xbd5762ef	-0.052584585
218	0xc0841cd5	-4.1285195
219	0x40211136	2.5166755
220	0xbf52176b	-0.82066983
221	0x3e25dbc7	0.1619712
222	0xbfa55b29	-1.2918445
223	0x3ec815ec	0.39079225
224	0xbdc88659	-0.0979125
225	0x3d2eaaf8	0.042643517
226	0xbece754d	-0.40323868
227	0xbda743fe	-0.08167265
228	0xbdbbb033	-0.09164467
229	0xbe1b40b2	-0.15161398
230	0xbb7b3249	-0.0038329533
231	0x3b2cd5b2	0.002637249
232	0xbe74051d	-0.23830076
233	0xbd88c46f	-0.06678092
234	0xbf10f86d	-0.5662907
235	0xbec1acf6	-0.3782727
236	0x3d096569	0.033543978
237	0xbe120c74	-0.14262563
238	0xbeab0319	-0.334008
239	0xbe398ba9	-0.18119682
240	0xbe7b531c	-0.24543422
241	0xbe7315a5	-0.23738725
242	0xbe96f22f	-0.29481646
243	0xbe397780	-0.18111992
244	0xbd38b658	-0.04509577
245	0xbea6c7cc	-0.32574308
246	0xbe583f58	-0.21117914
247	0xbd2c13f4	-0.042011216
248	0xbdbd5dc9	-0.09246404
249	0x3dde0610	0.10841
250	0xbe93ef36	-0.2889344
251	0xbebccabd	-0.36873427
252	0xbcd4d761	-0.025981607
253	0xbd2d6c2b	-0.042339485
254	0xbed16e81	-0.4090462
255	0xbe1615bc	-0.14656729

xz_to_y.xz_to_hidden.2.bias f4 [16]
0	0xbef1427d	-0.4712104
1	0xc0019038	-2.0244274
2	0xbfc8bf82	-1.5683444
3	0xbee2e4db	-0.44315228
4	0xc05295b1	-3.2903864
5	0xbf15acd5	-0.58466846
6	0xbf612152	-0.8794147
7	0xc123536e	-10.207869
8	0x403e0727	2.9691865
9	0x3f5d73ee	0.8650502
10	0xbec3ba40	-0.38228035
11	0x3ffb6100	1.9638977
12	0xbee7f1cf	-0.45301673
13	0xbf19af95	-0.6003354
14	0xbdd31566	-0.10306816
15	0xbf19126e	-0.59793746

xz_to_y.xz_to_hidden.4.weight f4 [16, 16]
0	0xbcf3db90	-0.029767781
1	0xbe543372	-0.2072275
2	0xbbf8fe97	-0.007598709
3	0x3dcfa70a	0.10139282
4	0xbe8eb865	-0.27875057
5	0xbe31521a	-0.17316476
6	0x3b3d2590	0.00288615
7	0xbc07aef4	-0.008281458
8	0xbecafeed	-0.39647618
9	0xbe96dd18	-0.29465556
10	0xbd694408	-0.056949645
11	0xbd9d05de	-0.07667135
12	0x3de9b878	0.11412138
13	0xbd6b1490	-0.057392657
14	0xbd80b196	-0.06283872
15	0x3e4c7ca8	0.19969428
16	0xbe838502	-0.25687414
17	0x3e4ad0b8	0.19806182
18	0x3d9b743d	0.0759053
19	0xbc100711	-0.008790747
20	0x3c945bf7	0.018110259
21	0xbd48c610	-0.049017012
22	0xbe4d849e	-0.2007012
23	0xbe4a9f3f	-0.1978731
24	0x3debf84f	0.115219705
25	0x3e261954	0.162206
26	0x3e372113	0.1788371
27	0xbe95c3d1	-0.2925096
28	0x3e02a0f3	0.1275671
29	0x3d003932	0.031304546
30	0x3da1a548	0.07892853
31	0x3deee426	0.116646096
32	0xbe267d45	-0.16258724
33	0xbfe32101	-1.7744447
34	0xc02b588c	-2.6772795
35	0xbe2e8a43	-0.1704493
36	0xbfa6704d	-1.3003021
37	0xbdef877e	-0.11695765
38	0x3ee6d856	0.45086926
39	0xc1524d74	-13.143909
40	0xbfb73cfc	-1.4315486
41	0xbfb3c41e	-1.4044225
42	0x3c27eb2a	0.010248939
43	0x3e957915	0.2919394
44	0xbdabea6b	-0.08394321
45	0xbf2e2d7e	-0.68038166
46	0xbec6d912	-0.38837487
47	0xbe570c5c	-0.21000808
48	0xbc3fb720	-0.011701375
49	0xbe712566	-0.23549423
50	0xbddc1789	-0.107466765
51	0x3e739620	0.23787737
52	0xbe8f14f6	-0.2794568
53	0x3e1db586	0.15401277
54	0xbe168a3e	-0.14701173
55	0xbde04fb6	-0.10952704
56	0xbd030d60	-0.031995177
57	0xbe3ff26d	-0.18744822
58	0xbe10c046	-0.14135846
59	0xbde81ec8	-0.11333996
60	0xbb93f2c0	-0.004515022
61	0xbe6618aa	-0.22470346
62	0xbdfffcec	-0.12499413
63	0x3e06d566	0.13167343
64	0x3dafbfa0	0.085814714
65	0x3eb0c8b4	0.34528124
66	0xbfa92269	-1.3213626
67	0xbe18bc29	-0.14915527
68	0x3e51a0ad	0.20471449
69	0xbe904597	-0.28178093
70	0xbf584dd8	-0.8449378
71	0xbf481125	-0.7815116
72	0x3ca2bc6e	0.01986524
73	0x3f931ab1	1.149252
74	0xbc81c5e4	-0.015841432
75	0x3f1370ca	0.5759398
76	0x3d80afa3	0.062835
77	0xbf362e02	-0.7116395
78	0x3cefc990	0.029270917
79	0x3ecba257	0.39772293
80	0x3e8774d6	0.26456326
81	0xbd6f8ccf	-0.058483895
82	0xbdc76ad4	-0.09737173
83	0x3e85cb69	0.26131752
84	0xbeb50cf3	-0.35361442
85	0xbd5ec010	-0.054382384
86	0x3d224f48	0.03962639
87	0xbe2ac81b	-0.16677897
88	0xbed04deb	-0.40684447
89	0xbeedde96	-0.46458882
90	0xbe346eb4	-0.17620355
91	0xbe90b9ee	-0.28266853
92	0x3ca57d90	0.020201474
93	0xbea96107	-0.33081838
94	0x3dba2ea9	0.09090931
95	0x3e8d4103	0.27588663
96	0x3e5a1d69	0.21300282
97	0xbfd8756f	-1.6910838
98	0x3d8d5683	0.069012664
99	0xbe2be57e	-0.16786763
100	0xbfa37979	-1.2771446
101	0x3e09efe2	0.13470414
102	0x3ebd9dde	0.37034506
103	0x3f3e083e	0.74231327
104	0xbf01ad1c	-0.5065477
105	0xbf5a2300	-0.85209656
106	0x3ac886c4	0.0015298952
107	0x3ee90bbb	0.45516762
108	0x3e860aa6	0.2618
109	0xbe08f282	-0.1337376
110	0x3d2db950	0.042413056
111	0x3d7647f8	0.06012723
112	0xbc4b0500	-0.012391329
113	0xbd7d25a9	-0.061803494
114	0xbe981492	-0.29703194
115	0x3cfa6ce0	0.030569494
116	0xbe717728	-0.23580611
117	0x3e40fc24	0.18846184
118	0xbc1dbf4e	-0.00962813
119	0xbe7677c6	-0.24069127
120	0xbde95245	-0.11392645
121	0xbe2c9afb	-0.16855995
122	0x3e6c3a62	0.23069146
123	0xbeb7920a	-0.35853606
124	0x3e0d74fe	0.1381416
125	0xbeb71b2b	-0.35762915
126	0xbc1c2c00	-0.009531975
127	0x3d276788	0.04087022
128	0xbdcf7498	-0.1012966
129	0xbe6fd8d9	-0.23422565
130	0xbd406df6	-0.046979867
131	0x3c048b80	0.0080899
132	0xbe6089d0	-0.21927571
133	0xbd9f3ec4	-0.077756435
134	0xbd552896	-0.05204066
135	0xbd711522	-0.058858044
136	0xbe288591	-0.16457202
137	0xbe8b74a2	-0.2723742
138	0xbd0a8908	-0.03382209
139	0xbe5ffe61	-0.21874382
140	0xbe421ed0	-0.18957067
141	0xbe08a9f4	-0.13346082
142	0xbde44726	-0.11146383
143	0xbb42d780	-0.0029730499
144	0xbdbbd7ec	-0.09172043
145	0xbdd70443	-0.1049886
146	0x3c89eed0	0.016837507
147	0x3cf01574	0.029307105
148	0xbe710fe1	-0.23541214
149	0xbce28929	-0.027653294
150	0xbe8d9116	-0.27649754
151	0xbe67e510	-0.22645974
152	0xbf067188	-0.52516985
153	0xbe109277	-0.14118372
154	0xbe44e4c4	-0.19227892
155	0xbe03cc4c	-0.12870902
156	0x3e15fbc9	0.1464683
157	0xbdbbae2f	-0.09164082
158	0xbd651cf9	-0.055935834
159	0xbe63ffb8	-0.22265518
160	0x3da1e714	0.07905403
161	0xbec29b90	-0.3800931
162	0xbe5aaf86	-0.2135602
163	0x3e14da8e	0.14536497
164	0xbe14b76c	-0.14523095
165	0x3c373800	0.011182785
166	0xbda38072	-0.079834834
167	0xbe80305f	-0.25036904
168	0xbdc1de87	-0.09466272
169	0x3db31e23	0.087459825
170	0x3e375922	0.17905095
171	0xbea7facc	-0.3280853
172	0xbdd67a62	-0.104725614
173	0x3cfef08c	0.031120561
174	0x3c2bdd81	0.010489822
175	0x3e4668b4	0.19375879
176	0xbe16f3b2	-0.147414
177	0xbe5e7f15	-0.21728165
178	0xbe13f0f2	-0.14447382
179	0xbdbffe7c	-0.09374711
180	0xbe0cc98c	-0.13748759
181	0x3e202a31	0.15641095
182	0xbe90105d	-0.28137484
183	0xbdb83396	-0.08994214
184	0xbe1d82c3	-0.15381913
185	0xbe2cc63a	-0.16872492
186	0xbbf86c53	-0.0075812726
187	0xbe53712f	-0.20648645
188	0x3e6db3ba	0.23213091
189	0xbe5cbb97	-0.21555935
190	0x3da074c7	0.078347735
191	0xbe3c50d4	-0.18390208
192	0xbe4e7a42	-0.20163825
193	0xbe65225d	-0.2237639
194	0xbeb205ed	-0.34770146
195	0x3e3ce952	0.1844838
196	0xbed41e20	-0.41429234
197	0x3daea4f4	0.08527556
198	0xbe84f630	-0.25969076
199	0xbe45eac4	-0.19327837
200	0xbc39d503	-0.01134229
201	0xbea2e7c9	-0.31817463
202	0xbda870e4	-0.08224657
203	0xbe5384e0	-0.20656157
204	0xbd845680	-0.06461811
205	0xbecf8c0f	-0.40536544
206	0x3e19effa	0.1503295
207	0xbd3e3090	-0.04643303
208	0x3e13fa05	0.14450844
209	0xbd2c7366	-0.04210224
210	0xbe7bfe37	-0.24608694
211	0x3d9b55d5	0.075847305
212	0x3e38ff72	0.18066195
213	0xbd06888c	-0.032845065
214	0x3ee1f49e	0.4413194
215	0xbe550c12	-0.20805386
216	0xbe5ada27	-0.21372281
217	0xbea64441	-0.3247395
218	0xbcf0ebb8	-0.029409274
219	0x3eb6f8ad	0.357366
220	0x3db0c3bc	0.08631083
221	0x3e0d143c	0.1377725
222	0xbd83ca7b	-0.064351045
223	0xbc634ea8	-0.013873734
224	0xbd35db50	-0.044398606
225	0xbee6fdc5	-0.45115486
226	0xbe38ec63	-0.18058924
227	0xbe8b9449	-0.2726157
228	0xbef7fc5f	-0.4843473
229	0xbd8dcfe0	-0.06924415
230	0xbed47854	-0.41498053
231	0xbe6c5f66	-0.23083267
232	0xbee31241	-0.44349864
233	0xbe8a3cba	-0.26999456
234	0x3e221c5c	0.1583113
235	0x3d40b95e	0.04705178
236	0x3e0c2489	0.13685812
237	0xbefc509a	-0.49280244
238	0x3cf03d89	0.029326217
239	0xbdb01879	-0.08598418
240	0xbe1c385c	-0.15255874
241	0x3d6f79a8	0.05846563
242	0xbed77593	-0.4208189
243	0xbde7416a	-0.112917736
244	0xbe4b609f	-0.19861077
245	0xbe4f12fa	-0.20222083
246	0xbe56fc1e	-0.20994613
247	0xbedac532	-0.42728573
248	0xbec1579a	-0.37762147
249	0xbb50038f	-0.0031740402
250	0xbe6b0388	-0.22950566
251	0xbe588939	-0.21146096
252	0xbc8c6cfb	-0.01714181
253	0xbe8d1f94	-0.27563155
254	0xba99a2c6	-0.0011721484
255	0xbd70efa6	-0.058822297

xz_to_y.xz_to_hidden.4.bias f4 [16]
0	0xbeb92d7a	-0.36167508
1	0x3f588fdd	0.8459452
2	0xc00c89b4	-2.1959047
3	0xbe8e900d	-0.27844277
4	0xbf959e21	-1.1688882
5	0xbeb693d5	-0.35659662
6	0xbee53216	-0.44764775
7	0xbf06426e	-0.52445114
8	0xbf12c365	-0.573294
9	0xbefb27cc	-0.490538
10	0xbf0b7f92	-0.5449153
11	0xbefe7432	-0.49698025
12	0xbe89362f	-0.2679915
13	0x3fabc100	1.3418274
14	0xbeadec6d	-0.3396944
15	0xbea2fa6c	-0.31831682

xz_to_y.hidden_to_mu.weight f4 [1, 16]
0	0x3e072edc	0.13201469
1	0xbd8dd2b8	-0.06924957
2	0x3e2672a9	0.16254677
3	0x3e1a0869	0.1504227
4	0x3d9c6087	0.07635599
5	0x3d21a617	0.039465036
6	0x3e28c3a9	0.16480888
7	0xbd9b849b	-0.07593652
8	0xbced214b	-0.02894654
9	0x3d5a6812	0.053321905
10	0x3b3c3c04	0.0028722296
11	0xbdddf0e9	-0.108369656
12	0x3dcf5fff	0.10125732
13	0x3e267cba	0.16258517
14	0x3c56d870	0.013113126
15	0xbd9506b7	-0.072766714

xz_to_y.hidden_to_sigma.weight f4 [1, 16]
0	0x3e40f2f1	0.18842675
1	0xc1cfbee9	-25.968218
2	0xbd8923e9	-0.066963024
3	0x3d525435	0.051349837
4	0xbfa69cc0	-1.3016586
5	0xbe8ea24f	-0.27858207
6	0x3ed9bb77	0.42525837
7	0xbf1352d3	-0.57548255
8	0xbd9bf73d	-0.07615516
9	0xbe2213e0	-0.15827894
10	0x3d3c0386	0.045901798
11	0x3d28067f	0.04102182
12	0xbd3e60d3	-0.046479058
13	0x3e7c8a36	0.24662098
14	0x3eac79d6	0.33686703
15	0x3d0f1c2a	0.03493897
